save/1-1_rnn_sp_70.pt (torch, 13577 bytes, 6 tensors)

emb_layer.weight f4 [70, 16]
000000 00 00 00 00 00 00 00 00 00 00 00 00 00 00 00 00
       0.0 0.0 0.0 0.0
000010 00 00 00 00 00 00 00 00 00 00 00 00 00 00 00 00
       0.0 0.0 0.0 0.0
000020 00 00 00 00 00 00 00 00 00 00 00 00 00 00 00 00
       0.0 0.0 0.0 0.0
000030 00 00 00 00 00 00 00 00 00 00 00 00 00 00 00 00
       0.0 0.0 0.0 0.0
000040 fe 44 1f bf 1a 48 9b 3f 16 44 b5 3f 22 ca 01 3e
       -0.6221465 1.2131379 1.4161403 0.12674764
000050 9e 16 32 3f 89 fe 94 bf 8d c8 27 bf 18 71 b8 be
       0.6956576 -1.1640178 -0.6554039 -0.36023784
000060 16 a9 52 bf f8 b5 b8 3e 3e 34 d7 be 97 84 8a 3f
       -0.82289255 0.3607633 -0.42032045 1.0821713
000070 91 2a af 3f b6 1c b2 bf e3 d3 86 3f 47 76 ff bf
       1.3684865 -1.3915012 1.0533413 -1.995797
000080 5f a6 5f 3f 96 ab 52 bf 89 a4 36 3e d3 8d 23 3e
       0.8736324 -0.8229307 0.17836203 0.1597207
000090 41 54 7d bf c6 74 14 c0 44 84 bd be 75 0e 09 bf
       -0.98956686 -2.3196273 -0.37014973 -0.53537685
0000a0 90 63 72 bf 60 a7 1d bf cc 7c 7e be df d7 ef bd
       -0.9468317 -0.6158352 -0.24852294 -0.11711096
0000b0 9d ef 3e bf 19 f1 2e bf 3e 4b b9 be 75 1b 25 3e
       -0.7458437 -0.68336636 -0.36190218 0.16123755
0000c0 29 36 1f c0 db 09 46 3f 69 f4 19 3f b0 6f d5 3f
       -2.4876807 0.7735879 0.60138565 1.6674709
0000d0 34 27 99 3e e5 06 08 c0 41 6f 11 be eb 9d a2 3f
       0.29912722 -2.1254208 -0.14202596 1.2704443
0000e0 50 5d ad 3f 84 f3 b6 bf 35 0c e5 bf af aa 3a bd
       1.3544102 -1.4293065 -1.789435 -0.045572933
0000f0 7a 53 dc 3d f7 85 62 bd 64 b0 c0 3f ba 63 a8 3f
       0.107581094 -0.05530354 1.505383 1.3155434
000100 7f f6 91 bf 45 ba 5c bd b3 3b ac 3e cf 33 47 bf
       -1.140335 -0.053888578 0.33639297 -0.7781343
000110 b1 fc 8b bf f0 9a b8 be 9b 11 77 bf 2b aa 3d 3f
       -1.093649 -0.36055708 -0.9651124 0.7408778
000120 1f 88 c9 3f 45 f6 54 bf 5b c3 08 c0 19 c7 1e 3f
       1.5744666 -0.8318828 -2.1369236 0.6202255
000130 cd ea ef be a8 fd 80 bf 15 e2 9b 3e 41 d6 ff 3f
       -0.46858826 -1.007741 0.30445924 1.998726
000140 bb 52 6e bf 59 d0 af bf 67 f7 c9 be a7 43 84 be
       -0.93094987 -1.3735458 -0.39446566 -0.25832865
000150 6d 47 70 3e 01 0c 20 3e 67 9e 97 bf c9 fc 95 be
       0.23464747 0.15629579 -1.1845216 -0.29294422
000160 96 97 a5 be c2 92 b0 bd 8f 5b 58 3f 26 ed 98 bf
       -0.32342213 -0.08621742 0.8451471 -1.1947372
000170 97 fb 7a bf 44 ea a1 3e 8b 94 40 3f 4b ad aa bd
       -0.98040146 0.31624043 0.7522666 -0.08333834
000180 29 6d 94 bf 85 b6 fb bf e1 9d 60 be da 5d 55 3f
       -1.1595813 -1.9665076 -0.21935226 0.8334633
000190 84 3a d8 bf 9b 2a 45 bf ad 1e be 3e a8 1b 02 bf
       -1.6892858 -0.77018136 0.3713278 -0.5082345
0001a0 6f 4c ff be 47 22 02 bf c6 8d 03 3e 80 f1 87 3d
       -0.49863002 -0.50833553 0.12847051 0.06637859
0001b0 62 8e 62 bf 17 c4 ea 3e 5d 6b 21 3f 40 de 61 be
       -0.8849851 0.4585273 0.6305445 -0.22057438
0001c0 e3 86 d1 bf d9 e2 ca bf 30 93 bc 3f 42 7c 19 3f
       -1.6369289 -1.5850478 1.4732418 0.5995523
0001d0 de 86 a3 3f 70 f0 b7 3f 97 08 89 3f 4c b8 3d 3f
       1.2775533 1.4370251 1.0705746 0.7410934
0001e0 f5 e1 a9 bd 7e 65 c7 bf 12 21 4c bd 9b 7e b0 be
       -0.08295051 -1.5577848 -0.049836226 -0.34471592
0001f0 3d 31 5a bd f5 67 31 3f 66 73 38 be 22 c7 3a bf
       -0.053269614 0.6929925 -0.18012771 -0.729601
000200 45 fd 76 bf 1b d5 16 bf 16 d1 bd bf a6 2d a8 3e
       -0.9648021 -0.58918923 -1.4829433 0.32847327
000210 18 c4 cb be 2f 96 57 bf de f4 aa 3f cd 0f ea bd
       -0.39798045 -0.84213537 1.3355978 -0.11428795
000220 c5 ff 47 3d 76 a4 02 be 62 10 3f bf 9f 9e 5a 3f
       0.048827905 -0.1275805 -0.74634373 0.85398287
000230 aa 2f 81 3f 1c 2c 45 bf c0 32 fb bf fa e7 3c be
       1.0092671 -0.7702043 -1.9624863 -0.18447867
000240 35 67 88 3d d3 f5 8c 3f dd df df be 41 4d 5d bf
       0.0666031 1.101252 -0.43725482 -0.86446005
000250 02 88 41 be 09 8e 74 3e 7b 76 22 3f cd b1 15 3f
       -0.18899539 0.23882307 0.63462037 0.5847443
000260 6a f0 19 bf 21 9a 86 3f c3 c5 dd 3f 2e 24 8c 3f
       -0.6013247 1.0515786 1.7325977 1.0948541
000270 59 cf 1d bf 2c f2 38 bf 6e 3d 91 3f 3b 4a a0 3f
       -0.6164451 -0.72244525 1.1346872 1.2522653
000280 42 28 b6 be b0 5b b1 3e d0 9c 07 c0 3e 0c 07 be
       -0.3557759 0.34640265 -2.118946 -0.13188264
000290 fd 85 1d c0 2e 5d 1c bf 41 94 06 bf a3 06 13 3f
       -2.461303 -0.6107968 -0.5256997 0.57432
0002a0 ce 6f 0f bf d1 7e 0a 3f 9d d6 7c bf 9b 1f 16 be
       -0.56029975 0.54099756 -0.98764974 -0.14660494
0002b0 86 76 81 3f 6a df 59 3f 78 07 72 3d b2 6b 5f 3f
       1.0114295 0.8510653 0.059089154 0.87273705
0002c0 c4 11 84 3f 2d e5 c9 be ea 1d be be b5 a4 44 3f
       1.0317922 -0.3943266 -0.37132198 0.76813823
0002d0 54 d7 c0 be 13 cd f2 3e 31 ae 61 3f 17 3d 48 bf
       -0.37664282 0.47422084 0.8815642 -0.78218216
0002e0 27 1b 98 bf 04 92 59 bf 69 c9 1b 40 5b a8 1c 3f
       -1.1883286 -0.8498843 2.434168 0.6119439
0002f0 06 97 cf 3e 55 ae 04 3f 7b 77 b5 3f 1c 7b 0d bf
       0.4054491 0.5182851 1.4177088 -0.55265975
000300 74 a9 f5 3e 8c a6 6e 3e 73 3a 48 3f 92 14 a9 3f
       0.47980845 0.2330572 0.78214186 1.3209403
000310 31 12 91 bf ed 99 54 3f 16 64 dd 3d 51 c3 bd 3e
       -1.1333677 0.8304737 0.108101055 0.37063077
000320 8c 97 ad 3e 6e 9e bb 3f 9e 24 80 bf a6 0b 6f bc
       0.33904684 1.4657724 -1.0011175 -0.01459018
000330 a6 30 31 40 63 19 9c bf d1 96 ec 3f de ef 31 bc
       2.7685943 -1.2195247 1.8483526 -0.010860411
000340 4e 70 8c 3f 58 e3 df be c4 ae 9d bd 3a 7f fe 3e
       1.0971773 -0.43728137 -0.076993495 0.4970644
000350 d1 44 cb be da 7b 07 c0 6b d2 1f 3f cb 2d 0d be
       -0.3970094 -2.1169343 0.6243045 -0.13787
000360 9a ea 97 3f 15 f0 91 3f c4 05 f0 3f 94 8c cc bf
       1.186847 1.1401392 1.875176 -1.5980401
000370 71 bc a4 bd 38 c1 47 bf 63 c7 3b 3f da da 1d bf
       -0.08043755 -0.78029203 0.73351115 -0.61662066
000380 dc be 97 3f 17 37 67 bf 37 34 b3 3d ac 79 3c 3f
       1.1855121 -0.90318435 0.087501936 0.73623157
000390 bc 67 64 3c 87 42 8f 3e 51 1b 9c 3e fb 92 e6 3d
       0.013940748 0.27980444 0.3048959 0.11258503
0003a0 2b 52 1b 3d da ad 29 3f 08 75 7f be b1 a7 6e 3f
       0.03792016 0.662809 -0.24946988 0.93224627
0003b0 66 91 fb 3e 84 d6 d1 3f 4f d2 21 bf 5d e1 40 c0
       0.49134368 1.639359 -0.6321153 -3.013755
0003c0 cc 72 d4 3e 4c ce 51 3f 22 bc 70 3f a8 1c 20 bf
       0.41493833 0.8195541 0.9403707 -0.62543726
0003d0 db 42 2c be 8c 12 03 bf 18 e7 02 bf 73 dc 8b 3d
       -0.16822378 -0.51200175 -0.5113387 0.06829157
0003e0 4c ec 90 3f 94 da 8b 3e 60 e9 88 3f ff bb f7 3e
       1.1322112 0.273152 1.069622 0.48385617
0003f0 f3 f2 6e bf 45 da 82 3f 06 e2 00 bf 79 02 2a 3e
       -0.9333946 1.022286 -0.50344884 0.16602506

rnn.weight_ih_l0 f4 [32, 16]
000000 07 b3 55 3d 26 a4 eb bd 16 54 f6 3b 2c f5 ac bc
       0.052172687 -0.11505918 0.007517348 -0.021113
000010 0a b3 af bd cc 22 90 3d 3d 78 d9 3d 26 5e 51 3d
       -0.08579071 0.07037887 0.10618637 0.051115178
000020 d8 5e 1e be b4 6b 61 3c ca 29 3c 3e 0d 62 a3 3d
       -0.15465868 0.013758589 0.18375316 0.07977686
000030 fc df b0 3d ae e6 cf 3d 6b 3d 41 be 94 21 59 bc
       0.08636472 0.101514205 -0.18871085 -0.013252635
000040 a0 af 2b 3d 66 ba 84 bd 97 10 89 3d 45 2e fb bc
       0.041915536 -0.06480865 0.066926174 -0.030661711
000050 70 26 34 be d6 eb 2e 3e ab 34 30 be 13 ed d5 bd
       -0.17592788 0.17082152 -0.17207591 -0.10445609
000060 b1 db bb bd 86 fb 29 3e 06 98 2a 3e 7c 49 05 3e
       -0.09172762 0.16599855 0.16659555 0.13016313
000070 78 86 12 be 4c 11 a7 3d 7b 03 07 3e 90 c9 e8 bd
       -0.14309108 0.08157596 0.13184921 -0.1136657
000080 21 c8 45 3e 5a d5 6a bd 24 0f 0d 3d be 84 8f 39
       0.19314624 -0.057332374 0.034438267 0.00027373986
000090 c3 f9 a3 bd 36 a4 83 3d a2 49 79 bd bb 85 bf 3c
       -0.08006623 0.06427805 -0.060861237 0.023379197
0000a0 63 99 04 be 64 be 41 3d 0c 19 d0 3c 99 b7 9e bc
       -0.12949137 0.04730071 0.025402568 -0.019374656
0000b0 af 4f 69 3d b1 5c e8 bd ec 23 bb 3d fd 45 d6 3d
       0.056960758 -0.113458045 0.09137711 0.10462568
0000c0 98 f9 aa 3d ce 01 a5 3d 74 a9 b8 3d 30 b0 be 3d
       0.083483875 0.08056985 0.090166956 0.09310949
0000d0 9d 5a 13 3d 65 e3 09 be 1b f6 1d be c2 9c 56 3d
       0.035975087 -0.1346565 -0.15425913 0.05239559
0000e0 b8 27 f2 3d 27 27 32 be 89 bd 0a 3e 52 be 5a 3c
       0.11823982 -0.17397748 0.13548864 0.01335104
0000f0 ba 3a af bd 2b 4a 62 3c 98 e7 2a 3e a4 88 08 3e
       -0.08556123 0.013811628 0.16689909 0.13333374
000100 55 57 cb 3c 9f 63 d3 bc a8 73 8e 3d 2f af a1 bc
       0.024821917 -0.025804339 0.069556534 -0.019736854
000110 be 3e 4f bd 8c 1e af 3d dc de a3 3d ca de 0c 3d
       -0.050596945 0.08550748 0.080014914 0.034392156
000120 98 19 09 bc 02 9f fb bc ef 7c a4 bd e8 96 18 be
       -0.008367918 -0.03071547 -0.08031642 -0.14901316
000130 20 5f 1a bd 20 8a d2 bc 0e 61 2b be b2 a4 31 3e
       -0.037688375 -0.025700629 -0.16736242 0.17347983
000140 ab d4 c0 3d 20 81 84 bd 7a 9a f7 bd ea 03 a6 bc
       0.09415563 -0.06469941 -0.12090011 -0.020265538
000150 be b9 62 3c e5 39 04 b9 c9 80 51 3d 2c 71 8e bd
       0.01383823 -0.00012610068 0.05114821 -0.069551796
000160 31 78 5f 3d e4 54 de 3d 36 ef fd bd b1 ca ce bd
       0.054557983 0.10856035 -0.123991415 -0.10097254
000170 eb f6 fe bd dd d5 f5 bc 91 20 e6 bb 5b 18 ca bd
       -0.124494396 -0.030009205 -0.007022925 -0.09867927
000180 0c ad 3b 3e b8 01 01 be 34 9a 8b bc 48 10 97 3d
       0.18327731 -0.12598312 -0.017041303 0.07376152
000190 5b f4 9d 3c 00 59 5d bd 30 cf 08 be 17 7b 55 3d
       0.019281557 -0.054039955 -0.13360286 0.05211934
0001a0 db 6c ef bd 9f 86 bf 3d 4e da d4 3d d0 e2 f1 bd
       -0.116906844 0.09351849 0.10393201 -0.11810839
0001b0 67 0b fc 3d 4b b0 2a 3e 74 d0 9e 3d 8e 9b 42 be
       0.12306862 0.16668813 0.07754603 -0.19004652
0001c0 29 63 d9 3d df 8c 3c 3d 2c 13 26 be 2a 2b e5 bd
       0.106146164 0.046032783 -0.16218251 -0.111898735
0001d0 cd 37 21 3e bb 1f da 3d fb 14 80 3d e7 24 ff 3d
       0.15743943 0.10650583 0.06254002 0.124582104
0001e0 ec cf e9 bd aa f2 4b 3c fc 65 e4 3d 9a 3d 30 3e
       -0.11416611 0.012447992 0.111522645 0.17210999
0001f0 bf 19 11 3e f4 85 4f 3d 78 3a 04 3e df 49 d6 3d
       0.14169978 0.050664857 0.12912929 0.104633085
000200 bf fc 86 bc 94 8e 07 3e 77 8d 0d be 66 21 0e be
       -0.01647794 0.13237983 -0.13823496 -0.13879928
000210 4c 64 37 be 19 60 8e 3c 12 08 84 bd 28 08 db 3d
       -0.17909354 0.017379807 -0.06446852 0.10694915
000220 2a dd ac 3d 66 36 37 3e fa ef ff 3d 0e 3b e3 bd
       0.08440621 0.17891845 0.12496944 -0.11095248
000230 25 89 f8 3d 1f db 11 be 78 da b8 bb d9 81 16 bc
       0.12135533 -0.14243744 -0.005641278 -0.0091862315
000240 a7 a8 d7 bd f6 c6 85 bd 7b 94 39 bd 47 b6 42 bd
       -0.10530215 -0.065320894 -0.045307618 -0.047537114
000250 91 d5 0a 3e f4 8d 32 3e d7 ab 23 be 14 5d bd 3d
       0.13558032 0.17436963 -0.1598352 0.09246269
000260 58 95 29 3e 12 4a 40 3e e7 7d c2 ba 0a 98 22 3e
       0.16560876 0.18778256 -0.0014838547 0.15878311
000270 0d 77 b2 3d d1 3d 1b be ce 4c df 3d da 73 36 3e
       0.087141134 -0.151603 0.10903321 0.17817631
000280 22 2e 19 bd c0 c0 2b be 1b 34 09 3e f9 e0 13 be
       -0.03739751 -0.16772747 0.13398783 -0.14441289
000290 a6 01 2f 3e 44 e4 6a 3d 75 cb 19 3e ab 33 34 bd
       0.17090473 0.057346597 0.15019019 -0.043994587
0002a0 9c 21 e1 bd 49 1d 35 3e 4d d4 8d 3c 9c d1 ce 3d
       -0.109927386 0.17686953 0.017313147 0.100985736
0002b0 2d 06 0f 3e 93 c2 94 bb 9b 6c 8c bc 99 19 07 bd
       0.139672 -0.0045397966 -0.01714163 -0.032983396
0002c0 3b cd 1a bc f6 5c 32 be 00 83 e1 bd f6 f9 f1 bb
       -0.009448345 -0.17418274 -0.110113144 -0.007384534
0002d0 ca 65 9f 3d 47 71 98 3d d6 2a d0 3d 06 6a 03 3e
       0.077830866 0.07443481 0.1016442 0.12833413
0002e0 82 ca f7 3d 73 56 0f bd 70 9a eb 3d cd 80 1f be
       0.12099172 -0.034994554 0.11504066 -0.15576477
0002f0 0c a7 f6 3b b2 a0 86 3c d6 43 25 be 88 02 13 be
       0.0075272378 0.016434047 -0.16139159 -0.14356434
000300 1a 52 92 bd 68 0a 84 3d 0f b5 d0 3d fb 9a b1 3d
       -0.07144566 0.06447297 0.10190784 0.08672138
000310 c0 f5 93 3d 0a ee 88 bd 4e b4 11 3e b7 1b 27 be
       0.072246075 -0.06686027 0.14228937 -0.16319166
000320 b1 9f 11 3e f9 17 98 3d 73 45 ad bc e2 6c aa bd
       0.14221074 0.074264474 -0.02115128 -0.08321549
000330 07 f4 10 bd 04 4a 16 be f9 83 bd bd 70 80 2d 3e
       -0.035388973 -0.14676672 -0.092536874 0.16943526
000340 28 bf 0c 3e 40 fd 02 3e a5 65 b2 bd e5 ba b7 3c
       0.13744795 0.1279192 -0.087107934 0.022427985
000350 53 25 30 3e 45 ca 05 3e 38 d1 0a be 2d 07 1b 3e
       0.17201738 0.13065441 -0.13556373 0.15139456
000360 31 c9 31 3e a3 28 a3 3d f8 90 5a 3c a0 f9 54 3d
       0.17361905 0.07966735 0.013340227 0.051995873
000370 ff e4 1b bd 1f 39 03 3e ec 82 0c 3e 2e b2 0b 3e
       -0.038060185 0.12814759 0.13721818 0.13642189
000380 78 48 47 be e7 80 1e 3e f2 aa 15 be 03 4f d3 bc
       -0.19461238 0.1547886 -0.14615992 -0.025794512
000390 e9 ff 2e 3e 4e 0f 3a be fc a1 f7 bd f9 c8 1f 3e
       0.1708981 -0.18169901 -0.12091443 0.15604009
0003a0 ac 9b 14 bd 01 b7 01 bd c9 03 07 be ab c7 ee bd
       -0.036281273 -0.031668667 -0.13185038 -0.116591774
0003b0 96 02 2e 3e d8 e1 5a 3d 34 4f 40 bc 03 11 ca 3d
       0.16993174 0.053438038 -0.0117376335 0.09866526
0003c0 f5 a5 ea bd 88 bb b3 bb 6f 90 e9 3d f3 7a 08 be
       -0.11457435 -0.005485002 0.11404502 -0.13328151
0003d0 48 19 03 be ee 42 57 be 3a 5f 3e 3d a6 bb 8c bc
       -0.12802613 -0.21021625 0.046477534 -0.017179321
0003e0 e2 c8 28 3e 23 87 3f 3d 2b 22 02 bd c7 df 0d be
       0.1648288 0.046759736 -0.031770866 -0.13854896
0003f0 b1 7f d6 bc 2c c1 31 3d 3e d2 b0 bd 45 f3 b2 ba
       -0.026183935 0.043397114 -0.086338505 -0.0013652822

rnn.weight_hh_l0 f4 [32, 32]
000000 ae 30 39 3d 6c 4b b4 3c b0 7d 1c 3d 05 8a 15 3e
       0.04521244 0.02200862 0.038205802 0.14603432
000010 49 73 1e 3d 9e ac a7 bd 10 59 22 3d c9 1d 26 3e
       0.038684163 -0.08187221 0.039635718 0.162223
000020 6c 99 9e 3c 8e 3b 35 be 3d 15 1d be db 58 bb bd
       0.019360267 -0.176985 -0.15340133 -0.09147807
000030 59 4b 89 bc 23 06 a9 bd 2a 35 79 bd c3 21 8e bd
       -0.016759561 -0.082531236 -0.060841717 -0.06940033
000040 44 ac 99 bd 00 73 01 be 03 6f 23 be a4 e6 ab 3d
       -0.0750356 -0.12641525 -0.15960316 0.083936006
000050 27 28 0a 3e de 09 c9 3b 93 63 fb 3c fc 7b 63 3c
       0.1349188 0.0061352095 0.03068713 0.013884541
000060 c6 2e 2f 3e d6 e5 82 bc 6b 49 59 3d c2 b9 c2 bd
       0.17107686 -0.015978735 0.053048532 -0.09508087
000070 d1 51 1a bd 97 13 92 bd 01 8f e0 3d 70 30 da 3d
       -0.037675682 -0.07132643 0.10964776 0.1065377
000080 5a 3a 2d 3e d6 f1 35 be 58 80 c2 3d 17 c6 2a 3d
       0.1691679 -0.17768034 0.09497136 0.04169282
000090 bd df 4d bd 2b bd 2c be f4 3a 0e be ff 4e c5 3d
       -0.0502622 -0.16869037 -0.13889676 0.09634208
0000a0 fa 65 0b be af d4 da 3c 67 cb 1d 3d 48 f5 29 bd
       -0.1361312 0.026712744 0.038524058 -0.041493684
0000b0 80 1d d1 bd 7f 02 cd bd 8f cd 0a 3e c0 7b 2e be
       -0.10210705 -0.10010242 0.13554977 -0.17039394
0000c0 6d cf 33 3e 4e fa bb bd 4b a4 12 bd 69 c7 c0 3d
       0.17559595 -0.09178601 -0.035801213 0.094130345
0000d0 86 3d be 3b 3a 81 91 bd c7 8d 0d be 0b f2 9d bd
       0.005805674 -0.07104726 -0.13823615 -0.07712182
0000e0 bf 93 2f bc e4 42 12 be bf e5 10 3d f3 f4 08 be
       -0.010716378 -0.14283329 0.035375353 -0.1337469
0000f0 7b 3d 27 3d a9 1a 6d bd 9e fe 8c 3d 41 14 ed 3c
       0.040830117 -0.057886753 0.06884502 0.028940322
000100 ae aa 29 3e df e3 89 3d 26 81 86 bc 6e 89 7d 3d
       0.16569015 0.06732916 -0.016419005 0.06189864
000110 19 2b 17 be 56 22 6f 3c 56 37 23 3e e7 86 0c 3e
       -0.14762534 0.014595589 0.15939078 0.13723336
000120 ed 46 07 be 44 a2 e1 bd 10 08 9c bd 53 66 15 be
       -0.1321065 -0.11017278 -0.07618725 -0.14589815
000130 9c 9d db bd 89 d3 f0 3d 32 f4 e2 bd 5a 05 3e 3d
       -0.10723421 0.11759097 -0.11081733 0.046391822
000140 61 82 c3 3c 7b ca eb bc e8 96 80 bb 77 47 bc ba
       0.02386588 -0.028783074 -0.0039242394 -0.001436456
000150 fe 49 06 3e 0b 38 98 bd 69 6d 88 3d 97 b8 c9 bc
       0.13114163 -0.07432564 0.06661493 -0.024624152
000160 3c 19 03 3e 16 48 aa 3d 37 23 9b 3d f1 af 15 3e
       0.12802595 0.083145306 0.07575076 0.14617898
000170 d0 03 e7 bd f0 a1 15 3e 39 47 20 be 25 96 00 3e
       -0.11280024 0.14612556 -0.1565217 0.12557276
000180 79 d4 21 3e 6c 3f 9f bd 50 27 23 3e c8 32 b8 bc
       0.15803708 -0.07775769 0.15932965 -0.022485152
000190 8e f8 8d 3b ef d7 ac bd a4 68 0b 3e df 11 ee bd
       0.0043326085 -0.084396236 0.13614136 -0.116245024
0001a0 ce ee 82 3d 73 35 09 bd b7 d3 55 bc 11 fe cc 3d
       0.06393205 -0.03349824 -0.013050965 0.10009397
0001b0 82 fc 29 3d 42 97 e6 3c ec f3 f3 3d 68 8d ed bd
       0.041500576 0.028148297 0.11911759 -0.11599237
0001c0 c9 a6 b4 3d d0 a5 9a 3d 43 a5 5b bd 9d d0 b8 3d
       0.08820874 0.075511575 -0.053624403 0.09024165
0001d0 ae 90 ff 3d 41 cb 76 3c ec b2 01 bd 9f 19 be 3d
       0.12478767 0.015063108 -0.031664774 0.092822306
0001e0 46 20 e5 3c 06 52 86 bd 2c 18 62 3b 75 c9 24 3d
       0.02796949 -0.065586135 0.003449927 0.040231187
0001f0 63 58 f1 3d 5e 64 12 3e 97 c4 ee 3d 88 ca 9b 3d
       0.117844366 0.142961 0.1165859 0.07606989
000200 a0 e3 fa bd a5 70 23 3e bd ce 17 be 9b 4c 1d 3e
       -0.12250447 0.15960939 -0.14824958 0.15361254
000210 9b 93 88 3d a1 a5 51 bc d7 bb 88 bd d8 8b 07 3e
       0.066687785 -0.012795837 -0.066764526 0.1323694
000220 50 d4 d9 bc 44 b0 1d 3e f4 a0 87 3d be 0a 1f be
       -0.026590496 0.15399271 0.06622496 -0.15531442
000230 78 75 33 3e a2 1e 01 be 90 a7 3a bc 4e 0b 51 3c
       0.1752528 -0.12609342 -0.011392489 0.012759043
000240 51 ba b9 3d 34 ae 91 3d 4e 7d b7 3d dc d6 6a 3c
       0.0906874 0.07113305 0.08959447 0.014333453
000250 7d 14 a8 bd f6 cc aa bd 7f 5a 41 3d bf 1e 86 3c
       -0.08207033 -0.083398744 0.047205444 0.016372083
000260 73 94 8e 3d e1 22 07 3e e7 ec 2d be fb 16 9d bd
       0.06961908 0.13196899 -0.16984902 -0.07670399
000270 e5 49 45 bd 61 0b a6 bd de 5b 84 bd 34 1c bc 3c
       -0.048166174 -0.08107639 -0.06462835 0.022962667
000280 38 2d 0f bc bb d1 a6 bc 3e 97 93 3c d4 ea af bc
       -0.008738808 -0.02036368 0.018016454 -0.02147428
000290 69 46 97 3d 8e 20 9b 3c 69 e7 12 be b5 df bc bd
       0.073864765 0.018936422 -0.14346088 -0.09222356
0002a0 41 13 0f 3e 7c 80 0c be 8c 13 a8 3d 1b 3f 3d 3d
       0.13972189 -0.13720888 0.08206853 0.04620276
0002b0 4a d5 1b be db 4b c7 3d e6 ba ff bc 0f 60 20 be
       -0.15218082 0.09731265 -0.03121705 -0.15661643
0002c0 32 0d 9e 3d 3d 09 fc 3d 5e b2 2f 3e 35 d5 10 3e
       0.077173606 0.123064496 0.17157885 0.14143832
0002d0 8c b6 ed bd c7 a7 0c 3e 6d b8 db bd 5b dc 11 3d
       -0.11607084 0.13735877 -0.10728536 0.035610538
0002e0 60 84 c8 bd 49 60 38 be 7c ef 63 bd 2a 7f a5 3d
       -0.097908735 -0.1800548 -0.055648312 0.08080895
0002f0 9a 88 94 3d 64 ea 6e 3d c7 f0 93 bd 77 78 7d bb
       0.07252617 0.058329 -0.07223659 -0.003867654
000300 09 a1 0b 3d 50 86 09 3e 81 6f 82 3d 08 47 98 bd
       0.034089122 0.13430142 0.06368924 -0.07435423
000310 fd 09 13 3e 27 6c 21 bd 5e 71 ba bd 2b 64 de bd
       0.14359279 -0.039409783 -0.09103654 -0.10858949
000320 b0 f1 db 3d 4c 57 2d 3e 01 c2 19 be 2d 62 12 bd
       0.107394576 0.16927832 -0.15015413 -0.03573816
000330 d3 8c d9 bd a8 ac 31 3e 99 af a3 3c a3 27 64 3d
       -0.10622563 0.1735102 0.019981192 0.055701863
000340 7d ea 27 3e 45 f5 11 3d b8 98 01 3d a4 0a ce bd
       0.16398044 0.035634298 0.031639785 -0.10060623
000350 48 a6 d5 bd b1 c9 2f be a8 3b 7f bd 2c 99 2a 3d
       -0.10432106 -0.17166783 -0.062312752 0.041649982
000360 4b 89 eb 3c 8f 12 e1 3d ba 43 a4 bd 3a 02 57 bc
       0.02875199 0.10989868 -0.0802073 -0.013123089
000370 f8 7c 29 be bc 2c c5 bd 7b 13 ac bd 9e 57 14 3e
       -0.16551578 -0.09627673 -0.08402153 0.14486548
000380 20 7b 2c 3e 94 28 56 bd 41 1e 86 bd e9 6c 0d be
       0.16843843 -0.052284792 -0.06548739 -0.13811077
000390 d0 cb 20 3e 4d 32 77 3d ee 32 26 bd 17 d7 17 bd
       0.15702748 0.060350705 -0.040575914 -0.03707036
0003a0 fc 8b 62 bd 20 e5 06 be 71 51 0e be 0c c1 02 3c
       -0.05530928 -0.13173342 -0.13898255 0.007980596
0003b0 82 25 f8 3d fb 8b b3 bd a4 c2 35 be 64 f7 cf bd
       0.12116529 -0.087669335 -0.17750031 -0.10154608
0003c0 d5 57 74 3d af a8 d2 3c a5 4f 31 3e a0 a7 d7 bd
       0.059654076 0.0257152 0.17315538 -0.10530019
0003d0 90 82 98 3d 77 85 0a bd 0f 39 2c 3e cc fc c0 3d
       0.07446778 -0.03381869 0.16818641 0.09423217
0003e0 39 92 19 3b 1d ec f3 bc 2a 04 fa 3d 97 7c 05 bd
       0.0023433103 -0.029775674 0.122078255 -0.03258952
0003f0 9a 4d e9 bd 79 72 b4 bd 71 67 92 3d 2d c5 d4 bb
       -0.113917544 -0.088108964 0.07148636 -0.0064932317

rnn.bias_ih_l0 f4 [32]
000000 e5 7a 8c 3d 0b e7 a9 3c ca 3d 69 3c 17 63 0c be
       0.06859378 0.020740053 0.014235923 -0.13709675
000010 7a c0 00 bd e0 8f 42 be 7f ae a8 bd 77 4f 10 be
       -0.03143356 -0.19000196 -0.082364075 -0.14092813
000020 99 01 41 be 5f 6b 50 bd 72 77 33 be 84 22 8a bd
       -0.18848266 -0.050883647 -0.17526034 -0.067448646
000030 0e df 7d 3d 21 b1 73 3d 34 a2 ec bd 69 d1 0a 3d
       0.0619803 0.059495095 -0.11554375 0.033891115
000040 45 95 21 3e bc 9f f0 bd 3b cd 38 3e de 9d 32 bd
       0.15779598 -0.11749217 0.18047039 -0.043607585
000050 39 a2 a4 bd 16 88 ee 3b e1 30 6b 3d 29 6e ea bd
       -0.08038754 0.0072794063 0.05741966 -0.11446793
000060 40 03 c9 bd 5c 87 3e 3e 00 04 d1 bd f9 ed 1c 3e
       -0.09815073 0.18606323 -0.10205841 0.15325154
000070 3a 01 8a bd ca 44 ad 3c 7f 89 b1 bd 35 7d a6 3c
       -0.06738515 0.021150965 -0.086688034 0.020323375

rnn.bias_hh_l0 f4 [32]
000000 1e 5e 2d be a3 41 b3 bd 30 45 01 3e 75 75 4e 3d
       -0.16930434 -0.087527536 0.12624049 0.050404985
000010 24 6b 32 3e 47 8e 2f be 2a 9e c4 3b 00 73 03 be
       0.17423683 -0.17144118 0.0060003 -0.12836838
000020 79 2c 0c be 76 80 e4 bd fb fb f0 bb a9 d2 e3 3b
       -0.1368884 -0.111573145 -0.007354257 0.006952603
000030 88 f2 00 3e 23 1c 34 3e d3 96 16 be f3 16 aa 3c
       0.12592518 0.17588858 -0.14705972 0.020762896
000040 0e 55 d1 3d 5c e7 0d be 17 c4 c9 3d 4d cc f8 3d
       0.10221301 -0.13857788 0.09851854 0.12148342
000050 e2 8a 2a 3e 70 ae ae 3a 92 ad 2d 3e 5e 9c 8f 3c
       0.16654542 0.0013327133 0.16960743 0.017530616
000060 9c 97 78 bc 74 e0 d8 3d c7 62 24 be 72 2a 4c 3d
       -0.015172865 0.10589686 -0.16053306 0.049845167
000070 09 05 a2 bd e7 be 2a 3e 08 41 f6 bd 07 3c 64 bd
       -0.07911117 0.16674386 -0.120241225 -0.05572131

classifier.weight f4 [1, 32]
000000 8e 5d 71 be 4d 8b ac bd 75 d2 e4 bd de 7d 8d 3d
       -0.23570845 -0.08425007 -0.11172954 0.06908773
000010 6e 38 41 3d 1b 4a 6b be f4 0e 07 be 07 44 b3 3b
       0.047172956 -0.22977488 -0.13189298 0.005470756
000020 06 a1 26 be 8e 5b 18 bd fc 9b 1d be a3 a3 29 be
       -0.16272363 -0.03719669 -0.15391535 -0.16566329
000030 ba 16 a3 bc b1 cd 1f 3e 8f 93 69 3e 61 96 1f 3e
       -0.019908298 0.15605809 0.22810195 0.15584709
000040 fc 31 91 3e a8 7a d4 bd 5e d3 76 3d f6 19 48 3e
       0.28358448 -0.10374957 0.06026017 0.19541153
000050 1c 57 a4 bd 6f 09 8a be 84 aa 80 bc 48 a3 3e 3e
       -0.08024427 -0.26960322 -0.015706308 0.18616974
000060 0d 8f b1 bd 2a 6c 99 3d 96 43 54 be a4 f8 60 bd
       -0.08669863 0.07491334 -0.20728907 -0.054924622
000070 64 55 d3 3c d6 be 1f be 75 74 28 bd b4 57 14 be
       0.025797553 -0.15600142 -0.041126687 -0.14486581
