save/1-2_rnn_sp_60.pt (torch, 13065 bytes, 7 tensors)

emb_layer.weight f4 [60, 16]
000000 00 00 00 00 00 00 00 00 00 00 00 00 00 00 00 00
       0.0 0.0 0.0 0.0
000010 00 00 00 00 00 00 00 00 00 00 00 00 00 00 00 00
       0.0 0.0 0.0 0.0
000020 00 00 00 00 00 00 00 00 00 00 00 00 00 00 00 00
       0.0 0.0 0.0 0.0
000030 00 00 00 00 00 00 00 00 00 00 00 00 00 00 00 00
       0.0 0.0 0.0 0.0
000040 67 98 df 3e ed e9 4e bf c6 94 5c bf d1 98 98 3f
       0.4367096 -0.8082569 -0.8616451 1.1921636
000050 24 84 0a 40 ab c0 61 bf c3 84 63 bd 78 72 d7 3e
       2.1643152 -0.88184613 -0.055546533 0.4207952
000060 e2 3f a7 3f 74 6b f9 3f 2c 13 0a 3e 83 c1 0e bf
       1.306637 1.9485917 0.13483876 -0.55764025
000070 3e 27 c3 bf 51 57 92 3f d3 59 04 3f 60 9c 85 be
       -1.5246351 1.1432897 0.5169956 -0.26095867
000080 48 d8 23 c0 8d 61 18 bf c9 9f 82 bf 24 e6 0e 3d
       -2.5600758 -0.5952385 -1.0205013 0.034887448
000090 49 c6 86 be bf c1 e2 bd 71 9b 6c bf 90 c0 e8 3e
       -0.26323155 -0.110721104 -0.92424685 0.45459414
0000a0 95 26 d9 be 6f c5 77 bf ed 3a d1 be 68 48 17 3f
       -0.42412248 -0.96785635 -0.4086527 0.5909486
0000b0 8f d0 4a bf dd 99 8f 3e c4 01 3d 3f 43 a5 8b be
       -0.79224485 0.28047076 0.7383082 -0.27274522
0000c0 a9 37 96 3f 79 1b ab bd 42 70 bc 3f 32 75 ba bd
       1.1735736 -0.08354849 1.4721758 -0.091043845
0000d0 e3 75 24 c0 fe 8d a5 3f 02 0c e0 3f e5 4c 64 bf
       -2.5696952 1.2933958 1.7503664 -0.8917983
0000e0 db 89 9f be 74 15 be 3f e2 fa 30 bf 82 2b 4c bd
       -0.31159863 1.4850297 -0.69132817 -0.04984618
0000f0 77 dd 9b bf 05 b8 7d 3f b9 9a 56 bf b3 82 c2 3e
       -1.2176961 0.99108917 -0.8382984 0.3799034
000100 11 68 f4 3e 81 23 f1 bf 1c ea eb be 49 90 5a be
       0.47735646 -1.883896 -0.4607705 -0.21344103
000110 41 35 d8 3d ae b2 8e bf 38 65 80 bf 13 c8 e5 3e
       0.105570324 -1.1148279 -1.003089 0.44879207
000120 04 84 3f be 20 e0 33 bf 2f c7 93 bf b2 be b0 3f
       -0.18702704 -0.7026386 -1.1545161 1.3808196
000130 0f 5b 0c be 99 02 cc bf 7f f6 f1 bf f6 31 df 3f
       -0.13706611 -1.5938293 -1.890335 1.7437122
000140 1f 4c fb be ee bb 13 40 99 c7 8b bf a2 9e ad 3f
       -0.49081513 2.3083453 -1.0920287 1.3564036
000150 0d de e8 bf e7 33 d5 bd 92 b6 d7 be e0 1e d3 bd
       -1.8192765 -0.1041029 -0.42131478 -0.10308623
000160 4c 5a 28 bf 56 d4 54 bf 06 66 87 bf b3 55 bb 3d
       -0.6576278 -0.831365 -1.057801 0.09147205
000170 79 a6 d9 3d 4c 5e 60 3f fb 3a 5b 3d c4 24 b6 be
       0.10627455 0.87643886 0.053523045 -0.35574925
000180 9a 9f 25 bf f3 23 5d 3e 4f 49 92 3f 48 05 b6 3f
       -0.6469666 0.21595745 1.1428622 1.4220362
000190 0c cf 72 bf 19 e6 e7 bf ed 59 0b 3f 28 a6 39 3f
       -0.9484718 -1.8117095 0.5443409 0.7251916
0001a0 eb a2 99 be 09 b3 48 bf 80 7d 86 3f 1e e3 67 3e
       -0.3000711 -0.78398186 1.050705 0.22645232
0001b0 08 70 3d be ca 18 73 be 86 cd 0e be c4 7b ed bf
       -0.18499768 -0.23739925 -0.13945588 -1.8553395
0001c0 87 c7 a7 3f 86 a6 d2 3f 10 0b a4 be 2d 08 57 3e
       1.3107766 1.6457069 -0.3203969 0.20999213
0001d0 bc af 29 be 4b 1f 2d be 80 ea 85 3f 69 e5 23 3f
       -0.16570944 -0.16906469 1.0462189 0.6402193
0001e0 02 08 dd be 46 54 e6 be c8 86 32 bd da e2 4c bf
       -0.43170172 -0.4498617 -0.04358557 -0.8003365
0001f0 f1 5e 83 3e e8 8f 75 3e 8d 22 a0 3c e6 53 26 3e
       0.25658372 0.23980677 0.019547725 0.16242942
000200 e3 e5 82 3f 1e 4c ae be b9 7a 34 3f 3a 3e e3 be
       1.0226406 -0.34042448 0.7049976 -0.44383413
000210 1d c8 fe bd be 75 ce bf ff 02 07 40 44 d2 14 bf
       -0.12440512 -1.6129682 2.1095579 -0.5813334
000220 84 be e0 3e d9 da a1 be 2b bd 50 3f 09 f8 72 bf
       0.43895352 -0.3161228 0.8153865 -0.9490972
000230 fb ee d5 be 7b ef ea be b2 22 8f 3f 54 bd 32 3d
       -0.4178389 -0.45885834 1.1182463 0.04363759
000240 e6 02 5d 3f 20 9a a3 bf ef c3 50 3f d4 17 7d bf
       0.8633255 -1.278141 0.8154897 -0.98864484
000250 37 50 12 40 25 e8 7d bf b0 2a 78 bf dd f1 d4 3e
       2.286146 -0.9918235 -0.96940136 0.41590777
000260 a8 27 91 3f 7a ab 88 3f c8 ca 5a 3f 0b e7 05 be
       1.1340227 1.067733 0.8546567 -0.13076417
000270 c3 9e e3 bf d9 52 21 c0 9a 24 92 3e 34 be fe 3e
       -1.7782825 -2.5206816 0.2854355 0.49754488
000280 f8 56 8b 3f 34 03 13 3f d8 d4 8a be 0f ee b1 bf
       1.0885916 0.5742676 -0.27115512 -1.3900775
000290 84 f6 04 bf bf a4 a2 bf ee a3 ce bf 0b 6d af 3f
       -0.51938653 -1.2706527 -1.6143777 1.3705152
0002a0 93 d8 56 3f 10 ce 9f 3f 53 7f 52 3c 39 ec 55 3f
       0.83924216 1.248476 0.012847739 0.8356357
0002b0 4b 08 74 3f ac ba fe 3e 88 7d ba bf d9 58 79 be
       0.95325154 0.49751794 -1.4569559 -0.24350299
0002c0 85 a1 25 bf 33 38 cb 3e 97 6a 3b bf 3a 28 84 bf
       -0.64699584 0.39691314 -0.7320952 -1.0324776
0002d0 22 56 bf bf 50 f6 04 bf 5e 8d 0b c0 04 b0 32 3f
       -1.4948161 -0.51938343 -2.1805034 0.6979983
0002e0 04 15 1f bd a0 4d 26 bf 2b cf 4b bd 0f 6f 8f 3f
       -0.0388384 -0.64962196 -0.049758118 1.1205767
0002f0 e3 e9 39 3e 58 12 74 3e ba 50 e0 bd 70 c8 fa 3f
       0.18155627 0.23835123 -0.10952897 1.9592419
000300 b8 e1 0b 40 92 06 ef bf 51 48 dd 3f 9f 7e c1 be
       2.1856518 -1.867388 1.7287694 -0.37791917
000310 1a f1 75 3f 18 34 b5 3f 36 13 82 3d d7 86 82 bf
       0.96071017 1.4156523 0.063513204 -1.01974
000320 4b 86 dd bd ed ec 0c 40 a4 bd df 3d 5f 3f b9 bf
       -0.1081663 2.2019608 0.10924843 -1.4472464
000330 8b db 26 c0 e5 9e 97 bf b2 e8 f2 be 63 d6 29 40
       -2.6071498 -1.1845366 -0.47443157 2.6537101
000340 1f c9 f7 3e da 5e 3a bf 81 e2 4f be 3f f4 9a 3c
       0.4839563 -0.7280098 -0.20301248 0.018915294
000350 32 b8 17 bf 17 a1 b8 bd 5e d2 9d bf 22 75 84 bf
       -0.59265435 -0.090151004 -1.2329824 -1.0348246
000360 e4 87 b0 3f f2 95 a1 bc 8e fa 34 3f 64 1b d9 be
       1.379147 -0.01972482 0.70694816 -0.4240371
000370 f0 f3 88 bf 9b 48 cf be 1f 18 02 3e 88 c5 52 bf
       -1.0699444 -0.4048508 0.12704514 -0.8233266
000380 4b 07 2f 3f 5d 75 98 bc 31 dc 7c bf 36 e9 ea be
       0.68370503 -0.01861065 -0.98773485 -0.4588105
000390 7a c8 57 3f c3 8e bc 3f 82 15 24 3f 90 ed 16 be
       0.8429028 1.4731067 0.6409532 -0.1473906
0003a0 e4 af df bf e3 67 37 3f 19 f2 34 3f bb d5 0f be
       -1.7475553 0.71642894 0.7068191 -0.14046375
0003b0 e0 1b 88 3e 67 8f f5 bf 6b 67 1a be fa 90 0e be
       0.26583767 -1.9184388 -0.15078513 -0.13922492
0003c0 a9 7d e7 bf 3e 23 c5 bf 6f a2 b3 bf 30 e2 4c 3e
       -1.8085223 -1.540138 -1.4033946 0.20008159
0003d0 32 f1 99 3e b1 c9 39 bf 87 1c 9d be 04 b7 97 bf
       0.3006683 -0.7257338 -0.30685827 -1.1852727
0003e0 30 7d 94 bd 99 f4 ed be 5e 0b 95 3f a2 0f 81 bf
       -0.0725044 -0.46475676 1.1644094 -1.0082896
0003f0 3b 74 cb 3f 3e 26 05 bf 3a 7a 8a be d1 08 ee 3f
       1.5894846 -0.5201148 -0.27046376 1.859644

rnn.weight_ih_l0 f4 [32, 16]
000000 ec 88 16 3e 02 1c 8a bd d6 a5 84 3d b8 3a 25 3e
       0.14700669 -0.06743623 0.06476943 0.1613568
000010 c1 20 8c bd 98 eb 1d be 49 52 78 3d 8d 8e 0e 3e
       -0.06842185 -0.15421903 0.06062535 0.13921566
000020 7a 01 94 3d a6 dd cc bd 5e 46 58 bd fc 80 96 3c
       0.07226844 -0.100032136 -0.052801482 0.018372051
000030 c8 47 f8 bd 16 3f 00 be b5 ba a1 3d 17 69 09 be
       -0.12123066 -0.12524065 0.0789694 -0.13418995
000040 98 53 16 be df b3 5e 3d 96 8a da 3d ef f4 24 3d
       -0.14680326 0.054370757 0.106709644 0.04027265
000050 a8 6c d9 bd 76 88 de bd 55 68 97 bd cf 86 ea bd
       -0.10616428 -0.108658716 -0.07392947 -0.11451494
000060 7d 1d 0b 3d bf 88 1e 3e 43 17 f8 3d 95 99 42 3d
       0.03396367 0.15481852 0.12113812 0.04750975
000070 be 67 c8 3d 2c 44 2b be a1 53 32 bd c1 4b 5c 3d
       0.09785412 -0.16725224 -0.043536786 0.053783182
000080 b0 00 de 3d 09 ad bc bd 85 95 ca bd 69 49 10 3c
       0.10839975 -0.09212691 -0.098918 0.008806565
000090 4f f3 df bd 74 45 cd bd c1 d6 a5 3d a7 34 c5 bd
       -0.10935079 -0.10023013 0.08097602 -0.09629183
0000a0 03 0f c5 ba 01 b5 76 3c c0 1f 1d 3e a2 30 42 3d
       -0.0015034381 0.015057803 0.15344143 0.04740966
0000b0 ee 43 19 be c7 14 1f be 4b ee f4 bb 44 c6 58 bd
       -0.1496732 -0.1553527 -0.007474696 -0.052923456
0000c0 4d 4b 28 3c ea 7c c5 3b a2 ec 87 bd 81 34 96 3d
       0.010271859 0.006026854 -0.06636931 0.07334233
0000d0 0c 1e 85 bc 34 f2 24 3e da 87 32 3e 1a b4 93 3d
       -0.016249679 0.16108018 0.17434636 0.07212086
0000e0 e0 45 ef 3b b3 a8 11 be d5 46 ce 3d 5e a7 97 3d
       0.007302031 -0.1422451 0.10072104 0.0740497
0000f0 b6 e1 35 3e a5 a9 1b 3e 0f 05 e5 bd d7 d7 d7 3c
       0.17761883 0.15201433 -0.111826055 0.026348038
000100 a1 17 a0 3c 94 61 18 be 02 ea 25 3e 14 74 49 3d
       0.019542517 -0.14880973 0.16202548 0.049182966
000110 78 02 3f 3e 2a be 15 be bb 2b d1 bd 78 d6 31 bb
       0.18653286 -0.14623323 -0.10213419 -0.002713589
000120 85 bb 59 bd 84 58 05 3e 02 b3 98 3d b7 38 5b 3d
       -0.05315735 0.13022047 0.07456018 0.053520884
000130 03 74 22 3e 51 bb 40 bd ca 32 07 be 52 f3 26 3e
       0.15864567 -0.04705364 -0.13202968 0.16303757
000140 72 1e 97 bb dd 52 e0 bd 4c 00 3c bc b3 61 04 3e
       -0.0046117837 -0.10953305 -0.01147468 0.12927894
000150 f4 33 f3 3d a0 a8 90 bd a4 62 33 3d dd 42 12 3e
       0.11875144 -0.07063413 0.043795243 0.14283319
000160 01 f4 f8 3d 45 5d c2 3c 46 7e 25 be 8c d3 8e bd
       0.12155915 0.023726115 -0.1616145 -0.06973943
000170 31 bf 00 bc ed 6a 05 be c3 e2 03 be b4 38 8f bd
       -0.007858084 -0.1302907 -0.12879471 -0.06993237
000180 a2 42 1d 3e 1c 1d 13 3e 0f d6 df bd c6 40 2d 3e
       0.1535745 0.14366573 -0.109295 0.1691924
000190 7f 83 36 be d4 56 05 bd eb 53 ab 3d 36 bb 19 be
       -0.178236 -0.03255351 0.083656155 -0.15012822
0001a0 d0 63 29 3e ea e4 38 3e 93 35 0b 3d fc b7 ed bd
       0.16541982 0.18056074 0.03398664 -0.11607358
0001b0 9d d6 61 bd 77 23 af bd 03 1b 21 be 40 36 1c 3e
       -0.05513631 -0.08551686 -0.1573296 0.1525507
0001c0 4c 7c 0f 3e b8 09 04 bd ae 23 9e 3c 18 ba 16 3e
       0.14012259 -0.03223583 0.019304123 0.14719427
0001d0 a7 6a 2b 3e 02 e3 93 3d 38 d0 9d bd db 33 9d bd
       0.16739903 0.07221033 -0.0770573 -0.07675906
0001e0 43 0b 79 3d 4d 6c 0e 3e 13 60 3e bd c1 7a a3 3d
       0.060801756 0.13908501 -0.046478342 0.07982398
0001f0 eb 8c 18 3e d0 d2 39 be 61 e9 34 3e f5 71 a7 bd
       0.14897506 -0.18146825 0.17667152 -0.081760325
000200 e6 31 c4 bb 23 5e 09 be fe 2e 13 be 17 c7 f6 3d
       -0.0059873937 -0.13414817 -0.14373395 0.12049692
000210 aa cd 49 be df a9 d3 3d b8 44 56 3d de 07 00 3d
       -0.19707361 0.10335135 0.05231163 0.031257503
000220 a5 a0 04 be b2 03 49 3d 6e 2d ea 3d 2b e3 24 3e
       -0.12951906 0.04907579 0.11434446 0.16102283
000230 51 cc f7 bd aa 76 bc 3d aa 19 70 3d 3e ca 3b be
       -0.12099517 0.09202321 0.058618225 -0.18338868
000240 0b fa 6d 3d be d9 c4 3c 51 55 03 3e f6 4c 4a 3c
       0.058099788 0.024029609 0.12825514 0.0123474505
000250 16 05 10 3e 2c 3d dc 3d d7 b0 fd bc 88 d1 90 bd
       0.1406444 0.10753855 -0.030968113 -0.07071215
000260 78 38 a4 3d 8d 13 1f bd ef 46 04 be 69 ef d1 bc
       0.08018583 -0.038837004 -0.12917684 -0.025626855
000270 3e 22 dd bb e1 b9 cd bd 5c 46 40 bc 1c 6e 1a 3e
       -0.0067484668 -0.10045219 -0.011735525 0.15081066
000280 f7 5d e6 3d 4f 77 35 3d 9b 3c 1a bc d3 0d 0a 3e
       0.11248391 0.044303235 -0.0094138635 0.13481836
000290 8d 51 01 3c b8 81 b1 bd 7f 85 31 bd 5b 95 a0 bd
       0.007892978 -0.0866732 -0.043340202 -0.07840987
0002a0 ae 2f c4 3a f3 86 7b 3d 17 33 d7 3d d8 80 b2 bd
       0.0014967823 0.061407994 0.105077915 -0.08715981
0002b0 be a4 d4 3d 3b c0 4d bd 28 c7 4f bd b0 bb 32 3e
       0.103829846 -0.050232153 -0.05072704 0.1745441
0002c0 e6 01 a8 bd a9 db 2c 3e c5 fc 05 bc ba 67 a4 bb
       -0.08203487 0.16880669 -0.008177941 -0.005017248
0002d0 88 1b a3 bd 0a 7b ff bd 8c ee b7 3c 98 cc 9c bd
       -0.079642355 -0.1247464 0.022452615 -0.07656211
0002e0 4f 30 dc 3d 68 e1 b4 bb cb da 5a 3b 72 96 30 3d
       0.10751402 -0.0055200346 0.003339457 0.043112226
0002f0 f7 99 56 3d 98 88 a8 3d d6 15 68 3d d8 04 c9 3c
       0.052392926 0.08229178 0.05666145 0.024538442
000300 e4 c7 9f bc 6d 2c de 3c 16 d1 9b 3d b8 13 91 3d
       -0.019504495 0.027120793 0.07608239 0.07083839
000310 90 be ce bd 05 18 d4 bd 20 65 4e bd ea 62 ec bd
       -0.10094941 -0.10356144 -0.05038941 -0.11542304
000320 58 20 40 bd ea 9a c8 3c 3f c8 1b be f4 d1 af bd
       -0.046905845 0.024487931 -0.15213107 -0.08584967
000330 44 0d 41 3d 4d 43 15 3e 77 90 14 be 90 3f c2 3d
       0.04713179 0.14576454 -0.14508234 0.0948478
000340 64 fa 03 bd f2 4c 9a bd 8e 2a 26 3e 93 0f 1e 3c
       -0.032221213 -0.075342074 0.16227171 0.009647268
000350 cd 8b b0 bd b9 d1 36 3e f4 36 ab 3d 49 a1 8e 3d
       -0.08620415 0.1785344 0.08360091 0.069643565
000360 1a 8d 8b 3c a7 82 ad 3b 4b 4b dc bd 66 ca a0 3d
       0.017035056 0.005295116 -0.107565485 0.078511044
000370 ca 2e 2b be db 00 03 be 27 a0 26 be 10 52 0c 3e
       -0.16717067 -0.12793295 -0.16272031 0.1370318
000380 1d a9 03 3e 34 6b e7 bd 8c 55 22 3d f7 53 ee 3d
       0.1285748 -0.11299744 0.039632365 0.11637109
000390 a9 76 39 be 87 e6 d6 bd df 83 1e 3e 04 3d d0 3d
       -0.18111672 -0.10493188 0.15479992 0.10167888
0003a0 8f d1 fd 3d 6f ec 1b bd 31 49 0c 3e 29 26 9c bd
       0.12393486 -0.038067278 0.13699795 -0.07624466
0003b0 76 36 9e 3d 1c 65 14 be 40 0b e6 ba ea f0 24 3d
       0.07725231 -0.14491695 -0.001755096 0.040268816
0003c0 e4 91 e3 bd 7a 0b e4 3d 33 13 07 be 7b 6a 32 be
       -0.11111811 0.111350015 -0.13190918 -0.17423432
0003d0 c3 24 19 3e f9 be 93 bd 51 ce 9f bc e6 4c cf 3c
       0.1495543 -0.072141595 -0.019507559 0.025305223
0003e0 ad 01 17 bb 7b b2 87 3d d5 65 01 3e 8f 4d 1b be
       -0.002304177 0.06625839 0.12636502 -0.15166305
0003f0 75 84 87 bd 01 2f a1 bd 55 2a 9d 3d 42 d7 a9 3d
       -0.06617061 -0.078702934 0.0767409 0.0829301

rnn.weight_hh_l0 f4 [32, 32]
000000 cd 39 9d 3d 09 bc b3 bd ed 2c 2e bd 2f 9d 7f 3c
       0.0767704 -0.08776099 -0.042523313 0.01560144
000010 ea 49 be bd 52 d3 bb bd ca 9d 35 be 9d e4 21 3e
       -0.09291442 -0.091711655 -0.17735973 0.15809865
000020 57 e1 17 3e 03 b5 07 3e e6 08 96 bd f8 76 c0 3d
       0.14832054 0.13252644 -0.07325916 0.093976915
000030 52 a0 d7 bd db 9b e6 3d e0 56 3b 3d 34 fe e7 bd
       -0.105286255 0.11260196 0.045737147 -0.11327782
000040 80 4a 7a 3c 51 83 7f bd e0 16 e7 bd eb 4c f3 3d
       0.015276551 -0.062381092 -0.1128366 0.11879905
000050 f1 57 f4 3d f8 13 82 3d ae 4a 01 be c3 fb 07 3e
       0.11930836 0.06351465 -0.12626144 0.13279633
000060 4b 74 ba bd c4 47 cb 3d ba 2f a3 3d a3 80 92 3d
       -0.091042124 0.099257976 0.079680875 0.07153442
000070 57 67 9f 3d b2 80 49 bd 2f df 49 bd 5f 7f d9 3c
       0.077833824 -0.049195 -0.04928511 0.026549993
000080 9a 3c c3 bd f5 e6 49 3c 64 ab 09 3e e9 ce 34 3d
       -0.09533043 0.012323131 0.13444287 0.044142637
000090 31 5f 3b be 95 ad 1b be 9c 9a 2b be 99 f2 f4 3d
       -0.18298031 -0.15202935 -0.16758198 0.11960334
0000a0 6e 9d ab bd 83 76 6a 3d da 22 e5 3d fb 3c 27 bd
       -0.08379637 0.057241928 0.11188288 -0.04082964
0000b0 68 c8 35 be 85 ab 83 3d bc bf af bd d1 4d a0 3b
       -0.1775223 0.06429199 -0.08581492 0.004892089
0000c0 04 6a 25 3c 07 0c 1c be 34 f0 2b bc 3c 2d f3 3d
       0.010096077 -0.15238963 -0.010494281 0.11873862
0000d0 a6 ba 07 be 93 1b 2a bc f0 94 dc 3c fb d5 f1 3d
       -0.13254794 -0.010382551 0.026926488 0.11808392
0000e0 2f a5 d6 3c 79 0a 00 3d f0 2b 81 bd 1b eb 0b be
       0.026201813 0.031259988 -0.063072085 -0.13663904
0000f0 c8 cc 43 3c 5a 1f cc 3d 03 aa c4 3d d2 e9 b7 bd
       0.011950679 0.09966917 0.0960274 -0.089801446
000100 1d 98 1a 3e 67 3b 03 3e ff a2 f2 bd ea 70 bc 3d
       0.15097089 0.12815629 -0.11847495 0.09201224
000110 2e ee 30 3e 98 a6 cc bc 86 99 c2 3d 80 38 a9 3d
       0.17278358 -0.024981782 0.095019385 0.0826273
000120 61 da 9e bd 9c c3 ef 3d 29 39 8f bd 4e 7c 0c be
       -0.07756496 0.117072314 -0.06993324 -0.13719293
000130 b6 df 07 be 27 49 a8 bd 0c 73 d4 bd 7e a1 08 3e
       -0.13268933 -0.08217078 -0.10373506 0.13342854
000140 fe f5 a6 3c d3 ef 98 3d fd e8 29 3e 51 a0 47 bd
       0.02038097 0.07467618 0.16592784 -0.048736874
000150 55 ef 13 3e 0a d2 1f bd 6c dd ec bd a2 b7 19 3d
       0.14446767 -0.03901867 -0.1156567 0.03752864
000160 77 85 2a be da e2 8e 3d fd 0d 19 bd 21 ab a4 3c
       -0.16652475 0.06976862 -0.037366856 0.020101132
000170 d6 d7 07 be c2 da aa bd ef 38 dd bd 43 7e 6d bd
       -0.13265929 -0.08342506 -0.10801875 -0.05798174
000180 3a 1c 10 bd 9a 8d 24 3e a6 9b 2a 3e ca cb 1a be
       -0.03518317 0.16069642 0.16660938 -0.15116802
000190 e8 f2 23 3e 09 7a b4 bd 27 49 f3 bd b4 13 e7 bd
       0.1601063 -0.08812339 -0.11879187 -0.11283055
0001a0 77 55 04 bc bb e8 23 be 7c c8 ec 3b b6 03 db 3d
       -0.008077017 -0.16006748 0.007226048 0.10694067
0001b0 c4 5a 5a bb 4c b2 fe 3d 65 e1 ca bc 42 c5 38 bd
       -0.003331826 0.12436351 -0.02476568 -0.045109995
0001c0 6f 1e 05 3e a2 94 12 be 46 72 10 3e 36 99 21 be
       0.1299989 -0.14314511 0.14106092 -0.15781102
0001d0 c8 a3 16 3c 2a 10 06 be 2d 3f b4 3d c9 8e fb bc
       0.009194322 -0.13092104 0.08801112 -0.030707734
0001e0 78 c1 19 bc 8d cb b2 3d 4e 50 b4 bc 2e e3 02 be
       -0.009384505 0.087302305 -0.022010949 -0.12781975
0001f0 12 d6 6b bd 84 ed 8a 3d 77 3c 1c 3d 0d e0 14 3e
       -0.0575772 0.06783584 0.0381436 0.14538594
000200 df 2d 35 3e 92 6c 09 3e c5 d7 25 3c b2 81 59 3d
       0.1769328 0.13420323 0.010122244 0.053102203
000210 1d 57 11 be 7b 69 1e 3e d8 01 14 be d3 4a c2 bd
       -0.14193387 0.15469925 -0.14453828 -0.09486928
000220 70 bd b8 3d 87 e9 83 3d 43 2f 86 bd f9 93 8b 3c
       0.09020507 0.06441026 -0.06551983 0.017038332
000230 4e ca 2c be 61 4f 08 be e1 b5 cc 3c 76 32 e3 3c
       -0.16874048 -0.1331153 0.02498907 0.027734023
000240 98 cd 6e bc a1 13 48 3c 6e 66 84 3d ac b0 25 3e
       -0.014575385 0.012211711 0.064648494 0.16180676
000250 7d 99 31 3e 9e 37 14 3e 17 3b 2b be bf 27 a0 3d
       0.17343707 0.14474341 -0.1672176 0.07820081
000260 5d 43 31 3e 32 4e 00 bd 6d c2 1c 3e b4 be 2b be
       0.17310853 -0.031324573 0.15308543 -0.16771966
000270 eb 69 4e bd f6 5c a9 3d ad 0e 05 3e 6a 85 a4 bd
       -0.05039398 0.08269684 0.1299388 -0.08033259
000280 bc b1 d2 3a 62 ef 31 bc 11 e3 ce 3d 8d a6 01 3e
       0.0016074697 -0.010860296 0.10101903 0.1266119
000290 30 3d 8d 3d c2 24 95 3c ed 81 86 bd 12 78 cb bd
       0.06896436 0.018206004 -0.0656775 -0.09935011
0002a0 71 9b 29 3e b6 b2 3c 3d 10 1f b3 bd 49 93 46 3d
       0.16563202 0.04606887 -0.08746159 0.048480306
0002b0 36 53 ff 3d d8 9f fe 3d 39 1e f0 3d b0 47 bf bd
       0.12467043 0.124328315 0.117245145 -0.09339845
0002c0 ae c6 c0 3d b7 63 99 bd 16 9e 19 bc dc ee 0a 3e
       0.09412895 -0.07489722 -0.0093760695 0.1356768
0002d0 b8 3b 6c bd 62 84 0f be 13 cc 68 3d 1f f9 6f 3d
       -0.05767414 -0.14015344 0.056835245 0.05858719
0002e0 6b 84 0c 3e e6 78 cc 3c 60 a8 91 3d 99 35 22 be
       0.13722388 0.024959993 0.07112193 -0.15840758
0002f0 d0 cd f0 3d 72 fb b9 bd 3e ee a5 3d 70 e3 3c 3e
       0.117580056 -0.090811625 0.08102082 0.18446136
000300 31 95 bb 3d d2 af 2a 3d 31 75 19 3e 91 9d 15 be
       0.091593154 0.04167158 0.14986111 -0.14610888
000310 95 f2 67 3d 00 75 bf bd 4b e5 0e be 32 ac 22 3e
       0.05662783 -0.09348488 -0.13954656 0.15886
000320 2c 8d 28 be 8b 12 f5 bd 78 70 10 be 29 ef 01 3e
       -0.16460103 -0.119664274 -0.14105403 0.12688889
000330 c2 71 cf bd 21 bb 01 3e ee db 32 3e 04 18 9e 3d
       -0.101291195 0.1266904 0.17466709 0.07719424
000340 28 ea 11 3e 5b 06 9d 3d 06 95 4a 3c 94 2e d2 3c
       0.1424948 0.07667228 0.0123646315 0.025656976
000350 14 16 ac bd 2a 15 ed bd b6 b4 b3 3d 3e 27 18 be
       -0.084026486 -0.11576302 0.08774702 -0.1485872
000360 b9 49 a5 bc bb 9e 89 3d 9b 8a 2e 3e 4c 9d 0b be
       -0.020176755 0.067197286 0.17045061 -0.13634223
000370 07 d6 f7 bd e3 70 31 be 5a fa db 3c da b3 c4 bc
       -0.12101369 -0.17328219 0.026852775 -0.024011541
000380 14 c4 28 be 36 1b db 3b d7 40 2d be c6 82 bc 3c
       -0.16481048 0.0066865934 -0.16919266 0.023011576
000390 cf 42 0d be 82 e9 81 bd 7f 4b ac 3d ef 98 47 3d
       -0.13795017 -0.06343366 0.08412837 0.048729833
0003a0 13 d5 4f bb 32 e1 20 be 76 e2 c9 bd 33 e1 2a bd
       -0.0031712695 -0.15710905 -0.09857647 -0.041718673
0003b0 7e 7d 71 3d ca 04 c8 bd f7 ef 83 bd 1e b9 af bd
       0.05895757 -0.097665384 -0.06442254 -0.0858023
0003c0 ab 40 35 be 9e 7f 11 3e 20 dc 15 3e 62 03 d2 3c
       -0.1770045 0.14208838 0.14634752 0.025636379
0003d0 30 ff 2b 3e 12 7e d7 3d 1f 92 87 3d 7a 7a e1 bc
       0.16796565 0.10522093 0.06619667 -0.027524222
0003e0 60 81 25 bc da 88 da 3d ea 21 97 bd 55 dc 87 3d
       -0.010101646 0.106706336 -0.073795155 0.06633822
0003f0 81 7b 01 3e 69 79 ac bd 83 2f 35 3e 80 be 1a bb
       0.12644769 -0.08421595 0.17693906 -0.0023612082

rnn.bias_ih_l0 f4 [32]
000000 76 42 95 bd cb 2b 7f bd ac c9 9d bd 87 82 0d 3e
       -0.07288067 -0.062297624 -0.077044815 0.13819323
000010 90 3d b8 3d 3b 83 5a 3d 58 96 d6 bd 74 76 0e be
       0.08996117 0.053347807 -0.104778945 -0.13912374
000020 81 55 98 3d c2 6f 29 be 70 db a9 3d df a1 c8 3d
       0.074381836 -0.16546538 0.082938075 0.097964995
000030 36 32 c8 3c 30 f3 0b 3e cf 10 b6 3c 1e 4c 21 bd
       0.024438005 0.13666987 0.022224812 -0.03937923
000040 d3 b1 f6 bd 9c b8 83 bd fc b7 8b 3d 2b 20 16 3e
       -0.12045636 -0.06431696 0.068222016 0.14660709
000050 df 61 0f 3e a9 0c c5 3c 77 f5 b1 bc 79 e8 10 be
       0.14002179 0.024053888 -0.021723492 -0.14151181
000060 8a 7f 99 3d 4d 62 6a bc 5c e3 34 3d 29 f0 b1 bd
       0.07495029 -0.014305663 0.04416214 -0.08688385
000070 0e eb 00 3e b7 1a 2d be bc fb 78 bd ca d8 a7 bd
       0.12589666 -0.16904722 -0.060786948 -0.08195646

rnn.bias_hh_l0 f4 [32]
000000 d5 55 b6 bc 6d bb 20 bd 77 9e bb 3d d1 d4 09 3e
       -0.022257725 -0.039241243 0.09161084 0.1346009
000010 cc d5 91 bc 9b fb 3b 3e 47 1e e4 3d b8 f4 1a 3e
       -0.017802142 0.18357699 0.111385874 0.15132415
000020 4a 65 06 be ad 54 27 be 94 10 5a bd 06 f0 9d 3d
       -0.13124576 -0.16340895 -0.053238466 0.077117965
000030 ce 4c cd 3d 96 e6 e5 3d 50 5d 36 3e dd 6f 78 bb
       0.10024415 0.112256214 0.17809033 -0.0037908473
000040 4e ed d4 bd 67 5b 76 3d aa a3 a3 bd 4d 4f ed bd
       -0.10396825 0.06014576 -0.07990201 -0.11587391
000050 e4 39 ad bd b7 0b 25 3e ff 04 0e bd f5 ff cb 3c
       -0.084583074 0.1611775 -0.034672733 0.024902323
000060 da 60 9a 3d 11 ac 42 bd f4 92 2e 3e 60 4e 82 3d
       0.07538004 -0.047527377 0.17048246 0.06362605
000070 18 7a bc 3b 20 21 59 bd 02 3b cd 3c 34 01 ef bd
       0.0057518594 -0.053010106 0.025052551 -0.11670151

classifier.weight f4 [2, 32]
000000 a5 a3 31 3d 20 6b 19 be 39 d5 9e bd 0f db d1 3d
       0.043368954 -0.14982271 -0.07755513 0.1024686
000010 f6 44 10 be f2 f5 09 3e b2 c7 7a 3e cb 0c c9 bc
       -0.14088807 0.13472727 0.2449024 -0.024542233
000020 b0 fd 4b bc de 53 6e be 14 9b a4 bd 7a 26 ac 3d
       -0.0124506205 -0.2327418 -0.08037391 0.08405776
000030 89 a1 8d bd 44 b2 7d 3e 18 4b 41 38 d4 52 77 be
       -0.06915576 0.24775034 4.6084722e-05 -0.2415269
000040 65 5e 24 be 78 cb 13 bd 90 3b e6 3c 86 06 8b bd
       -0.16051634 -0.036082715 0.028104573 -0.067883536
000050 68 81 33 be ec 90 cd 3d 2f 9e 99 bd 56 49 e0 3d
       -0.17529833 0.10037407 -0.07500874 0.10951488
000060 56 e3 11 3c 83 d3 e0 3d ac 29 72 3e 72 d0 cb bd
       0.008904299 0.10977843 0.23648709 -0.09951867
000070 36 00 ca bd 78 b9 66 bd fa 62 1f 3d 7e ab 4e 3e
       -0.098633215 -0.05632922 0.03891275 0.20182607
000080 7c c5 bd bd 69 ae 1c 3c ea 4c 24 3e ea fd 5d 3c
       -0.09266183 0.009563067 0.16044965 0.013549307
000090 00 f7 1c 3b 9b 81 64 3d 68 86 71 3e 4e 63 25 be
       0.0023950934 0.055787664 0.23586428 -0.16151163
0000a0 c0 4f 42 3e 83 c3 93 3d 36 8f 1a be 44 09 99 3d
       0.18975735 0.07215025 -0.15093693 0.074724704
0000b0 68 84 24 bd 90 75 45 bd af 08 2d 3e b2 01 f6 b7
       -0.040165335 -0.04820782 0.16897844 -2.9326275e-05
0000c0 8c fe 85 bd 19 41 25 3e 77 56 1d 3e a4 0f 85 3d
       -0.065426916 0.16138114 0.15365015 0.06497124
0000d0 80 06 51 bb a5 07 c7 3d af d1 ae 3c 7f fc b7 3b
       -0.0031894743 0.09718255 0.02134022 0.0056148167
0000e0 bf 7c 85 be 25 b1 c4 3d d2 63 2c 3d 35 c9 80 be
       -0.26071736 0.096041 0.042087384 -0.2515351
0000f0 8e 28 7d be 19 c1 6b be 96 80 de bd d2 d5 81 3c
       -0.24722502 -0.2302288 -0.108643696 0.015849028

classifier.bias f4 [2]
000000 09 e8 37 3e 41 f5 0c 3e
       0.17959608 0.13765432
