save/1-3_rnn_sp_80.pt (torch, 14217 bytes, 6 tensors)

emb_layer.weight f4 [80, 16]
000000 00 00 00 00 00 00 00 00 00 00 00 00 00 00 00 00
       0.0 0.0 0.0 0.0
000010 00 00 00 00 00 00 00 00 00 00 00 00 00 00 00 00
       0.0 0.0 0.0 0.0
000020 00 00 00 00 00 00 00 00 00 00 00 00 00 00 00 00
       0.0 0.0 0.0 0.0
000030 00 00 00 00 00 00 00 00 00 00 00 00 00 00 00 00
       0.0 0.0 0.0 0.0
000040 c4 1a 4c be 50 3c a7 be c6 f7 bd 3e d6 90 27 bf
       -0.19932085 -0.32663202 0.371031 -0.6545538
000050 f8 e0 c6 bf 0e 60 7a be 57 07 ea be f5 95 88 3f
       -1.5537405 -0.24450704 -0.45708725 1.0670763
000060 55 a5 03 be 7b cf 1b 3f f0 eb cd 3e f6 66 10 c0
       -0.12856038 0.60863465 0.4021907 -2.2562842
000070 17 98 92 3e e5 fe cb be 5e c9 e3 be eb f3 0a c0
       0.2863166 -0.39842907 -0.44489568 -2.1711376
000080 94 0d 42 bd ea 35 36 3f 3c 06 36 bf 52 54 fb bf
       -0.04737623 0.71176016 -0.7110326 -1.9635108
000090 0d 41 57 3f 08 1a 0f 3f 4c 65 04 3e 37 89 8a bf
       0.84083635 0.55899096 0.12929267 -1.0823125
0000a0 9a ec 62 bf 65 60 ef bf e6 bb f4 be 01 dd 38 3f
       -0.88642275 -1.8701292 -0.47799605 0.72212225
0000b0 d4 d0 06 c0 2f 74 c5 be 2f 1f b0 bf b7 c6 44 3f
       -2.1064959 -0.38565204 -1.3759516 0.76865715
0000c0 0b e8 dd bf b2 e8 f5 3e a1 2a 3f bd 49 38 05 c0
       -1.7336439 0.48029095 -0.046671513 -2.0815604
0000d0 7b e6 ec 3e dc 39 6c 3f 1d 7c 3d be 2b 41 04 40
       0.46269593 0.92275786 -0.18504377 2.0664775
0000e0 1e 55 21 3f 72 2d 06 3f da 0d 8d bf b2 7e b7 3f
       0.63020504 0.52413094 -1.1019852 1.4335539
0000f0 e4 74 ba be 42 18 bd be d8 e0 45 3f 7e 45 5b ba
       -0.36417305 -0.3693257 0.7729621 -0.0008364542
000100 10 eb a5 be 5f 63 26 c0 02 a6 4e 3f 68 83 40 bf
       -0.324059 -2.5998151 0.8072206 -0.7520051
000110 61 9e 90 3f 2d 4c 7f 3f 2a 19 1e bf 38 55 50 3f
       1.1298333 0.9972561 -0.6175715 0.81380033
000120 e6 bc 6c bf 0b 99 96 3f 15 28 9a 3e 78 de 74 3d
       -0.92475736 1.1765455 0.30108705 0.059782475
000130 89 0c d4 3c 57 80 9d bf 13 a6 ed bd af 16 23 bf
       0.025884883 -1.2304791 -0.11603942 -0.6370649
000140 ce f8 80 bf a8 32 a4 bf 60 a4 d0 3c 7b 1a ac 3f
       -1.0075929 -1.2827959 0.025469005 1.3445581
000150 47 4a 22 c0 4e f4 0e c0 fe 36 8d bf c0 6a 91 be
       -2.5357835 -2.2336612 -1.1032407 -0.28401756
000160 f6 94 dc bf e8 87 d4 be 30 c3 ef be 3e c4 46 3f
       -1.7232959 -0.41509938 -0.46828604 0.7764319
000170 a0 e8 8f 3e 89 41 ad bf 9d e7 59 3f 71 56 ee be
       0.28107166 -1.3535625 0.8511904 -0.46550325
000180 95 95 22 3f 12 c7 88 3f b7 e7 cb bf 63 93 4f bf
       0.63509494 1.0685751 -1.5930089 -0.8108427
000190 f2 a8 5c be ef 2a 0b 3e e6 ea dd 3e fd 49 46 3f
       -0.21548823 0.13590597 0.43343276 0.7745665
0001a0 bb 21 c0 3f 81 ce 67 3f 20 83 44 bf 92 89 3e be
       1.5010294 0.90549475 -0.7676258 -0.18607166
0001b0 d6 55 16 3e de a4 43 bf 75 f6 b5 3e ce f6 03 3d
       0.14681181 -0.7642344 0.35539594 0.032217793
0001c0 85 29 43 3f b2 6e b3 bf 40 34 0e be 1b 45 8d 3f
       0.7623523 -1.4018157 -0.1388712 1.1036714
0001d0 55 9e ac be ca 0f a7 3e fd c2 ab 3f fc b6 85 3f
       -0.33714548 0.32629234 1.3418881 1.0446467
0001e0 a9 76 c1 3d 3d 60 a0 be 13 fa db bf 5b 88 6e bf
       0.09446461 -0.31323424 -1.7185692 -0.9317681
0001f0 64 37 39 3d fb 7e 49 3c e1 9e 10 bf 08 d6 1c 3e
       0.04521884 0.012298341 -0.5649243 0.15316021
000200 cb 7d 98 bf 3f e4 5f 3e 18 60 2c bf b9 61 8e 3c
       -1.1913389 0.21864413 -0.6733413 0.017380582
000210 6c 9f ac be 2c 78 69 be e9 5c d4 3e 66 3d a5 3b
       -0.3371538 -0.22799748 0.41477135 0.0050427197
000220 01 71 1c 3f 1d e4 bb 3f b5 a7 8f 3f 88 d3 82 3e
       0.6110993 1.467899 1.1223055 0.2555201
000230 31 6d df 3f de 26 84 be eb 61 51 bf cd ac 1d 3e
       1.7455198 -0.25810903 -0.81790036 0.1539795
000240 6f 2f 27 bf cc 6d bf 3f 8d 2d 45 3f ee 66 a7 3f
       -0.6530675 1.4955382 0.7702263 1.3078287
000250 8d 0d c4 3f 3e 53 15 bf 09 56 2e 3f 07 68 9b bf
       1.5316635 -0.5833014 0.6810003 -1.2141122
000260 46 6d cc 3f 6c 50 da 3f 40 01 c1 be 83 82 bd bf
       1.5970848 1.7055793 -0.37696266 -1.4805454
000270 0b 66 b1 3e 2e ec 4f 3f 22 53 1f 3f 41 29 cd 3e
       0.34648165 0.81219757 0.62236226 0.40070537
000280 33 9c fc bf af a2 76 be 61 90 9a bf 22 c1 09 bd
       -1.9735168 -0.24085496 -1.2075311 -0.03363145
000290 39 d9 b8 3f 22 92 27 3f 67 9d e8 3f d6 c3 b5 bf
       1.4441291 0.65457356 1.8173035 -1.4200389
0002a0 e9 86 8e 3f 83 a8 10 40 fc c6 9d 3f ec 0d 41 3f
       1.1134921 2.2602851 1.232635 0.7541187
0002b0 e3 83 d2 be 2a b2 4f be 66 a3 52 bb 58 74 c9 bd
       -0.41116247 -0.20282808 -0.003214085 -0.09836644
0002c0 46 0f 21 3e 52 81 be bf e8 fe 89 bd 95 68 9d 3f
       0.15728483 -1.4883215 -0.06738073 1.2297541
0002d0 52 c9 36 40 bf d9 cb 3f 8d 8c a0 be e1 8d 2a bf
       2.8560376 1.5925826 -0.31357232 -0.6662274
0002e0 e5 0e 98 3f 2c eb d0 3f 49 c3 6b be a8 37 d4 3f
       1.1879545 1.6321769 -0.23023714 1.6579485
0002f0 59 9d e0 bf dc 89 75 bf d6 de b3 bf e3 ba a1 3f
       -1.7548019 -0.9591348 -1.4052379 1.2635158
000300 08 57 8f 3f 07 97 1c 3d 3f 5e 02 40 4c 4d 7b bf
       1.1198435 0.03822997 2.0370023 -0.9816482
000310 91 c5 2f 3f 16 fc a9 3e 4c 60 50 bf 5c 8a c1 3f
       0.6866084 0.3320014 -0.8139694 1.5120349
000320 18 e9 cd 3f 71 11 de be 37 a1 13 bf 57 98 99 bf
       1.608676 -0.43372682 -0.5766787 -1.1999615
000330 11 f6 25 3f cc 1d d6 bf bf a5 3b 3e 37 e2 c9 be
       0.6482859 -1.6727843 0.18324946 -0.394304
000340 dd d5 f6 3e db db 88 bf f2 e7 60 bf 9e e8 b2 be
       0.4821004 -1.0692095 -0.8785392 -0.34943098
000350 98 75 13 bf 41 4a a8 bf 27 5b c5 be 52 a2 84 3e
       -0.5760131 -1.314766 -0.38546106 0.2590509
000360 42 66 17 bf cc 7c df bd ea df 11 40 f2 32 f3 3e
       -0.5914041 -0.10912475 2.2792916 0.47499806
000370 0a 46 48 3f 68 f6 0c 3c e4 67 f8 be 47 03 f0 3f
       0.7823187 0.00860367 -0.48516762 1.8751
000380 eb 9d cb be 5d ca c5 3f d2 f5 59 3f 7e 18 db be
       -0.3976892 1.5452381 0.8514072 -0.42792124
000390 54 86 a0 bf 9a f8 f5 bd 1d 96 e4 bf 5b ac 5f bd
       -1.2540994 -0.120103076 -1.7858311 -0.05460773
0003a0 cb bd 86 be f9 ac 19 bf 3d d9 5c 3f 50 16 98 3f
       -0.26316676 -0.6002956 0.8626898 1.1881809
0003b0 d1 f1 91 be 49 47 b5 3f f4 d5 a8 bf a3 32 dc bf
       -0.28504804 1.416238 -1.3190293 -1.7202953
0003c0 9d 56 7b 3f 89 fc 99 bf 9b fb 20 bf 74 d1 6c bf
       0.98179036 -1.2030193 -0.6288392 -0.925071
0003d0 dc 14 dc bf 8d 5d b3 3f 50 9c 6b be 5b dc cd 3e
       -1.7193866 1.4012924 -0.23008847 0.4020718
0003e0 09 31 f1 bf 78 aa 20 40 dd 78 1d 3e 7a 3b 6f 3f
       -1.8843089 2.5104046 0.15378137 0.9345013
0003f0 40 9a 06 be 83 b2 40 3f 25 7e 73 be 37 31 7f 3f
       -0.13144779 0.7527239 -0.23778589 0.9968447

rnn.weight_ih_l0 f4 [32, 16]
000000 6e 20 1a 3d 05 fb a7 3d 9a 14 8f bd b0 41 ec 3c
       0.037628584 0.08202175 -0.06986351 0.028839916
000010 d5 30 e4 bd a9 c0 be 3d 5c 16 b5 3c 7d a8 51 3e
       -0.111421265 0.09314091 0.022105388 0.2047443
000020 52 e8 11 be 05 00 6e 3d 4f fe f3 3d 20 30 e8 bd
       -0.1424878 0.058105487 0.1191374 -0.11337304
000030 40 21 ec 3d 0e fa 2b 3d dd 93 7c bd 7a 29 19 be
       0.115297794 0.041986518 -0.06166445 -0.14957228
000040 06 a9 bf 3d e5 fe df 3d 1a 23 0f be a5 c5 26 bd
       0.093584105 0.10937289 -0.13978234 -0.040715832
000050 88 d3 ec bd bb 92 cb 3d 91 bd ad 3d 8b d6 07 bd
       -0.11563784 0.09940096 0.084834225 -0.03316359
000060 89 46 1f 3d 5a ae 99 bd 3e 14 bd 3d cc 0d e4 3c
       0.038885627 -0.07503958 0.092323765 0.02783861
000070 40 62 d0 bd 13 fd 3b 3e 21 ea df 3d f9 41 33 be
       -0.1017499 0.18358259 0.109333284 -0.17505635
000080 5d 48 ba bd 3d 83 b4 3d d3 3e 06 3e 88 19 02 be
       -0.090958335 0.08814094 0.13109903 -0.12705052
000090 4d 9f f5 bd 8b 59 09 3e 52 3e 13 be 04 e8 30 be
       -0.11993275 0.13413064 -0.14379242 -0.17276007
0000a0 73 5a b1 bd 36 c0 2f be 71 ac 4f bd b0 6d e9 bd
       -0.0865983 -0.17163166 -0.050701562 -0.11397874
0000b0 b1 ec f6 bd ac 9f a5 3d 66 69 2a bc 3e 6c 2e be
       -0.12056864 0.080870956 -0.0104011055 -0.17033479
0000c0 81 bc b8 3d 23 18 bd 3c 56 79 ea bd c5 e7 34 3e
       0.09020329 0.023082798 -0.11448924 0.17666538
0000d0 b7 03 cf 3a a7 d0 0b 3c 36 2d 01 3e 98 b1 72 3c
       0.0015793954 0.008533633 0.12614903 0.014812849
0000e0 86 72 16 3d 5a 59 36 3e 45 c7 17 be 9c 25 bd bc
       0.03673031 0.17807522 -0.14822109 -0.023089223
0000f0 e3 40 5f 3d 50 50 6e 3d 77 6f 05 3d 8a 1e b2 bd
       0.05450524 0.05818206 0.032577004 -0.08697231
000100 62 21 c9 3d 0b 46 21 bc 8f 3f 26 3e 84 0b 43 3e
       0.098208204 -0.00984336 0.16235183 0.19047362
000110 35 49 bb bc 5c fb 1f be 7e 36 2b 3e 35 01 07 3e
       -0.022862056 -0.1562323 0.16720006 0.13184054
000120 3d 95 0b 3e 01 bf 23 bd c0 6a d3 bd e2 0b 14 bd
       0.13631149 -0.039977077 -0.10323095 -0.036144145
000130 af 7a 2b 3d 40 67 e1 3d 77 79 29 be 0d 78 9f bd
       0.041865047 0.110060215 -0.16550241 -0.0778657
000140 51 f3 06 bd cc b7 74 bd 42 13 cc 3d a2 58 cf bd
       -0.03294689 -0.059745595 0.09964611 -0.10124327
000150 d5 00 0f 3c 24 e5 6e bd 1c fc 3c 3d 1e 2c 8f bd
       0.008728226 -0.058323994 0.046138868 -0.069908366
000160 42 c4 9a bc b0 d4 42 bd ca 98 b9 bc a6 0e 17 3e
       -0.018892411 -0.047566116 -0.022655863 0.14751682
000170 bd ac fd 3b 11 7b f3 3c 55 87 cb 3d cf 8d 2a be
       0.0077415393 0.029721769 0.09937922 -0.16655658
000180 a6 2f 12 3d 06 d8 2c be 83 08 3e bd 37 85 27 3d
       0.035689972 -0.16879281 -0.046394836 0.040898528
000190 98 99 26 3c 18 58 00 3e e2 02 c3 3d 28 db f2 bd
       0.010168456 0.12533605 0.09522034 -0.11858207
0001a0 57 a8 9d bc 8c f2 9f 3c c8 e1 ae bd c2 bc fd bd
       -0.01924531 0.019524835 -0.08539158 -0.12389518
0001b0 0a d0 0c 3c b7 57 44 3d 3f 7d 0f be 5b f0 1e be
       0.008594522 0.047935214 -0.14012621 -0.15521376
0001c0 d3 04 40 3e c5 de ab bc b3 79 20 3e 23 43 02 3d
       0.1875184 -0.020980248 0.15671425 0.031802308
0001d0 52 ca 63 3d e6 5a 30 be 98 2e 22 3e a0 4b 01 be
       0.05561287 -0.17222175 0.15838087 -0.12626505
0001e0 48 a6 10 be 2d 61 2e be 90 7b 3d 3d b5 a5 f9 bd
       -0.14125931 -0.17029257 0.046260417 -0.12189809
0001f0 96 db 91 bd 0b 8e d6 bc 52 40 b6 3d dc bb a9 3d
       -0.07121961 -0.026190778 0.08898987 0.082877845
000200 ec 36 e0 bd 20 44 8f 3d 58 06 e6 3b 2e b7 c9 3c
       -0.109479755 0.06995416 0.007019799 0.02462348
000210 be 07 c7 bd 51 bf 94 bd 2b b8 d1 bd f6 c1 83 bd
       -0.097182736 -0.07263053 -0.102402054 -0.064334795
000220 6b 0d 2e be b6 83 22 3e a2 0e cb bd ea bd 7f bc
       -0.16997306 0.15870556 -0.099149 -0.015609244
000230 9a a2 10 3d 38 7e 0d be 56 73 1e 3e 9f f2 98 bd
       0.03531132 -0.1381768 0.15473685 -0.07468151
000240 22 6d 76 3d 32 1b 7b bd dc 4b 0d bd cd 5d 0b be
       0.06016267 -0.061305232 -0.034496173 -0.13610001
000250 cd ad 0a 3d de 3a 19 3e 18 36 96 bd d2 d8 3b 3e
       0.033857156 0.14963862 -0.07334536 0.18344429
000260 17 75 0f 3e 0b 2b 30 be 35 dd 8f bc 3b 83 7d bd
       0.1400951 -0.1720392 -0.017561534 -0.06189273
000270 f6 95 2c be f9 61 33 3e 4d dc e2 bd 42 2a b4 bb
       -0.1685408 0.17517842 -0.11077175 -0.0054982016
000280 0b be 86 bd 70 81 18 be 74 b4 f3 3d 91 af e2 3d
       -0.065792166 -0.14893126 0.11899653 0.11068643
000290 de 00 00 3e 87 15 1a 3e 90 e6 1c be 90 e5 24 be
       0.12500331 0.15047275 -0.15322328 -0.16103196
0002a0 8d 42 09 3e 12 8e 3a 3d 9d dc 0c be 54 13 32 3e
       0.13404293 0.045545645 -0.13756032 0.17390186
0002b0 f8 e7 15 be d0 0b 28 3d 04 18 cf 3d 3a c4 c6 bd
       -0.1463927 0.04102689 0.101120025 -0.09705396
0002c0 aa f3 f7 3d 53 81 53 bd be f6 bd bd 22 f3 53 bd
       0.12107022 -0.051637005 -0.09275578 -0.05174554
0002d0 6f b9 11 be 9a a5 0d be c3 ad 86 3d 52 d9 00 be
       -0.14230894 -0.13832703 0.06576111 -0.12582901
0002e0 72 37 ba bd cb 45 dc bd be 54 a7 bd 02 83 31 bd
       -0.090926066 -0.107554995 -0.0817046 -0.04333783
0002f0 b7 5a b3 3d ed 73 01 3e 62 2a 5f bc 7e ea be bd
       0.08757537 0.12641878 -0.013620945 -0.093220696
000300 9a 3f 15 be e6 6c b7 bd 98 36 f6 bd c2 a0 0c be
       -0.14575043 -0.089563176 -0.12022132 -0.13733199
000310 5c 95 22 3e 53 d8 33 be 19 f6 29 bd d6 8f 99 bd
       0.15877289 -0.1756299 -0.041494463 -0.07498138
000320 b1 45 e0 3d 82 13 e8 bd 74 7f 96 3c 16 bb 83 bd
       0.109507926 -0.11331846 0.018371321 -0.06432168
000330 56 b2 88 bd d9 ff e7 bd 12 9e 91 3d 5d c4 32 be
       -0.0667464 -0.11328096 0.07110228 -0.17457719
000340 b6 2c 25 3e 00 82 e0 3d 56 81 21 3e 5e 71 79 bd
       0.16130337 0.109622955 0.15771994 -0.06089913
000350 4c 21 6d bd 3b f8 af 3d fc 29 69 bd 0c 39 09 be
       -0.057893082 0.08592268 -0.056924805 -0.13400668
000360 37 40 af 3d d1 29 d8 3d 36 67 49 be d1 b5 6c 3d
       0.0855717 0.10554851 -0.19668278 0.05779058
000370 e3 88 90 3d ee 28 30 be a0 68 f3 3d a3 df ef bc
       0.07057359 -0.17203113 0.1188519 -0.029281443
000380 7a 4a a1 bd 01 a5 e9 3d f1 e1 8f 3d a7 84 7d 3d
       -0.078755334 0.11408425 0.07025517 0.061894085
000390 f7 c9 97 3d 3b ea d4 3d e3 f1 e3 bd 2f 24 a7 3d
       0.074115686 0.103962384 -0.111301206 0.08161198
0003a0 ef 7b 60 bd 6b 72 e1 bd 48 10 08 3e 9b 3e 16 bd
       -0.054805692 -0.110081516 0.13287461 -0.0366808
0003b0 41 ba 88 bb 9b d6 28 3e 9a 1b 9b ba 1a a1 8b 3d
       -0.004172594 0.16488115 -0.0011833787 0.06817837
0003c0 42 42 2e be 15 d9 0a 3e 9a e7 d3 3c 21 16 ff 3d
       -0.17017463 0.13559373 0.025867272 0.12455393
0003d0 b4 27 55 bd c8 b7 16 3e b4 3f 0a be 1c f2 7d 3c
       -0.052039817 0.14718544 -0.13500863 0.015499618
0003e0 7a 94 e8 3d 7d f6 a2 3d a0 e1 41 3e 15 10 14 3e
       0.11356445 0.0795717 0.18933725 0.1445926
0003f0 41 3c f3 3d 38 04 7a 3c 6f 0a 01 be ce ea fd 3d
       0.11876727 0.015259795 -0.12601636 0.12398301

rnn.weight_hh_l0 f4 [32, 32]
000000 db 49 24 be ac 0f 8e 3d 4f b2 b9 3d 75 52 0e 3e
       -0.16043799 0.06936583 0.09067213 0.13898642
000010 2c 9b bc 3d 48 59 33 3e de 5f 94 bd 84 ab 42 be
       0.09209284 0.17514527 -0.07244848 -0.1901074
000020 4f 45 74 3d c8 52 15 be 33 43 15 bd c6 cd 94 bd
       0.05963641 -0.1458236 -0.03644104 -0.07265811
000030 ea 89 d0 3d 40 49 ea bd ee 1f 2f 3d 95 b4 15 3e
       0.10182555 -0.114397526 0.04275506 0.14619668
000040 a6 9f 30 be 17 a0 a5 bd 61 cf 36 be 35 a6 fe 3d
       -0.17248401 -0.08087175 -0.17852546 0.12434045
000050 49 96 42 3e 18 d9 00 be 60 c0 ba 3d 47 94 c5 bd
       0.19002642 -0.12582815 0.09118724 -0.09647422
000060 33 a7 02 be 9f 54 1f be 9d 04 01 3e 58 d2 bd bd
       -0.12759094 -0.15559624 0.12599416 -0.092686355
000070 44 72 6e 3c af 51 18 be 1b a4 6b bd 15 41 e5 3d
       0.01455361 -0.1487491 -0.05752955 0.11194054
000080 c0 f7 19 be 55 f6 2a be 5b 9f c0 3d d6 eb 16 3d
       -0.15035915 -0.1669553 0.09405395 0.036846004
000090 10 d4 16 bc 4d bd 2a bc 63 71 1c 3e 73 71 08 3e
       -0.009205833 -0.010421109 0.15277629 0.13324527
0000a0 3a 5f 30 3d f7 2c 10 be 84 46 e9 bd 06 f2 dd 3d
       0.043059565 -0.14079653 -0.11390403 0.10837178
0000b0 3e 7b 09 3d b0 71 05 be 88 85 16 be 17 8c d2 bd
       0.0335648 -0.1303165 -0.14699376 -0.10280626
0000c0 03 98 19 bc 03 92 1e be 80 17 5b bd d2 e7 85 bd
       -0.009374621 -0.15485387 -0.05348921 -0.06538357
0000d0 15 25 23 be 0d b0 8d 3c 6d 97 51 bd 62 d8 28 3e
       -0.15932114 0.017295862 -0.0511698 0.16488793
0000e0 06 8d 73 bd 15 69 34 be 5a 27 8e 3d bb cd 84 bd
       -0.059460662 -0.1761821 0.069410995 -0.064845525
0000f0 bf 33 d3 3d e9 47 d2 3c 3c 50 7b 3d f5 b4 2d 3d
       0.10312604 0.025669055 0.061355814 0.042408902
000100 bf cc 01 3e f5 2a c2 bd 7b 8e 09 be d4 fa 33 be
       0.1267576 -0.0948085 -0.13433258 -0.17576152
000110 4e fd 8e 3d 5f a7 b2 3d 12 81 1d 3e 72 2d da 3d
       0.06981908 0.0872333 0.15381268 0.10653199
000120 6e fe 21 3c 8d 86 06 be e8 df 85 bd 3a 41 0a 3e
       0.009887321 -0.13137265 -0.06536847 0.13501444
000130 0f 75 03 bd 1c 47 d5 bd a1 ff a7 3d d4 b3 e9 3d
       -0.032094058 -0.10413954 0.08203054 0.114112526
000140 20 b4 f4 3d 3c 25 1c bd 59 a0 ad bd a8 7e 46 bd
       0.119484186 -0.038121447 -0.084778495 -0.048460633
000150 1c 3b a6 3b 8a 21 d5 bd a4 00 1b be ca ed 02 be
       0.0050729644 -0.10406788 -0.15136963 -0.12786022
000160 e2 e4 bd bd 37 35 78 bd f9 c2 ec bc 18 ed 2e be
       -0.092721716 -0.060597625 -0.028901564 -0.17082632
000170 7e 6b 24 bd 46 bf 1f be c2 29 b1 3d 4e 2c d7 bd
       -0.040141575 -0.15600309 0.08650543 -0.10506497
000180 d2 fc 1a be 92 25 8f 3d 41 dd 4a bd 69 02 4d 3d
       -0.15135506 0.06989588 -0.04952741 0.050051127
000190 5d 3e 80 3d 08 64 31 be 78 82 f7 3d 7d 5c b8 3d
       0.06261895 -0.17323315 0.12085432 0.09002016
0001a0 93 0c c8 bd ee 25 45 3d 87 8f b7 bd c8 52 96 bd
       -0.09768023 0.048131876 -0.089629225 -0.07340008
0001b0 aa 51 d6 bd 8a 62 3c bd df fb dd 3d e2 38 d5 bd
       -0.10464795 -0.04599241 0.10839056 -0.1041124
0001c0 64 a0 c5 3b 4e d5 f7 3d c5 b6 4e 3d d1 5a a1 bc
       0.006031083 0.121012315 0.05046727 -0.019696625
0001d0 e1 d5 bd bd 4e b8 6d bd 59 f0 57 3c 5b 4c ca 3d
       -0.0926931 -0.058037095 0.013179862 0.09877845
0001e0 8f 0c 0d 3e 7e eb a2 3d dd e0 1d 3e cf 29 28 3d
       0.13774322 0.07955073 0.1541781 0.041055497
0001f0 43 a8 93 3d c3 56 d3 bd d0 dd a3 3a 2c fb bb 3d
       0.07209828 -0.10319283 0.0012502018 0.091787666
000200 5b 12 00 be f6 05 fb bc 4f 1a d5 bd 7b 43 e6 bd
       -0.12507002 -0.03064249 -0.104054086 -0.1124334
000210 f6 a4 5c bd 47 25 f7 3d 9d 3d 02 be 15 c0 c3 3c
       -0.053868257 0.12067657 -0.12718816 0.023895303
000220 27 5e df 3b 37 02 13 3e 5d e4 e9 3d df 87 9f bd
       0.0068166438 0.14356314 0.1142051 -0.07789587
000230 4c d7 a2 3c e8 3d e4 3d dd 16 2b 3d 3e 28 d1 bd
       0.019878052 0.1114462 0.04176985 -0.10212754
000240 5e 73 13 bc de ff 40 3d db 8d 59 bd de 84 9b bc
       -0.008999674 0.047119014 -0.0531138 -0.018984254
000250 ff 6e c1 3d 41 1e dc 3d 4c 40 14 3d 6a 1c 8c 3d
       0.09444999 0.10747958 0.03619413 0.06841357
000260 a1 81 37 3d ea 76 0e 3e 4d 31 5c 3a 8f 44 83 bc
       0.044801358 0.1391255 0.00083996804 -0.016023902
000270 9d 7d 10 3e 60 5d 16 be 9a 41 06 3e 7c a1 2d ba
       0.14110418 -0.14684057 0.13110963 -0.00066234893
000280 44 9e a8 3b b6 c5 97 3d 2a 8d 12 be c4 bb d8 bd
       0.00514582 0.07410757 -0.14311662 -0.105826885
000290 0d 2d d9 bd 78 14 10 be 08 ab 34 3e ea 82 91 3d
       -0.10604296 -0.14070308 0.17643368 0.07105048
0002a0 f2 9a 45 bd b7 69 cd bd 29 15 d4 bd 3d 7d c9 bd
       -0.04824347 -0.10029929 -0.103555985 -0.098383404
0002b0 a6 0b d8 3d 5f a6 c4 3d 9c b6 06 be 16 45 ff 3d
       0.10549097 0.09602045 -0.13155597 0.12464349
0002c0 0f c5 e1 bd 3f bf 31 bd 2a 39 f9 bd 26 66 6a bd
       -0.11023914 -0.043395277 -0.12169106 -0.057226323
0002d0 30 f2 09 3e c4 64 b0 3d 78 9c f0 bd fb fa 05 3e
       0.13471293 0.086129695 -0.11748594 0.13084023
0002e0 b8 8a 0f bd 28 58 dc bd 21 82 04 be 03 94 06 be
       -0.035044402 -0.10759002 -0.12940265 -0.131424
0002f0 86 6c af bd cb c6 08 be 53 db 57 bc 0a b6 8e bd
       -0.08565621 -0.13357083 -0.01317485 -0.06968315
000300 6d 38 ba 3d af 3a 93 3d 8a 13 45 3d 40 9a 16 be
       0.090927936 0.071889274 0.048114337 -0.14707279
000310 cb f3 9a bd af b8 53 bd e0 71 0b 3e 6f 46 bb 3d
       -0.07566031 -0.0516898 0.13617659 0.091442935
000320 bc 09 52 bd 67 96 0c 3e 54 37 fa bd d6 e2 bc 3d
       -0.051278815 0.13729249 -0.12217584 0.09222953
000330 d0 f4 98 bd da 22 a2 bd f3 46 08 3e 36 ac 09 3e
       -0.07468569 -0.07916804 0.13308315 0.134446
000340 36 7b 09 be 91 3a 80 bc b3 50 94 3c 4f cd 46 3c
       -0.13425907 -0.015652927 0.018104887 0.01213391
000350 ee 64 18 be 04 11 c3 bc 49 54 ab 3d 9d 34 5f 3d
       -0.14882252 -0.023811825 0.083656855 0.054493535
000360 90 e5 16 3e 2e cf 32 3e d2 df 14 3d 26 ca 82 bd
       0.14736009 0.17461845 0.036346264 -0.06386213
000370 42 9f 16 be 9c 47 c2 bd be c6 f5 3d ad db 0b 3e
       -0.1470919 -0.09486315 0.12000798 0.13658018
000380 a3 ed 34 3e d8 cb 09 3e 78 19 20 3b a5 ff d4 bd
       0.17668776 0.13456666 0.0024429243 -0.10400323
000390 63 11 57 3d 25 92 f4 bd fc 79 c9 bd f5 8c d6 bd
       0.052506816 -0.11941937 -0.0983772 -0.10476104
0003a0 47 ff e4 3c 52 d5 59 bd 44 40 88 3c ec 38 53 3c
       0.027953757 -0.053181954 0.016632207 0.012891989
0003b0 f1 9a 02 3e ff a8 db 3d 43 f0 70 bd aa e3 2a 3e
       0.12754418 0.10725593 -0.05882288 0.1668841
0003c0 96 b2 cd bd 65 a6 fb 3d 86 84 f1 bc e8 6a 03 3e
       -0.10043828 0.122875966 -0.029482137 0.1283375
0003d0 53 e5 23 be 82 1b 50 3c b7 3d 97 3d e0 a7 20 3e
       -0.16005449 0.012701871 0.07384818 0.15689039
0003e0 2c a7 2b 3e 18 36 22 be 8b 4d 16 be 6e a6 d8 3d
       0.1676299 -0.15840948 -0.14678018 0.10578619
0003f0 5d 69 15 3e 1a 1d 07 be 92 d8 22 be 29 69 2f be
       0.14590974 -0.13194695 -0.15902928 -0.17129959

rnn.bias_ih_l0 f4 [32]
000000 d3 15 aa 3c 10 b8 bf bd 6d 0f 08 3e 27 d7 fd bc
       0.02076236 -0.09361279 0.13287134 -0.030986382
000010 76 dc eb bb c2 46 38 3d 15 e3 b1 bd 5f 24 93 bd
       -0.007197912 0.044989355 -0.086858906 -0.071846716
000020 63 07 41 3d 5f 00 02 be ef c5 83 3d 15 f5 84 bd
       0.047126185 -0.12695454 0.06434237 -0.06492058
000030 41 b8 84 bc 59 5a 0f 3e c2 18 6a 3c ab 02 a6 bd
       -0.01620114 0.13999309 0.014288129 -0.081059776
000040 46 8b ff 3c 11 bb 27 be 3f 77 45 bd 40 7b 25 3e
       0.03119434 -0.16379954 -0.048209425 0.16160297
000050 b9 d1 8c bd 74 5b 10 3e 6f aa 04 bd 8a c8 2f 3e
       -0.06875939 0.14097387 -0.0323891 0.17166343
000060 fb ff 87 bd 9b 56 36 be 2e 37 ce bd 16 03 a7 bd
       -0.06640621 -0.17806475 -0.100691184 -0.081548855
000070 89 2c 18 3e 2b ee 96 bd 14 47 ed 39 33 f1 96 3d
       0.14860739 -0.07369646 0.0004525712 0.07370224

rnn.bias_hh_l0 f4 [32]
000000 83 ef 48 bd e4 10 d9 3d 30 9c 6e 3d b1 0e 19 be
       -0.04905654 0.10598925 0.05825442 -0.1494701
000010 82 30 22 be 5e 92 3c bd 18 dc 6a 3d 3b 61 38 be
       -0.15838817 -0.046038024 0.057338804 -0.1800584
000020 49 ee 86 3d c1 b6 e6 bd db b7 09 be 94 0a 2e 3e
       0.06588418 -0.11265326 -0.13449042 0.16996223
000030 4d 9a 01 3e 87 e4 e1 bc cb 9d b6 3d f1 ca f7 bd
       0.12656517 -0.02757479 0.08916815 -0.12099255
000040 ef bf fb 3c 6e 90 15 3e 8e 43 f1 bd 4b c6 32 3b
       0.03073117 0.14605877 -0.11780463 0.0027278836
000050 42 91 fb 3c f6 ae dc 3d 7a 8b 47 3d 94 0c c2 bd
       0.030708913 0.10775559 0.048717 -0.09475055
000060 54 8a 31 be c8 8b 48 bd 6a 41 44 bd 30 82 08 3e
       -0.17337924 -0.04896143 -0.047913946 0.13330913
000070 2c 87 e7 3d f7 df 04 3e f8 a1 12 3e 1b 12 c5 bc
       0.11305079 0.12976061 0.14319599 -0.024056485

classifier.weight f4 [1, 32]
000000 f3 ef 71 3e d3 1c b5 3c 82 10 e8 bd 43 70 73 bd
       0.2362669 0.022108471 -0.113312736 -0.059433233
000010 03 08 00 be 6e 23 26 bd c2 31 c0 bd 84 63 48 be
       -0.12503056 -0.040561132 -0.093844905 -0.19569212
000020 ce b3 af bc 6d 64 2b 3e 16 cb 29 3c f8 c8 12 be
       -0.021448042 0.16737528 0.010363361 -0.14334476
000030 72 b6 0a be 1c 59 49 3e 3b dc 03 be 55 ab 8e 3c
       -0.1354616 0.19662899 -0.1287698 0.017415682
000040 71 fe 44 3d b4 b7 26 be fe d6 31 3e f7 a3 de bb
       0.048094217 -0.16281015 0.1736717 -0.0067944485
000050 d0 79 4b 3d 47 b1 5e 3e 58 21 bc 3c e9 4d 2f 3e
       0.049676716 0.21747313 0.022965118 0.17119564
000060 81 60 13 be f7 d7 32 be 75 3f 38 3d 32 3d 4b 3e
       -0.14392282 -0.17465197 0.044982392 0.19847563
000070 ae 26 16 be 32 e4 eb bd fc 74 69 3e 07 7c 09 3d
       -0.14663193 -0.11518134 0.22798532 0.033565547
