save/1-4_rnn_sp_80.pt (torch, 14345 bytes, 7 tensors)

emb_layer.weight f4 [80, 16]
0	0x00000000	0.0
1	0x00000000	0.0
2	0x00000000	0.0
3	0x00000000	0.0
4	0x00000000	0.0
5	0x00000000	0.0
6	0x00000000	0.0
7	0x00000000	0.0
8	0x00000000	0.0
9	0x00000000	0.0
10	0x00000000	0.0
11	0x00000000	0.0
12	0x00000000	0.0
13	0x00000000	0.0
14	0x00000000	0.0
15	0x00000000	0.0
16	0xbf5a1aa8	-0.85196924
17	0xbe824f36	-0.25451058
18	0x3fe3e86b	1.7805303
19	0xbe6725a2	-0.2257295
20	0x3ed08997	0.40729973
21	0xbf1908b2	-0.59778893
22	0xbdd9fcd9	-0.1064393
23	0x3f1d4c86	0.6144489
24	0xbe9a7f68	-0.30175328
25	0xbeb2eccd	-0.3494629
26	0x3f390afd	0.7228239
27	0x3fc63476	1.548476
28	0x3d85309b	0.065034114
29	0x3e6fac9d	0.2340569
30	0x3f190dfb	0.5978696
31	0x3f18dc1d	0.59710866
32	0x400fcbd9	2.2468169
33	0xbe803abe	-0.25044817
34	0x3ffaffdc	1.9609332
35	0x4021116b	2.516688
36	0xbf1e7a42	-0.619053
37	0x3f3f308b	0.74683446
38	0xbfc804cf	-1.5626467
39	0xbf75d925	-0.9603446
40	0x3e860505	0.26175705
41	0x3f2cc584	0.67488885
42	0xbf122d80	-0.5710068
43	0x3f85ae67	1.0443848
44	0xbe826476	-0.2546727
45	0xbf3bc4b3	-0.73347014
46	0x3e7c8c35	0.2466286
47	0x40020a30	2.0318718
48	0x3f08c180	0.5342026
49	0x3e4afa08	0.19821942
50	0xbfbaf386	-1.4605567
51	0x3f84c527	1.0372666
52	0x3f92e2cc	1.1475463
53	0x3f97a1fd	1.184631
54	0xbff7656a	-1.9327824
55	0xbf057acf	-0.52140516
56	0x3f7a4cc9	0.97773415
57	0xbf52f8cf	-0.824109
58	0xbd6d34a8	-0.057911545
59	0xbf0c422e	-0.5478848
60	0xbf3e8c02	-0.74432385
61	0x3eeb153e	0.45914644
62	0x3e4f0980	0.20218468
63	0x3e198147	0.14990722
64	0x3ed5d5be	0.41764635
65	0x3ea6dc1a	0.325898
66	0xbf3592f4	-0.7092736
67	0xbf4a4960	-0.7901821
68	0xbeb5b84a	-0.35492164
69	0x3fcc59c1	1.5964891
70	0x3ea618bd	0.3244075
71	0xbc5ae670	-0.013360605
72	0x3ea2782e	0.31732315
73	0xbf0b2557	-0.5435385
74	0xc010b89a	-2.2612672
75	0xbfa8c7e2	-1.3185999
76	0xbe1607ac	-0.14651364
77	0x3f709e97	0.9399199
78	0xbf1f6c8c	-0.62275004
79	0x3f5465ae	0.8296765
80	0xbec4daaf	-0.38448092
81	0xbeb0406f	-0.3442416
82	0xbf2704cc	-0.65241694
83	0xbf119018	-0.56860495
84	0xbf0d33f8	-0.55157423
85	0x3ffaaa3c	1.9583201
86	0x3ef86d7f	0.4852104
87	0xbf002669	-0.5005861
88	0x3fe760c5	1.8076407
89	0xbfbbd43e	-1.4674146
90	0xbe9d8617	-0.30766365
91	0x3d1918e8	0.037377268
92	0xbea1eea4	-0.3162738
93	0xbf8fbff1	-1.1230451
94	0xbee7b9a8	-0.45258832
95	0xbf23d40e	-0.63995445
96	0x3fd465a2	1.6593516
97	0x3f7d28fa	0.9889065
98	0x3eeb0a9d	0.45906535
99	0xbf77da58	-0.9681754
100	0x3d16608b	0.036713164
101	0x3f5ef6fe	0.8709563
102	0x40361138	2.844801
103	0xbd144bbd	-0.036205042
104	0x3eeef089	0.4666789
105	0xbf6b1cce	-0.9184083
106	0xbe831f4b	-0.25609812
107	0xbf7f7487	-0.9978718
108	0xbee6fd9a	-0.45115358
109	0x3f08b9ec	0.53408694
110	0xbed2a7dd	-0.41143695
111	0xbf915846	-1.1355064
112	0x3fdc39c2	1.7205126
113	0xc00f8e32	-2.243054
114	0x3fc053f5	1.5025622
115	0xbf211377	-0.62920326
116	0x3e2aaef6	0.16668305
117	0x3df706fe	0.120618805
118	0xbef51ef4	-0.47875178
119	0x3f80ebb4	1.0071931
120	0x3b2b9267	0.0026179792
121	0xbefd917b	-0.49525055
122	0xbf1b23d2	-0.6060153
123	0xbf871a10	-1.0554829
124	0xbfd1ee94	-1.6400933
125	0x3f6a61e0	0.91555595
126	0x3d9acc28	0.07558471
127	0xbe967f59	-0.29394034
128	0x3f25a409	0.6470342
129	0xbff1d8f0	-1.8894329
130	0x3f2c8dcb	0.6740386
131	0x3fcc9b81	1.5984956
132	0xbeaf971d	-0.34294978
133	0x3fa7040d	1.3048111
134	0xbf42a032	-0.7602569
135	0x3f1654dd	0.5872324
136	0xbef0e2d9	-0.4704807
137	0xbf1957a1	-0.59899336
138	0xbfa217c8	-1.2663507
139	0xbf3cf9fb	-0.7381894
140	0x3f91ba6d	1.1385018
141	0xbeb8faeb	-0.36128935
142	0x3f4ac68f	0.79209226
143	0x3f823fc4	1.017571
144	0x3fbede93	1.4911674
145	0x3efaa749	0.48955753
146	0xbfb111f2	-1.3833601
147	0x3f8c9cef	1.0985392
148	0x3fdb6e09	1.7142955
149	0x3f1f858b	0.62313145
150	0xc00d8b9f	-2.2116468
151	0x3efcbf4c	0.49364698
152	0xbf99f2f7	-1.2027272
153	0xbfa47379	-1.284774
154	0x3ee81311	0.45327047
155	0x3f028921	0.5099049
156	0xbfb0015b	-1.3750414
157	0xbd4a6ca1	-0.049420003
158	0xbf5331a5	-0.82497627
159	0xbf896901	-1.073517
160	0x3f105c63	0.5639097
161	0x3ebe3e35	0.37156835
162	0x3cc812c5	0.024423013
163	0xbeeb934a	-0.4601081
164	0xbf1a9943	-0.6039011
165	0x3f021a9a	0.5082184
166	0x3f9bd250	1.2173557
167	0x3eb5c812	0.35504204
168	0xbe456ec7	-0.1928054
169	0x3f816489	1.0108806
170	0xbf2ac156	-0.6670126
171	0x3e911ab4	0.28340685
172	0x3f4bd680	0.79624176
173	0xbfa4c3f5	-1.2872301
174	0xbd482d16	-0.048871122
175	0xbf8ef4c2	-1.1168444
176	0xbe93bd0b	-0.28855166
177	0x3f16ac55	0.5885671
178	0x3fe1a5be	1.7628706
179	0xbe9d01c1	-0.306654
180	0x3f9e4c8d	1.2367111
181	0xbd36b764	-0.04460849
182	0x3ebb945a	0.3663662
183	0x3ed60bc7	0.4180586
184	0xbf7041c7	-0.9385037
185	0xbef7a2ff	-0.48366544
186	0x3f03f668	0.5154786
187	0xbdcd1e28	-0.100155175
188	0xbfa9882c	-1.3244681
189	0x3f5b6373	0.8569862
190	0xbea59981	-0.32343677
191	0xbf66761f	-0.9002399
192	0x3d3dbe06	0.0463238
193	0x3f74222a	0.9536463
194	0x3e52dc78	0.20591915
195	0xbf447895	-0.76746494
196	0xc009e8e9	-2.1548407
197	0x3f1ce470	0.6128607
198	0xbda87b98	-0.08226699
199	0xbf24757d	-0.6424177
200	0xbfa7e407	-1.3116463
201	0xbdf66ce7	-0.1203249
202	0xbf138aac	-0.5763347
203	0xbf28b115	-0.65895206
204	0xbfc09081	-1.5044099
205	0xbfee3e24	-1.8612714
206	0xbf0e3bd5	-0.55560046
207	0xbe8668df	-0.26251885
208	0x3f3874f3	0.7205345
209	0xbf55982f	-0.8343534
210	0x3e977e07	0.2958834
211	0x3f4269e0	0.759428
212	0xbd1b2499	-0.0378767
213	0x401b00a8	2.421915
214	0x3f06a6db	0.5259835
215	0x3e0aadd4	0.13542873
216	0xbec7647d	-0.38943854
217	0xbf499b62	-0.7875272
218	0xbe9570d1	-0.29187635
219	0x3f4eed0e	0.80830467
220	0x3f6d7565	0.92757255
221	0xbfa5872a	-1.2931874
222	0xbebd7fc5	-0.37011543
223	0x3eca4c0f	0.39511153
224	0xbeb6009e	-0.35547346
225	0xbf061576	-0.52376497
226	0xbfc3f7bd	-1.5309979
227	0x3f32d162	0.6985074
228	0xbfc747eb	-1.5568823
229	0xbf5e9f61	-0.8696194
230	0xbf2eab80	-0.6823044
231	0x407acbd4	3.9186907
232	0x3f61870a	0.8809668
233	0xbe9c168d	-0.30485955
234	0x3d5ce4fe	0.05392932
235	0x3fe1d8e5	1.7644316
236	0xbf263333	-0.64921874
237	0x3e39bdd0	0.18138814
238	0xbef281b5	-0.47364584
239	0x3f18587f	0.59510034
240	0x3ff2fcde	1.8983419
241	0xbf0a8f92	-0.5412532
242	0xc01b426f	-2.4259298
243	0xbfd128cc	-1.6340575
244	0x3f2d3967	0.67665714
245	0xbfbd1868	-1.4773073
246	0x3e93e3db	0.28884777
247	0xbf2a05bb	-0.66414994
248	0xbf6236f0	-0.8836508
249	0xbf61ee20	-0.88253975
250	0x3e272952	0.16324356
251	0xbf9fbe4b	-1.2479948
252	0x3f89c776	1.0763996
253	0x403e0eca	2.9696527
254	0x3ee55b73	0.44796333
255	0xbff9293f	-1.9465712

rnn.weight_ih_l0 f4 [32, 16]
0	0xbc15e903	-0.009149793
1	0xbdbbda54	-0.09172502
2	0xbdff9f36	-0.12481539
3	0x3cdf1e9c	0.027236275
4	0x3cfd5144	0.03092254
5	0x3d4d1cd6	0.05007633
6	0x3df5917d	0.1199064
7	0xbcb52f00	-0.022117138
8	0xbe01be6c	-0.12670296
9	0x3dbae269	0.091252156
10	0xbd2f2623	-0.04276098
11	0xbc5bf348	-0.013424702
12	0x3e077ef8	0.13232028
13	0xbdb40ceb	-0.087915264
14	0xbdebc3e4	-0.115119725
15	0x3e3e1ad1	0.18564917
16	0xbc99149a	-0.018686581
17	0xbe035fe2	-0.12829545
18	0xbddc2f33	-0.1075119
19	0xbe07efa6	-0.13275012
20	0x3d2d88ae	0.042366676
21	0xbe09ee86	-0.13469896
22	0x3dfec429	0.12439758
23	0xbe22d135	-0.15900119
24	0x3d22294d	0.03959017
25	0x3d7ce166	0.061738394
26	0x3da6fd8b	0.08153828
27	0xbe3a9559	-0.18221034
28	0x3dcf1c46	0.101128146
29	0x3c2a9fb7	0.010414056
30	0xbdc90169	-0.09814722
31	0xbe2a1c88	-0.16612446
32	0x3da38f07	0.07986265
33	0x3e045f8e	0.12927076
34	0xbd0f7498	-0.0350233
35	0x3ced0da1	0.028937163
36	0xbd65eadc	-0.056132182
37	0xbb161a77	-0.0022903958
38	0xbe02c133	-0.12769012
39	0x3e308309	0.17237486
40	0xbd90cd2c	-0.070703834
41	0xbbb2ee16	-0.005460511
42	0xbe225ec6	-0.15856466
43	0x3dbff13f	0.09372186
44	0x3d3bda14	0.045862272
45	0xbd9d64fd	-0.076852776
46	0xbe05d46e	-0.13069317
47	0x3d30cc49	0.04316357
48	0x3d3a77c0	0.04552436
49	0x3d5f8cb6	0.05457755
50	0x3df03811	0.11729444
51	0xbdce3c1b	-0.10070058
52	0xbdbe5ce5	-0.09295062
53	0xbd5c079b	-0.05371819
54	0xbe22d29e	-0.15900657
55	0xbd473344	-0.048632875
56	0x3da255ba	0.07926507
57	0x3d50e285	0.050997276
58	0xbe220f5e	-0.15826175
59	0x3e0e68e9	0.13907208
60	0xbe185b31	-0.14878537
61	0xbd94794a	-0.072496966
62	0x3c14b78e	0.009076966
63	0x3ac9813c	0.0015373598
64	0xbcc7d924	-0.024395533
65	0x3d37e5c2	0.04489685
66	0x3e2b1447	0.16706954
67	0xbdee1bb0	-0.11626375
68	0x3dc84888	0.09779459
69	0xbe2c0d4c	-0.16801947
70	0x3db8cef9	0.09023852
71	0xbdca95c1	-0.098918445
72	0x3cbdb917	0.023159547
73	0xbda22128	-0.0791648
74	0xb862a96a	-5.4040378e-05
75	0x3e0c23a6	0.13685474
76	0x3d23f64c	0.04002981
77	0x3db05fe5	0.086120404
78	0x3e2a1450	0.16609311
79	0x3e1c8a16	0.1528705
80	0x3e0d0f8c	0.13775462
81	0xbe2f4059	-0.1711439
82	0xbe253ed6	-0.16137251
83	0x3dd38ca3	0.10329559
84	0xbe14f7f9	-0.14547719
85	0x3d1da687	0.03848889
86	0xbd6a1a1f	-0.057153817
87	0xbe32073d	-0.17385574
88	0x3df7eb8f	0.12105476
89	0xbe0e4d75	-0.13896735
90	0x3d9b820a	0.07593162
91	0xbe1d4bf9	-0.15361013
92	0x3df7396c	0.12071499
93	0xbd027063	-0.03184546
94	0x3daeb0c7	0.08529811
95	0xbd0d9e40	-0.034574747
96	0x3d97f96f	0.074206226
97	0x3e06545b	0.13118117
98	0x3d924a49	0.07143075
99	0x3dbe37e4	0.09288004
100	0x3c1d00fa	0.009582752
101	0x3beb2551	0.0071760793
102	0xbd7b2e96	-0.061323725
103	0xbda84ed4	-0.0821816
104	0x3e042d00	0.12907791
105	0x3db21a5c	0.08696434
106	0xbdab6094	-0.0836803
107	0x3d31de44	0.04342486
108	0x3d9d9940	0.07695246
109	0x3d842f4f	0.06454336
110	0x3c18d883	0.009328964
111	0x3d08b7c5	0.03337838
112	0x3e124a73	0.14286213
113	0x3de12a49	0.109943934
114	0xbdcc28b5	-0.09968702
115	0xbca800b5	-0.02050815
116	0x3ddccaf1	0.107808955
117	0x3b5d6c8c	0.0033786623
118	0xbdbb0554	-0.09131876
119	0xbd38b8b7	-0.045098033
120	0xbe321868	-0.17392123
121	0xbc4d642e	-0.012536092
122	0x3d96c1bd	0.073611714
123	0xbd83a34e	-0.06427632
124	0x3c886d42	0.01665366
125	0x3ddd38f9	0.10801882
126	0xbd50faf9	-0.051020596
127	0x3e2b00f5	0.16699584
128	0x3d052cd9	0.032513473
129	0xbd87f74c	-0.06638965
130	0x3e1f0b14	0.1553157
131	0xbe1b248a	-0.15150657
132	0x3ce08662	0.027407829
133	0x3e38072a	0.17971483
134	0x3db6c789	0.08924777
135	0x3cfac82c	0.030613028
136	0x3e101f40	0.14074421
137	0xbdfdc665	-0.123913564
138	0xbd7f415d	-0.062318195
139	0x3d56c6d2	0.052435704
140	0x3e227492	0.1586478
141	0x3d4dab72	0.05021233
142	0xbd0a4945	-0.03376128
143	0xbdf5f28d	-0.120091535
144	0x3d272ff7	0.040817227
145	0x3dcd2024	0.10015896
146	0x3d856632	0.06513633
147	0x3e19bae6	0.15012702
148	0xbd671943	-0.056420576
149	0xbe3b0ad7	-0.18265854
150	0xbd8ecaae	-0.06972252
151	0x3d422fb3	0.04740877
152	0x3b25ec09	0.002531769
153	0x3c18136f	0.009281977
154	0x3e177461	0.14790489
155	0xbded5b4d	-0.1158968
156	0xba507403	-0.00079518574
157	0x3e1a1a9b	0.15049212
158	0xbdfd671a	-0.12373181
159	0xbcd4d77e	-0.025981661
160	0x3d682302	0.05667401
161	0xbe213f0c	-0.15746707
162	0x3c37cda7	0.011218465
163	0x3e2b8252	0.16748932
164	0xbdff76bb	-0.12473818
165	0xbe084e7b	-0.13311188
166	0xbc061cff	-0.008185624
167	0xbd5335d3	-0.051565003
168	0xbdf8722a	-0.1213115
169	0x3d505a65	0.050867457
170	0x3d720df9	0.059095357
171	0xbb1c7a3a	-0.0023876564
172	0xbc5f778d	-0.013639343
173	0x3e1a1f01	0.1505089
174	0x3d9f1df7	0.07769387
175	0x3e37086d	0.17874308
176	0xbd944ae2	-0.07240845
177	0xbde43f26	-0.11144857
178	0x3e1251a2	0.14288953
179	0xbd375829	-0.04476181
180	0x3d9864b0	0.074410796
181	0xbdabdaa5	-0.083913125
182	0xbe1518bd	-0.14560218
183	0xbe2eb289	-0.17060293
184	0xbdcdef6e	-0.10055433
185	0xbd78797e	-0.06066274
186	0x3dde1e36	0.10845606
187	0x3e221153	0.15826921
188	0x3e28a328	0.16468489
189	0x3c794758	0.015214764
190	0x3dae7986	0.085192725
191	0x3e34c5da	0.176536
192	0x3dfdb9df	0.12388968
193	0xbe175ad4	-0.14780742
194	0x3e48b6b7	0.1960095
195	0xbe0129c5	-0.1261359
196	0x3deee0a3	0.1166394
197	0x3defcc7c	0.11708924
198	0x3dbb2e26	0.091396615
199	0xbe02cf13	-0.12774305
200	0xbda1eef1	-0.079069026
201	0x3d8c4275	0.06848613
202	0x3d011d06	0.03152182
203	0xbc4c6633	-0.012475538
204	0xbe13461a	-0.1438221
205	0xbc5ac5a5	-0.013352786
206	0xbe3e0999	-0.18558349
207	0x3e2cd750	0.1687901
208	0xbd016bd4	-0.031596974
209	0x3cc4dfde	0.02403253
210	0x3d51366d	0.051077295
211	0x3d54705a	0.05186496
212	0xbe05f524	-0.13081795
213	0xbda22812	-0.07917799
214	0x3e29adb1	0.16570164
215	0x3dc47229	0.09592087
216	0xbde533f9	-0.111915536
217	0x3d65423e	0.055971377
218	0xbd96efbf	-0.07369947
219	0xbd1dabc9	-0.038493905
220	0x3d4bd8cd	0.049767304
221	0x3e24a435	0.16078265
222	0xbbf14f90	-0.007364221
223	0x3db12297	0.086491756
224	0xbc0dd483	-0.008656624
225	0xbac9f189	-0.0015407066
226	0x3e10c225	0.1413656
227	0xbd567ae0	-0.052363276
228	0xbd66ff13	-0.0563956
229	0x3e2a1e60	0.1661315
230	0xbd8b92ad	-0.068150856
231	0xbb4dc0a3	-0.0031395338
232	0x3d57586e	0.052574567
233	0xbdc9b9ed	-0.09849916
234	0xbded7204	-0.115940124
235	0x3e31473f	0.17312334
236	0xbe23e3af	-0.16004823
237	0xbdc84204	-0.097782165
238	0x3e1c818f	0.15283798
239	0x3e19a99b	0.15006106
240	0x3e34ee6f	0.1766908
241	0xbd87fe58	-0.06640309
242	0x3d18b524	0.037282124
243	0x3e33a06c	0.17541665
244	0x3dffbaa6	0.12486772
245	0x3dbb6cd8	0.0915162
246	0x3d8c71e3	0.0685766
247	0xbdd9e37a	-0.10639091
248	0xbc25693f	-0.010095893
249	0x3e220c69	0.15825047
250	0xbdab6ffc	-0.08370969
251	0x3d12346a	0.035694517
252	0xbdcb9c56	-0.09941928
253	0x3e2670df	0.16253994
254	0x3c5b235d	0.0133751305
255	0xbd80386c	-0.062607616

rnn.weight_hh_l0 f4 [32, 32]
0	0x3af9be36	0.001905388
1	0xbd0c2f3b	-0.03422473
2	0xbe08908a	-0.13336387
3	0xbdeee592	-0.11664881
4	0x3dcae3be	0.099067196
5	0x3de04ff8	0.10952753
6	0xbb929f47	-0.0044745537
7	0xbdd311ce	-0.1030613
8	0xbd84a786	-0.06477265
9	0xbe076a29	-0.1322409
10	0xbd81caec	-0.063375324
11	0x3da89a70	0.082325816
12	0x3a442974	0.00074829836
13	0xbd07effc	-0.03318785
14	0xbe35ccfc	-0.17753977
15	0xbdb996c5	-0.0906196
16	0xbd7b33e4	-0.061328784
17	0x3de5bee5	0.11218051
18	0xbc474b87	-0.012164003
19	0xbe3ca544	-0.18422419
20	0x3da6af33	0.08138885
21	0xbc5546d1	-0.013017372
22	0x3d54f404	0.051990524
23	0xbdbbcba4	-0.09169701
24	0x3d9ec843	0.07753041
25	0x3bb59205	0.0055410885
26	0xbe27f44d	-0.16401787
27	0x3cc3236c	0.023820601
28	0xbe25c650	-0.16188931
29	0x3d543a71	0.051813547
30	0xbdc5191d	-0.096239306
31	0x3df81905	0.12114147
32	0x3d96d524	0.07364872
33	0xbc317146	-0.010830229
34	0xbe1c58b5	-0.15268214
35	0x3d8c8023	0.06860378
36	0xbddeb6ff	-0.108747475
37	0x3cd54d9e	0.026037987
38	0x3de6e53f	0.11274194
39	0x3a2830d3	0.0006415967
40	0x3c309ac5	0.010779087
41	0xbe273a08	-0.16330731
42	0xbc895f22	-0.016768996
43	0xbda21d23	-0.07915714
44	0x3d2a8ff9	0.04164121
45	0xbe27ba9d	-0.16379781
46	0xbc5a4666	-0.013322448
47	0x3db3e0ff	0.08783149
48	0x3d14093b	0.036141615
49	0x3e201202	0.1563187
50	0x3e10919d	0.14118047
51	0xbc4afb7a	-0.012389058
52	0x3ca5ccdd	0.020239288
53	0x3c92d8c0	0.01792562
54	0x3d93bbca	0.07213552
55	0x3bf87739	0.007582572
56	0xbd920588	-0.07129961
57	0x3e2dbfbb	0.1696767
58	0x3e22c5ed	0.15895815
59	0xbdcb7c37	-0.099358015
60	0xbe03adcc	-0.12859267
61	0xbe2dfe34	-0.16991502
62	0xbe046002	-0.12927249
63	0xbca7797b	-0.020443669
64	0xbe098090	-0.13427949
65	0x3de66c5f	0.11251139
66	0xbc84b3ed	-0.016199077
67	0xbbba7a01	-0.0056908135
68	0x3dc4482b	0.095840774
69	0x3da500e7	0.08056813
70	0xbe2bbea8	-0.16771948
71	0xbde0c6d2	-0.10975422
72	0x3c176e00	0.009242535
73	0xbe00c743	-0.12576012
74	0xbd48b038	-0.04899618
75	0x3c9273e4	0.017877527
76	0xbe38e859	-0.18057384
77	0xbd5aa15b	-0.053376537
78	0xbde51f75	-0.111876406
79	0xbe097759	-0.13424434
80	0xbdb2824f	-0.08716261
81	0x3ded4327	0.11585074
82	0x3db0eb70	0.08638656
83	0xbdf904f5	-0.121591486
84	0x3e27aa01	0.16373445
85	0x3de06618	0.10956973
86	0x3d40f066	0.04710426
87	0x3e30d059	0.17266978
88	0x3dcb0c17	0.09914415
89	0xbd25c059	-0.04046664
90	0x3e17308c	0.14764613
91	0xbd90cb53	-0.07070031
92	0xbdc23dd3	-0.09484448
93	0xbdc40305	-0.095708884
94	0xbe2e7523	-0.17036872
95	0xbd6ac11c	-0.05731307
96	0xbd214949	-0.03937653
97	0x3d1187ef	0.035530027
98	0x3db53568	0.08848077
99	0xbdc65685	-0.09684471
100	0x3ded2840	0.11579943
101	0x3e199e7c	0.15001863
102	0xbd426516	-0.047459684
103	0xbde68a35	-0.1125683
104	0xbdd4fa2e	-0.103992805
105	0xbe1fb24a	-0.15595356
106	0xbd536f14	-0.051619604
107	0x3e05b277	0.1305636
108	0x3cccc9ff	0.024998663
109	0x3c5c28ff	0.013437509
110	0xbc88e571	-0.016710969
111	0x3c313a5d	0.010817138
112	0xbe08de85	-0.13366134
113	0xbb204f92	-0.002446149
114	0x3e165013	0.14678983
115	0x3daccef1	0.084379084
116	0xbc14dcfd	-0.009085891
117	0x3cb5eda5	0.022208044
118	0xbe00c712	-0.1257594
119	0x3e11c765	0.14236219
120	0xbddc48d7	-0.107560806
121	0x3d735634	0.05940838
122	0xbc803ce1	-0.01565403
123	0xbd3f2224	-0.04666342
124	0xbdc3db07	-0.095632605
125	0xbd8936bd	-0.066998936
126	0x398e620d	0.00027157404
127	0xbe0cf031	-0.13763501
128	0x3db45fed	0.08807359
129	0xbcfce0f2	-0.030868981
130	0x3df5b547	0.119974665
131	0x3d5b5275	0.053545434
132	0xbe26512e	-0.16241905
133	0x3c2d45e1	0.010575742
134	0xbd0eff67	-0.03491154
135	0xbde49cc5	-0.11162714
136	0x3c81df33	0.0158535
137	0x3b1fa9b1	0.0024362619
138	0xbcd8cf5c	-0.026466064
139	0x3e153379	0.14570417
140	0xbbed0597	-0.0072333324
141	0xbdfed7f3	-0.12443533
142	0x3e209b82	0.15684322
143	0xbd6228aa	-0.05521456
144	0x3de2bf17	0.11071604
145	0xbe28d1fe	-0.16486356
146	0xbe0ad8e9	-0.13559307
147	0x3e0f879e	0.14016578
148	0xbd746c7e	-0.05967378
149	0xbc8841e3	-0.01663298
150	0xbdc0ab9a	-0.094077304
151	0x3d6574f6	0.056019746
152	0xbcc6476c	-0.024203978
153	0x3e01a21e	0.12659499
154	0xb9877f51	-0.00025844065
155	0xbc0cf558	-0.008603416
156	0xbddffad0	-0.109365106
157	0xbd80465f	-0.06263422
158	0xbc1190f4	-0.008884657
159	0x3e175a77	0.14780603
160	0x3d9cd323	0.07657459
161	0x3da9f3a6	0.082984254
162	0xbc832d69	-0.016012864
163	0xbddf71dd	-0.109103896
164	0x3df2a32e	0.1184753
165	0x3e135726	0.14388713
166	0xbd0cfa9c	-0.034418687
167	0x3e0ca5d4	0.13735133
168	0xbd6b546a	-0.05745355
169	0x3e2bb967	0.16769944
170	0x3ddd62b6	0.10809843
171	0x3df14fb8	0.11782783
172	0xbd3fa26f	-0.046785768
173	0x3df9d460	0.121987104
174	0xbd8cfe30	-0.0688442
175	0x3e072f5e	0.13201663
176	0x3db5f4f5	0.088846125
177	0x3d79631a	0.060885526
178	0x3d10a5a8	0.035314232
179	0x3e3211cd	0.17389603
180	0xbd290fd9	-0.04127488
181	0x3c90ab36	0.017659765
182	0x3e0e1b4a	0.13877597
183	0xbdb71bae	-0.08940826
184	0xbda4fa17	-0.08055513
185	0x3dad47a6	0.084609315
186	0x3ce8a556	0.02839915
187	0xbdb5fc95	-0.08886067
188	0x3e26a50a	0.16273895
189	0xbd97f3f7	-0.074195795
190	0x3d7c9b67	0.06167164
191	0xbda88170	-0.08227813
192	0xbe0aaaff	-0.13541792
193	0xbdf8045e	-0.12110208
194	0xbe0b9687	-0.1363164
195	0xbe2810b6	-0.16412625
196	0x3d84c467	0.06482773
197	0x3dc442bc	0.09583041
198	0xbdf513f7	-0.119666986
199	0x3e0690d6	0.13141188
200	0xbd8a01d8	-0.06738633
201	0x3d17697e	0.03696584
202	0xbdb333e3	-0.08750131
203	0xbe2bf2d4	-0.1679185
204	0x3de359d3	0.11101117
205	0x3da5ecea	0.081018284
206	0x3e302a0f	0.17203544
207	0xbe198a9d	-0.14994283
208	0xbe1f5f78	-0.15563762
209	0x3d349536	0.04408761
210	0x3d3688d2	0.044564076
211	0x3d49ca0d	0.049264956
212	0xbb966a14	-0.004590282
213	0x3e0c6f8a	0.13714424
214	0x3deb29eb	0.114826046
215	0xbdfccab3	-0.12343349
216	0xbcb9c5ac	-0.022677265
217	0x3da1ac67	0.07894211
218	0x3d0c9672	0.034323163
219	0xbddb5ff8	-0.10711664
220	0x3c9df12f	0.019280044
221	0x3def0b2f	0.11672055
222	0x3d424c9b	0.047436338
223	0x3d83444d	0.06409512
224	0x3b0b904e	0.002129573
225	0x3c00dac8	0.0078646615
226	0x3d5610a7	0.052261975
227	0xbd5f19f6	-0.054468118
228	0xbe2e696d	-0.17032404
229	0x3dff46ff	0.12464713
230	0xbc6c31fa	-0.014416212
231	0x3dec93af	0.11551606
232	0xbda38aa1	-0.07985426
233	0x3c07978b	0.008275877
234	0xbd3ab31d	-0.045580972
235	0x3e231671	0.1592653
236	0xbdee5b96	-0.116385624
237	0x3d5ddf19	0.05416784
238	0x3d7db549	0.061940465
239	0x3d9e6551	0.07734168
240	0xbe04550a	-0.12923065
241	0xbd71c09f	-0.05902159
242	0xbe2f5815	-0.17123444
243	0xbd809003	-0.06277468
244	0x3cdf4170	0.027252883
245	0xbddda793	-0.10822978
246	0x3d777bb5	0.06042071
247	0xbe0cfcf3	-0.13768367
248	0xbd829a86	-0.06377129
249	0x3d525e71	0.051359598
250	0xbd71dee3	-0.059050452
251	0x3e2114cb	0.15730588
252	0xbe0bb2a9	-0.13642372
253	0xbd0d9793	-0.03456838
254	0x3c5afa67	0.013365365
255	0xbc9b603a	-0.018966783

rnn.bias_ih_l0 f4 [32]
0	0xbdbdd89c	-0.092698306
1	0xbd735501	-0.059407238
2	0x3da5e9d0	0.08101237
3	0x3e24653d	0.16054244
4	0x3de45d74	0.11150637
5	0xbd7169a0	-0.058938622
6	0xbd1f9cdf	-0.038967963
7	0xbde35565	-0.11100272
8	0xbc669670	-0.014073953
9	0xbdf547e6	-0.11976604
10	0x3d3b54d7	0.045735206
11	0x3e2e47c9	0.17019571
12	0x3dba7d18	0.09105891
13	0xbcfd5c37	-0.03092776
14	0x3dc1cb65	0.094626226
15	0xbca86154	-0.020554222
16	0xbdf86982	-0.12129499
17	0xbbd4107d	-0.006471692
18	0x3b9b0a0b	0.004731422
19	0x3d9affd7	0.07568329
20	0xbe180c76	-0.14848503
21	0xbe31720e	-0.17328665
22	0xbd053302	-0.032519348
23	0x3bd4d78d	0.006495422
24	0x3d5d802e	0.05407732
25	0x3e1beb50	0.15226483
26	0x3d6b51a4	0.057450905
27	0xbd7a6d7d	-0.061139572
28	0xbda43bb2	-0.080191985
29	0xbd1d9b0a	-0.038477935
30	0xbd443af6	-0.047907792
31	0x3d5977ff	0.053092953

rnn.bias_hh_l0 f4 [32]
0	0xbdd60f65	-0.10452155
1	0x3e38cf08	0.18047726
2	0xbc8a34a4	-0.016870804
3	0xbd432388	-0.047641307
4	0x3d8cb242	0.068699375
5	0x3ddc52b4	0.10757962
6	0x3e281e91	0.1641791
7	0xbe24c838	-0.16092002
8	0xbe27947c	-0.16365236
9	0xbdbcbaac	-0.09215292
10	0xbd92acb7	-0.07161849
11	0x3d85ab5c	0.06526825
12	0xbe02d7d6	-0.12777647
13	0xbd9bb8a8	-0.0760358
14	0xbc0a6282	-0.008446338
15	0x3d5ed268	0.054399878
16	0x3c80c5c7	0.015719308
17	0xbc1aba06	-0.0094437655
18	0x3d953528	0.072855294
19	0x3b68eca9	0.003554145
20	0x3cc8a4d8	0.024492666
21	0x3c9b7ec8	0.018981352
22	0xbde5114a	-0.11184938
23	0xbd9c9388	-0.07645327
24	0x3e34bcdf	0.17650174
25	0xbe3d6df6	-0.18498978
26	0xbd5422bd	-0.05179094
27	0xbdfa09df	-0.12208914
28	0x3de9a888	0.11409098
29	0x3caaa4f0	0.020830601
30	0x3db97092	0.09054674
31	0xbcd39d66	-0.02583189

classifier.weight f4 [2, 32]
0	0xbe0a7657	-0.13521706
1	0xbb5a3112	-0.0033293408
2	0x3e430b9e	0.190474
3	0x3da8d8ba	0.08244462
4	0x3e2da87b	0.16958801
5	0x3db2fe3f	0.087399
6	0x3dd3bd2f	0.10338818
7	0x3dabcd0f	0.08388721
8	0xb98cb0a3	-0.00026834485
9	0xbe212c07	-0.15739451
10	0x3e08303c	0.1329965
11	0x3d852dce	0.06502877
12	0x3cc5c118	0.024139926
13	0xbe3c7613	-0.18404417
14	0x3d5fd31d	0.054644693
15	0xbd866c60	-0.0656364
16	0x3dc18346	0.094488665
17	0x3e34e1b1	0.1766422
18	0xbdeae84b	-0.114700876
19	0x3e5c8110	0.21533608
20	0xbdb47650	-0.08811629
21	0xbdf52387	-0.11969667
22	0xbd8b0c07	-0.067894034
23	0xbd96a8d8	-0.07356423
24	0x3e42bb73	0.19016819
25	0xbdc9c566	-0.09852104
26	0x3dffc779	0.12489218
27	0xbd8e6174	-0.069521815
28	0xbe3a0b59	-0.18168391
29	0x3e3b62a6	0.1829935
30	0x3d2035d5	0.03911384
31	0x3e419141	0.18903066
32	0xbe340a71	-0.17582108
33	0x3de4f54e	0.11179601
34	0xbd881084	-0.06643775
35	0xbd9ae8c9	-0.075639315
36	0xbd868f93	-0.06570353
37	0x3b8ff2f0	0.004392974
38	0xbcb66300	-0.022264004
39	0xbe3d7e87	-0.18505298
40	0xbd226369	-0.039645586
41	0xbe2dd9b1	-0.16977574
42	0xbe532c05	-0.20622261
43	0x3def8cfe	0.11696814
44	0xbe06785e	-0.13131854
45	0xbe6006de	-0.2187762
46	0x3db5dc27	0.08879881
47	0x3e236769	0.15957417
48	0xbe5a6b6a	-0.21330038
49	0xbde91e8d	-0.1138278
50	0x3e02e199	0.12781371
51	0xbd644f59	-0.055739734
52	0x3e49e554	0.19716388
53	0xbde5b94c	-0.11216983
54	0xbe0c58b9	-0.1370572
55	0xbe0bb9d7	-0.13645111
56	0x3e118b3d	0.14213271
57	0xbe0423a4	-0.12904221
58	0xbc956649	-0.01823725
59	0xbbf4149b	-0.0074487454
60	0x3b416313	0.0029508516
61	0x3e042fe8	0.129089
62	0x3db55f03	0.08856013
63	0x3e271bb3	0.1631916

classifier.bias f4 [2]
0	0xbd475069	-0.04866067
1	0x3d748c4f	0.05970412
