save/1-5_rnn_sp_90.pt (torch, 14985 bytes, 7 tensors)

emb_layer.weight f4 [90, 16]
0	0x00000000	0.0
1	0x00000000	0.0
2	0x00000000	0.0
3	0x00000000	0.0
4	0x00000000	0.0
5	0x00000000	0.0
6	0x00000000	0.0
7	0x00000000	0.0
8	0x00000000	0.0
9	0x00000000	0.0
10	0x00000000	0.0
11	0x00000000	0.0
12	0x00000000	0.0
13	0x00000000	0.0
14	0x00000000	0.0
15	0x00000000	0.0
16	0xbf55de83	-0.8354265
17	0x3f36be77	0.71384376
18	0x3f5afcfa	0.8554226
19	0x3f0e3d82	0.55562603
20	0xbf3e83f0	-0.7442007
21	0xbfcdaf55	-1.6069132
22	0x3d9dafbb	0.076995336
23	0xbf604f9a	-0.8762146
24	0x3d40fe4e	0.047117524
25	0x3f77bbd4	0.9677098
26	0x3f2689ef	0.6505422
27	0x3f8a3088	1.079606
28	0x3fb5f2bf	1.4214705
29	0xbf1ffde7	-0.624968
30	0x3f859cb0	1.0438442
31	0xbe673c8e	-0.22581694
32	0x3e9f03ef	0.3105769
33	0xbd907c88	-0.070550025
34	0xbcc1b44d	-0.023645544
35	0x3fe03ca8	1.7518511
36	0xbdb6bdac	-0.08922896
37	0x3e28dd9b	0.16490786
38	0x3fed0ba2	1.8519175
39	0x3edfc4fb	0.43704972
40	0x3f989027	1.1918992
41	0xbe33b1b4	-0.17548257
42	0x3f041514	0.5159466
43	0x3feb7667	1.8395509
44	0xbe224be4	-0.15849262
45	0xbf59e72e	-0.8511838
46	0xbe63dbe9	-0.22251858
47	0xbbdd9cf0	-0.006763093
48	0x3eb1cd7d	0.34727088
49	0x3fe256be	1.7682722
50	0x3f792d4f	0.9733476
51	0xbf8dfb1e	-1.109226
52	0xbdbdd4c5	-0.09269098
53	0xbff00a9e	-1.875324
54	0x3f25924d	0.6467636
55	0x3d7753e1	0.060382728
56	0x3f66100e	0.8986825
57	0x3f068a2f	0.525546
58	0xbf86ba22	-1.0525553
59	0xbe33f88d	-0.17575283
60	0xbea2faf6	-0.31832093
61	0xbf6fd70f	-0.9368753
62	0xbf1c0bce	-0.6095551
63	0xbf502333	-0.8130371
64	0xbf004426	-0.50103986
65	0x3fc0fbd0	1.5076847
66	0xbfb243cd	-1.3926941
67	0x3db0ef69	0.08639414
68	0x3e51944d	0.20466729
69	0xbfa5ff87	-1.2968606
70	0xbf24207d	-0.64112073
71	0xbf14fd94	-0.5819943
72	0xbf69ea26	-0.9137291
73	0xbf163a9d	-0.58683187
74	0xbf8bfe35	-1.0936953
75	0xbfdcdd0e	-1.725496
76	0xbf3b6a5b	-0.7320916
77	0xbea632a9	-0.32460526
78	0xbef98d0b	-0.4874042
79	0xbee3cb30	-0.44490957
80	0x3e591c5c	0.21202224
81	0xbf302775	-0.68810207
82	0x3f99cfa3	1.2016491
83	0xbe9e8b52	-0.30965668
84	0xbeae69a1	-0.34064963
85	0x3ef5f477	0.48038074
86	0xbf83f25a	-1.0308335
87	0xbc7f150b	-0.015568982
88	0xbd36a4f7	-0.044590916
89	0x3f54c0b5	0.8310655
90	0xbf9cecec	-1.2259803
91	0xbf3b5652	-0.7317859
92	0xb8df8755	-0.00010658676
93	0xbe0c85d8	-0.13722932
94	0x3f3e5897	0.7435393
95	0xbe897327	-0.26845667
96	0xbe4f1b17	-0.20225178
97	0x3f88f77e	1.0700529
98	0xbf1cf022	-0.61303914
99	0x3fd2556e	1.6432321
100	0x3ee1871e	0.440484
101	0xbf93bd93	-1.1542228
102	0x3e4e22a9	0.2013041
103	0xbebd077d	-0.36919776
104	0xbbc18c1d	-0.0059065954
105	0xbfb3fd52	-1.4061682
106	0x3fbfcbb9	1.4984046
107	0x40136071	2.3027613
108	0x3f3f5369	0.7473665
109	0xbebac80d	-0.36480752
110	0x3f7e5f18	0.9936385
111	0x3e972ac2	0.2952481
112	0xbfaf7a3c	-1.3709178
113	0xbee25d38	-0.44211745
114	0xbc9a75dc	-0.018855028
115	0xbf62edb2	-0.88643944
116	0x3ea381ef	0.3193507
117	0xbf92a34c	-1.1456084
118	0xbf4abdc3	-0.79195803
119	0xbf34d460	-0.7063656
120	0x3f5709c3	0.8399927
121	0x3ec15c63	0.37765798
122	0x3ca31f98	0.019912526
123	0xbf0c7ef8	-0.5488124
124	0x3f1eba48	0.6200299
125	0x3f9bb545	1.2164694
126	0x3f1d05af	0.613368
127	0xbfb79641	-1.4342729
128	0x3eb4db1a	0.3532341
129	0x3f27adad	0.65499383
130	0xbe97110a	-0.29505187
131	0xbf93358b	-1.1500715
132	0x3f82e835	1.0227114
133	0xbd3ab4be	-0.045582525
134	0x3d4c1914	0.049828604
135	0x3f44fa75	0.7694467
136	0xbe8d31c3	-0.27577028
137	0x3cd184a1	0.025575938
138	0xbf2cfd4f	-0.6757402
139	0x3ea40f09	0.3204272
140	0x3f957293	1.167559
141	0xbfa6327a	-1.2984154
142	0xbf43dda6	-0.76510084
143	0x3ea64078	0.3247106
144	0x3eec3891	0.46136907
145	0x3fe5604f	1.7920016
146	0x3f38af34	0.7214234
147	0x3f103808	0.56335497
148	0xbe769efb	-0.24084084
149	0x3f7b710c	0.9821937
150	0xbf3dfa3f	-0.7420997
151	0x3e8299df	0.2550802
152	0xbe1acc7a	-0.15117064
153	0x3e226a60	0.15860891
154	0xbee40e65	-0.44542232
155	0x3f6938c5	0.9110225
156	0xbf99c4e8	-1.2013216
157	0xbec97159	-0.3934429
158	0x3f438971	0.76381594
159	0xbfa5d1a3	-1.2954601
160	0x3f60220e	0.87551963
161	0xbf78812b	-0.97072095
162	0x3fc61527	1.5475205
163	0x3e907a29	0.282182
164	0xbf9be320	-1.2178688
165	0xbf7778a3	-0.9666845
166	0xbea5834c	-0.32326734
167	0xbf4fb049	-0.81128365
168	0xbe285288	-0.16437733
169	0x3f7f59a0	0.9974613
170	0x3fa9a74f	1.3254184
171	0xbf2fe6af	-0.6871137
172	0x3f1ad56d	0.6048191
173	0x3fdaa741	1.7082292
174	0x3f877558	1.0582685
175	0x3e8bbcdd	0.2729253
176	0xbf07a418	-0.5298476
177	0x3fd6c22c	1.6778007
178	0xbf6c22d0	-0.9224062
179	0x3f901c79	1.1258689
180	0x3efbd466	0.49185485
181	0xbd38f924	-0.045159474
182	0x3eda673e	0.42656893
183	0xbfbe2e1b	-1.485782
184	0xc008af66	-2.1357055
185	0x3e652c08	0.22380078
186	0xc006a486	-2.1037917
187	0x3ea1259d	0.3147401
188	0xbea1bd1e	-0.31589597
189	0xbf0b015b	-0.54298943
190	0x3e2007a4	0.15627915
191	0xbe80827c	-0.25099552
192	0xbfd3822f	-1.6524104
193	0x3e2b41b9	0.1672429
194	0x3e825403	0.2545472
195	0xbf003753	-0.5008442
196	0x3f9ed442	1.2408526
197	0x3f2b3eba	0.6689259
198	0x3ef3a0bb	0.47583565
199	0x3fac6e6f	1.3471202
200	0xbe994cf8	-0.29941535
201	0x3fc8b770	1.5680981
202	0x3eaef8ea	0.3417428
203	0x3f0f0ebf	0.55881876
204	0x3f829f68	1.0204897
205	0xbf7e8acd	-0.99430543
206	0x3f1dfacd	0.61710817
207	0xbf587449	-0.8455244
208	0xbf6ea2a5	-0.93216926
209	0x3f5ed945	0.87050277
210	0x3fa885a5	1.3165785
211	0xbdaa65ec	-0.08320221
212	0x3d88d8a3	0.06681945
213	0x3e7939b0	0.24338412
214	0xbf5d2f36	-0.86400163
215	0x3fc4af2a	1.5365956
216	0xbe025156	-0.1272634
217	0x3ed94ed0	0.42442942
218	0xbe21072e	-0.15725395
219	0xbbd63d48	-0.006538067
220	0x3f3a40de	0.7275523
221	0x3f9aabaf	1.2083644
222	0x3f930fbd	1.1489178
223	0x3c51230b	0.012764703
224	0x3f51be71	0.81931216
225	0x3e423f40	0.1896944
226	0xbf5cf711	-0.86314493
227	0x3fac029b	1.3438295
228	0xbe3cfa58	-0.18454874
229	0x3f42740f	0.7595834
230	0x3fa16f87	1.261216
231	0xbf6ec3b0	-0.93267345
232	0x3ec085f8	0.3760221
233	0xbeda0901	-0.42584994
234	0xbfba67e2	-1.4562953
235	0xbe0c1b6f	-0.1368234
236	0x3f68b683	0.9090349
237	0x3f4b33c6	0.79375875
238	0x3eea7b47	0.45797178
239	0xbfcbe520	-1.5929298
240	0x3f75d172	0.96022713
241	0xbf8b24d2	-1.0870612
242	0x3f13c826	0.5772728
243	0x3f43a340	0.76420975
244	0x3f877f3b	1.0585703
245	0x3ea0aa1a	0.31379777
246	0x3fead439	1.8346015
247	0x3db2d84a	0.0873266
248	0xc00f3b37	-2.2379892
249	0xc02526ce	-2.5804935
250	0x3ea6988d	0.32538262
251	0xbfde63fe	-1.7374265
252	0x3f27a047	0.6547894
253	0x3da23954	0.07921091
254	0x3f87f6e1	1.0622216
255	0x3f22142f	0.6331205

rnn.weight_ih_l0 f4 [32, 16]
0	0x3cdbc035	0.02682505
1	0x3ca2acf8	0.019857869
2	0xbde7d322	-0.11319567
3	0xbdfcf307	-0.12351041
4	0x3e45a36b	0.1930062
5	0xbdecba84	-0.115590125
6	0x3c53eb5e	0.012934534
7	0x3e2e5684	0.1702519
8	0x3e253155	0.161321
9	0xbddaff57	-0.106932335
10	0x3e2984dd	0.1655459
11	0xbd5085f8	-0.050909013
12	0x3e08acc7	0.1334716
13	0xbdcf565a	-0.10123892
14	0xbd4f68fe	-0.050637238
15	0xbde01f43	-0.10943463
16	0xbe2bbd65	-0.16771467
17	0x3d9971e0	0.07492423
18	0x3db0d895	0.0863506
19	0x3d9e1da0	0.07720494
20	0xbd262154	-0.040559128
21	0x3dfdd603	0.12394335
22	0xbd6b8ff2	-0.057510324
23	0xbe814fe8	-0.25256276
24	0xbce511db	-0.027962616
25	0xbe256e97	-0.16155468
26	0xbe67e5fc	-0.22646326
27	0xbe1755da	-0.14778844
28	0xbd88086a	-0.0664223
29	0x3e89c74b	0.2690986
30	0x3e2c23d6	0.16810545
31	0xbd77b831	-0.060478393
32	0xbdf6d022	-0.12051417
33	0xbba521ad	-0.005039415
34	0xbc9ef050	-0.0194017
35	0x3e4e14da	0.20125142
36	0xbcf36ac1	-0.02971399
37	0x3e066532	0.1312454
38	0x3e265587	0.16243564
39	0xbe1f364a	-0.15548053
40	0x3df6f14a	0.12057741
41	0xbcc4c840	-0.024021268
42	0xbe368b8a	-0.17826667
43	0x3d062cbb	0.032757502
44	0x3d323f8b	0.04351763
45	0xbd21482c	-0.03937547
46	0x3e121e9b	0.14269488
47	0x3cca1b5e	0.024671253
48	0xbc93ddcf	-0.018050103
49	0xbe308ea2	-0.1724191
50	0xbdb60a0a	-0.088886335
51	0xbe4a25a4	-0.19740921
52	0xbe01d952	-0.12680557
53	0x3dcfa402	0.10138704
54	0xbe20ab14	-0.15690261
55	0x3d218d27	0.039441254
56	0x3de77ac1	0.1130271
57	0x3da8d582	0.082438484
58	0x3e8aaf81	0.27087024
59	0x3e956200	0.2917633
60	0x3dfa7fd7	0.12231415
61	0xbdbcbb4c	-0.092154115
62	0xbb6f815c	-0.003654561
63	0xbdcd94c8	-0.100381434
64	0xb932787d	-0.00017020288
65	0xbcd2cf68	-0.025733665
66	0xbd0eb673	-0.034841966
67	0xbe323c1d	-0.17405744
68	0xbe0af187	-0.13568698
69	0x3dfc5329	0.12320549
70	0xbd905951	-0.07048286
71	0x3e82906a	0.25500804
72	0xbdd8fd3c	-0.105951756
73	0x3e38b784	0.18038756
74	0x3d9ca5b4	0.07648793
75	0x3e3bb005	0.18328865
76	0x3dc8c337	0.09802859
77	0x3e4ea156	0.20178732
78	0xbd58e1e0	-0.052949786
79	0xbd404024	-0.04693617
80	0x3dec6a1b	0.115436755
81	0x3d94dadc	0.072683066
82	0x3dbbae19	0.09164066
83	0xbc735e11	-0.01485397
84	0x3e0ee473	0.13954334
85	0xbd0d23ed	-0.03445809
86	0x3d12eb2b	0.035868805
87	0x3e1bb893	0.15207128
88	0xbe4e6c0d	-0.20158406
89	0xbdd85348	-0.1056276
90	0x3d9404e8	0.07227498
91	0xbd675f92	-0.056487627
92	0x3db002f9	0.08594317
93	0x3dd68242	0.104740635
94	0x3dbfd0d0	0.09366
95	0xbe3a5d5a	-0.18199673
96	0xbe0995c4	-0.13436037
97	0x3df43635	0.11924402
98	0x3da6b196	0.081393406
99	0x3e7013ab	0.23445003
100	0xbdfcc59a	-0.12342377
101	0x3e7860c4	0.24255663
102	0x3e189cc5	0.14903553
103	0x3bf3560a	0.007426028
104	0xbc310d52	-0.0108063985
105	0x3d462269	0.04837266
106	0xbda9a5a2	-0.08283545
107	0x3e0b544e	0.13606378
108	0x3b4ff007	0.003172876
109	0x3c98e5cf	0.018664269
110	0xbe1d1b09	-0.15342344
111	0xbda5b589	-0.08091266
112	0x3d94e0ca	0.072694376
113	0x3d305075	0.04304548
114	0x3dbdf164	0.09274557
115	0xbe0d926a	-0.13825384
116	0xbc499e09	-0.012305745
117	0xbc817d45	-0.015806803
118	0xbe4d8886	-0.20071611
119	0x3e40f7d8	0.18844545
120	0xbddcff27	-0.10790854
121	0xbde914a1	-0.11380888
122	0x3e5e5b6d	0.21714564
123	0xbd78a97f	-0.06070852
124	0xbe6783a8	-0.22608817
125	0xbd68a7a1	-0.05680049
126	0xbddaec6e	-0.10689627
127	0x3d32f179	0.043687318
128	0xbd9eb982	-0.077502266
129	0x3e1dd71f	0.15414093
130	0xbb53094e	-0.003220159
131	0x3c36f291	0.011166231
132	0xbc4ea0f0	-0.012611613
133	0x3e0c377f	0.13693045
134	0xbe0e023d	-0.13868041
135	0x3d5cda16	0.05391892
136	0x3e14692a	0.14493242
137	0x3e1cdbff	0.15318297
138	0xbce34c01	-0.027746202
139	0x3e523450	0.20527768
140	0x3decdff8	0.11566156
141	0x3df288f1	0.11842526
142	0xbd9cb6d0	-0.07652056
143	0xbc3c3604	-0.011487488
144	0xbc9c2b8e	-0.019063737
145	0xbd88e5ce	-0.06684457
146	0xbba66c6c	-0.005078843
147	0xbe0c07a1	-0.13674785
148	0x3dbd3254	0.09238115
149	0x3dcfc42c	0.10144839
150	0x3e0c4df1	0.13701607
151	0xbd224143	-0.03961302
152	0x3d443806	0.04790499
153	0x3e107cb3	0.14110069
154	0x3e82a2e3	0.25514898
155	0x3e294dd0	0.1653359
156	0xbd4516c7	-0.048117425
157	0xbe0a5628	-0.13509429
158	0xbde8bf4b	-0.11364611
159	0xbe042660	-0.12905264
160	0xbdb27455	-0.08713595
161	0xbcb03c58	-0.02151315
162	0xbdd33c0d	-0.10314188
163	0x3e45ba4d	0.1930935
164	0xbe596c5b	-0.2123274
165	0x3d6aed82	0.05735541
166	0x3de1cdcd	0.110255815
167	0xbe363f52	-0.17797592
168	0xbdfd208c	-0.123597234
169	0xbd7fb124	-0.062424794
170	0xbe49e1fc	-0.19715112
171	0x3c5d225e	0.013496963
172	0xbc87705e	-0.016533073
173	0x3e7b9f17	0.24572407
174	0x3dd690cf	0.10476839
175	0x3d9f5183	0.07779219
176	0xbe84e030	-0.2595229
177	0xbd0e6f73	-0.034774255
178	0xbe0132b9	-0.12617005
179	0xbe12ef2d	-0.14349051
180	0x3e0fe327	0.14051495
181	0xbdaa2554	-0.08307901
182	0xbdefda35	-0.117115416
183	0x3e1a90db	0.1509432
184	0x3dac6e45	0.0841947
185	0x3e31bf5d	0.17358156
186	0x3ded1e66	0.11578064
187	0x3db1d45d	0.08683083
188	0x3d2b3b95	0.04180487
189	0x3b3d0a80	0.002884537
190	0x3e3f12aa	0.18659464
191	0xbe50b3ec	-0.20381135
192	0xbca6ee1a	-0.020377208
193	0xbe34f3a9	-0.17671074
194	0x3d5dea6c	0.05417864
195	0xbe3548ca	-0.17703548
196	0xbe02b131	-0.12762906
197	0xbdbe6b16	-0.09297769
198	0xbd7c425d	-0.061586726
199	0x3e1da979	0.1539668
200	0xbd817b77	-0.06322377
201	0xbd49d2c5	-0.04927327
202	0x3dd6f2d5	0.10495535
203	0xbcd9503e	-0.02652752
204	0xbd587d6f	-0.052853998
205	0xbdf8979e	-0.12138294
206	0xbe60d267	-0.21955262
207	0xbdd669df	-0.10469412
208	0x3c729bbb	0.014807637
209	0x3b33d38c	0.0027439324
210	0xbdd7dc8e	-0.10540114
211	0x3e03ec6c	0.12883157
212	0x3d83c894	0.064347416
213	0xbe2c98df	-0.1685519
214	0xbe5e8a6b	-0.2173249
215	0x3e3d0107	0.18457423
216	0x3dbff1b4	0.09372273
217	0x3d444a06	0.047922157
218	0xbd8fab88	-0.07015139
219	0x3d92b030	0.07162511
220	0x3e098b3c	0.1343202
221	0xbe14c3b5	-0.14527781
222	0xbdeef81d	-0.116684176
223	0xbe24bba0	-0.16087198
224	0xbe2c03fd	-0.16798396
225	0xbda929a3	-0.08259895
226	0x3dcda625	0.10041455
227	0xbde8540c	-0.11344156
228	0xbd0c0283	-0.034182083
229	0xbda2c200	-0.07947159
230	0xbe3e4f6b	-0.18584983
231	0xbe18a044	-0.14904886
232	0x3e6270ec	0.22113389
233	0x3deeebc8	0.116660655
234	0xbdd3a4ba	-0.103341535
235	0xbdbaab20	-0.09114671
236	0xbb170405	-0.0023043167
237	0x3e0eaf2e	0.13934013
238	0xbd333f01	-0.043761257
239	0xbdd11651	-0.10209335
240	0xbe0487d2	-0.12942436
241	0x3c87d201	0.01657963
242	0xbd8fef06	-0.07028012
243	0x3d6edaf2	0.05831427
244	0xbda1f2c2	-0.079076305
245	0x3d7b2460	0.061313987
246	0xbd5eea8a	-0.054422893
247	0xbe12d6f3	-0.14339809
248	0x3cdf7521	0.027277531
249	0x3e6ff5ca	0.23433605
250	0xbe242738	-0.16030586
251	0x3e20957d	0.15682025
252	0x3e9141bc	0.28370464
253	0xbd22b399	-0.03972206
254	0xbd44c40a	-0.04803852
255	0xbe556124	-0.20837837

rnn.weight_hh_l0 f4 [32, 32]
0	0xbe2f4c39	-0.1711892
1	0xbe004c57	-0.12529121
2	0xbd1d7aa6	-0.038447045
3	0xbd0bb12e	-0.03410452
4	0x3c8662ba	0.016404498
5	0xbd0e6820	-0.03476727
6	0x3e78312a	0.24237505
7	0xbda7f81a	-0.082016185
8	0x3d57d950	0.05269748
9	0xbe4af13e	-0.19818589
10	0x3e144aa4	0.14481598
11	0x3dc799f0	0.09746158
12	0x3d6b07d0	0.057380497
13	0x3db59f60	0.08868289
14	0x3df1b95d	0.11802933
15	0x3e74ac5d	0.23893876
16	0x3d21e1cf	0.03952199
17	0x3df7ca2a	0.120991066
18	0x3df84392	0.12122263
19	0x3dd1b419	0.10239429
20	0xbda9cf6b	-0.08291515
21	0xbe3372bb	-0.17524235
22	0xbd975276	-0.07388775
23	0x3d82eeee	0.063932285
24	0xbe190f42	-0.14947227
25	0xbddb3316	-0.10703103
26	0x3e024bb7	0.12724195
27	0xbe06d0a4	-0.13165528
28	0x3d053d31	0.03252906
29	0x3caf0441	0.021364333
30	0xbe393c90	-0.18089509
31	0x3d8730db	0.06601115
32	0x3dfa3e63	0.122189306
33	0x3d7ab2f3	0.061205816
34	0x3da310ab	0.079621635
35	0x3d9b50a6	0.07583742
36	0x3e52e305	0.20594414
37	0xbe50acd7	-0.20378433
38	0x3e15b2b5	0.14618953
39	0xbe5a468b	-0.21315973
40	0x3e3345c5	0.17507084
41	0xbd15958a	-0.036519565
42	0x3e80f54d	0.2518715
43	0x3e77f8e2	0.24216035
44	0xbe5ba0b3	-0.2144802
45	0x3e5dd1f4	0.21662122
46	0x3e027823	0.12741141
47	0xbc1ef6ff	-0.009702443
48	0x3e3a7880	0.1821003
49	0x3e89ae9f	0.26891038
50	0x3e4a9342	0.19782737
51	0xbbff3060	-0.007787749
52	0xbe245524	-0.16048104
53	0x3e343250	0.17597318
54	0x3e346e59	0.1762022
55	0xbb538549	-0.003227549
56	0x3c4aefee	0.012386305
57	0x3e315201	0.17316438
58	0x3d591289	0.052996192
59	0x3e2171c9	0.15766062
60	0xbdc3183e	-0.09526108
61	0xbe1531ed	-0.14569826
62	0x3d777fb6	0.06042453
63	0x3d3d77a7	0.046256687
64	0xbc78f8f0	-0.01519607
65	0xbe6fd0fa	-0.23419562
66	0xbe6e5007	-0.23272716
67	0x3e44e1ea	0.19226804
68	0xbcae8622	-0.021304194
69	0xbdcc9270	-0.09988868
70	0xbe07356c	-0.13203973
71	0x3e3aabc2	0.18229583
72	0x3deb4167	0.11487084
73	0x3e023e3f	0.12719058
74	0xbe2956f9	-0.16537084
75	0x3e1283f1	0.14308144
76	0xbd813b09	-0.06310088
77	0x3e64099e	0.22269294
78	0x3b23c74f	0.0024990623
79	0xbd0a5000	-0.0337677
80	0x3e2f44db	0.1711611
81	0xbe2120fb	-0.15735237
82	0xbd1cbdca	-0.038266934
83	0x3e08cf80	0.13360405
84	0x3ccd87ca	0.025089163
85	0x3e05fbd9	0.13084354
86	0x3db10d59	0.08645124
87	0xbe129596	-0.14314875
88	0xbe1fd094	-0.1560691
89	0xbe3d9f39	-0.1851777
90	0x3dc8026d	0.09766088
91	0x3db639d7	0.08897751
92	0xbde63d5d	-0.11242173
93	0xbe15f466	-0.14644012
94	0xbd97ad60	-0.074061155
95	0x3d8961a6	0.06708078
96	0xbddb90a5	-0.10720948
97	0xbd8246d5	-0.063611664
98	0xbe29fc56	-0.16600165
99	0x3e2fb092	0.171572
100	0xbd234650	-0.039861977
101	0xbc20d18c	-0.009815585
102	0xbe3c1324	-0.18366677
103	0x3e2a0a04	0.16605383
104	0xbd5ffd3e	-0.05468487
105	0xbda916bf	-0.082562916
106	0x3d6f7833	0.05846424
107	0x3c2ed3b5	0.010670592
108	0xbcf8fc6d	-0.030393803
109	0xbdcb2c55	-0.09920565
110	0x3deb77ac	0.11497435
111	0xbe70dd36	-0.23521885
112	0x3da3efe2	0.080047384
113	0xbd96edbc	-0.07369563
114	0x3c2a5184	0.010395411
115	0xbd4f27a1	-0.050574902
116	0xbd6b81a8	-0.057496697
117	0xbd10662d	-0.035253692
118	0xbe154a4e	-0.14579126
119	0xbe07f9cf	-0.13278888
120	0x3d760c5f	0.06007039
121	0xbd9d9d2b	-0.07695993
122	0x3ad74f9a	0.0016426921
123	0xbc2c2baf	-0.010508462
124	0x3de30edd	0.11086819
125	0x3d14fc80	0.036373615
126	0x3d5791e2	0.05262936
127	0x3d1bd9ae	0.038049392
128	0xbe1c591b	-0.15268366
129	0x3db35b16	0.08757608
130	0xbe81173c	-0.2521304
131	0x3e951912	0.2912069
132	0x3dc1f44d	0.09470425
133	0x3d2cff68	0.042235762
134	0x3da4aa15	0.08040253
135	0x3e24edf9	0.16106404
136	0xbd9de51d	-0.077097155
137	0x3cfe7a6e	0.031064238
138	0xbcec5203	-0.0288477
139	0x3d56d003	0.05244447
140	0x3e115eaf	0.14196275
141	0xbd6e8bbe	-0.058238737
142	0xbd01dbb3	-0.031703662
143	0xbe5a793e	-0.21335313
144	0xbd9750e9	-0.07388479
145	0x3da90d78	0.08254522
146	0xbe1074d9	-0.14107074
147	0x3dc49221	0.095981844
148	0xbe8668ed	-0.26251927
149	0xbdb0019b	-0.08594056
150	0x3e2c98da	0.16855183
151	0xbe1795d0	-0.14803243
152	0xbe76824c	-0.24073142
153	0x3ceb2b9d	0.02870732
154	0xbdb23489	-0.087014265
155	0xbe07a085	-0.13244827
156	0xbe0cef10	-0.1376307
157	0xbcfb9355	-0.030709902
158	0x3ceb7e60	0.028746784
159	0xbe2bf1c4	-0.16791445
160	0x3d3e1bc2	0.04641319
161	0xbe4b5f3a	-0.19860545
162	0xbdb8eb1f	-0.09029221
163	0xbe1d981c	-0.15390056
164	0x3daa6d20	0.08321595
165	0xb990e967	-0.0002763972
166	0xbe7b8d5f	-0.24565648
167	0xbd79d4b0	-0.06099385
168	0x3e12c350	0.14332318
169	0x3e09a859	0.13443126
170	0xbdd69f77	-0.10479634
171	0xbdae0a29	-0.08498032
172	0xbe2317c6	-0.15927038
173	0xbdb10ed2	-0.08645405
174	0x3de3fcd2	0.11132206
175	0xbc8702e1	-0.016480865
176	0xbdaa2c4d	-0.08309231
177	0xbe74a617	-0.23891483
178	0xbd0bb6fb	-0.03411005
179	0xbdee1a69	-0.11626131
180	0x3e6c41dd	0.23072
181	0x3da5d6cc	0.0809761
182	0xbe85977b	-0.26092133
183	0x3d9845f8	0.074352205
184	0xbdc8f47d	-0.098122574
185	0x3e4e23ed	0.20130892
186	0xbd864b3e	-0.0655732
187	0x3cea1234	0.028573133
188	0x3e10d022	0.14141896
189	0xbe0d9f1d	-0.13830228
190	0x3e5f6696	0.21816477
191	0xbe5eb18d	-0.21747418
192	0x3e261fdd	0.16223092
193	0x3dd99d1e	0.10625671
194	0xbde3c6fd	-0.111219384
195	0xbe4a4928	-0.1975447
196	0x3dbb3342	0.09140636
197	0x3e1b9989	0.15195288
198	0xbe288d3b	-0.16460125
199	0xbd4b2c26	-0.04960265
200	0xbd6131f3	-0.054979276
201	0xbd6eb381	-0.058276657
202	0x3e551dd8	0.20812166
203	0x3da46fbe	0.08029126
204	0xbdc2c842	-0.095108524
205	0x3cd4c59f	0.02597314
206	0x3e3ae1f2	0.18250254
207	0x3e4b21b9	0.19837083
208	0x3e00ac65	0.12565763
209	0x3e070786	0.13186464
210	0x3e2065ba	0.15663806
211	0xbd074b3d	-0.033030737
212	0x3dc1a8bb	0.09456011
213	0xbe120a37	-0.14261709
214	0x3ddf92ee	0.109166965
215	0x3d8ccec5	0.06875376
216	0x3d2f94a4	0.042866364
217	0xbd508fcc	-0.050918385
218	0x3e329e72	0.17443255
219	0x3d014a15	0.03156479
220	0x3d8972a3	0.06711318
221	0x3d20ece2	0.03928841
222	0x3e118b24	0.14213234
223	0x3d98cb99	0.07460708
224	0x3df03252	0.11728348
225	0x3e8660db	0.2624577
226	0x3d1dd622	0.03853429
227	0xbe219b49	-0.15781893
228	0xbe2f6157	-0.17126976
229	0x3e5a9838	0.2134713
230	0x3e080358	0.13282526
231	0xbd5cb508	-0.053883582
232	0x3d8930ef	0.066987865
233	0x3d0e958d	0.03481059
234	0x3e26c3ee	0.16285679
235	0x3ddfaacf	0.10921251
236	0x3daa52c1	0.08316565
237	0xbd9c76b6	-0.0763983
238	0xbd214d50	-0.03938037
239	0x3dc575c2	0.09641601
240	0xbd853bef	-0.06505572
241	0x3db79d35	0.08965532
242	0xbbb73664	-0.0055912007
243	0x3e312739	0.17300119
244	0x3e04ec0c	0.1298067
245	0x3dad0420	0.084480524
246	0xbb83807c	-0.0040131193
247	0x3e148e32	0.14507368
248	0x3e24c04a	0.16088977
249	0x3de1e95d	0.11030839
250	0x3e3ea6f1	0.1861837
251	0x3d0baae5	0.034098525
252	0x3dc482bc	0.09595248
253	0x3d48949b	0.048969846
254	0xbd608770	-0.054816663
255	0x3d76380d	0.060112048

rnn.bias_ih_l0 f4 [32]
0	0xbcf3034c	-0.029664658
1	0xbc43afff	-0.011943816
2	0xbd429c67	-0.04751244
3	0xbd9d93af	-0.07694184
4	0x3cdfa36e	0.027299609
5	0x3daed490	0.08536637
6	0xbc01dd75	-0.007926335
7	0xbddc51be	-0.107577786
8	0xbdfb8c6d	-0.122826435
9	0x3e396a85	0.1810704
10	0x3c269786	0.010167962
11	0x3d850671	0.06495369
12	0x3cdb7155	0.02678744
13	0xbdd0ae4b	-0.10189494
14	0xbd544523	-0.051823746
15	0x3c4ed3ac	0.012623709
16	0xbe05ea28	-0.13077605
17	0xbd45ef57	-0.048323955
18	0xbde1279b	-0.10993882
19	0xbd585143	-0.052811872
20	0x3daf820a	0.08569725
21	0xbd34b40c	-0.04411702
22	0xbde6ca8d	-0.11269102
23	0xbe33eab7	-0.17570005
24	0x3df5cd1b	0.120020114
25	0x3cc547bd	0.024082059
26	0x3d438e7f	0.047743317
27	0x3d1bcc66	0.038036726
28	0x3de1f514	0.11033073
29	0x3d76bcd8	0.06023869
30	0xbe3f8116	-0.18701586
31	0x3dae51ae	0.08511673

rnn.bias_hh_l0 f4 [32]
0	0xbe04b1b3	-0.12958412
1	0xbe4c4c25	-0.19950922
2	0x3c5c1ec0	0.013435066
3	0xbd5ab2c2	-0.053393133
4	0xbc1019c8	-0.008795209
5	0xbd87db0f	-0.06633579
6	0x3da16e30	0.07882345
7	0xbc6ccb9a	-0.014452839
8	0x3d97e10c	0.07415971
9	0x3d6f2077	0.05838057
10	0xbcf1eba3	-0.029531306
11	0x3d1a4145	0.037659902
12	0xbe2709ca	-0.16312328
13	0xbe134d25	-0.14384897
14	0x3d93632b	0.07196649
15	0x3d74359f	0.05962145
16	0x3d7c38ac	0.061577484
17	0x3dec91b1	0.11551226
18	0x3db1c3d1	0.08679927
19	0xbe0bda80	-0.1365757
20	0xbdc50eaa	-0.096219376
21	0xbe4ebb40	-0.20188618
22	0x3e36dbfc	0.17857355
23	0xbe043c06	-0.12913522
24	0x3cba6e66	0.02275772
25	0xbc0c1541	-0.008549989
26	0xbe14d403	-0.14534001
27	0x3e36419b	0.17798464
28	0xbd8c9b92	-0.0686561
29	0xbd94dea0	-0.07269025
30	0xbd0d6056	-0.0345157
31	0xbe288e31	-0.16460492

classifier.weight f4 [2, 32]
0	0x3e300111	0.17187907
1	0x3ef551ab	0.4791387
2	0x3d421ca2	0.047390588
3	0x3d75a855	0.059974987
4	0xbd7b944e	-0.06142073
5	0xbf1b3ea7	-0.60642475
6	0x3e9b56d0	0.3033967
7	0x3e99ac1f	0.3001413
8	0xbe0723f4	-0.13197309
9	0x3f3d4f95	0.7394956
10	0x3e430f80	0.19048882
11	0xbeb4fb18	-0.3534782
12	0x3ed2b67a	0.41154844
13	0x3e841d32	0.25803524
14	0xbf33a379	-0.70171314
15	0xbd6e7850	-0.058220208
16	0x3dcdfb31	0.100576766
17	0xbed5a8d1	-0.4173036
18	0xbea97d83	-0.3310357
19	0x3ec1360f	0.37736556
20	0x3eb7044a	0.3574546
21	0x3f00ebc5	0.50359756
22	0x3e892c9a	0.2679184
23	0x3dbf4559	0.09339399
24	0x3d86a7c7	0.0657497
25	0xbf21020d	-0.62893754
26	0x3dd9dc12	0.10637678
27	0x3dd7aca6	0.10530977
28	0xbe578621	-0.2104726
29	0xbf2430b6	-0.64136827
30	0xbc0196d2	-0.0079094935
31	0x3ef4b1aa	0.47791797
32	0x3ec3fa3f	0.3827686
33	0x3e056d22	0.13029912
34	0xbf045d22	-0.5170461
35	0xbe8905d5	-0.26762262
36	0xbe8a9345	-0.27065483
37	0xbe53ad3f	-0.20671557
38	0x3e8974fb	0.26847062
39	0x3e93cd34	0.28867495
40	0xbe9a3002	-0.30114752
41	0x3e1e3c2b	0.1545264
42	0xbe0e6385	-0.13905151
43	0xbf00d80b	-0.50329655
44	0x3ee8f066	0.4549591
45	0x3ed5d45c	0.4176358
46	0xbef45bf3	-0.47726402
47	0x3e72cb88	0.23710454
48	0x3ea6c99d	0.32575694
49	0xbe603762	-0.21896127
50	0xbef9dd52	-0.48801666
51	0x3e152d46	0.14568052
52	0xbd2acf0d	-0.041701365
53	0x3e8ffdcd	0.28123322
54	0x3f073b40	0.52824783
55	0xbea4b85d	-0.32171908
56	0x3e80c792	0.2515226
57	0xbebd9311	-0.37026265
58	0xbe25f08f	-0.16205047
59	0x3ea75b5d	0.32686892
60	0xbe92ba67	-0.2865784
61	0xbef1c16f	-0.4721789
62	0xbef04472	-0.4692722
63	0x3e57506e	0.21026775

classifier.bias f4 [2]
0	0x3e16a49a	0.14711228
1	0x3eadc6b3	0.33940658
