save/1-5_rnn_sp_60.pt (torch, 13065 bytes, 7 tensors)

emb_layer.weight f4 [60, 16]
0	0x00000000	0.0
1	0x00000000	0.0
2	0x00000000	0.0
3	0x00000000	0.0
4	0x00000000	0.0
5	0x00000000	0.0
6	0x00000000	0.0
7	0x00000000	0.0
8	0x00000000	0.0
9	0x00000000	0.0
10	0x00000000	0.0
11	0x00000000	0.0
12	0x00000000	0.0
13	0x00000000	0.0
14	0x00000000	0.0
15	0x00000000	0.0
16	0x3eb6b2e6	0.35683364
17	0xbf899e89	-1.0751506
18	0x3f1d88af	0.6153669
19	0x3f0e725b	0.5564324
20	0xbfae76d8	-1.3630018
21	0x3dba2895	0.09089772
22	0xbfdfd7dc	-1.748775
23	0x3e847606	0.25871295
24	0xbd09d09a	-0.033646204
25	0xbe652faf	-0.22381471
26	0xbe9d4c53	-0.30722293
27	0x3e2db1a0	0.1696229
28	0xbfc01d65	-1.500897
29	0x3e0cd480	0.13752937
30	0x3f558610	0.8340769
31	0xbf8271b3	-1.0190948
32	0xbede3f74	-0.43407786
33	0xbe1fb76d	-0.15597315
34	0xbe780d6e	-0.24223873
35	0xbebe26c5	-0.37138954
36	0xbf47488c	-0.7784507
37	0x3fa29d79	1.2704307
38	0xbecdc6d2	-0.4019075
39	0xbeef9bec	-0.46798646
40	0x3f6b0ffd	0.9182127
41	0xbf964b52	-1.1741736
42	0xbfb738f8	-1.431426
43	0xbf15998e	-0.5843743
44	0xbfe8cb51	-1.8187047
45	0x3d88e860	0.06684947
46	0x3f8f1e49	1.1181117
47	0x3da817fb	0.08207699
48	0x3fe54a7b	1.7913355
49	0xbf9dda82	-1.2332308
50	0x3f42120b	0.7580878
51	0x3f5da63d	0.86581784
52	0x3f076833	0.5289337
53	0xbefa9928	-0.48944974
54	0x3efe71c5	0.49696174
55	0xbf0d6f9b	-0.5524842
56	0x3f86e2d7	1.0537976
57	0xbf14f400	-0.58184814
58	0xbf467e5e	-0.7753657
59	0xbedd5a8f	-0.43233153
60	0xbe97d173	-0.29651985
61	0x3d86677c	0.06562707
62	0x3f8ab437	1.0836247
63	0x4010662b	2.2562358
64	0xbd835262	-0.06412198
65	0xbf69424b	-0.9111678
66	0xbfab2530	-1.3370724
67	0x3f3e9cff	0.7445831
68	0x3f13241c	0.57476974
69	0xbf1ef398	-0.62090445
70	0x3f980c7a	1.1878808
71	0xbf5b39e0	-0.85635185
72	0xbe1f4ab4	-0.1555584
73	0x3f63bb2e	0.8895749
74	0x3ea64092	0.32471138
75	0x3f1cf280	0.61307526
76	0x400ef45a	2.233664
77	0x3f18112f	0.5940122
78	0x3f619b9c	0.88128066
79	0x3ede37f3	0.4340206
80	0xbf981c4e	-1.1883638
81	0xbdfc0d08	-0.12307173
82	0xbf7a13eb	-0.9768664
83	0xbecac28b	-0.3960155
84	0xbbcc5e1b	-0.006236804
85	0x3f9c3d29	1.2206165
86	0x3efde7d4	0.49590933
87	0xbef66514	-0.4812399
88	0x400470b9	2.06938
89	0xbf87460f	-1.0568255
90	0x3da71cc6	0.08159785
91	0x3f738715	0.95127994
92	0xc0001cec	-2.0017653
93	0x3f52edfb	0.8239438
94	0xbfed6bad	-1.8548485
95	0xbf3ce911	-0.7379313
96	0xbf582c61	-0.84442717
97	0x3ec66e0f	0.38755843
98	0x3fab6464	1.3390012
99	0xbf3e82ef	-0.7441854
100	0xbf0b3e13	-0.5439159
101	0x3ddcd545	0.107828654
102	0xbf03596d	-0.5130833
103	0x3f3d1773	0.73863906
104	0x3dc4124b	0.095738016
105	0x3f2d34ce	0.676587
106	0xbe8fac61	-0.28061202
107	0xbe3f770e	-0.1869776
108	0xbfb96011	-1.4482442
109	0xbd9c5787	-0.07633882
110	0xbe6f65d1	-0.23378684
111	0x3faa2979	1.3293906
112	0x3e1297b6	0.14315686
113	0xbe9f21ad	-0.3108038
114	0x3e344436	0.17604145
115	0xbf517330	-0.8181639
116	0x3f83b4a8	1.0289507
117	0x3edf8ba9	0.4366124
118	0x3f5810dd	0.8440073
119	0x3d8c8fd6	0.06863372
120	0xbdd9cbf7	-0.10634606
121	0x3f05d4e6	0.5227798
122	0x3f0b3225	0.5437339
123	0xbf2bc92c	-0.6710384
124	0xbd65cd4f	-0.056104
125	0x3f9eaa0b	1.2395643
126	0x3ef6aa0b	0.48176607
127	0xbfa3c7b7	-1.2795323
128	0xbe86dc3d	-0.26339903
129	0xbf87d849	-1.061288
130	0xbf88bae7	-1.0682038
131	0x3ee5e929	0.4490445
132	0x3f4c091d	0.79701406
133	0x4017baec	2.3707838
134	0xbe73e3a3	-0.23817305
135	0x3f54a85f	0.83069414
136	0xbe5eecb3	-0.21769981
137	0x3d6acd8e	0.05732494
138	0xbc73e52a	-0.01488618
139	0xbb031c26	-0.0020005791
140	0x3f3816d0	0.7190981
141	0x3e3aa14f	0.18225597
142	0x3ee626ad	0.44951382
143	0x3f0f9c82	0.56098187
144	0x3fabf656	1.3434551
145	0x3ef88291	0.48537114
146	0xbfa23f7a	-1.2675622
147	0xbf437e3d	-0.763645
148	0xbfda615d	-1.7060963
149	0xbd997059	-0.07492132
150	0xbf2278ee	-0.63465774
151	0xbf50a9ae	-0.8150891
152	0xbf6fbdd5	-0.93649036
153	0x3d0b9e09	0.03408626
154	0xbf831ad6	-1.0242565
155	0xbf93a1e4	-1.153378
156	0x3db017f2	0.08598317
157	0xbe936075	-0.28784528
158	0x3e0c573f	0.13705157
159	0xbef98332	-0.48732907
160	0x3fc25938	1.5183477
161	0xbea062ad	-0.31325284
162	0x3f4bfb90	0.7968073
163	0x3ea44803	0.3208619
164	0xbf816bd4	-1.0111032
165	0x3f4d8d89	0.8029409
166	0xbf1e7b4e	-0.619069
167	0xbfc12996	-1.5090816
168	0xbf13daa6	-0.57755506
169	0x3fbc4a41	1.471016
170	0x3edd680b	0.4324344
171	0xbf943a34	-1.1580262
172	0xbed57a11	-0.41694692
173	0x3c1a177f	0.009405016
174	0x3f6bf169	0.9216524
175	0xbee5089b	-0.44733128
176	0xbf0d88bc	-0.55286765
177	0x3f5e32b5	0.8679612
178	0x3f5a8cc7	0.8537106
179	0x3f2c45e5	0.6729415
180	0x3e327882	0.17428783
181	0x3f82e16f	1.0225047
182	0xbe5d7cc0	-0.2162962
183	0x3f1a31e5	0.60232383
184	0xbfac8907	-1.3479317
185	0x3fbb18de	1.4616964
186	0x3f4989f3	0.7872612
187	0xbf869abc	-1.0515971
188	0xbf2f3129	-0.6843439
189	0xbf839fc9	-1.0283138
190	0xbfa72595	-1.3058344
191	0x3dbec0a2	0.093140855
192	0x3f8d43b3	1.1036285
193	0xbf4ce4fa	-0.8003689
194	0x3f24de42	0.6440164
195	0x3ea3ad79	0.31968287
196	0xbd2453e0	-0.040119052
197	0x3fbc8fc0	1.4731369
198	0xbe8741fe	-0.26417536
199	0xbf12ecf1	-0.57392794
200	0x3f10268e	0.5630883
201	0xbf0622db	-0.52396935
202	0xbffdc5dc	-1.9826007
203	0xbff13db2	-1.8846953
204	0x3e8e9e4a	0.2785514
205	0xbf1add9e	-0.6049441
206	0x3fc481f5	1.535216
207	0x3f79dc88	0.9760213
208	0x3f67f0f0	0.90602016
209	0x3c612246	0.013741082
210	0x3ebccdfd	0.36875907
211	0x3ff0d755	1.8815714
212	0x3e52797e	0.20554158
213	0x3f1c85ae	0.6114148
214	0xbfb8192f	-1.4382685
215	0x3d12106e	0.0356602
216	0x4022ec04	2.5456553
217	0xbfbe193f	-1.4851454
218	0x3e0390bc	0.1284818
219	0xbfd113da	-1.6334183
220	0x3f425fa5	0.7592719
221	0xbf8e9247	-1.113839
222	0x3ee77c62	0.45212084
223	0xbeffe201	-0.49977115
224	0x40089ed4	2.134694
225	0xbf579fd1	-0.84228235
226	0x3e7471b5	0.23871501
227	0xbe30da48	-0.17270768
228	0x3d42b740	0.047538042
229	0xbe0de11b	-0.13855402
230	0xbf27afff	-0.65502924
231	0x40208468	2.5080814
232	0xbf77da59	-0.9681755
233	0xbb10e4d8	-0.0022109058
234	0x3f70ff15	0.94139224
235	0x3e6a34cf	0.22871707
236	0x3ee26bbb	0.44222817
237	0xbf47cb0e	-0.7804421
238	0x3bc162d9	0.005901676
239	0x3f16859d	0.5879763
240	0xbf82f082	-1.0229647
241	0x3f3f9930	0.7484312
242	0x3ea24fad	0.31701413
243	0xbd19392a	-0.03740803
244	0xc029f47f	-2.6555479
245	0x3f52f0b6	0.82398546
246	0xbf5455a8	-0.829432
247	0xbe6a2a00	-0.22867584
248	0xbf2c3ec5	-0.6728328
249	0xbf93aa9b	-1.153644
250	0xbe18d066	-0.14923248
251	0xbef42f0d	-0.47692147
252	0xbfa5104f	-1.2895602
253	0x3efdd904	0.49579632
254	0xbef73cdf	-0.48288628
255	0xbf92fe1d	-1.1483799

rnn.weight_ih_l0 f4 [32, 16]
0	0xbe415c04	-0.18882757
1	0x3d6d0872	0.057869382
2	0xbdb73455	-0.089455284
3	0xbde8f2c4	-0.11374429
4	0x3df7361b	0.12070867
5	0xbd6d3380	-0.057910442
6	0xbe361191	-0.17780139
7	0x3d7eddc6	0.06222322
8	0xbdfc119c	-0.12308046
9	0x3dcc05ed	0.09962068
10	0x3e28cace	0.16483614
11	0x3d05d2bc	0.032671675
12	0x3df4ccd3	0.119531296
13	0xbd8f9d44	-0.07012418
14	0x3e084f27	0.13311444
15	0xbb5eebc7	-0.0034015046
16	0x3cbabbc7	0.022794617
17	0xbd796995	-0.060891706
18	0xbde291a7	-0.11062937
19	0xbe392584	-0.18080717
20	0xbbfd94f3	-0.0077387034
21	0x3e12e7f1	0.14346291
22	0xbe1c6e86	-0.15276536
23	0xbdced411	-0.10099042
24	0xbd80aa90	-0.06282532
25	0x3da4d06f	0.08047568
26	0x3c769b8d	0.015051735
27	0x3dfcd30d	0.12344942
28	0x3e28c84b	0.16482656
29	0xbe3219d6	-0.17392668
30	0xbe264bf6	-0.16239914
31	0x3cdb79f3	0.026791548
32	0x3e23def8	0.16003025
33	0x3ddeaa68	0.10872346
34	0x3d984153	0.074343346
35	0xbe1c96d7	-0.15291916
36	0xbde05c2a	-0.10955079
37	0x3e0c9b18	0.13731039
38	0xbd230b9a	-0.039805986
39	0x3cbd9c80	0.023145914
40	0x3db6459f	0.08899998
41	0xbe3fee31	-0.18743207
42	0xbc721fee	-0.01477812
43	0xbc04c92d	-0.008104605
44	0xbe19c66e	-0.15017101
45	0xbd14516c	-0.036210462
46	0x3defab7a	0.117026284
47	0xbbaaabf0	-0.005208485
48	0x3c0bcf00	0.008533239
49	0xbe05f49c	-0.13081592
50	0xbd83c9c8	-0.06434971
51	0x3e310d50	0.17290235
52	0xbde0d48a	-0.109780386
53	0xbe382518	-0.179829
54	0x3d9920c8	0.07476956
55	0xbe3bb45a	-0.18330517
56	0xbdb5cbda	-0.08876772
57	0x3d490409	0.049076114
58	0xbcc4e292	-0.024033818
59	0xbdfe5dd8	-0.12420243
60	0xbcd24c3c	-0.025671117
61	0xbdebf3ba	-0.115210965
62	0x3cbf62e5	0.023362586
63	0x3c704236	0.014664223
64	0xbe41fa47	-0.1894313
65	0xbdf14cc5	-0.11782221
66	0xbdc72739	-0.09724278
67	0x3d07dfb0	0.03317231
68	0xbe1283f5	-0.1430815
69	0x3b831d1f	0.0040012742
70	0xbd4ca08a	-0.04995779
71	0x3d7b6cb5	0.061382968
72	0xbdad2384	-0.0845404
73	0x3e285ff7	0.16442858
74	0x3dc62dc9	0.096767016
75	0x3d7936ab	0.06084315
76	0xbe26ba12	-0.16281918
77	0x3c39b757	0.0113352155
78	0x3dd35ebc	0.103208035
79	0xbd333fae	-0.0437619
80	0x3dc6c581	0.0970564
81	0x3da699b4	0.08134785
82	0x3da13af3	0.07872572
83	0x3c311385	0.0108078765
84	0x3de3c8af	0.11122262
85	0xbd6641b1	-0.056214992
86	0x3d3a9cb1	0.04555959
87	0x3e26ae14	0.16277343
88	0xbdf54876	-0.119767115
89	0xbd1cbb9f	-0.038264867
90	0xbd480918	-0.048836797
91	0xbba25262	-0.0049536685
92	0xbdfd482e	-0.12367283
93	0xbda8a5f0	-0.08234775
94	0x3d8f0e31	0.06985129
95	0x3ce17d2c	0.027525507
96	0xbdae0b42	-0.08498241
97	0x3e01bdfa	0.12670127
98	0xbd71e168	-0.059052855
99	0xbdefafe9	-0.11703474
100	0xbde8780d	-0.11351023
101	0xbd90b179	-0.070651
102	0xbdc19465	-0.09452132
103	0x3e1dc740	0.15408039
104	0xbdad380b	-0.08457955
105	0x3e24264d	0.16030236
106	0xbd000c1a	-0.03126154
107	0x3dee3908	0.116319716
108	0xbd052340	-0.03250432
109	0xbd6e5050	-0.05818206
110	0xbbb4e089	-0.0055199307
111	0xbe2fa4b8	-0.17152679
112	0xbd8fe4e9	-0.07026083
113	0xbddf13b9	-0.10892434
114	0x3ca1996a	0.019726474
115	0x3c99e9fe	0.018788334
116	0xbe3434c1	-0.17598249
117	0x3df725e1	0.12067772
118	0xbc8c4f12	-0.017127547
119	0x3d4e4acb	0.050364297
120	0x3dc02273	0.09381571
121	0x3d5216ed	0.051291395
122	0x3db0626b	0.08612522
123	0x3e1dec9f	0.15422295
124	0x3e02a7f4	0.12759382
125	0xbe2f352b	-0.17110126
126	0x3e19c8ad	0.15017958
127	0xbe3ac30b	-0.18238465
128	0xbd8fb20d	-0.07016382
129	0x3d29dcb3	0.04147024
130	0xbe0e22fc	-0.13880533
131	0x3de8b668	0.11362916
132	0x3b3f9edc	0.0029238975
133	0x3e2dbdd7	0.1696695
134	0xbc689ea1	-0.014197976
135	0xbdebd7d3	-0.115157746
136	0x3e141730	0.1446197
137	0x3bab7f95	0.005233715
138	0xbc268c35	-0.010165264
139	0xbc081eb3	-0.0083081005
140	0x3ba01196	0.004884909
141	0xbe2027b5	-0.15640147
142	0xbdcfca49	-0.10146005
143	0xbdbb053f	-0.0913186
144	0xbe2ae835	-0.16690142
145	0xbd2f0789	-0.042731795
146	0xbdd49ea2	-0.10381819
147	0x3d99be44	0.075069934
148	0x3d70dd63	0.05880488
149	0x3d9099c1	0.07060576
150	0xbd97bd2f	-0.07409131
151	0x3d799e7c	0.060942158
152	0x3ca12573	0.019671177
153	0xbd037784	-0.0320964
154	0x3e343066	0.17596588
155	0x3c8f221f	0.017472325
156	0xbdeed54e	-0.116617784
157	0x3c85c325	0.016328404
158	0x3e0447df	0.12918042
159	0xbd2510ca	-0.040299214
160	0xbd6773f2	-0.05650706
161	0xbdce7ce5	-0.100824155
162	0x3d9b28e7	0.07576161
163	0xbaf29fde	-0.0018510779
164	0xbe0afbf9	-0.13572682
165	0xbd516555	-0.05112203
166	0xbd8b9e00	-0.068172455
167	0x3cdefce6	0.0272202
168	0xbd311f47	-0.04324272
169	0xbc83e590	-0.016100675
170	0xbded86f6	-0.115980074
171	0xbdaa6456	-0.08319919
172	0x3e2b8b1e	0.16752288
173	0xbc377446	-0.011197155
174	0x3e0ca859	0.13736095
175	0x3e304a4b	0.1721584
176	0x3e23a492	0.15980747
177	0xbe4d9cc1	-0.20079328
178	0x3d777ba9	0.060420666
179	0xbe129e98	-0.14318311
180	0x3d8ac3f6	0.06775658
181	0x3c8af6b9	0.01696335
182	0x3dd5f3f4	0.10446921
183	0x3e1ae792	0.151274
184	0x3dde8188	0.1086455
185	0x3d460055	0.04834016
186	0xbd22decc	-0.039763257
187	0x3e1c18c5	0.15243824
188	0xbd19510a	-0.0374308
189	0xbe1c7426	-0.15278682
190	0xbe06e19d	-0.13172002
191	0xbdc44e6f	-0.095852725
192	0x3d7e53d0	0.06209165
193	0x3e12cd9b	0.14336245
194	0x3bcfae53	0.0063379197
195	0x3e0a5a9b	0.13511126
196	0x3c9529ae	0.018208351
197	0xbe0acd51	-0.13554884
198	0x3d8667b8	0.065627515
199	0xbe2bfa9a	-0.16794816
200	0x3da648ab	0.08119329
201	0xbdf0759e	-0.11741184
202	0x3cff5ffc	0.031173699
203	0x3d632c07	0.05546191
204	0xbc4306fd	-0.011903522
205	0x3e11619c	0.14197391
206	0x3c3f41e2	0.0116734225
207	0xbc0f7e92	-0.008758204
208	0xbe11212c	-0.1417281
209	0x3e2f8ee7	0.17144357
210	0xbe2e93b5	-0.17048533
211	0xbda78340	-0.08179331
212	0xbb1176c7	-0.002219604
213	0xbe12f993	-0.14353018
214	0x3c81d042	0.015846375
215	0xbe18ece2	-0.14934114
216	0xbd8ff380	-0.07028866
217	0xbd64b300	-0.05583477
218	0xbcbbb28d	-0.022912288
219	0xbd4e684d	-0.050392438
220	0xbdfbd974	-0.12297335
221	0x3cf8a8f1	0.030353995
222	0xbe17ae80	-0.1481266
223	0xbdab8b2b	-0.083761536
224	0xbe146229	-0.1449057
225	0xbda772a4	-0.08176163
226	0x3e29ba79	0.1657504
227	0x3e088f5e	0.1333594
228	0xbc0467ef	-0.00808142
229	0x3e188a2b	0.14896457
230	0x3e092aad	0.13395186
231	0xbce2857d	-0.027651543
232	0x3d7b0290	0.06128174
233	0xbd2daa43	-0.042398702
234	0xbdb3553c	-0.087564915
235	0x3b3302b7	0.002731485
236	0x3e22f59a	0.15914002
237	0x3d8b1084	0.067902595
238	0xbe2e40e4	-0.17016941
239	0xbd9ce04f	-0.07659971
240	0xbe4cc491	-0.19996859
241	0xbd96a2b1	-0.0735525
242	0x3c0896f8	0.008336775
243	0xbe044a0a	-0.12918869
244	0x3d8995eb	0.06718048
245	0x3e2209d4	0.15824062
246	0x3ce3b7a2	0.027797524
247	0xbcfffb09	-0.031247633
248	0x3e05e7f6	0.13076767
249	0x3e0908c5	0.13382252
250	0xbc0835fb	-0.008313651
251	0xbdd98299	-0.10620613
252	0xbce5212d	-0.027969921
253	0x3e1785a9	0.14797081
254	0xbdb47563	-0.08811452
255	0xbd5c49e2	-0.053781398

rnn.weight_hh_l0 f4 [32, 32]
0	0x3dc744be	0.097299084
1	0x3cd5f247	0.026116503
2	0x3c85b7d9	0.016323017
3	0x3e201960	0.1563468
4	0x3d00f612	0.03148467
5	0xbd3b5b91	-0.04574162
6	0x3d8f99b6	0.0701174
7	0x3c92af16	0.017905753
8	0xbe33174e	-0.17489359
9	0x3dc146ae	0.09437309
10	0x3d1eb0b4	0.038742736
11	0x3e0026cf	0.12514804
12	0xbd3ea86d	-0.046547342
13	0xbdef5597	-0.11686247
14	0xbdf9c15e	-0.12195085
15	0x3db743a5	0.08948449
16	0x3c3c5b92	0.011496441
17	0xbdd84bb2	-0.10561313
18	0xbe093126	-0.13397655
19	0x3c99a0de	0.018753465
20	0x3dd5e335	0.10443727
21	0x3db02ecf	0.08602678
22	0xbc6fb903	-0.014631513
23	0x3d7d3c3c	0.061825022
24	0xbd58e4cc	-0.052952573
25	0x3d6e8920	0.05823624
26	0x3e3217b0	0.17391849
27	0xbe32f687	-0.17476855
28	0xbd990449	-0.074715205
29	0x3e015734	0.12630922
30	0x3e23973d	0.15975662
31	0x3d0b010f	0.033936556
32	0x3e08287c	0.13296694
33	0xbbc6208e	-0.0060463613
34	0xbc19f6f7	-0.00939726
35	0x3de1c2db	0.11023494
36	0x3b13b5a2	0.0022538682
37	0xbe05fa55	-0.13083775
38	0xbd228b51	-0.039683644
39	0x3dae2879	0.08503813
40	0xbd36a027	-0.044586327
41	0xbde653b8	-0.11246437
42	0xbc2e74a5	-0.010647927
43	0x3e05b715	0.13058122
44	0x3caa9435	0.020822624
45	0x3d27250e	0.040806822
46	0x3d3e52b0	0.046465576
47	0xbd8d4fe0	-0.069000006
48	0xbdbbca59	-0.09169454
49	0xbe23c04e	-0.15991327
50	0x3e22194c	0.15829962
51	0xbe210034	-0.15722734
52	0xbdd31638	-0.10306972
53	0x3e133f40	0.14379597
54	0x3e1d6dbf	0.15373896
55	0xbe02fcd3	-0.12791757
56	0xbde7fd9d	-0.1132767
57	0x3df09279	0.117466874
58	0xbcc91f76	-0.024551135
59	0xbe1bed32	-0.15227202
60	0x3db320af	0.08746468
61	0xbc3cb215	-0.011517067
62	0x3de78510	0.113046765
63	0xbd7f5d4c	-0.062344834
64	0xbca05c6e	-0.019575324
65	0xbdec8e36	-0.11550562
66	0x3cac4502	0.021029
67	0x3d9659be	0.07341336
68	0x3dca02e6	0.09863834
69	0x3df26bda	0.11836977
70	0x3c8e389f	0.017360983
71	0x3dbb2b24	0.09139088
72	0xbe369b3c	-0.17832655
73	0xbe2ee26d	-0.17078562
74	0xbde780a8	-0.11303836
75	0xbd5ee830	-0.05442065
76	0xbe143913	-0.14474897
77	0xbd8644cc	-0.06556091
78	0x3df0934a	0.11746843
79	0x3dc4284d	0.09577999
80	0xbdbc1008	-0.09182745
81	0xbc63160f	-0.01386024
82	0x3e200dfd	0.15630336
83	0x3dfc0cad	0.12307105
84	0xbd8748a8	-0.06605655
85	0xbe123a8b	-0.14280145
86	0xbdce8e49	-0.100857325
87	0x3e2b7490	0.16743684
88	0xbc4fb837	-0.012678198
89	0xbda82ea6	-0.082120225
90	0x3d8ee8db	0.069780074
91	0x3d000037	0.031250205
92	0x3df254f8	0.11832613
93	0xbd5b1803	-0.053489696
94	0xbd1a95ba	-0.037740447
95	0x3c4cf9f3	0.012510764
96	0xbdbae570	-0.09125793
97	0xbc6cb4c4	-0.014447395
98	0x3d9cd57e	0.07657908
99	0x3e0bac03	0.13639836
100	0xbe2a42da	-0.16627064
101	0xbe188430	-0.14894176
102	0x3c776adc	0.015101161
103	0x3e03a58e	0.12856123
104	0x3e274af7	0.1633719
105	0x3c83b485	0.01607729
106	0x3d19ce99	0.037550543
107	0xbddf145c	-0.10892555
108	0x3d8ddb43	0.069265865
109	0xbe0336f0	-0.12813926
110	0xbdd0bef8	-0.101926744
111	0xbe1ef8ad	-0.1552455
112	0xbd9b039e	-0.07569049
113	0x3e05887c	0.13040346
114	0x3cdb45cf	0.026766686
115	0x3e1f6636	0.15566334
116	0x3cdf2156	0.027237576
117	0xbd356301	-0.04428387
118	0x3c5b6be8	0.013392426
119	0xbe20143d	-0.1563272
120	0xbcb0ab9c	-0.021566205
121	0x3e1b73ff	0.15180968
122	0x3cc93699	0.024562167
123	0xbe0988e8	-0.13431132
124	0xbb3d4ef5	-0.0028886173
125	0xbdead29f	-0.11465954
126	0xbcd34b06	-0.02579261
127	0xbd8691bf	-0.065707676
128	0x3daff323	0.085912965
129	0xbe37c8b2	-0.17947653
130	0xbc928042	-0.017883424
131	0xbc94ba28	-0.018155172
132	0x3dae540c	0.085121244
133	0x3e043b6a	0.1291329
134	0xbdef43c7	-0.116828494
135	0xbe1845e7	-0.14870416
136	0x3e1e351d	0.15449949
137	0xbddac767	-0.10682564
138	0xbd6962f0	-0.05697912
139	0x3e1b3527	0.15156995
140	0xbe34e174	-0.17664129
141	0xbdde88a2	-0.108659044
142	0x3dd2bc26	0.10289793
143	0x3e2bcce0	0.16777372
144	0xbcb3a909	-0.021931188
145	0xbd003518	-0.031300634
146	0x3e1c3d00	0.15257645
147	0xbc8f83a2	-0.017518822
148	0x3db69bdf	0.08916449
149	0xbd751fd5	-0.05984481
150	0x3e130cee	0.14360401
151	0xbc3e6932	-0.01162176
152	0xbe0c57bf	-0.13705347
153	0xbd093930	-0.033501804
154	0x3cb05683	0.021525627
155	0x3c742405	0.014901166
156	0x3e015bcd	0.12632675
157	0xbe0424a7	-0.12904607
158	0xbca85721	-0.020549359
159	0xbe229538	-0.15877235
160	0x3e0c3e1f	0.13695572
161	0x3dad0e55	0.08449999
162	0xbe29bff8	-0.16577137
163	0x3e2e3866	0.17013702
164	0x3ddde81c	0.10835287
165	0x3ca88a86	0.020573866
166	0xbc9cd9cd	-0.019146824
167	0xbdb7f42a	-0.089821175
168	0x3df464ba	0.119332746
169	0xbd39db47	-0.045375135
170	0xbdd46125	-0.10370091
171	0xbe06cda6	-0.13164386
172	0xbe25fc18	-0.16209447
173	0x3da18eee	0.0788859
174	0x3e315488	0.17317402
175	0x3e0da7f8	0.13833606
176	0x3c3bc905	0.011461501
177	0xbe12b6db	-0.14327566
178	0x3df41de1	0.119197614
179	0x3d4b28c2	0.049599417
180	0xbd6104ff	-0.054936405
181	0xbe0dd72f	-0.13851617
182	0xbe02f71d	-0.12789579
183	0xbe18fa74	-0.1493929
184	0xbdedd82e	-0.11613499
185	0x3d100032	0.035156436
186	0x3b752549	0.0037406257
187	0x3d5eb3d4	0.054370716
188	0x3d8f0dc4	0.069850475
189	0x3d07f6b5	0.033194263
190	0x3e09c2d7	0.13453232
191	0xbdde3441	-0.108498104
192	0x3ddf1f4a	0.1089464
193	0xbe09a62d	-0.13442297
194	0xbd8d0f98	-0.0688774
195	0xbd94d890	-0.072678685
196	0xbe1fddf2	-0.15612009
197	0xbce5115c	-0.02796238
198	0xbd082b93	-0.03324468
199	0xbd379c1b	-0.04482661
200	0x3d2c5bd7	0.042079773
201	0xbde000a5	-0.10937623
202	0xbd48eae8	-0.04905215
203	0xbdb5f58d	-0.08884726
204	0xbd9ddd36	-0.07708208
205	0xbc720cc7	-0.014773554
206	0x3d0409db	0.03223596
207	0xbe2d9e30	-0.16954875
208	0xbd4747bf	-0.048652407
209	0x3de4c051	0.11169494
210	0x3e2abacf	0.16672824
211	0xbda0130e	-0.078161344
212	0xbca315d9	-0.019907879
213	0xbe2201bc	-0.15820974
214	0xbd3e9057	-0.046524372
215	0xbdb3ebf6	-0.0878524
216	0xbe0b3ecc	-0.13598174
217	0xbd71726a	-0.058947004
218	0xbe1d8bb0	-0.15385318
219	0xbdfe61af	-0.124209754
220	0xbd4326cb	-0.047644418
221	0xbdf2c2f4	-0.118535906
222	0x3e008d69	0.12553944
223	0x3d908a8f	0.07057678
224	0xbb0da28a	-0.0021611773
225	0xbdbd380d	-0.092392065
226	0xbcc9ccda	-0.024633814
227	0xbdd7f06e	-0.10543905
228	0xbe26bd41	-0.16283132
229	0xbe07f165	-0.13275678
230	0xbe2f44ac	-0.1711604
231	0x3d48b4f5	0.0490007
232	0xbe09eca4	-0.13469177
233	0x3da145f9	0.07874674
234	0x3c5dce65	0.013537978
235	0xbd0188f0	-0.031624734
236	0x3e1660b1	0.14685322
237	0xbd247c82	-0.040157802
238	0x3d7140a9	0.058899555
239	0xbe154de3	-0.14580493
240	0x3be355fa	0.0069377394
241	0x3e2b7e65	0.16747434
242	0xbdf5249e	-0.11969875
243	0x3de74796	0.11292951
244	0xbd12df77	-0.035857644
245	0xbd944f31	-0.07241667
246	0xbe2b9d05	-0.16759117
247	0x3c467c49	0.012114593
248	0xbe38a8a5	-0.18033083
249	0x3d3e311d	0.046433557
250	0x3e2943d2	0.16529778
251	0xbdc862e4	-0.09784487
252	0x3d63cd53	0.055615734
253	0x3e266e06	0.16252908
254	0xbd216e73	-0.039411973
255	0x3e22015b	0.1582083

rnn.bias_ih_l0 f4 [32]
0	0xbde8a71a	-0.11359997
1	0x3e003a71	0.12522294
2	0x3de56b49	0.11202104
3	0x3e409d96	0.18810114
4	0x3d2491d8	0.04017815
5	0x3d8a5cad	0.06755958
6	0xbd0373da	-0.032092907
7	0x3cd05383	0.025430446
8	0x3e158e9f	0.14605187
9	0x3dc81ff8	0.097717226
10	0x3e32d270	0.17463088
11	0xbda5b537	-0.080912046
12	0xbd3e7eda	-0.046507694
13	0xbde6f027	-0.11276274
14	0xbe0fec21	-0.1405492
15	0xbdcb6888	-0.09932047
16	0x3d117b04	0.035517707
17	0x3de29431	0.110634215
18	0xbd6e1652	-0.058126755
19	0xbd635e72	-0.055509992
20	0x3d647ec1	0.055784944
21	0x3d09fc15	0.03368767
22	0xbdf11563	-0.11771657
23	0xbcb44ee6	-0.022010278
24	0xbd93e909	-0.07222182
25	0xbdc23ffe	-0.09484862
26	0xbdc4ce26	-0.09609632
27	0xbdebf73f	-0.11521768
28	0xbd30bf93	-0.04315145
29	0x3bce2aa1	0.006291703
30	0xbe14a6fa	-0.14516822
31	0xbe18ec95	-0.14933999

rnn.bias_hh_l0 f4 [32]
0	0x3d0d18b1	0.034447376
1	0x3cfe4d6c	0.031042777
2	0x3d8d73cc	0.06906852
3	0x3e15684f	0.14590572
4	0x3ce1ed80	0.02757907
5	0xbdd7b575	-0.10532657
6	0xbd7aea43	-0.061258566
7	0xbe367d4c	-0.17821234
8	0xbd32bc8d	-0.043636847
9	0x3d8dc1b4	0.069217116
10	0x3daab820	0.083359
11	0xbdc6ca60	-0.09706569
12	0x3ce3797c	0.02776789
13	0x3e118e4e	0.14214441
14	0xbe06e1e8	-0.13172114
15	0xbd132b1a	-0.035929777
16	0x3c852e86	0.016257536
17	0x3dd7f521	0.105448015
18	0xbdd8402b	-0.10559114
19	0x3d8e8955	0.06959788
20	0x3de26509	0.11054427
21	0xbd723a83	-0.059137832
22	0x3d76f9b7	0.06029674
23	0xbe22b841	-0.158906
24	0x3d4d9272	0.05018849
25	0x3d17cea0	0.037062287
26	0x3cd76e71	0.02629778
27	0xbbfb1027	-0.0076618376
28	0x3e0a4a34	0.13504869
29	0xbddb0516	-0.106943294
30	0xbd20af43	-0.039229643
31	0x3dda1e12	0.10650267

classifier.weight f4 [2, 32]
0	0xbe589de8	-0.21153986
1	0xbe2c7f39	-0.16845407
2	0x3e2915c8	0.16512215
3	0x3e2db1e7	0.16962396
4	0xbc801d89	-0.015639083
5	0xbdc540fe	-0.09631537
6	0xbe5e7a84	-0.21726424
7	0xbdfd340d	-0.123634435
8	0xbe23a76f	-0.1598184
9	0xbbc7b73f	-0.0060948427
10	0x3e1f7841	0.15573217
11	0x3e2a7e34	0.16649705
12	0x3e345199	0.17609252
13	0xbe463db8	-0.19359481
14	0xbe2b165a	-0.16707745
15	0xbe24a4f0	-0.16078544
16	0x3d517b69	0.051143084
17	0xbda9a4e8	-0.082834065
18	0x3d847f5c	0.064696044
19	0x3d44e84c	0.048073098
20	0xbde049b8	-0.10951561
21	0x3d159aac	0.03652446
22	0x3e2dbc37	0.1696633
23	0x3e04dd79	0.1297511
24	0x3ddb6f35	0.107145704
25	0xbdcedbc5	-0.101005115
26	0xbc8677f3	-0.016414618
27	0xbd1b583a	-0.037925936
28	0x3d586d1b	0.052838426
29	0x3e2e02e4	0.1699329
30	0x3db9d9de	0.09074758
31	0x3b5bdbf0	0.003354784
32	0xbe08343e	-0.13301179
33	0xbe09bdda	-0.13451329
34	0x3d8a8aeb	0.06764778
35	0x3e4c9501	0.19978715
36	0xbe4e41f0	-0.2014234
37	0x3daa7473	0.08322992
38	0xbb81e182	-0.00396365
39	0xbe841112	-0.25794274
40	0x3dd17e76	0.10229199
41	0xbdabcd0c	-0.08388719
42	0x3d6e0fcd	0.058120538
43	0x3d79ab1b	0.060954195
44	0x3d664358	0.056216568
45	0xbe3efecd	-0.18651886
46	0x3e1156e5	0.14193304
47	0xbc9c53cc	-0.019082926
48	0x3e47a324	0.19495827
49	0x3d9694ea	0.07352622
50	0xbd950f50	-0.07278311
51	0x3cbcbbe2	0.023038808
52	0xbcef079e	-0.029178437
53	0xbe3fb1de	-0.18720195
54	0x3e3017c5	0.17196567
55	0x3c92bd87	0.01791264
56	0x3e353ed1	0.17699744
57	0x3c34e1fa	0.011040205
58	0x3dc2cfe5	0.09512309
59	0x3d988736	0.074476644
60	0x3d428f03	0.047499668
61	0x3e54b66e	0.20772716
62	0xbe3424ea	-0.17592207
63	0xbdb8342a	-0.089943245

classifier.bias f4 [2]
0	0x3cc4c4af	0.024019567
1	0x3d8a0dc4	0.06740907
