save/1-5_rnn_sp_75.pt (torch, 13507 bytes, 7 tensors)

emb_layer.weight f4 [75, 16]
0.0 0.0 0.0 0.0 0.0 0.0 0.0 0.0
0.0 0.0 0.0 0.0 0.0 0.0 0.0 0.0
0.59839267 0.5468314 -0.010673514 -2.3952024 -0.10852281 0.55414027 -0.6150637 -0.2931521
-0.52871054 -1.0941057 1.1726346 -0.015783703 0.25920793 -1.2160437 0.5955612 0.7118199
0.33791453 -0.15041949 1.5128422 0.016209543 -0.704548 0.41233456 0.115099944 0.33854687
-0.006050544 1.520473 -0.12598436 -1.0389427 -1.4928125 -0.42161205 0.50751185 0.87679505
0.21385898 0.5230326 -0.3227503 0.58883667 0.07603497 -1.6652454 -1.0137912 0.86839336
0.54819816 -0.062318824 -1.7048279 0.20570043 -0.20282277 1.2717304 -0.41503838 -2.637901
-1.0266749 1.5475739 -2.0549188 -0.9806066 1.6914763 -0.73316133 -2.2605488 0.4111144
0.49985582 1.1333399 -0.093419306 1.3549348 0.20288889 1.5965124 0.15484321 -0.04136396
2.0829546 0.59467113 -0.8851094 1.2328262 0.54212564 1.3913995 -0.31633094 0.2961376
-0.80448717 0.47972646 -0.014293091 1.0506598 0.13196215 1.1209652 -0.5316531 -0.5778553
-2.0479982 -0.038767774 2.0957305 -0.0904984 -2.0610876 -0.14879958 -0.22837572 1.0240887
-0.20515873 0.73583615 1.1829563 -0.81967384 -0.60386264 -1.243242 1.5855474 0.011673193
-0.8210731 1.530611 1.2079412 0.7487539 2.4198046 0.06945119 0.65663344 -0.31064683
1.6150049 0.07903398 -0.56870395 -1.4107783 0.14035554 -0.57151896 0.9046892 -0.10779212
0.8893024 0.452418 2.1439672 0.41136712 -1.0891654 -0.67713577 1.5047712 -0.55993927
-0.34553435 0.86777097 1.0866663 1.9809427 -1.0656302 -0.751769 0.2739961 0.35115334
-0.028680254 -0.9995085 -0.2437562 0.8452254 -0.4944108 -0.4449737 -0.57568467 -2.6831448
-0.6183946 -0.9210548 -0.5508985 1.007368 -0.02730084 -1.840599 0.7074086 1.2336218
-0.70369816 0.68374735 -0.4518811 -0.82484365 0.77418065 -1.1581377 -0.75068253 -2.335369
0.6288398 2.519914 0.78961045 0.17362155 1.0689893 -0.7490317 -1.0012623 0.49398598
0.4209292 1.5114323 -1.3753788 -0.15351813 0.29438072 0.33163294 -0.58566594 -0.9930818
-1.4926058 1.4671112 0.2776063 -1.3471297 -1.2909696 -0.24275035 0.0400531 1.0199568
-0.0021004295 -0.72366655 0.30244216 0.07565796 -0.93660885 -1.9500163 0.13283214 0.6732805
-0.8264319 -0.58850914 0.16352785 0.14380479 -0.80387175 -0.88005906 0.90677863 -0.6576993
-0.639595 0.04349531 1.2454103 1.6583226 1.6232905 -0.72865766 0.94480526 -1.7897775
-0.018832227 -1.1276847 0.4785248 1.6242925 -2.3513813 -0.16154155 -1.4719158 -0.18469475
1.4423542 -0.257753 -2.5672948 -0.47519597 -0.48921007 -1.2963586 0.6033846 0.71946585
0.64132994 -1.5625741 -0.6249147 -0.36120874 -1.4452739 0.6477072 -0.647826 0.7880016
1.1269752 1.1165183 0.63366866 -1.3290336 -0.30574492 1.289179 -0.36375833 0.23740964
0.011982359 -1.3661866 -0.5497202 0.4288599 -0.27205107 0.8473083 -0.912888 -0.20529632
00000000: 0000 0000 0000 0000 0000 0000 0000 0000
00000010: 0000 0000 0000 0000 0000 0000 0000 0000
00000020: 0000 0000 0000 0000 0000 0000 0000 0000
00000030: 0000 0000 0000 0000 0000 0000 0000 0000
00000040: 4330 193f 25fd 0b3f f6df 2ebc ff4a 19c0
00000050: 3541 debd 23dc 0d3f d174 1dbf 0818 96be
00000060: 9359 07bf a80b 8cbf e418 963f d34c 81bc
00000070: e7b6 843e 52a7 9bbf b376 183f d439 363f
00000080: 2203 ad3e 9107 1abe d0a4 c13f e0c9 843c
00000090: 425d 34bf 841d d33e 85b9 eb3d 0456 ad3e
000000a0: a443 c6bb dc9e c23f 0b02 01be 13fc 84bf
000000b0: 7b14 bfbf 89dd d7be 4cec 013f a475 603f
000000c0: d9fd 5a3e 77e5 053f 873f a5be 00be 163f
000000d0: 39b8 9b3d c326 d5bf e9c3 81bf 074f 5e3f
000000e0: b756 0c3f 0642 7fbd cd37 dabf 22a3 523e
000000f0: c6b0 4fbe 10c8 a23f e97f d4be 5fd3 28c0
00000100: 156a 83bf e716 c63f ca83 03c0 0909 7bbf
00000110: 4c82 d83f 76b0 3bbf d5ac 10c0 967d d23e
00000120: 1aed ff3e 4811 913f 9f52 bfbd 816e ad3f
00000130: 1bc2 4f3e 855a cc3f 388f 1e3e 416d 29bd
00000140: 214f 0540 5e3c 183f 8896 62bf 40cd 9d3f
00000150: bfc8 0a3f 6119 b23f 21f6 a1be 599f 973e
00000160: dff2 4dbf b59e f53e 922d 6abc 057c 863f
00000170: 1621 073e ca7b 8f3f 6b1a 08bf 53ee 13bf
00000180: 6712 03c0 f5ca 1ebd 7320 0640 3a57 b9bd
00000190: dce8 03c0 eb5e 18be 53db 69be 5715 833f
000001a0: 2115 52be c25f 3c3f 1d6b 973f 25d6 51bf
000001b0: be96 1abf 8e22 9fbf 38f3 ca3f ec40 3f3c
000001c0: d931 52bf 10eb c33f d19d 9a3f 56ae 3f3f
000001d0: 14de 1a40 6d3c 8e3d 2119 283f 1a0d 9fbe
000001e0: 7bb8 ce3f 91dc a13d 9596 11bf 6294 b4bf
000001f0: 5db9 0f3e 114f 12bf b699 673f 1dc2 dcbd
00000200: 52a9 633f 55a3 e73e c236 0940 b69e d23e
00000210: c669 8bbf c558 2dbf 589c c03f 2e58 0fbf
00000220: e1e9 b0be 3d26 5e3f e217 8b3f 888f fd3f
00000230: 9266 88bf ef73 40bf 3849 8c3e 5fca b33e
00000240: daf2 eabc cadf 7fbf 3a9b 79be b160 583f
00000250: 6a23 fdbe 98d3 e3be 1260 13bf a5b8 2bc0
00000260: 1c4f 1ebf 3fca 6bbf af07 0dbf 6ff1 803f
00000270: 03a6 dfbc bf98 ebbf bb18 353f 52e7 9d3f
00000280: 9025 34bf 110a 2f3f f65c e7be f428 53bf
00000290: b430 463f db3d 94bf bb2c 40bf b076 15c0
000002a0: a5fb 203f 4546 2140 e923 4a3f d9c9 313e
000002b0: a4d4 883f 8bc0 3fbf 5d29 80bf bbeb fc3e
000002c0: 0884 d73e 9d76 c13f 6a0c b0bf db33 1dbe
000002d0: 12b9 963e cbcb a93e 34ee 15bf 9c3a 7ebf
000002e0: b50d bfbf 4dca bb3f 6a22 8e3e bf6e acbf
000002f0: 7e3e a5bf 8c93 78be b80e 243d f28d 823f
00000300: 5ca7 09bb 3642 39bf b3d9 9a3e 8ff2 9a3d
00000310: 99c5 6fbf 229a f9bf 2605 083e 1c5c 2c3f
00000320: 0a91 53bf 89a8 16bf d873 273e 9041 133e
00000330: 8aca 4dbf 8d4b 61bf a522 683f fb5e 28bf
00000340: 7fbc 23bf 2328 323d 9b69 9f3f ea43 d43f
00000350: fcc7 cf3f 4f89 3abf c2de 713f 6e17 e5bf
00000360: 0b46 9abc f957 90bf 3401 f53e d1e8 cf3f
00000370: 087d 16c0 266b 25be bd67 bcbf 9f20 3dbe
00000380: 109f b83f 34f8 83be 8f4e 24c0 e34c f3be
00000390: be79 fabe 14ef a5bf 6a77 1a3f ea2e 383f
000003a0: 332e 243f 6e02 c8bf 69fa 1fbf 5af0 b8be
000003b0: bcfe b8bf 24d0 253f edd7 25bf 79ba 493f
000003c0: b940 903f 12ea 8e3f 1c38 223f c61d aabf
000003d0: 998a 9cbe d103 a53f 883e babe 831b 733e
000003e0: a851 443c 34df aebf 77ba 0cbf 8693 db3e
000003f0: 474a 8bbe 32e9 583f 07b3 69bf 3339 52be

rnn.weight_ih_l0 f4 [32, 16]
-0.0073238155 -0.011999265 0.018631812 -0.1259674 0.044770293 -0.09692255 -0.0091885775 -0.04756649
-0.009543374 -0.046247985 0.12751535 0.17055082 0.21769586 0.16884224 -0.19682886 -0.14456849
-0.060672287 0.19546765 0.0999735 0.13691425 0.05265539 -0.10727881 -0.1247815 -0.122461036
-0.14539084 0.09491652 -0.17283313 -0.017293608 -0.18385921 0.21012962 -0.2329923 0.28471124
-0.06547928 -0.12797816 0.14834465 0.14268234 -0.1068086 -0.043315712 -0.08146173 0.0067235655
0.12700705 -0.20198663 -0.05067637 0.07720464 -0.17184713 -0.15182719 0.22443488 0.16864319
0.0661975 0.1549095 -0.06663174 0.19782254 0.048388124 0.022314997 -0.021550002 -0.113410585
-0.09403013 -0.010457208 -0.17342012 0.013806354 0.05819514 -0.0494377 0.07278448 -0.15419117
0.12809615 0.054403838 -0.087245055 0.13513435 -0.16314785 -0.017053826 -0.18779118 0.054845706
0.14642718 0.022979645 -0.09116481 -0.1989859 -0.0071799136 0.11359267 0.16537824 -0.17451228
-0.07161358 -0.13503292 0.09444514 -0.114850745 -0.12401184 -0.0679534 -0.042926036 -0.041790966
-0.043599322 0.07216435 -0.14569983 -0.16787292 -0.07419716 0.12390529 0.11778943 0.00059991505
0.10428839 -0.042238813 0.22533168 -0.16261612 0.15632252 -0.0039012267 -0.13344958 -0.113753475
-0.025196552 -0.09848031 -0.04431553 -0.0143849375 0.107887335 0.015058191 0.003323283 -0.2536253
-0.039582856 -0.07652838 0.13012964 0.2293062 -0.1618751 0.08627999 0.05382334 0.13037924
0.14066212 0.11635685 -0.004036564 0.19016887 -0.08444183 0.057775926 0.20104952 0.06482127
0.054122288 -0.06200164 -0.089990534 -0.10044358 0.15610583 -0.040351383 0.14651965 -0.016992453
0.036034055 -0.029896071 -0.18415892 -0.08370654 -0.1613162 0.029472144 -0.13910104 -0.15018626
0.13909125 -0.106926106 0.19989586 0.0027457522 -0.21928957 0.00966472 -0.048157886 0.07037916
-0.03689556 -0.22255553 0.08691733 0.08754712 -0.03871063 0.1263831 0.015574849 -0.02349192
-0.048552364 -0.04649628 -0.32091418 0.1235498 0.044570304 0.08530595 -0.1837283 0.16479565
-0.032860037 -0.07405312 0.07735508 -0.18803692 0.094521485 0.010319133 -0.07572739 0.22146815
-0.052629177 -0.12472941 0.14683014 0.070990935 0.022788951 0.25888324 0.3245088 0.005482231
-0.10944885 -0.21377987 -0.2975383 0.024679711 0.06626215 0.24239191 -0.04626831 -0.13899209
0.2623771 0.10151212 0.13981605 -0.010744438 0.0019773762 -0.19040196 0.2211122 0.13597377
0.10517115 -0.12371976 -0.033995092 0.08457747 0.17259356 -0.13407108 0.18955937 -0.061296917
-0.14245313 -0.06769512 -0.08955755 -0.094377704 -0.1570094 0.11070033 -0.13512 -0.1727352
-0.14908667 0.1428679 -0.12828779 -0.17427637 0.16134539 -0.037630636 -0.13922465 -0.03273992
-0.10358353 0.224947 -0.0473243 -0.2498145 0.07579203 -0.11019575 -0.093876526 -0.20354785
0.028231358 0.101351105 -0.08678963 0.09097171 0.025604255 0.18669052 0.08124055 0.27964792
-0.09553623 -0.114088126 0.14189921 -0.09638488 0.040716454 -0.05613606 -0.11715178 0.114983216
0.04812736 -0.004637016 0.1387982 0.088175364 0.1003428 0.100696824 -0.19892904 0.06372276
00000000: 9efc efbb 9198 44bc bea1 983c 99fd 00be
00000010: 0e61 373d 547f c6bd b08b 16bc 14d5 42bd
00000020: d05b 1cbc 876e 3dbd 6293 023e e0a4 2e3e
00000030: aaeb 5e3e fbe4 2c3e 818d 49be c309 14be
00000040: 8183 78bd ac28 483e e8be cc3d 4033 0c3e
00000050: 2ead 573d feb4 dbbd 718d ffbd dacc fabd
00000060: 56e1 14be 9863 c23d 2bfb 30be 53ab 8dbc
00000070: 9745 3cbe 382c 573e 8995 6ebe acc5 913e
00000080: 001a 86bd b50c 03be a9e7 173e 521b 123e
00000090: 78be dabd d16b 31bd 68d5 a6bd 5b51 dc3b
000000a0: 230e 023e 95d5 4ebe 0692 4fbd 771d 9e3d
000000b0: b2f8 2fbe 9678 1bbe 42d2 653e cdb0 2c3e
000000c0: 8e92 873d 99a0 1e3e 3976 88bd fe91 4a3e
000000d0: a032 463d f1cd b63c a189 b0bc cf43 e8bd
000000e0: de92 c0bd b654 2bbc 0b95 31be 0c34 623c
000000f0: 075e 6e3d 307f 4abd 0810 953d 4ae4 1dbe
00000100: a32b 033e 8fd6 5e3d 89ad b2bd a960 0a3e
00000110: 3b10 27be 77b4 8bbc 554c 40be e4a5 603d
00000120: 02f1 153e cf3f bc3c 9eb4 babd f6c2 4bbe
00000130: 7b45 ebbb 46a3 e83d ea58 293e 59b3 32be
00000140: 24aa 92bd 1246 0abe 746c c13d de36 ebbd
00000150: ebf9 fdbd 272b 8bbd 36d3 2fbd 012d 2bbd
00000160: 3495 32bd e7ca 933d 5632 15be e1e6 2bbe
00000170: aef4 97bd 0fc2 fd3d 963b f13d 9e43 1d3a
00000180: 2795 d53d 9b02 2dbd 59bd 663e d784 26be
00000190: 0313 203e b9ab 7fbb 02a7 08be 95f7 e8bd
000001a0: 0069 cebc 0bb0 c9bd 3484 35bd cdae 6bbc
000001b0: 09f4 dc3d a1b6 763c 70cb 593b 2ddb 81be
000001c0: a221 22bd e9ba 9cbd b440 053e 3fcf 6a3e
000001d0: 96c2 25be 90b3 b03d dd75 5c3d 2382 053e
000001e0: bb09 103e 804c ee3d 2745 84bb a1bb 423e
000001f0: d7ef acbd 73a6 6c3d eddf 4d3e 04c1 843d
00000200: 55af 5d3d 6ff5 7dbd f54c b8bd 5db5 cdbd
00000210: 35da 1f3e 7e47 25bd 3f09 163e c233 8bbc
00000220: 7298 133d 9be8 f4bc 2894 3cbe 566e abbd
00000230: 1330 25be 916f f13c 8170 0ebe 6dca 19be
00000240: f06d 0e3e 13fc dabd 80b1 4c3e 14f2 333b
00000250: 728d 60be c658 1e3c 3441 45bd f322 903d
00000260: cc1f 17bd 99e5 63be b701 b23d e84b b33d
00000270: 0a8f 1ebd 926a 013e a72d 7f3c 2172 c0bc
00000280: d8de 46bd e272 3ebd dd4e a4be ad07 fd3d
00000290: 5a8f 363d e3b4 ae3d 4523 3cbe 31c0 283e
000002a0: 3f98 06bd 2aa9 97bd 576c 9e3d c08c 40be
000002b0: 7b94 c13d 9511 293c f616 9bbd 8cc8 623e
000002c0: b191 57bd 2272 ffbd a45a 163e b263 913d
000002d0: e5af ba3c 588c 843e 0426 a63e 49a4 b33b
000002e0: b826 e0bd 1ce9 5abe f156 98be 1b2d ca3c
000002f0: 73b4 873d 9635 783e d783 3dbd f153 0ebe
00000300: 4b56 863e 96e5 cf3d f02b 0f3e 7009 30bc
00000310: de96 013b bbf8 42be 3d6b 623e b53c 0b3e
00000320: f963 d73d c960 fdbd 703e 0bbd f436 ad3d
00000330: 5ebc 303e ee49 09be da1b 423e 7a12 7bbd
00000340: 3cdf 11be bda3 8abd f369 b7bd 1949 c1bd
00000350: 12c7 20be dbb6 e23d e65c 0abe 7fe1 30be
00000360: 2daa 18be f64b 123e e05d 03be 8175 32be
00000370: ba37 253e 9522 1abd e890 0ebe 4b1a 06bd
00000380: 9a23 d4bd 8258 663e 20d7 41bd 5fcf 7fbe
00000390: da38 9b3d 4fae e1bd 5642 c0bd d96e 50be
000003a0: 7345 e73c 2b91 cf3d c3be b1bd 604f ba3d
000003b0: 04c0 d13c cd2b 3f3e 7261 a63d 032e 8f3e
000003c0: 80a8 c3bd 09a7 e9bd 074e 113e 7065 c5bd
000003d0: 4cc6 263d edee 65bd 46ed efbd 527c eb3d
000003e0: 3221 453d 1cf2 97bb 1e21 0e3e 4995 b43d
000003f0: 8780 cd3d 233a ce3d 0eb4 4bbe 1481 823d

rnn.weight_hh_l0 f4 [32, 32]
0.029546866 -0.024862424 0.09091777 0.05547416 -0.07839573 0.17795841 -0.20887405 -0.14929952
0.03890173 0.08110251 0.14886051 -0.12223845 0.03696124 0.04217223 0.07381344 -0.19858027
0.021523073 0.06833661 -0.018173179 -0.052312803 0.25351167 0.19025622 -0.13332722 0.14093226
-0.058358915 0.025676873 0.16572371 -0.016880667 -0.18651468 0.30311233 -0.1225414 -0.025980245
-0.0128645385 0.25796843 0.038413655 0.05176339 -0.24256964 0.0035392668 -0.12668523 -0.15111624
0.030766187 0.1590085 0.056021977 0.15873149 -0.20371738 -0.109072156 0.22752926 0.06748161
0.1747404 0.102643415 0.12947315 -0.001844973 -0.156778 -0.056709893 -0.070000775 0.08285753
0.055246077 0.081868894 0.009430054 0.04327381 0.02735919 0.011359415 0.18921041 0.15349363
-0.15776677 0.20608075 0.17152801 0.26172104 -0.1204262 0.25727433 0.01723493 0.034056135
-0.13791987 -0.09545569 0.10299619 -0.24548249 -0.19221906 -0.17217594 -0.12282415 -0.16473371
0.17533977 0.13182057 0.20498385 -0.04715099 0.107526146 0.14123017 0.17593232 0.011157115
0.08604699 0.105118915 -0.111738674 -0.02415919 -0.05773957 -0.06499472 0.08838679 0.19557294
0.115115695 0.28182656 -0.21086489 0.03721068 0.07015266 0.16970427 0.14796597 -0.19640261
-0.024229117 0.08970241 0.09162942 0.05443526 -0.16283968 -0.13624737 0.22566758 -0.01963055
-0.19575681 0.13122766 0.1559525 -0.20463124 -0.040364843 -0.15033363 -0.041468613 -0.08669854
-0.12650822 0.011300974 -0.014957146 0.07234372 0.030923449 -0.09535428 -0.04886475 0.037712924
-0.034731727 -0.183642 -0.011640953 -0.03568241 0.15404396 -0.0067673377 0.051389363 -0.069487214
0.0059409863 0.0025315322 0.07224398 -0.010097643 -0.1408784 0.13529857 -0.17958649 -0.111514576
-0.06821604 -0.070829526 -0.16030519 -0.106896535 0.16172962 -0.09424187 -0.028607685 -0.09248036
0.07634237 0.06487144 -0.09232956 -0.027672354 0.05167328 0.052763086 0.1807767 -0.07748859
-0.19578741 0.23450458 -0.153805 0.2302388 -0.123791985 -0.25763258 0.05222424 -0.14270765
0.22184779 -0.28825814 -0.13921675 -0.19571944 -0.15859595 -0.09544068 0.13158698 -0.040151346
-0.17996886 0.11341548 0.15593512 -0.2211614 0.091692664 0.15505064 0.13089535 -0.07672173
-0.2075347 0.2207686 0.09433788 -0.080701 -0.08764793 -0.1375543 0.08448892 -0.09434711
-0.06930474 -0.25414047 -0.20396268 0.092450686 0.022521341 -0.25953588 0.19963153 0.06980804
-0.03017898 0.044021584 -0.09186128 0.23834147 0.114840075 -0.13216367 -0.17294326 0.07825204
-0.03637066 0.021340927 -0.23848686 -0.09862807 -0.019020293 -0.13708262 -0.15025733 -0.2477328
-0.08388211 0.133467 0.068733886 -0.042105023 0.084715456 0.15467054 0.08713409 0.089995615
0.07473654 -0.10975032 0.008130836 -0.11634637 0.19351178 -0.14380823 0.19740158 -0.12568457
0.17691891 -0.06909534 0.004410815 0.11669339 0.16509195 0.20977199 -0.114549875 0.13889396
0.13229667 -0.009503826 0.101111494 -0.020016987 -0.22840467 0.12738605 -0.01550112 -0.14033563
-0.15262242 0.2504043 0.0434995 -0.15542279 -0.0037089658 -0.061395675 -0.028810248 0.1639827
00000000: 450c f23c 48ac cbbc 1933 ba3d df38 633d
00000010: f18d a0bd bb3a 363e 14e3 55be f9e1 18be
00000020: 6c57 1f3d 1319 a63d e46e 183e 2758 fabd
00000030: ab64 173d cabc 2c3d 802b 973d a058 4bbe
00000040: 2851 b03c 11f4 8b3d ebdf 94bc f345 56bd
00000050: 48cc 813e 87d2 423e ee86 08be 8c50 103e
00000060: c209 6fbd 4e58 d23c 7ab3 293e 5349 8abc
00000070: b4fd 3ebe 8a31 9b3e fcf6 fabd 86d4 d4bc
00000080: c9c5 52bc 7014 843e a357 1d3d d905 543d
00000090: 2d64 78be 0bf3 673b c6b9 01be 37be 1abe
000000a0: 5f09 fc3c 20d3 223e 4d77 653d 828a 223e
000000b0: 4a9b 50be 3961 dfbd 6efd 683e cc33 8a3d
000000c0: 26ef 323e b636 d23d 9c94 043e 05d3 f1ba
000000d0: 698a 20be a248 68bd 915c 8fbd 35b1 a93d
000000e0: b649 623d e1aa a73d 8380 1a3c e13f 313d
000000f0: 6120 e03c d71c 3a3c 60c0 413e 6f2d 1d3e
00000100: 9d8d 21be d506 533e 0aa5 2f3e 4d00 863e
00000110: 03a2 f6bd 76b9 833e 4530 8d3c 727e 0b3d
00000120: de3a 0dbe 467e c3bd abef d23d c35f 7bbe
00000130: 13d5 44be e44e 30be 3a8b fbbd f4af 28be
00000140: 458c 333e f9fb 063e 49e7 513e 6621 41bd
00000150: ab36 dc3d a49e 103e 9a27 343e 55cc 363c
00000160: 6739 b03d 9648 d73d 3fd7 e4bd 7ee9 c5bc
00000170: 5480 6cbd f41b 85bd 2204 b53d 4644 483e
00000180: c7c1 eb3d 924b 903e f7ec 57be 3a6a 183d
00000190: 33ac 8f3d f5c6 2d3e 6484 173e c41d 49be
000001a0: 247c c6bc e6b5 b73d 35a8 bb3d 82f7 5e3d
000001b0: 72bf 26be 6e84 0bbe 6715 673e 3fd0 a0bc
000001c0: 7974 48be 8b60 063e 03b2 1f3e da8a 51be
000001d0: 9b55 25bd 0ff1 19be feda 29bd 018f b1bd
000001e0: 5f8b 01be b827 393c d10e 75bc f228 943d
000001f0: 2c53 fd3c 1b49 c3bd 6726 48bd de78 1a3d
00000200: db42 0ebd a60c 3cbe b2b9 3ebc b827 12bd
00000210: b3bd 1d3e 8bc0 ddbb a77d 523d 504f 8ebd
00000220: 9bac c23b 10e8 253b a7f4 933d 9670 25bc
00000230: 6d42 10be b58b 0a3e 85e5 37be c161 e4bd
00000240: dab4 8bbd 120f 91bd 0b27 24be 92ec dabd
00000250: 739c 253e e201 c1bd aa5a eabc 5866 bdbd
00000260: 6359 9c3d 51db 843d 4817 bdbd 22b1 e2bc
00000270: 5ca7 533d 1b1e 583d 871d 393e 56b2 9ebd
00000280: 7f7c 48be f821 703e 0f7f 1dbe b8c3 6b3e
00000290: a786 fdbd 6be8 83be 16e9 553d f421 12be
000002a0: 112c 633e 9296 93be d68e 0ebe ad6a 48be
000002b0: fa66 22be 6776 c3bd bdbe 063e bd75 24bd
000002c0: c249 38be 6046 e83d 75ad 1f3e 2278 62be
000002d0: 5dc9 bb3d 98c5 1e3e 6e09 063e 4820 9dbd
000002e0: fa83 54be 2a11 623e 3834 c13d 9146 a5bd
000002f0: c280 b3bd 09db 0cbe 8708 ad3d 0f39 c1bd
00000300: a5ef 8dbd b31e 82be 98db 50be c956 bd3d
00000310: ad7e b83c e3e1 84be 356c 4c3e 85f7 8e3d
00000320: e939 f7bc fa4f 343d c421 bcbd c90f 743e
00000330: 4631 eb3d ea55 07be 0a18 31be 9b42 a03d
00000340: 67f9 14bd 2bd3 ae3c e635 74be 83fd c9bd
00000350: 72d0 9bbc 635f 0cbe 0fdd 19be abad 7dbe
00000360: 62ca abbd 93ab 083e 5ac4 8c3d 5176 2cbd
00000370: 4c7f ad3d f461 1e3e 5c73 b23d 9f4f b83d
00000380: 790f 993d c7c4 e0bd 3337 053c 0147 eebd
00000390: f427 463e 7742 13be a423 4a3e 75b3 00be
000003a0: 3b2a 353e dc81 8dbd 9988 903b f2fc ee3d
000003b0: dd0d 293e 78ce 563e 2099 eabd 383a 0e3e
000003c0: c778 073e efb5 1bbc 8b13 cf3d aafa a3bc
000003d0: eae2 69be 7d71 023e 69f8 7dbc 25b4 0fbe
000003e0: 0d49 1cbe fe34 803e 882c 323d 2727 1fbe
000003f0: 1f12 73bb 087a 7bbd 7803 ecbc 15eb 273e

rnn.bias_ih_l0 f4 [32]
-0.06799152 0.080156446 -0.1374653 -0.041929446 -0.051943295 0.14567478 -0.05888997 0.08257562
0.09326595 0.064429685 -0.08938123 0.0019422726 -0.047276832 -0.12682185 0.12164988 -0.09033656
-0.007846445 -0.15480882 0.004255499 -0.048933353 0.11463013 0.009449404 -0.084219754 -0.092949405
0.06623004 0.14221428 -0.035300173 -0.17363037 -0.074378975 0.04784285 -0.10117162 0.0041842144
00000000: 233f 8bbd 1029 a43d b4c3 0cbe 36be 2bbd
00000010: 7ec2 54bd c52b 153e 9c36 71bd 681d a93d
00000020: 3802 bf3d b6f3 833d 820d b7bd db93 fe3a
00000030: 5aa5 41bd 96dd 01be 9323 f93d 6002 b9bd
00000040: 608e 00bc 3486 1ebe b771 8b3b 576e 48bd
00000050: 34c3 ea3d acd1 1a3c 687b acbd 425c bebd
00000060: 9da3 873d 9fa0 113e ea96 10bd 29cc 31be
00000070: 0154 98bd ddf6 433d 1133 cfbd bc1b 893b

rnn.bias_hh_l0 f4 [32]
-0.03214358 0.25100026 0.041757304 0.08173168 -0.11929068 -0.14455114 0.08124567 0.09259573
-0.17001566 0.050598495 -0.118182845 0.093788445 -0.042433653 -0.12370518 0.0043058777 0.09450947
-0.108452074 0.10788003 -0.041880183 0.028097855 -0.048137866 0.07120912 0.10374688 -0.12706575
0.1227855 0.111332424 0.123057686 0.054446295 -0.19685332 -0.13976724 0.019381301 -0.19766335
00000000: fda8 03bd 1b83 803e b509 2b3d f062 a73d
00000010: ac4e f4bd 3705 14be 2164 a63d d5a2 bd3d
00000020: 9618 2ebe 5e40 4f3d d909 f2bd 2814 c03d
00000030: e9ce 2dbd 2459 fdbd 5218 8d3b 2e8e c13d
00000040: 1f1c debd 35f0 dc3d 8e8a 2bbd 792d e63c
00000050: 362c 45bd 16d6 913d 3f79 d43d 861d 02be
00000060: f776 fb3d 4102 e43d ab05 fc3d 1403 5f3d
00000070: eb93 49be 251f 0fbe 89c5 9e3c 4368 4abe

classifier.weight f4 [2, 32]
-0.4780267 -0.082818516 0.004118282 0.07349095 0.060816232 0.64980984 0.24456865 0.3848563
0.24290742 0.05779799 -0.17880641 -0.3583859 0.32346606 0.06649745 0.45127973 -0.6758666
-0.02855754 -0.019329036 0.08922584 0.24336886 -0.2985934 0.5681939 -0.08637151 -0.028467722
-0.59257185 0.30538887 -0.27737194 -0.47961566 -0.71244055 0.47760195 0.2644566 -0.4032486
-0.089017205 0.2860102 -0.4050333 0.23382664 0.33388898 0.042228512 0.35711092 0.06791232
0.5879406 -0.0955371 -0.5273981 -0.31370443 0.38975748 -0.13438033 0.38299522 -0.3371984
-0.54453534 -0.1108097 -0.34429973 0.33566073 -0.31485668 0.06012965 -0.25348336 0.3269109
-0.41670495 0.6142984 -0.18056265 -0.4308692 -0.37129948 0.03144114 0.23187236 -0.2939194
00000000: eabf f4be c19c a9bd a7f2 863b 6c82 963d
00000010: 711a 793d f059 263f 3470 7a3e e30b c53e
00000020: b9bc 783e 96bd 6c3d 0719 37be 5b7e b7be
00000030: 589d a53e d12f 883d 230e e73e 9805 2dbf
00000040: 81f1 e9bc ed57 9ebc 0abc b63d b035 793e
00000050: 3ce1 98be 2875 113f 8ce3 b0bd 2435 e9bc
00000060: cab2 17bf ee5b 9c3e b203 8ebe 2f90 f5be
00000070: 8162 36bf 3e88 f43e db66 873e 9a76 cebe
00000080: a74e b6bd ee6f 923e 8660 cfbe 4070 6f3e
00000090: 7ff3 aa3e cef7 2c3d 3ed7 b63e 9d15 8b3d
000000a0: 4683 163f f5a8 c3bd 9003 07bf de9d a0be
000000b0: 4b8e c73e ff9a 09be f317 c43e 45a5 acbe
000000c0: ab66 0bbf 32f0 e2bd 0e48 b0be b9db ab3e
000000d0: e534 a1be 824a 763d 92c8 81be de60 a73e
000000e0: 5a5a d5be a942 1d3f 6ae5 38be e39a dcbe
000000f0: f71a bebe 6dc8 003d f36f 6d3e 9b7c 96be

classifier.bias f4 [2]
0.018482868 0.24668662
00000000: 6269 973c 6b9b 7c3e
