save/1-6_rnn_sp_80.pt (torch, 14217 bytes, 6 tensors)

emb_layer.weight f4 [80, 16]
0.0 0.0 0.0 0.0 0.0 0.0 0.0 0.0
0.0 0.0 0.0 0.0 0.0 0.0 0.0 0.0
-0.66001004 0.12478445 -0.11337894 0.2796913 -0.61034596 -1.5770543 1.1620535 -2.0739267
-0.8691938 -0.84070385 -0.27430665 -0.4723622 1.6603241 -1.7462968 0.45426542 0.14836049
0.9380819 0.78906703 0.8526614 -1.1553608 0.24076566 -0.6261555 -1.1086937 -0.17976348
0.52032864 -1.0400064 0.64703226 -0.5812884 -0.120744556 0.10941054 -0.56465673 -1.1732001
-0.906075 -0.6383956 1.7027936 -0.42952392 -1.0753224 -0.21077578 -0.36222428 -0.5141402
0.41970575 -0.47243083 0.6300315 -0.7766134 -0.7330756 1.3319942 0.44953772 0.24947666
0.54811484 1.3346317 0.343105 -0.103012025 0.5822903 -0.8717143 0.51561695 -0.6753807
0.9952184 -0.2504581 0.11718063 1.0523303 0.64335316 -0.15347666 1.3535633 -0.5664312
-0.47762385 1.1636378 1.648184 0.16814668 1.5164497 -1.5085385 0.23390499 0.37097302
-0.6228012 -0.30599958 0.4213593 -0.91156566 1.16905 0.0044866847 -0.110636905 0.41616258
1.1228791 -2.0351436 -0.50711036 0.9542491 -0.0883825 0.56229645 -2.2379365 -0.73403674
-0.68314046 -0.043134578 0.38202426 0.91678864 -1.351659 0.9355247 0.2851947 0.37884068
0.5507072 -0.72062576 0.52678776 -1.4256134 1.8234057 -0.029310042 -0.10265074 0.19795766
-0.35445824 1.0766453 2.0679762 2.1324797 -0.86607414 2.6851718 1.5489693 -0.77039754
1.447336 -0.718239 -1.5888222 -0.49408928 0.07670588 -0.7135552 -0.31194496 -0.8264983
-0.21938854 0.047854993 -0.23452987 0.13844779 1.3660644 0.29079738 0.1957225 0.4854907
-0.34553003 0.0024452223 -0.11826613 -1.4770744 0.9834344 -1.1943672 0.91478044 -1.452431
-0.5418922 -2.02786 -1.1457659 -0.2851757 -0.09044392 1.4868177 2.3654609 -0.42790794
-1.4316057 -0.30960122 1.4926656 -1.5388992 -0.020541342 2.3469064 -0.5853159 -2.0751662
0.9547021 1.985049 -0.5328552 1.8761724 -0.8617141 1.0847027 0.90058684 0.99211997
-2.0437014 1.1667509 0.39034787 -0.10785386 1.5610554 -0.1591357 -0.34124047 0.1164309
0.07716256 1.2113407 0.49742365 0.6628099 1.320066 1.0073464 -0.16547842 -0.12230719
0.5351681 0.523843 0.70507246 -1.1658789 -0.91572535 0.19652306 -3.5905056 0.8505609
1.3791747 -1.3463551 0.4199748 -0.71202666 -0.59687895 -0.7596795 -1.3466625 -0.20127432
-0.29724252 0.65712357 1.6459045 -0.41285634 0.25370112 0.45193842 0.42532185 -0.22443596
-0.02914393 0.69036937 1.5495868 -1.5362053 0.5644063 -0.6823907 -1.2457889 0.42404512
-0.45267415 -0.7784059 0.81754243 0.12208243 0.39984798 1.4423852 -0.48493516 -0.0775391
0.90114135 1.7011887 -0.19501889 -0.17374413 1.7997688 0.06662293 0.7052828 0.14794873
-0.31647754 0.2601212 -1.0263704 0.42057508 -0.89075214 0.20938694 -0.32731405 -0.5083022
-1.4449475 2.134253 -0.7145998 -1.1696935 1.2218322 1.525618 -2.1877558 -0.9596053
00000000: 0000 0000 0000 0000 0000 0000 0000 0000
00000010: 0000 0000 0000 0000 0000 0000 0000 0000
00000020: 0000 0000 0000 0000 0000 0000 0000 0000
00000030: 0000 0000 0000 0000 0000 0000 0000 0000
00000040: 6bf6 28bf fd8e ff3d 3833 e8bd b333 8f3e
00000050: a23f 1cbf eadc c9bf 2bbe 943f 37bb 04c0
00000060: 7c83 5ebf 5e38 57bf ec71 8cbe 75d9 f1be
00000070: 8085 d43f a786 dfbf 7a95 e83e d0eb 173e
00000080: 2326 703f 4c00 4a3f 0448 5a3f dde2 93bf
00000090: 468b 763e ba4b 20bf ade9 8dbf eb13 38be
000000a0: 4234 053f ee1e 85bf e8a3 253f 51cf 14bf
000000b0: ec48 f7bd a212 e03d 588d 10bf 6c2b 96bf
000000c0: 88f4 67bf e56d 23bf 24f5 d93f 8fea dbbe
000000d0: 2aa4 89bf 9bd5 57be 7675 b9be b19e 03bf
000000e0: ace3 d63e 74e2 f1be bf49 213f 23d0 46bf
000000f0: d8aa 3bbf c97e aa3f cf29 e63e cf76 7f3e
00000100: 4151 0c3f 36d5 aa3f 75ab af3e f8f7 d2bd
00000110: fa10 153f ab28 5fbf 79ff 033f c0e5 2cbf
00000120: a2c6 7e3f 0b3c 80be 66fc ef3d c2b2 863f
00000130: cbb2 243f fc28 1dbe 9041 ad3f a301 11bf
00000140: 1d8b f4be 15f2 943f b1f7 d23f a52e 2c3e
00000150: 061b c23f ca17 c1bf ca84 6f3e 2df0 bd3e
00000160: e66f 1fbf faab 9cbe 68bc d73e 5e5c 69bf
00000170: 6ea3 953f 0a05 933b 9a95 e2bd 4313 d53e
00000180: 81ba 8f3f cb3f 02c0 fcd1 01bf ab49 743f
00000190: e201 b5bd a9f2 0f3f 5a3a 0fc0 d5e9 3bbf
000001a0: 4be2 2ebf e2ad 30bd af98 c33e a9b2 6a3f
000001b0: 2a03 adbf 8c7e 6f3f 0a05 923e 68f7 c13e
000001c0: 26fb 0c3f ee7a 38bf 90db 063f 807a b6bf
000001d0: 5c65 e93f 9d1b f0bc 8d3a d2bd 6ab5 4a3e
000001e0: 8d7b b5be 83cf 893f b959 0440 8c7a 0840
000001f0: 09b7 5dbf dbd9 2b40 a044 c63f c638 45bf
00000200: 4e42 b93f 83de 37bf 875e cbbf 45f9 fcbe
00000210: f917 9d3d 8eab 36bf 40b7 9fbe 6595 53bf
00000220: 64a7 60be 9903 443d 9928 70be 42c5 0d3e
00000230: 33db ae3f 65e3 943e 7b6b 483e 3d92 f83e
00000240: 50e9 b0be 0640 203b 8335 f2bd c610 bdbf
00000250: 5bc2 7b3f 06e1 98bf 0d2f 6a3f 42e9 b9bf
00000260: 72b9 0abf 75c8 01c0 75a8 92bf 8d02 92be
00000270: a93a b9bd 0b50 be3f b663 1740 c016 dbbe
00000280: db3e b7bf 0d84 9ebe ab0f bf3f a6fa c4bf
00000290: 5146 a8bc b733 1640 43d7 15bf 86cf 04c0
000002a0: 5b67 743f 1616 fe3f 3369 08bf 6b26 f03f
000002b0: 4c99 5cbf 8ad7 8a3f dc8c 663f 93fb 7d3f
000002c0: 01cc 02c0 1858 953f addb c73e 7ce2 dcbd
000002d0: aad0 c73f 78f4 22be 12b7 aebe 5373 ee3d
000002e0: 6707 9e3d 360d 9b3f 50ae fe3e e9ad 293f
000002f0: ecf7 a83f baf0 803f 2d73 29be 317c fabd
00000300: c700 093f 931a 063f a17f 343f 853b 95bf
00000310: fa6c 6abf 573d 493e d8ca 65c0 5cbe 593f
00000320: cc88 b03f 5d55 acbf f006 d73e 6147 36bf
00000330: 0fcd 18bf 5b7a 42bf 705f acbf db1a 4ebe
00000340: 2c30 98be 4039 283f 00ad d23f e861 d3be
00000350: 1de5 813e 7964 e73e c9c3 d93e 8ad2 65be
00000360: 40bf eebc 0cbc 303f dc58 c63f 60a2 c4bf
00000370: ee7c 103f 28b1 2ebf 0376 9fbf 711c d93e
00000380: e8c4 e7be 9c45 47bf 764a 513f 5a06 fa3d
00000390: e0b8 cc3e 14a0 b83f 6c49 f8be d2cc 9ebd
000003a0: 33b1 663f 8dc0 d93f 08b3 47be fbe9 31be
000003b0: d35e e63f 9a71 883d 6a8d 343f df7f 173e
000003c0: 5809 a2be 9b2e 853e 1b60 83bf 9e55 d73e
000003d0: 5508 64bf 8869 563e b595 a7be 1820 02bf
000003e0: 0af4 b8bf 9a97 0840 03f0 36bf 84b8 95bf
000003f0: ff64 9c3f 7347 c33f 3104 0cc0 b1a8 75bf

rnn.weight_ih_l0 f4 [32, 16]
-0.071543224 -0.12956615 0.17065063 0.13172072 0.03744676 -0.10477518 -0.12883681 -0.0012410751
0.11222043 0.09295208 -0.032935888 0.16180927 -0.03053327 -0.14927557 0.10638545 0.009610569
0.16467695 -0.035206456 -0.06830488 0.122453324 -0.0051398408 -0.017827326 -0.15056857 -0.09662433
0.0487489 -0.097416334 -0.09512057 0.014479896 0.043062955 -0.030561505 0.061514243 0.012257841
-0.0020834345 -0.09287172 -0.11916638 -0.08674003 0.04205745 0.13430566 0.10054662 0.17338954
0.011159349 -0.13644001 -0.06900047 0.19682468 -0.027427338 -0.00960911 -0.026159432 0.1645112
0.0813451 0.14283226 -0.07415114 -0.15339632 0.1563674 0.15631978 -0.16183831 0.16940758
0.10578547 0.0416323 0.08726612 0.19147941 0.031590953 0.11702584 0.042328246 0.099624254
0.0012184107 -0.102077655 -0.039556976 0.10776869 -0.022092365 0.12811235 0.15248045 0.12088813
-0.027833095 0.03930987 -0.10675065 0.0006623546 0.1780141 -0.120288625 -0.041097272 0.15809323
0.01000404 -0.04076074 -0.17923072 -0.16130593 -0.0292904 0.040896572 -0.14884093 0.057404146
-0.16426359 0.015197257 -0.08382564 0.0959589 -0.04958615 -0.028163608 0.014889065 0.058822207
0.111603774 -0.034246728 -0.04529556 -0.102883875 -0.111857295 -0.003738853 -0.081026316 -0.1461647
0.11901721 0.14546011 -0.16294158 -0.14079468 -0.10202576 0.10325163 -0.042018697 -0.17191914
-0.007406172 0.1639899 -0.16024497 -0.078884356 -0.10948367 0.0100094685 0.087149456 0.05115181
-0.030819954 -0.088873334 -0.16523553 -0.15648958 0.027543666 -0.017994523 0.014834094 -0.0031303947
-0.05600169 -0.012286759 -0.12573926 0.10957849 0.14309822 -0.036979966 -0.1254373 0.028380394
0.12880868 0.10632506 -0.026931673 -0.044434644 0.063561596 0.002491296 0.11909964 -0.02617301
-0.14833051 0.047830153 -0.0027118356 0.037831172 -0.13521814 -0.020165367 0.1539271 0.028865365
-0.13976799 -0.04769033 -0.059901834 0.058687214 0.09582331 0.17648174 0.024360672 0.08703613
0.14270584 -0.16275609 0.00828572 0.08655327 0.16266231 -0.0013039274 -0.12144864 -0.118155524
-0.00109313 0.08945266 -0.16293518 -0.11833 -0.02665787 -0.08702819 0.04190198 -0.15569817
0.08279041 0.045713514 0.115559496 -0.16353375 -0.14059928 0.169039 -0.03749579 -0.010157744
-0.04410882 0.1484117 -0.0222594 0.067704216 -0.1223761 -0.008972243 0.15475291 -0.07205058
0.11582594 0.02078789 0.0870871 -0.17575693 -0.1497347 -0.049042825 -0.080728695 0.12958045
-0.09524394 0.12542874 0.042510454 -0.006236657 0.1073275 -0.17583038 -0.035335187 0.054869663
-0.1599091 -0.14354123 0.12992628 0.12461671 -0.003363649 -0.06571865 -0.16038138 0.12067921
0.10998621 0.09484312 -0.060266607 -0.1337667 0.0632923 0.08215126 -0.16022418 0.028268214
-0.12991014 0.017689917 0.09805658 -0.14079474 0.088723466 -0.07350753 0.016591629 -0.08111482
0.09682205 -0.10414769 0.06347884 -0.16522112 0.14655961 0.052189182 0.014499324 -0.0096403
-0.09373177 -0.18110594 0.09859911 0.12244115 -0.026927082 -0.061866876 0.054002058 -0.006043993
-0.14934602 0.07251013 0.12132918 -0.13201855 -0.1315795 -0.047482576 0.18947223 -0.011192264
00000000: 4185 92bd fdac 04be 0abf 2e3e cce1 063e
00000010: c661 193d 5f94 d6bd cced 03be 92ab a2ba
00000020: d3d3 e53d a95d be3d c8e7 06bd 54b1 253e
00000030: e920 fabc b2db 18be 9de0 d93d a675 1d3c
00000040: 13a1 283e a534 10bd 6ee3 8bbd cfc8 fa3d
00000050: 1c6c a8bb 9d0a 92bc a62e 1abe fae2 c5bd
00000060: edac 473d 3782 c7bd 93ce c2bd 163d 6d3c
00000070: c862 303d 1f5c fabc 5cf6 7b3d 1dd5 483c
00000080: 3b8a 08bb 8733 bebd 810d f4bd c2a4 b1bd
00000090: 6f44 2c3d 6c87 093e 63eb cd3d 078d 313e
000000a0: b4d5 363c eeb6 0bbe 1e50 8dbd 698c 493e
000000b0: 4caf e0bc 876f 1dbc 4e4c d6bc a075 283e
000000c0: 4398 a63d 9f42 123e 8edc 97bd ed13 1dbe
000000d0: c71e 203e 4b12 203e f1b8 25be 2e79 2d3e
000000e0: 0da6 d83d a186 2a3d 94b8 b23d 2e13 443e
000000f0: 8465 013d 3eab ef3d 6260 2d3d cd07 cc3d
00000100: 14b3 9f3a 170e d1bd 7f06 22bd d5b5 dc3d
00000110: 0cfb b4bc e22f 033e d623 1c3e 3294 f73d
00000120: 3b02 e4bc 6303 213d 16a0 dabd dda1 2d3a
00000130: 5449 363e e259 f6bd 9d55 28bd 31e3 213e
00000140: fce7 233c bcf4 26bd 4288 37be 622d 25be
00000150: 6cf2 efbc 2a83 273d c269 18be 9c20 6b3d
00000160: b734 28be eafd 783c c7ac abbd 1a86 c43d
00000170: d91a 4bbd 5eb7 e6bc 44f1 733c 8eef 703d
00000180: 8590 e43d 4c46 0cbd d687 39bd c8b4 d2bd
00000190: 7015 e5bd 8b07 75bb 20f1 a5bd 33ac 15be
000001a0: 4cbf f33d 7ff3 143e 28da 26be 7b2c 10be
000001b0: e2f2 d0bd 9775 d33d cc1b 2cbd 920b 30be
000001c0: 79af f2bb f8ec 273e 4217 24be 1f8e a1bd
000001d0: f938 e0bd c1fe 233c 6a7b b23d 8f84 513d
000001e0: 217a fcbc 3903 b6bd 8133 29be ce3e 20be
000001f0: 41a3 e13c 4069 93bc b30a 733c 4f27 4dbb
00000200: 0762 65bd 674e 49bc cbc1 00be b06a e03d
00000210: 5788 123e 4e78 17bd a372 00be 007e e83c
00000220: 6ce6 033e f4c0 d93d d09f dcbc 1a01 36bd
00000230: 952c 823d 0345 233b 83ea f33d c868 d6bc
00000240: f4e3 17be 8de9 433d 0db9 31bb dcf4 1a3d
00000250: a076 0abe d731 a5bc 119f 1d3e 0f77 ec3c
00000260: 571f 0fbe ef56 43bd a05b 75bd 0162 703d
00000270: 033f c43d a1b7 343e 0890 c73c 0040 b23d
00000280: 7b21 123e 88a9 26be d4c0 073c d742 b13d
00000290: f390 263e 8be8 aaba 11ba f8bd 86fb f1bd
000002a0: 5b47 8fba f532 b73d 7bd8 26be 0057 f2bd
000002b0: 9b61 dabc d63b b2bd 69a1 2b3d 576f 1fbe
000002c0: 058e a93d 183e 3b3d 75aa ec3d 6475 27be
000002d0: 42f9 0fbe 8f18 2d3e 2f95 19bd ab6c 26bc
000002e0: 73ab 34bd 3df9 173e 5859 b6bc 82a8 8a3d
000002f0: 52a0 fabd 5100 13bc 8c77 1e3e 418f 93bd
00000300: 2736 ed3d 5d4b aa3c b95a b23d a0f9 33be
00000310: 0e54 19be 21e1 48bd 1655 a5bd bdb0 043e
00000320: 410f c3bd 6470 003e 711f 2e3d df5c ccbb
00000330: 85ce db3d e10c 34be a1bb 10bd 03bf 603d
00000340: 36bf 23be 79fc 12be 650b 053e 0c37 ff3d
00000350: aa70 5cbb 8097 86bd 043b 24be a926 f73d
00000360: 7340 e13d 1c3d c23d 1eda 76bd 23fa 08be
00000370: 659f 813d eb3e a83d cf11 24be be92 e73c
00000380: 2a07 05be 72ea 903c e3d1 c83d 7f2c 10be
00000390: a6b4 b53d 1e8b 96bd 2beb 873c 871f a6bd
000003a0: a44a c63d 624b d5bd 3201 823d ba2f 29be
000003b0: b913 163e 53c4 553d 938e 6d3c 59f2 1dbc
000003c0: 71f6 bfbd d673 39be 55ee c93d 6dc2 fa3d
000003d0: 2f96 dcbc 1f68 7dbd 4331 5d3d b00c c6bb
000003e0: 2aee 18be 3180 943d 6f7b f83d df2f 07be
000003f0: c7bc 06be 177d 42bd 0205 423e c25f 37bc

rnn.weight_hh_l0 f4 [32, 32]
0.10499497 0.07928655 0.027535595 0.0070449496 -0.050958913 0.1746536 0.16278377 -0.022930682
0.14733467 0.13590693 -0.13975175 0.12984025 0.17460285 0.060315747 0.08353363 -0.15642749
0.05209955 -0.09563569 -0.15944915 0.10265136 -0.0017122775 -0.01455094 0.007547762 -0.16427016
-0.07749062 0.08364494 0.12506908 -0.024992682 -0.09037206 -0.16115357 0.051972903 -0.097522646
-0.14458111 -0.08078891 -0.13939744 0.14193806 -0.1621363 -0.08618283 0.04119811 0.035432905
0.1301455 -0.1691441 -0.18093313 0.013237605 -0.040241018 -0.018492324 -0.13279277 0.13835138
0.06409395 0.06641576 -0.07827356 -0.05909055 -0.13650364 0.15554805 -0.0739933 0.119401485
0.040044155 0.007752088 0.122222066 0.10778349 0.0022180134 0.045010854 0.12336773 0.025520405
-0.037131533 -0.064498015 0.009478609 0.05979581 -0.07711881 0.03907252 -0.062650725 0.12717812
-0.122476175 -0.11324082 -0.08340075 0.192412 0.035228938 0.042452727 0.13144246 -0.09007015
0.0037623497 -0.10457533 0.015756793 -0.046030484 -0.08877078 -0.00038830718 0.036361065 0.026658285
0.042868514 -0.11069804 -0.09926246 0.14707556 -0.1457111 -0.1104418 -0.048974566 -0.11818122
0.10577289 0.18095215 0.005184403 -0.12067156 0.12523212 0.1253238 0.0154544925 -0.17638442
0.08226665 -0.15993375 0.009448609 0.16109847 0.14273526 -0.1501469 -0.13010965 -0.091568954
0.021815546 -0.12908153 -0.10661202 -0.1571682 0.09513926 0.00591593 -0.09098823 0.1569272
-0.08609604 0.020662062 -0.10693546 0.0960751 -0.16163106 0.17459692 0.15932661 -0.06795701
0.07905214 0.047853786 0.17665459 -0.03401825 0.002318485 -0.11580318 0.02489223 -0.0164205
-0.031529788 0.10845906 -0.17861554 0.1625752 -0.01413681 0.09376456 -0.04661608 -0.011143438
0.019542262 -0.15002112 0.13417853 -0.014265805 -0.12923533 -0.15930912 0.05804481 -0.13838334
0.10201802 0.0070842947 0.12132881 -0.004271473 0.15657759 0.133168 -0.123318404 -0.042924695
-0.0029560167 -0.10517688 -0.17000753 -0.007551391 -0.11546541 -0.007664623 0.029878845 -0.13341406
0.17865774 0.07810042 -0.14978103 -0.01579572 0.14996724 0.12826207 0.06672691 0.16906825
-0.063515626 -0.040035795 -0.06775651 0.13121442 -0.024175078 -0.15332533 0.1674805 0.008410956
-0.011816539 0.0687304 0.069534086 0.13552925 -0.075004816 -0.05486914 -0.030568726 -0.14223626
0.0805747 -0.1268471 0.11713385 0.15557294 0.0024705327 -0.17702799 -0.11016434 -0.16506189
0.0595128 0.020280395 -0.0959762 0.17584051 0.06383983 -0.041066118 0.056854825 -0.09342287
-0.122016005 0.107141376 0.0541546 -0.1033973 0.056808952 -0.083078705 0.0950357 -0.14401667
0.114934064 -0.012873336 -0.024654543 -0.06256656 -0.18550117 -0.013401399 0.18411475 -0.0429657
0.101114616 -0.002920362 -0.1260359 0.0646957 -0.07906034 0.03899908 0.15591224 -0.050721876
-0.10034044 0.16772115 0.05461452 0.09026352 0.06413736 -0.009241403 0.03487572 0.17703104
-0.04783842 0.058355045 -0.062577665 0.16558325 -0.10688649 0.1219598 -0.064332746 0.032705005
-0.09292377 0.09703388 -0.14976196 0.10658833 -0.115284055 -0.13639075 0.098778464 0.15986504
00000000: 9a07 d73d fd60 a23d 5492 e13c 52d9 e63b
00000010: 4bba 50bd 65d8 323e cab0 263e 20d9 bbbc
00000020: e6de 163e 302b 0b3e 151b 0fbe d8f4 043e
00000030: 17cb 323e a50d 773d ae13 ab3d 872e 20be
00000040: 5666 553d a5dc c3bd a346 23be e03a d23d
00000050: 806e e0ba 1167 6ebc 3753 f73b 7036 28be
00000060: 67b3 9ebd 0a4e ab3d 1c12 003e 74bd ccbc
00000070: fd14 b9bd 7105 25be 8ae1 543d f4b9 c7bd
00000080: 120d 14be a874 a5bd 34be 0ebe 3658 113e
00000090: 0f07 26be a080 b0bd 59bf 283d 1822 113d
000000a0: dd44 053e 1c34 2dbe 8946 39be 8ae2 583c
000000b0: c4d3 24bd 377d 97bc d4fa 07be fcab 0d3e
000000c0: b043 833d fc04 883d e34d a0bd ef08 72bd
000000d0: 9cc7 0bbe fd47 1f3e cd89 97bd c488 f43d
000000e0: 5705 243d 3a05 fe3b 904f fa3d 97bd dc3d
000000f0: 175c 113b 4d5d 383d 38a8 fc3d 2b10 d13c
00000100: 3c17 18bd 8917 84bd 2b4c 1b3c 74ec 743d
00000110: 77f0 9dbd 820a 203d 064f 80bd fb3a 023e
00000120: cad4 fabd ceea e7bd 03ce aabd a707 453e
00000130: 384c 103d e9e2 2d3d da98 063e b376 b8bd
00000140: c191 763b 972b d6bd 6414 813c 768a 3cbd
00000150: 74cd b5bd b595 cbb9 57ef 143d 7a62 da3c
00000160: e596 2f3d a7b5 e2bd 1e4a cbbd fa9a 163e
00000170: 4a35 15be 4f2f e2bd 8e99 48bd ff08 f2bd
00000180: 759f d83d 854b 393e ede1 a93b a722 f7bd
00000190: d93c 003e e254 003e d734 7d3c 1e9e 34be
000001a0: 6b7b a83d acc5 23be 57ce 1a3c fff6 243e
000001b0: 3129 123e 1cc0 19be 773b 05be 8188 bbbd
000001c0: 84b6 b23c f32d 04be 6757 dabd b3f0 20be
000001d0: 5fd8 c23d 6bda c13b 0a58 babd 86b1 203e
000001e0: 1f53 b0bd 7c43 a93c fa00 dbbd 06c3 c43d
000001f0: 9d82 25be 89c9 323e 8426 233e 0b2d 8bbd
00000200: 17e6 a13d 5502 443d f1e4 343e b856 0bbd
00000210: b9f1 173b 382a edbd caea cb3c 4984 86bc
00000220: 6125 01bd c91f de3d fee6 36be 1d7a 263e
00000230: 149e 67bc a207 c03d 81f0 3ebd f792 36bc
00000240: 1817 a03c 239f 19be 1966 093e 1fbb 69bc
00000250: 4456 04be ee21 23be 65c0 6d3d 5db4 0dbe
00000260: d3ee d03d 5f23 e83b 3d7b f83d b6f7 8bbb
00000270: e055 203e 315d 083e 5c8e fcbd ced1 2fbd
00000280: bbb9 41bb fa66 d7bd 7416 2ebe a971 f7bb
00000290: 2179 ecbd 8527 fbbb 7bc4 f43c b29d 08be
000002a0: 0ef2 363e 1df3 9f3d 3360 19be 0766 81bc
000002b0: 0391 193e 2257 033e 1ea8 883d 3a20 2d3e
000002c0: 7b14 82bd 93fc 23bd edc3 8abd 135d 063e
000002d0: d00a c6bc 5101 1dbe 0280 2b3e 1bce 093c
000002e0: 289a 41bc 86c2 8c3d e367 8e3d 2ec8 0a3e
000002f0: 209c 99bd 77be 60bd 446b fabc 62a6 11be
00000300: 5904 a53d 35e4 01be dfe3 ef3d 834e 1f3e
00000310: a9e8 213b d346 35be d79d e1bd fc05 29be
00000320: b2c3 733d 1223 a63c 2c8f c4bd 890f 343e
00000330: 75be 823d f234 28bd 9be0 683d 7d54 bfbd
00000340: 87e3 f9bd f06c db3d 37d1 5d3d f7c1 d3bd
00000350: 81b0 683d 2b25 aabd 14a2 c23d 1b79 13be
00000360: 8d62 eb3d afea 52bc 53f8 c9bc e622 80bd
00000370: 05f4 3dbe 8b91 5bbc 9488 3c3e cdfc 2fbd
00000380: 2e15 cf3d 8b63 3fbb 8e0f 01be 2e7f 843d
00000390: 63ea a1bd 80bd 1f3d 75a7 1f3e bec1 4fbd
000003a0: 4a7f cdbd 18bf 2b3e 7ab3 5f3d 15dc b83d
000003b0: 735a 833d 4169 17bc d8d9 0e3d a047 353e
000003c0: 38f2 43bd b305 6f3d b828 80bd a88e 293e
000003d0: 4ee7 dabd 0fc6 f93d e3c0 83bd aff5 053d
000003e0: d14e bebd b3b9 c63d 335b 19be fb4a da3d
000003f0: 0c1a ecbd 04aa 0bbe 5d4c ca3d a9b3 233e

rnn.bias_ih_l0 f4 [32]
-0.14322287 -0.07715159 -0.012096035 0.060347583 -0.14572872 -0.090507954 -0.16635299 0.15208973
-0.13379155 -0.07050005 -0.11682883 -0.11511951 -0.1412606 0.07767545 0.0035035172 0.098749414
-0.07333341 0.06388632 -0.0906522 0.19241638 0.045967553 -0.08124321 0.06312212 0.088972665
-0.011210539 0.16515905 0.09546814 0.17929354 0.06322234 0.13490689 -0.15894729 -0.025333317
00000000: 04a9 12be a701 9ebd 732e 46bc 072f 773d
00000010: e939 15be 3c5c b9bd 7058 2abe 69bd 1b3e
00000020: a700 09be 5562 90bd f443 efbd c7c3 ebbd
00000030: 9ea6 10be 4e14 9f3d 449b 653b 223d ca3d
00000040: d42f 96bd d5d6 823d dca7 b9bd cd08 453e
00000050: 7948 3c3d d762 a6bd 2c46 813d 4d37 b63d
00000060: 69ac 37bc 741f 293e cd84 c33d ba98 373e
00000070: b77a 813d 0825 0a3e 14c3 22be d187 cfbc

rnn.bias_hh_l0 f4 [32]
0.06347746 -0.12974252 0.06447006 0.015363238 -0.09600853 -0.11564231 0.019091696 0.1775773
0.13802406 0.13641803 0.12742695 0.09039421 -0.095545486 -0.086248234 0.12396168 -0.07922237
-0.011167523 -0.16069607 0.008648188 0.09991379 0.08163492 -0.028831016 -0.07339894 0.14425644
0.12938856 0.12942402 0.16997173 0.01977046 0.0472812 -0.050256126 -0.10759551 -0.03619203
00000000: 7800 823d 39db 04be e108 843d 17b6 7b3c
00000010: 1fa0 c4bd e0d5 ecbd 3066 9c3c d3d6 353e
00000020: 2e56 0d3e 2bb1 0b3e 367c 023e 9920 b93d
00000030: 5aad c3bd eaa2 b0bd 9fdf fd3d 573f a2bd
00000040: fdf7 36bc 838d 24be 21b1 0d3c 9a9f cc3d
00000050: 3530 a73d 062f ecbc 2f52 96bd f6b7 133e
00000060: 6f7e 043e bb87 043e 120d 2e3e a9f5 a13c
00000070: eea9 413d 5ed9 4dbd 095b dcbd 183e 14bd

classifier.weight f4 [1, 32]
0.07590576 -0.117467634 -0.15246408 -0.20068175 -0.259363 0.04746581 -0.22156063 -0.012268614
0.016827632 -0.03216334 -0.014986666 -0.21465097 -0.06827514 0.11832388 0.26073593 0.24267006
-0.18423477 -0.23991205 -0.08960124 0.21879505 -0.15605593 0.12728627 -0.006162248 0.23863211
0.19714378 0.06012588 0.17402895 0.1405924 -0.07105195 0.114432156 0.11264952 0.20479952
00000000: 7b74 9b3d df92 f0bd 8b1f 1cbe 847f 4dbe
00000010: 3acb 84be 826b 423d cae0 62be 4c02 49bc
00000020: 1ada 893c b5bd 03bd a28a 75bc 77cd 5bbe
00000030: d6d3 8bbd ca53 f23d 2e7f 853e 807e 783e
00000040: 0aa8 3cbe 81ab 75be db80 b7bd cf0b 603e
00000050: 20cd 1fbe 5557 023e afec c9bb fa5b 743e
00000060: 0fe0 493e 8e46 763d a534 323e 74f7 0f3e
00000070: af83 91bd 685b ea3d cbb4 e63d f7b6 513e
