save/1-7_rnn_sp_100.pt (torch, 15762 bytes, 7 tensors)

emb_layer.weight f4 [100, 16]
000000 00 00 00 00 00 00 00 00 00 00 00 00 00 00 00 00
       0.0 0.0 0.0 0.0
000010 00 00 00 00 00 00 00 00 00 00 00 00 00 00 00 00
       0.0 0.0 0.0 0.0
000020 00 00 00 00 00 00 00 00 00 00 00 00 00 00 00 00
       0.0 0.0 0.0 0.0
000030 00 00 00 00 00 00 00 00 00 00 00 00 00 00 00 00
       0.0 0.0 0.0 0.0
000040 f6 14 11 3f a2 7a bd bf b9 f6 d4 3f 6f cf a8 3f
       0.5667261 -1.480305 1.6637794 1.3188304
000050 7b db f5 3e bd b2 0c bf 7b 31 19 3f 9c 0f 1f bd
       0.48019013 -0.5496023 0.59841126 -0.038833246
000060 c3 f0 01 3f a1 6e da 3e df bf ab be 64 00 61 bf
       0.50758 0.42662528 -0.33544824 -0.8789122
000070 04 16 b1 bf e8 84 de be 6b 74 10 bf 98 69 73 3f
       -1.3834844 -0.43460774 -0.5642764 0.95083
000080 b9 38 c9 bf f7 8e 03 c0 be da 65 3e 0d 33 01 c0
       -1.5720435 -2.055601 0.22446725 -2.018741
000090 80 ed 53 bf eb 2a 23 bf c8 cc fe bf c9 97 da be
       -0.8278427 -0.6373736 -1.9906244 -0.42693928
0000a0 5c b3 14 3f 8e 01 a1 3e 54 62 f3 3e 03 7a c9 3e
       0.5808618 0.314465 0.47535956 0.393509
0000b0 7c 30 0e 40 a3 84 7f 3f b6 c1 d0 be 3c 9d 8b bf
       2.2217093 0.9981176 -0.4077279 -1.0907359
0000c0 a4 a8 33 be 75 88 9b 3f f4 91 bf 3c 23 f2 2b 3d
       -0.175448 1.2151018 0.023385026 0.041978966
0000d0 0a f8 25 bf cf 89 02 bf 75 3e d1 be 26 b1 8d bf
       -0.648316 -0.5099153 -0.40867963 -1.1069686
0000e0 b5 ec e8 be 01 a3 ca be db fc 62 3b 0b 74 98 bf
       -0.45493093 -0.39577487 0.0034635577 -1.1910414
0000f0 50 fb 86 bf 69 b8 91 3f 43 dd 60 be c5 67 eb be
       -1.0545444 1.1384403 -0.21959405 -0.45977607
000100 08 c4 1e 3f 4c dd 50 bf f7 e3 2e bf 45 97 e7 3f
       0.6201787 -0.8158767 -0.68316597 1.8093039
000110 54 66 4e 3f d5 47 1e 3f f3 33 21 bf 62 93 67 bf
       0.8062489 0.61828357 -0.62969893 -0.90459263
000120 a0 31 23 3f a2 2a 6d bf 5e fa 7b be e0 a6 69 3f
       0.63747597 -0.9264318 -0.24607226 0.91270256
000130 21 fa 8c bf 59 21 60 be c8 a0 dc be a0 b9 b7 be
       -1.1013833 -0.21887721 -0.43091416 -0.35883808
000140 3e 17 5a 3d 4c e1 1a c0 d8 f2 90 bf 99 e6 4d bf
       0.05324482 -2.420001 -1.132411 -0.8042999
000150 c2 96 87 3e c3 22 5f 3f ff 12 c4 bf 1e 96 c4 bf
       0.26482207 0.8716242 -1.5318297 -1.5358312
000160 54 49 83 3f b3 b7 6c 3f aa a2 36 3f 33 2a 15 bf
       1.0256753 0.924678 0.71341956 -0.58267516
000170 13 f7 8e bf c1 bd 92 3f 7d 0f 73 bf 2f 1b a6 bf
       -1.1169151 1.1464158 -0.9494551 -1.2977046
000180 65 bc 0f 40 6d 30 a5 3f b0 5c 9e 3f 50 aa ec 3f
       2.2458737 1.2905403 1.2372036 1.8489475
000190 c9 71 11 3f e1 ff e0 3e bc 97 b1 bf c9 4c 9c be
       0.5681425 0.4394522 -1.3874431 -0.30527332
0001a0 e6 68 b0 3d d6 e2 f8 bf 9f 78 f7 be fc cc a3 3f
       0.08613758 -1.9444225 -0.48334214 1.2796931
0001b0 b5 52 fe bd 6a a0 a5 3f 20 78 8a 3f 9e 9f 10 40
       -0.12418119 1.293958 1.0817909 2.2597423
0001c0 f6 a2 74 bf 0c 18 4d bf 02 08 3b 3f 81 0b b7 3e
       -0.9556116 -0.8011482 0.73059094 0.35750964
0001d0 1a f9 d1 be be 18 0c 3f 46 da 31 be 6f 7b 93 bf
       -0.41010362 0.54725254 -0.17368421 -1.1522044
0001e0 50 bd 22 3f db 45 2d bf 91 19 c4 3f b6 4b 3a bf
       0.6357012 -0.67684716 1.5320302 -0.72771776
0001f0 5d ac 89 3d ab ec 91 bf 5a f7 f8 3f 46 93 67 3f
       0.06722329 -1.140035 1.9450486 0.90459096
000200 2e a3 1f 3f c3 f8 60 bf ad f2 86 3c 2a a2 15 be
       0.6235837 -0.8787958 0.016473139 -0.14612642
000210 25 02 5f 3f 3b 89 d4 bd 59 cb 5a 3f 04 39 db be
       0.8711265 -0.10377737 0.85466534 -0.42816937
000220 5b 3b e9 be 1b 12 c6 3e a5 c9 dc 3f 10 63 bb 3e
       -0.45553097 0.38685688 1.7249037 0.36599016
000230 a2 e2 03 3f 4a 31 ec bf 6a b5 7c 3f 1c 94 d2 3d
       0.5151769 -1.8452542 0.98714316 0.10282156
000240 7e 54 d6 3f 63 4a 06 40 0b e7 64 bf 62 b1 a3 bf
       1.6744535 2.0982902 -0.89415044 -1.2788508
000250 18 18 01 3f 8f 84 93 bd 30 c6 c8 bf ca b3 c5 bd
       0.5042739 -0.07203018 -1.5685482 -0.09653433
000260 7e 03 04 3f 8d d8 70 bf 09 87 f4 bd 54 86 c5 3f
       0.5156783 -0.9408043 -0.119398184 1.5431619
000270 e4 ab d5 3e 0a 81 93 be 95 9a 38 bc d4 33 21 be
       0.41732705 -0.28809386 -0.011267324 -0.15742427
000280 b0 17 32 bf 2c 49 0b c0 74 36 7c bd 74 f6 0e be
       -0.69567394 -2.176341 -0.061575368 -0.13961202
000290 7b 64 85 bf 19 85 91 3e c7 33 2c bf 85 49 f4 3e
       -1.0421289 0.28421858 -0.67266506 0.4771234
0002a0 9c 99 4d bd 0d 07 1b 3f 57 a1 09 bf 5d ce 1a 3f
       -0.05019532 0.60557634 -0.5376181 0.60471135
0002b0 7a 8e b1 3e 3c 6d 09 3f 8a 50 e6 3e 16 dc 23 be
       0.34679013 0.53682303 0.4498332 -0.16001925
0002c0 9e 0f 07 bb fe b3 98 bf b0 57 04 be 3e ad 45 bf
       -0.0020608674 -1.1929929 -0.12924075 -0.7721747
0002d0 8b c8 88 bf 30 9f 16 40 47 58 d3 bf 11 e2 16 3f
       -1.0686201 2.353466 -1.6511315 0.589387
0002e0 56 6d b0 3e 0d 78 c3 be d6 16 a7 3f 76 c6 3b 3e
       0.34458417 -0.3817753 1.3053844 0.18337426
0002f0 c7 ad 31 40 a2 d1 9c 3e 59 5d c4 be 19 02 0f c0
       2.7762315 0.30628687 -0.3835247 -2.234503
000300 44 64 23 bf 56 56 ac 3f a3 3b be 3f 40 bf a5 3e
       -0.6382487 1.3463848 1.486195 0.32372475
000310 d8 dd be be d0 59 d9 3e 61 16 aa 3d 34 e9 26 3f
       -0.37278628 0.42451334 0.0830505 0.6519959
000320 12 aa db 3e f4 d0 3f bf ce 57 07 be 3a e7 d0 bf
       0.4290319 -0.7492821 -0.13217089 -1.6320565
000330 79 95 16 be 8d 90 18 40 ff 4d 00 3f 80 19 28 be
       -0.14705457 2.3838227 0.5011901 -0.16415977
000340 28 3c da 3f 54 f7 b5 bf 8b 74 9c 3e 0a 21 c2 be
       1.7049608 -1.4216104 0.30557665 -0.37915832
000350 bb c1 72 be c3 c3 dd be 60 4a 90 3f 9a 71 92 3f
       -0.23706715 -0.43313417 1.1272697 1.1440918
000360 ce f1 f3 bd ba ba 01 3f da ea 1f bf 50 8c fb 3d
       -0.11911355 0.5067555 -0.6246773 0.12282622
000370 7e 40 45 3f bd f2 7b bf 66 46 e7 3e 14 72 b1 bf
       0.7705153 -0.98417264 0.45170897 -1.3862939
000380 d3 9e 05 3f 3d b3 a9 3f d0 ab 58 3e 26 7d 74 bf
       0.5219547 1.3257824 0.21159291 -0.9550346
000390 d3 bf df be 28 d5 cb be b1 10 a3 3f d9 61 da be
       -0.43701038 -0.39811063 1.2739469 -0.42652777
0003a0 17 a7 32 c0 74 41 16 bf 40 8b b7 3f 73 78 d3 3d
       -2.7914484 -0.58693624 1.4339371 0.10325708
0003b0 28 d9 a7 3f d5 1a fa be de 90 18 be 94 d6 f5 bc
       1.3113146 -0.48848596 -0.14899012 -0.030009545
0003c0 6a fd c3 3e 76 0a 5d bf c2 fb 40 bf ea b2 ff 3c
       0.38279277 -0.8634409 -0.7538415 0.031213243
0003d0 cb 31 a7 bf 61 52 7e 3f de 8e dd be 5d ca 30 3e
       -1.3062071 0.9934445 -0.43273062 0.17264695
0003e0 30 8e 6b bf 5c 97 71 3f 57 99 32 be 02 20 ec be
       -0.92013836 0.9437158 -0.17441307 -0.4611817
0003f0 d2 53 92 3e 45 8b c3 3e c8 6c 25 3f 8b 03 ab 3f
       0.28579575 0.38192192 0.6461911 1.3360456

rnn.weight_ih_l0 f4 [32, 16]
000000 6f 8f 72 3d f5 4d 28 3e fb ae 84 3d bd 41 2e bb
       0.05921882 0.16435988 0.064786874 -0.0026589476
000010 a3 09 55 3d 08 27 fa bd 8e e6 1a 3e 82 38 15 be
       0.052011143 -0.12214476 0.15127012 -0.14572337
000020 d6 97 0a 3d 92 1f ee bd 7f f9 87 3c 6e b1 ee 3d
       0.03383621 -0.11627115 0.016598461 0.11654936
000030 fc 7e ae 3d 4c 48 58 3d a9 95 14 3e ab 6f 28 be
       0.08520314 0.052803323 0.14510216 -0.16448848
000040 72 af d6 3d d4 ac aa bd 36 15 b4 bd 8f 11 b6 bc
       0.10482682 -0.083337456 -0.08793108 -0.02222517
000050 a3 3e 8b bc d2 46 e9 bd 66 a4 05 be 91 1d 2e 3d
       -0.016997641 -0.11390461 -0.13050994 0.042508665
000060 e9 d5 68 bd 22 7b de 3d 04 31 0e 3e c8 3e 87 3d
       -0.056844626 0.108633295 0.13885885 0.066037714
000070 39 81 9b 3d fc ef 33 bd 02 bc bc 3c 80 d4 c0 bd
       0.07593007 -0.04393004 0.023038868 -0.09415531
000080 31 6a f1 bd 2d fd 6d 3d cb f2 62 3d 33 fd 1b be
       -0.117878325 0.058102775 0.055407327 -0.15233307
000090 34 ff ab 3d ae 3c bd bd 3b ef 51 3d 8b bf b4 3d
       0.083982855 -0.09240089 0.05125354 0.088255964
0000a0 ce e8 21 be 29 a4 06 be a2 f5 13 3e 35 38 bf bd
       -0.15811464 -0.1314856 0.1444917 -0.093368925
0000b0 fa 57 6b bd 28 e1 e1 3d bc 7a a3 3d 4d 92 27 be
       -0.057456948 0.11029273 0.07982394 -0.16364403
0000c0 94 70 f6 bc db d2 12 3e 6d 4f bf bd 3d 65 22 3e
       -0.030082978 0.14338247 -0.09341321 0.15858932
0000d0 db a4 69 3d ad 65 da 3d 4d 2b 0d 3e bf 53 af bd
       0.057041984 0.10663924 0.13786049 -0.08560895
0000e0 e1 ad cd bd 2a 6e 14 3e 2c 78 22 be de 52 2e be
       -0.100429304 0.14495149 -0.15866154 -0.17023799
0000f0 fe 48 cc bc 04 c8 ae bd bb 04 25 3e 27 21 1c bb
       -0.02493715 -0.08534244 0.16115086 -0.0023823471
000100 3e 46 29 be 7e 90 a6 bb 23 8c fb 3d 6c ce e4 bd
       -0.16530702 -0.005083143 0.12282588 -0.11172184
000110 fa 65 2f be f0 5e 2c 3e d8 d3 3a 3d 8f b5 22 3e
       -0.17128745 0.16833091 0.045612186 0.15889572
000120 43 bf 2e 3e 3f 70 50 3d fa e2 bf bd 8a 35 06 3e
       0.17065148 0.050888296 -0.09369464 0.13106361
000130 f7 63 0b 3e 11 08 31 be d7 8f 79 bd cc bb cb bd
       0.13612352 -0.17288233 -0.060928192 -0.09947929
000140 9d 28 cd ba 85 61 32 3e 7e 1e b5 3b 82 9f 80 bc
       -0.0015652362 0.17420013 0.0055273166 -0.01570106
000150 14 59 5a bd 33 ff cd 3d d8 14 7c 3d 6d 19 68 3d
       -0.053307608 0.10058441 0.061543316 0.056664873
000160 93 45 25 3e fe 6c 18 3e 02 49 51 3d a7 1f c0 3d
       0.16139822 0.14885327 0.051095016 0.09381037
000170 ac dc a9 bd 15 5b f7 3d cf dd d6 bd 85 9b 2e 3e
       -0.08294043 0.120779194 -0.104915254 0.17051513
000180 51 a5 97 bd c5 08 6b 3b 89 ad 0d be bd 9c 8b 3c
       -0.074045785 0.0035863381 -0.1383573 0.017042512
000190 6d ec 1b bd df eb 69 bd 73 85 52 3d f9 fb ea bd
       -0.03806727 -0.05710971 0.0513968 -0.11473841
0001a0 06 50 3d bc c2 2f 1f be 86 a9 0c bd 51 5a be bd
       -0.011554724 -0.15545562 -0.034341358 -0.0929457
0001b0 18 0d ae bb 11 ef d2 bd 6f 94 30 be 05 db 25 3e
       -0.0053116195 -0.102995045 -0.17244123 0.1619683
0001c0 0f ab 43 3d aa 26 36 bd 38 3c 30 3d 28 60 a9 3d
       0.047770556 -0.044470467 0.04302618 0.082702935
0001d0 d4 8d 38 be 7b 67 82 bd b4 d5 12 be 3f 2f 06 be
       -0.18022853 -0.063673936 -0.14339334 -0.1310396
0001e0 d3 8b a8 3d 75 db 04 3e 7a 26 33 be aa 66 b2 bd
       0.08229794 0.12974341 -0.17495146 -0.08710988
0001f0 dc a0 06 be 4e d2 16 3e 98 ce de 3d 06 7b 8a bd
       -0.131473 0.14728662 0.108792484 -0.06761746
000200 ca 26 12 3d a8 7d 14 3d 64 a8 2b 3e 12 d0 86 3b
       0.035681523 0.036252648 0.16763455 0.0041141594
000210 d2 e7 66 bd 60 05 d9 3d db 5d 0d be 18 7d fa 3d
       -0.056373425 0.10596728 -0.13805334 0.12230891
000220 de b7 83 3d c0 b0 05 be ae 42 a8 bc 09 b3 6f bd
       0.06431554 -0.13055706 -0.020539608 -0.05852035
000230 59 bc ca 3d ce 1c 2b 3b a5 db be 3d 4f a4 21 be
       0.09899206 0.0026109698 0.093192376 -0.15785335
000240 9d fb 5b bb 5d b8 e4 ba 28 32 07 be 4f 21 63 bd
       -0.0033566721 -0.0017449964 -0.13202727 -0.055451687
000250 14 f8 8d bd f7 94 11 be 68 fc 8a 3d 94 e0 06 3e
       -0.06932083 -0.14216982 0.06786424 0.13171607
000260 9e e0 3e bd 62 46 31 bb b3 f2 a2 3d 46 71 27 3e
       -0.04660093 -0.0027050008 0.079564475 0.16351804
000270 db 06 03 bd df 8d 3d be a5 e4 ae bc 47 fa 65 bd
       -0.03198896 -0.18511151 -0.02134926 -0.056146886
000280 48 96 2b be 25 d3 04 be 3a 70 7b bd e2 86 88 3d
       -0.16756546 -0.1297117 -0.061386324 0.06666352
000290 60 56 f3 3d ac 35 aa 3d 64 04 12 be 2d a5 1a be
       0.11881709 0.08311018 -0.14259487 -0.15102072
0002a0 39 87 2a bd 5e fb 0f be 46 38 97 bd 02 ac 1d bd
       -0.041632865 -0.14060733 -0.0738378 -0.038494118
0002b0 42 ed 44 3c 47 27 11 3e 01 55 9b 3d 24 e0 19 be
       0.012019457 0.1417514 0.075845726 -0.15026909
0002c0 3e 0b ab bd 86 c0 3e bb 3e 20 1c 3e 61 65 ad bd
       -0.08351754 -0.0029106452 0.15246674 -0.08466602
0002d0 6f 29 1e 3e 9f 78 0d 3e f0 59 2d be e9 2c e5 bd
       0.15445493 0.13815545 -0.1692884 -0.111902066
0002e0 8c e6 6e 3c 27 1a 09 be ae 1a b6 3d 59 f5 03 3e
       0.014581334 -0.13388883 0.088918075 0.12886561
0002f0 7f 7d fa 3d 07 87 93 bd 0f 48 bd 3d 9b 30 0a be
       0.12230968 -0.07203489 0.0924226 -0.13495104
000300 5b 5e 06 3e d7 7e 10 3d d4 35 c7 3d 01 ec c4 3d
       0.13121931 0.035277214 0.09727064 0.09615327
000310 78 17 30 be 29 25 db bd 6e dd e9 bb ec fd 32 3b
       -0.17196453 -0.10700447 -0.007136992 0.0027311994
000320 12 5e f0 3d 13 9c bd 3d 7f 0c 98 bd cf cf 17 be
       0.117366925 0.092582844 -0.074242584 -0.14825366
000330 df 28 0f 3e 44 29 dc b8 ea a8 71 3c 5a e1 b3 3d
       0.13980435 -0.00010498104 0.014749745 0.08783217
000340 c7 3a 56 3d 8b f1 14 3d 22 cc 5d bb c1 0c 19 3d
       0.05230215 0.036363166 -0.0033843596 0.03736568
000350 42 44 10 3e 33 f6 00 3e 0b 09 05 bd e0 e2 ac bd
       0.14088538 0.12593918 -0.032479327 -0.084417105
000360 ee f1 8f 3c c4 1e 6c bc 93 3e 57 bd e9 de 1c 3d
       0.017571416 -0.014411632 -0.05254991 0.03829852
000370 cb f0 cc 3d de 7b 17 3e c3 36 be 3c d2 00 a4 3c
       0.10006865 0.14793345 0.023219472 0.020019922
000380 48 d0 ca bc dc 3b e4 bd e3 4d 30 3e 7e 6c 2f bd
       -0.02475752 -0.1114423 0.17217211 -0.042828076
000390 cb c8 f7 3d 32 ae d6 bd bf 3a 14 bd 08 99 28 3e
       0.12098845 -0.10482444 -0.036188837 0.16464627
0003a0 5c b5 23 bd 56 a7 c4 3c 61 4e 31 bb 51 ee 23 be
       -0.03996788 0.024005573 -0.0027054774 -0.16008879
0003b0 ec 8a 76 bd 5b 1d 4c bd 35 55 e2 3d 2d 74 b9 bd
       -0.06019108 -0.049832683 0.11051408 -0.09055362
0003c0 36 a2 a4 bd 82 4e b1 3d a0 a2 17 bd 80 80 cf bd
       -0.08038752 0.08657552 -0.037020326 -0.10131931
0003d0 6b e7 75 bd 2e 02 06 3e c4 e0 fa bb ae 50 19 3e
       -0.06003515 0.13086769 -0.0076561887 0.14972183
0003e0 97 1c 00 be c6 7f 36 3d e1 41 2a be 25 50 01 be
       -0.12510906 0.044555448 -0.16626693 -0.12628229
0003f0 4e 73 19 bd 9b 22 81 bd 82 03 0c be 54 15 0b bd
       -0.03746348 -0.063054286 -0.13673213 -0.033955887

rnn.weight_hh_l0 f4 [32, 32]
000000 60 5f 29 3e 8b 3f 95 bd eb 4e f8 3c 01 33 d6 3c
       0.16540289 -0.072875105 0.030311069 0.026147367
000010 66 8e af 3c ae 19 ea bd 6d 3e ba bd 50 d9 f7 bd
       0.021430206 -0.11430679 -0.09093938 -0.12101996
000020 35 9b 18 bd e8 e2 ea bc 56 13 14 be 3e 1d 34 3d
       -0.037257392 -0.02867265 -0.14460501 0.0439732
000030 5f e1 2b be c0 8e f2 3c 5b 38 05 3e bd 6e 98 bd
       -0.16785191 0.029609084 0.13009779 -0.07442997
000040 1a 22 2f bc d8 91 bf 3d 35 93 55 bd ef bb 30 bc
       -0.010689283 0.09353989 -0.05214234 -0.010786994
000050 2c c7 12 3e fd 56 78 3d 1d e7 40 3d db 29 17 3e
       0.1433379 0.060629833 0.047095407 0.1476206
000060 c2 74 2a be 34 d1 42 3d 81 d2 30 be b0 ca b5 bc
       -0.16646102 0.047562793 -0.17267801 -0.022191375
000070 0f a5 ac bd 60 58 f4 bd cf 73 19 3e e3 14 e7 3d
       -0.0842992 -0.11930919 0.14985584 0.11283281
000080 55 f7 f3 3d ad e4 8c bd f9 9c e8 3b 4b 29 19 be
       0.11912409 -0.06879554 0.0070987907 -0.14957158
000090 83 62 cd 3a a0 0b 93 bd a2 b3 7a 3c 89 0f f0 3d
       0.0015669618 -0.07179952 0.015301617 0.11721713
0000a0 4e f2 c3 3d e7 5e 94 bc b8 d9 d5 bd c9 4c 01 3e
       0.095677 -0.01811166 -0.10441917 0.12626947
0000b0 7d 4e ea 3c e3 df 1e be 4c 21 20 3e 7b 93 ad 3d
       0.02860188 -0.15515094 0.15637702 0.08475395
0000c0 1d 13 15 3e 01 a9 01 3e 0a cf 46 3d a7 1a 8e 3d
       0.14558072 0.12662126 0.04853729 0.06938677
0000d0 e2 8e 0c 3e 11 56 3a 3e eb d9 a9 bc 4f 0d 04 3e
       0.1372638 0.18196894 -0.020733794 0.12895702
0000e0 c7 a6 9b bd 6b 71 0f 3e 6e c4 1f bd 57 e4 f2 3d
       -0.0760017 0.1400811 -0.03900569 0.118599586
0000f0 6d 33 07 3e 2c 28 16 3e 39 8f 93 3d 9d 90 ff bd
       0.13203211 0.14663762 0.07205052 -0.12478755
000100 8c 75 d4 3c 1f 86 d8 3d 3c fd 0b be bf 1a 34 3d
       0.025934957 0.105724566 -0.1367082 0.04397082
000110 e1 30 0d 3e b2 a1 36 be 90 42 0e 3e dc b9 04 be
       0.13788177 -0.1783512 0.13892579 -0.12961525
000120 0c b8 a3 3d 54 c4 bd 3d 78 f4 be bd 13 3f 2d 3e
       0.079940885 0.09265962 -0.093239725 0.16918592
000130 02 b4 dd 3d 11 49 b0 bd 93 68 92 3d a0 84 29 be
       0.108253494 -0.08607686 0.07148852 -0.16554499
000140 f7 02 55 3d 3f 35 97 3d 46 ea 8b 3d 4d 8d c2 3d
       0.05200478 0.07383203 0.068317935 0.09499607
000150 51 97 56 bd b4 dc 5b bd 67 5b b4 3c 9e d2 0c be
       -0.0523904 -0.053677276 0.02201624 -0.13752219
000160 c3 63 8f 3c 12 7f b0 bc d6 92 2c be 43 2f 12 be
       0.017503625 -0.021544967 -0.16852888 -0.14275841
000170 72 85 00 3e 6c fe 52 bc f9 92 1e bd d4 f9 dd 3d
       0.12550905 -0.012878042 -0.038714383 0.108386666
000180 3a f3 e2 3b a2 ef ca 3d 08 30 2e be 28 25 b4 bd
       0.0069259675 0.099089876 -0.1701051 -0.087961495
000190 30 63 14 3e ff 94 d1 3d 95 ff 25 3e 61 63 e2 bd
       0.14490962 0.10233497 0.16210778 -0.11054111
0001a0 30 9e 1c 3c 5e 2b 7a bd d6 01 90 3d f3 40 00 bb
       0.009559199 -0.061076514 0.070316 -0.0019569963
0001b0 2e f0 d6 bd b7 a5 d8 3d 2d 6e 05 3e 57 05 20 be
       -0.104950294 0.105784826 0.1303031 -0.15627037
0001c0 64 7e 1b be 41 08 e6 bd c3 18 b4 3c 82 f6 c2 3d
       -0.15184933 -0.11232043 0.021984464 0.09519674
0001d0 e2 0f 02 3d 22 57 2a 3e e6 78 32 bd 18 a7 9e bd
       0.03175343 0.16634801 -0.04357233 -0.07746714
0001e0 2a a1 12 3d f6 0f db 3d df 05 dc 3d 9f 9a 0e be
       0.03579823 0.10696404 0.10743307 -0.13926171
0001f0 bd f0 15 bb 19 d9 08 3e 92 a7 f1 3d 3f 30 6f bd
       -0.0022879087 0.13364066 0.117995396 -0.05839562
000200 ec 8f a2 bd ad b8 01 3e ca 1f e2 3b 54 f2 b2 3d
       -0.07937607 0.12668104 0.006900762 0.08737627
000210 fa 3f b9 bd 74 21 bb bd 66 53 ec 3d a4 9e 73 bc
       -0.09045406 -0.0913724 0.115393445 -0.014869366
000220 67 2e cf 3c 60 cf 9a bd 1b 30 4a bd 5b e4 30 bd
       0.025290681 -0.07559085 -0.049362283 -0.043186527
000230 5c 57 03 3e 1c ad f8 bd c4 48 ba bd 00 2e 4e bd
       0.12826294 -0.12142393 -0.0909591 -0.050336838
000240 e4 3d 04 be 6a 2a 12 3e 55 12 27 be 01 b2 4d 3c
       -0.12914234 0.14273992 -0.16315587 0.0125546465
000250 ea f3 21 be 3a 70 f8 3d 68 63 d2 bd f2 8d 2d 3e
       -0.15815702 0.121307805 -0.102728665 0.16948679
000260 57 9e 3b 3d 06 e7 b3 3d d1 b4 08 bd 0c 8a 31 bc
       0.0458053 0.087842986 -0.033375565 -0.010836136
000270 b0 b4 65 3d a0 62 87 bc c8 af f3 3d 2b 52 e4 bc
       0.05608052 -0.01652652 0.11898762 -0.027871212
000280 65 f4 59 bd 6c 32 ef 3d 46 f3 97 bd 21 3a a7 bc
       -0.05321159 0.11679539 -0.074194476 -0.02041346
000290 ec e1 49 bd f8 0e a4 3c fe c8 ab bb 2a 44 93 3c
       -0.04928772 0.020026669 -0.005242466 0.01797684
0002a0 64 71 ac bc cb bb b3 3d 42 45 28 be 23 99 99 bd
       -0.021050163 0.08776053 -0.1643267 -0.07499912
0002b0 1a 0a 34 be 92 56 1e be 33 c5 df bd 50 9c 79 3d
       -0.17581978 -0.15462711 -0.10926285 0.060940087
0002c0 b1 79 24 be cb 4d 7b 3d 59 39 f3 3c 9b 95 7c bd
       -0.16062047 0.061353486 0.029690431 -0.061666112
0002d0 78 33 2a be b0 9f 2c be ea 98 1d be 54 48 03 3c
       -0.16621196 -0.16857791 -0.15390363 0.00801285
0002e0 01 c4 09 3d 64 78 b8 3d be 13 13 3e 72 41 e1 3d
       0.03363419 0.09007338 0.14363 0.10998811
0002f0 80 83 4e bd 9c 8c 2f be ce ce 1b be 18 2d b7 bd
       -0.050418377 -0.17143482 -0.15215608 -0.08944148
000300 6e fa 18 be c8 71 25 3e c1 fc 1d be 4c 65 75 bd
       -0.14939281 0.16156685 -0.15428449 -0.059911057
000310 89 8b c1 3c ab b8 a0 3d 96 ac 9e 3c f2 43 03 3e
       0.023626106 0.078477226 0.019369405 0.12818888
000320 32 39 1d be 89 72 6a 3d 3e e0 2f be fe 12 a2 39
       -0.1535385 0.057238135 -0.17175385 0.00030913198
000330 b8 ed 36 3d c7 f2 4c bd b0 91 03 be 22 8d 2a 3e
       0.0446603 -0.050036218 -0.12848544 0.166554
000340 24 38 05 bd fa 65 f8 bd 93 72 1c 3e 40 8a ea 3c
       -0.032524243 -0.121288255 0.15278082 0.028630376
000350 16 c1 86 bd e6 59 03 be c9 0d 74 3d 6d b1 e2 3d
       -0.06579797 -0.12827262 0.05958346 0.110689975
000360 6e 20 21 be cd 1d 06 3d 98 c2 08 b8 12 ab 1e 3e
       -0.15735027 0.032743264 -3.2606156e-05 0.15494946
000370 6a 63 18 3e 7c 26 a1 bd e1 93 7d bc 6e 44 14 be
       0.14881673 -0.078686684 -0.015477152 -0.14479229
000380 80 b4 b4 bc 6a d6 00 bd 73 34 02 3e 67 55 a8 3d
       -0.022058725 -0.03145448 0.1271532 0.08219414
000390 28 87 5f 3d ed d8 1e 3d 67 bf 1a 3d 88 ee 19 be
       0.054572254 0.038781095 0.03778019 -0.15032399
0003a0 9a 50 2f 3d 7d be 13 3e 25 8c 85 bc 1a 71 c9 bd
       0.042801477 0.14428134 -0.016302178 -0.098360255
0003b0 f9 22 29 be d6 50 04 3e ad 71 26 bd 0a aa 77 bd
       -0.16517247 0.12921461 -0.040635753 -0.060464896
0003c0 07 1a b4 bc fb 47 23 be 6d 12 a0 3d 39 fd 11 be
       -0.021985067 -0.15945427 0.078160144 -0.14256753
0003d0 81 3a 5b bd c7 88 66 3c e6 0e 2b 3e 59 9d d0 3b
       -0.05352259 0.014070696 0.16704902 0.0063664136
0003e0 a8 fc d4 bc 70 85 3e 3e 72 b9 09 be 7c c8 19 be
       -0.025999382 0.1860559 -0.13449648 -0.15017885
0003f0 a2 1d ec bd 78 35 1e 3c 59 e3 9d bd 04 51 1e 3e
       -0.115290895 0.009656303 -0.07709379 0.15460593

rnn.bias_ih_l0 f4 [32]
000000 e4 51 7c 3d c3 b6 50 bd 53 8e 99 bd d1 14 26 be
       0.061601534 -0.050955545 -0.07497849 -0.16218878
000010 c4 83 21 3e 54 9c a1 3d a4 54 af 3d d9 d9 16 3e
       0.15772921 0.07891145 0.08561066 0.1473154
000020 cb 06 a6 3c 8d bc 89 bd b6 c6 35 bd bc 07 59 bd
       0.020266911 -0.06725416 -0.04437896 -0.05298589
000030 f7 0e fc bd f8 9d 09 bd e3 88 bc 3d 65 86 20 be
       -0.12307542 -0.033597916 0.092057966 -0.15676267
000040 0a 12 d1 3c 4d 0c 37 3c 9e 21 89 3d de c4 6b 3d
       0.025521297 0.011172366 0.06695865 0.057560794
000050 64 df ed bd 6e 6b 0d 3e cb 52 b7 3d 78 2c 61 bd
       -0.11614874 0.13810512 0.089513384 -0.05497405
000060 24 49 1e 3c 0d 5f 31 be 9b 74 1c be 28 bb 60 3d
       0.009660993 -0.17321415 -0.15278856 0.054865986
000070 a0 28 ef bd bf 9b 0c 3e f2 a4 89 3d 0c 94 1d 3e
       -0.116776705 0.13731287 0.06720914 0.15388507

rnn.bias_hh_l0 f4 [32]
000000 c3 e4 01 3c 86 b9 ac 3d 4b c0 92 3b 3a b3 d3 3d
       0.007928076 0.08433823 0.0044784895 0.10336919
000010 ef 94 9c bb 4c b0 8d 3d 3e d9 0c be 3d 48 44 3d
       -0.0047784965 0.069183916 -0.13754746 0.047920454
000020 3c 8b 18 be 3b cd 0f be 61 74 0d 3e 9f 24 1e be
       -0.14896864 -0.14043133 0.13813926 -0.15443657
000030 a3 3e cb 3d 03 48 a9 3d b7 97 43 3c 46 be bf 3d
       0.099240564 0.08265688 0.011938027 0.09362464
000040 86 de 07 3e 1b 7a 4e bd 94 51 12 3e ae 7a 95 3d
       0.1326848 -0.050409418 0.14288932 0.0729879
000050 65 a9 c9 3d a6 a3 10 be 64 7d 0d 3d 6f ad 43 3c
       0.098467626 -0.14124927 0.03454341 0.011943205
000060 cd 26 f4 bd 72 9c 1b 3d ab 09 d8 3d d9 6e 17 3e
       -0.11921463 0.037990995 0.10548719 0.14788379
000070 af 4e 7c 3d 18 8c 7a bd 35 19 d8 3d 98 1b 21 3e
       0.061598476 -0.06116876 0.10551683 0.15733182

classifier.weight f4 [3, 32]
000000 00 c4 cb bd 4b d2 67 3d e3 ae 13 3d ea 45 53 3c
       -0.099494934 0.056597035 0.036055457 0.012895087
000010 ea 69 f0 3b e4 b4 d7 3d 42 60 30 3d 69 ca e5 3d
       0.0073368447 0.10532549 0.04306055 0.11220247
000020 7b fb f5 bd 65 77 ff bd 8e f1 2d 3b 0a 89 92 bd
       -0.12010857 -0.124739446 0.0026541683 -0.071550444
000030 22 bd c1 bd 99 af 0e be 2b d6 da 3d ce e8 17 be
       -0.09459902 -0.13934173 0.106853805 -0.14834902
000040 51 79 44 3d 3c 14 85 bd df a9 00 be 74 92 74 bd
       0.04796726 -0.06498 -0.125648 -0.05970998
000050 c0 91 ee 3b bb fc 13 3e d9 15 21 3e 02 91 73 3d
       0.0072805583 0.14451878 0.1573099 0.059464462
000060 75 29 dc bc be 4a b9 3d eb c3 da 3c 99 78 42 3d
       -0.026875237 0.09047459 0.02670475 0.047478292
000070 5e da a8 3d 0f e2 52 bd 91 6b a4 3d 32 64 56 3d
       0.08244775 -0.051485118 0.08028329 0.052341647
000080 34 fc 1e 3e 74 79 a2 3c 54 39 0d be 1b 38 0d 3d
       0.15525895 0.019833304 -0.137914 0.034477334
000090 ff 7a 20 bd f2 2c 47 bc 43 c5 31 bd 42 e8 44 3e
       -0.0391798 -0.012156712 -0.043401014 0.19229224
0000a0 1e c3 32 3e 56 db 40 be cc 68 0d be 18 8e 10 3e
       0.17457244 -0.1883367 -0.13809508 0.14116704
0000b0 5b 08 3f 3e 0f b6 dd 3c 97 5e 05 3d 52 a9 bb 3c
       0.18655531 0.027064351 0.03256091 0.022907887
0000c0 20 16 81 bc 56 7c f3 bd 0d 1c ef bc 2c 8b af 3d
       -0.01575762 -0.118889496 -0.02918818 0.08571467
0000d0 20 22 fb 3d 46 90 10 3e 18 b6 05 3e 65 40 f3 bd
       0.12262368 0.14117536 0.13057745 -0.11877517
0000e0 da de 3b 3c c0 fb 0c bd 50 31 f6 3c ca 8e b1 3d
       0.011466706 -0.034419775 0.03005281 0.08669813
0000f0 3d 3f e0 3d 34 fc 4c bc 7c 6a 97 3d a2 a8 0d be
       0.10949562 -0.012511302 0.07393357 -0.1383386
000100 e5 cd 01 be 29 bd 15 3e b0 ed 93 bd 2a 4b be 3d
       -0.12676199 0.1462294 -0.0722307 0.0929168
000110 f2 17 8e bd e9 69 a1 bd a9 f0 a6 3d 82 28 f4 3d
       -0.06938161 -0.07881529 0.08151371 0.11921789
000120 84 e0 b9 bd ac 78 f3 bd 78 a7 91 3d 22 90 1e 3d
       -0.09076026 -0.11888251 0.0711202 0.038711675
000130 df 43 c5 bd 5b ee 2f 3e 82 16 88 3c ad d0 a9 bc
       -0.09632086 0.17180769 0.016612295 -0.020729387
000140 a6 3e b7 bd f3 26 03 3d 90 b1 d2 3c 2e fc bd 3d
       -0.08947496 0.032019567 0.025719434 0.09276615
000150 bc aa ff bc e4 ac 37 be 31 76 a3 3d 5c 79 bd bd
       -0.031209342 -0.17937046 0.079815276 -0.09251663
000160 0f f7 03 be 59 cb d9 bd a7 bf c1 3d 10 f1 ff 3d
       -0.12887214 -0.106344886 0.09460383 0.12497151
000170 db 84 10 bc f8 29 f5 bd 30 fa 6e 3d 34 4c c5 bd
       -0.008820738 -0.119708955 0.058344066 -0.09633675

classifier.bias f4 [3]
000000 39 69 5a 3e be 0e 88 3c 4f 69 3c 3d
       0.21329202 0.016608592 0.045998868
