save/1-8_rnn_sp_140.pt (torch, 18578 bytes, 7 tensors)

emb_layer.weight f4 [140, 16]
000000 00 00 00 00 00 00 00 00 00 00 00 00 00 00 00 00
       0.0 0.0 0.0 0.0
000010 00 00 00 00 00 00 00 00 00 00 00 00 00 00 00 00
       0.0 0.0 0.0 0.0
000020 00 00 00 00 00 00 00 00 00 00 00 00 00 00 00 00
       0.0 0.0 0.0 0.0
000030 00 00 00 00 00 00 00 00 00 00 00 00 00 00 00 00
       0.0 0.0 0.0 0.0
000040 5c 50 77 bf aa 8e f2 bd 88 97 de bd 1f d2 f5 bf
       -0.96606994 -0.11843617 -0.10868746 -1.9204749
000050 3b bb d5 bd 13 4f ae 3e 38 11 24 3e c5 2f b1 bd
       -0.10436102 0.34044704 0.16022193 -0.086516894
000060 99 b6 c3 bf 3d 2a 98 3e ba da 9d 3e 4c ca 23 bc
       -1.5290099 0.29719725 0.30830938 -0.009996962
000070 83 43 15 3e 8d c3 80 3e 37 47 7e bf 95 fc 07 40
       0.14576535 0.25149193 -0.99327415 2.1247914
000080 e8 36 d5 be 04 f2 49 be 9c 53 df be ae 0d 00 3f
       -0.41643453 -0.19721228 -0.43618476 0.50020874
000090 58 1a 73 be 00 98 36 3f df db 9f be 6d 15 5b bf
       -0.23740518 0.71325684 -0.31222436 -0.8557957
0000a0 59 38 60 be d9 57 65 bf c1 c6 06 40 59 ef 0c bf
       -0.21896495 -0.8958717 2.105881 -0.55052716
0000b0 86 4c 96 3f 68 1d d3 bd e2 6b 8c be 06 01 8e 3c
       1.1742103 -0.10308343 -0.27426058 0.017334472
0000c0 5b 26 7f 3f 8b 21 a2 3b 72 f5 12 bf 37 5a 1d be
       0.996679 0.0049478463 -0.5740577 -0.15366445
0000d0 6c 22 e2 be 82 d0 c5 be 60 97 58 3e 7d af 0a 3e
       -0.44166887 -0.3863564 0.21151495 0.13543506
0000e0 69 3f 1c be da 55 82 c0 8e 52 dc 3e ca 91 37 3f
       -0.15258564 -4.07298 0.43031734 0.7170683
0000f0 0f 76 c5 3f d3 e7 26 be 7f e9 87 3f 04 cd 8a be
       1.5426654 -0.16299371 1.0618132 -0.2710954
000100 2d 92 06 3f 3c 28 a2 3f ba 64 3b bf 38 21 f1 be
       0.52566797 1.2668529 -0.7320057 -0.47095656
000110 39 cd e6 3f 2e 2c 1c bf dd e4 ab bf cf 10 1f 3e
       1.8031379 -0.6100491 -1.3429219 0.15533756
000120 ae dd e5 be 20 a5 73 3f 58 66 c4 3e c8 89 d1 bf
       -0.4489569 0.95173836 0.38359332 -1.6370173
000130 99 40 37 3e d0 32 4c be f9 b2 c6 3f f9 41 74 be
       0.17895736 -0.19941258 1.5523368 -0.23853292
000140 20 37 8d 3f 0d e2 9c bd 50 2b 21 bf fa 05 73 3e
       1.1032448 -0.07660303 -0.62956715 0.23732749
000150 d0 0a 26 be d6 08 36 3f ab 2c eb 3e 71 31 70 be
       -0.16215062 0.7110723 0.45932516 -0.2345636
000160 b9 14 db be c4 e6 a9 3e 9b a3 b5 3f 87 41 b3 3d
       -0.42789248 0.33183873 1.4190553 0.08752733
000170 12 41 c7 bd 23 ad 87 bf 41 85 32 bf 25 66 09 3f
       -0.09729208 -1.0599712 -0.6973458 0.53671485
000180 01 47 c4 bf 41 58 8b bf 7c 3e b6 bf 9a f0 d9 3f
       -1.5334169 -1.0886308 -1.4237819 1.7026551
000190 96 dc 2a bf 68 33 7d 3e 7e 08 ed bf 09 8d 54 3f
       -0.6674284 0.24726641 -1.8518217 0.830277
0001a0 44 af 00 3e 0d 21 43 3e a7 f2 39 3e dc 18 af bf
       0.12566859 0.19055577 0.18158971 -1.3679461
0001b0 95 7e 31 3f ab b5 51 bd 26 49 00 3f 93 97 c0 3f
       0.69333774 -0.051198643 0.50111616 1.5046257
0001c0 4b 37 27 c0 16 12 0e be 1a 1b 57 be a9 01 89 3e
       -2.6127498 -0.13874087 -0.21006432 0.2675908
0001d0 9c 81 93 3f da 88 03 40 e6 0b 86 bf ad 3f 46 3e
       1.1523929 2.0552278 -1.0472381 0.19360228
0001e0 88 f7 79 be f2 23 30 be 21 77 a5 3e af 2a 26 bf
       -0.24410832 -0.17201212 0.3231745 -0.6490888
0001f0 4a 7d 2c be 2c ad 7c be 72 e4 c9 3f 6f 56 b3 be
       -0.16844669 -0.24675435 1.5772841 -0.3502688
000200 3f 34 45 3f 36 45 32 3f da c3 ce 3e a7 8f 32 bf
       0.77032846 0.6963686 0.40383798 -0.69750446
000210 0b 0e 80 3f ad 19 6b 3f 4f f2 e4 bf 4e e7 b9 be
       1.0004286 0.91836053 -1.7886447 -0.36309284
000220 4b 1f df bf 83 88 4e bf d4 eb b1 bf fd 04 ac be
       -1.7431425 -0.8067705 -1.3900094 -0.33597556
000230 7c 80 d7 3d c9 da 17 bf e9 37 c6 3e ae 53 81 3f
       0.10522553 -0.59318215 0.3871453 1.0103662
000240 d9 ba 0d bf 25 ed f8 bf c1 24 94 be 8b 29 84 bf
       -0.5536323 -1.9447371 -0.2893429 -1.0325178
000250 d3 09 f9 3c 40 67 86 bd de b8 bf bf 37 a4 eb bf
       0.030400192 -0.06562662 -1.4978292 -1.8409489
000260 82 e4 58 3f 64 f9 72 3f d5 25 d5 3d ae 5f dc be
       0.84723675 0.9491179 0.104076065 -0.43041748
000270 c2 5d 2f be e5 1d 2b 3f 02 1f 2e be 19 f3 3a 3f
       -0.1712561 0.6684249 -0.17004016 0.7302719
000280 95 f1 ae 3f 5d 8d 82 bf 28 d2 c9 3f 90 1c 6c 3f
       1.3667475 -1.0199391 1.576726 0.9223108
000290 7d b3 22 bf 5e 9b a0 3f 26 15 14 bd 6c a5 06 c0
       -0.6355513 1.2547414 -0.03615298 -2.1038465
0002a0 45 d9 22 3f 79 8a f8 be f9 f2 f2 3e 7b 9d b2 3f
       0.63612777 -0.48543146 0.47450998 1.3954309
0002b0 eb bd ce 3d 5e 66 65 3e 3e 7c 02 40 f5 23 68 3f
       0.10094818 0.22402331 2.0388331 0.90679866
0002c0 01 d6 18 bf dc 11 3c be dc de 17 be 2f 09 86 3f
       -0.59701544 -0.18366188 -0.14831108 1.0471553
0002d0 87 31 ee 3d 97 7a d6 3f 5e a5 c2 be 4e 52 1b 3f
       0.1163054 1.6756161 -0.3801679 0.6067246
0002e0 0f 38 9f be 62 e7 e6 3e 4e 14 d5 bf 40 06 79 3f
       -0.31097457 0.45098406 -1.6646821 0.9727516
0002f0 76 b2 1e be 24 af 68 3f c8 a7 b8 3f 0d f9 12 bf
       -0.15497765 0.90892243 1.4426203 -0.5741127
000300 d1 5e a5 3f d1 de 86 be a8 95 7b 3e 8e 53 22 bf
       1.2919561 -0.2634187 0.24568808 -0.63408744
000310 64 42 35 bf b5 75 7f 3e f3 11 4f bf 30 3f bf 3f
       -0.7080443 0.24947245 -0.80886763 1.4941158
000320 6a cf b8 bf ce 27 bc 3f 37 bc 1d bf a9 c3 1d be
       -1.4438298 1.4699647 -0.6161532 -0.1540667
000330 44 a9 fe be ca ec 6f 3f 45 ed 4e bc fb 31 6f be
       -0.49738514 0.93720686 -0.012629812 -0.2335891
000340 91 bb a3 bf b8 b9 85 3f 02 08 1d be 9d 26 17 3f
       -1.2791616 1.0447302 -0.15335086 0.59043294
000350 48 e4 de bf 8c 26 9c bf 8d 62 c0 3f fa 00 45 3f
       -1.7413416 -1.2199264 1.5030075 0.76954615
000360 54 9f 5a bf 4a af 09 bf 55 d0 f7 3f 5f 0a 83 3d
       -0.85399365 -0.53783095 1.9360453 0.063984625
000370 39 ec 9f 3f 21 40 32 bf 09 fc e5 be 7a f9 c8 be
       1.2493964 -0.696291 -0.4491885 -0.39252836
000380 96 76 9a 3f e0 23 ae bf 02 14 e9 3e 24 c2 dd bf
       1.206744 -1.3604698 0.45523077 -1.7324872
000390 d8 66 8f be 76 27 71 be a1 b8 85 3e 86 90 d4 3e
       -0.2800815 -0.2355021 0.26117423 0.41516513
0003a0 69 a5 74 3e 4a 8d d8 bf 52 3e 4a bf bd 44 0f bf
       0.23891224 -1.6918118 -0.79001343 -0.5596426
0003b0 d9 8a 32 bf f1 55 16 bf 25 e0 3d be b0 84 c9 be
       -0.69743115 -0.58724886 -0.18542536 -0.39359045
0003c0 01 3a e2 3e 70 71 da be ce b2 94 bd a8 a0 51 be
       0.44184878 -0.4266467 -0.07260667 -0.20471442
0003d0 00 c7 d3 be 81 d5 ca bf 29 71 57 bf a4 42 16 3f
       -0.41362762 -1.5846406 -0.84157044 0.58695436
0003e0 8e 90 1e bf a6 42 bb 3e b6 04 b8 be 8b a9 ce bc
       -0.6193932 0.36574286 -0.35941094 -0.025227329
0003f0 cb 1c 7a 3f c2 12 f9 3f 28 a1 a7 3d e9 6a b0 bf
       0.97700185 1.945885 0.08185035 -1.3782626

rnn.weight_ih_l0 f4 [32, 16]
000000 8a 52 0d be fd 19 ae bd f0 3c ad 3d c9 b8 04 3e
       -0.13801017 -0.085010506 0.084588885 0.12961115
000010 bd c7 19 be 82 46 e9 3c 44 61 82 3d 91 fc 2e be
       -0.150176 0.028476004 0.06366208 -0.17088534
000020 15 e1 c5 bb eb 21 25 bd 15 16 b8 3d 67 04 6a 3d
       -0.0060387948 -0.04031555 0.08988587 0.057133105
000030 19 06 34 3d c6 2e cf bd d0 23 27 3e d5 ae a3 3c
       0.043951128 -0.10116343 0.16322255 0.019980827
000040 ef 6f 75 bc d7 09 aa 3d 5d 39 b4 3d 9b 25 08 bd
       -0.0149803 0.08302658 0.08800004 -0.03323899
000050 81 c8 13 3b 10 72 d7 3d 4f 69 e5 3d 28 98 14 3e
       0.002254993 0.105198026 0.11201727 0.14511168
000060 8c 5c a5 bd 12 19 00 3e b1 19 0a 3e 20 24 25 bc
       -0.080742925 0.12509564 0.13486363 -0.010079414
000070 43 1c 28 bd dc dc f9 bd cb 81 80 3d f1 e3 7e bd
       -0.041042577 -0.12200329 0.06274756 -0.0622291
000080 fa a3 85 3d 2d 29 eb bd 17 a8 20 3e d2 9c 6f 3c
       0.06525417 -0.11482463 0.15689121 0.014624791
000090 a3 fa f8 bb 61 0f 33 be 5b b5 e8 3d 1c b8 a4 3d
       -0.0075982376 -0.17486335 0.11362716 0.080429286
0000a0 ad 99 27 be 0e 0f 69 3d e3 2c 5d bc e7 eb cc 3d
       -0.16367216 0.056899123 -0.013499471 0.10005932
0000b0 03 be 35 bc 60 b4 e9 3d 16 e6 9e 3d ec 20 83 3d
       -0.011092666 0.11411357 0.07758729 0.06402764
0000c0 59 54 64 bd 0a 6a 65 bc fd 9d 07 bd b4 05 2d be
       -0.055744503 -0.014002332 -0.033109654 -0.16896707
0000d0 a1 5a f9 bd d2 14 01 be 19 0a 85 bd 6e f4 f4 bd
       -0.12175489 -0.12605599 -0.064960666 -0.11960684
0000e0 51 00 15 be 5f d6 14 3e c7 38 9b 3c 68 7d 85 bd
       -0.14550902 0.14534901 0.018947972 -0.0651806
0000f0 a4 49 32 3e c0 38 b1 3c 6c 1d 1c 3b cc e7 27 3e
       0.17410904 0.021633506 0.0023821248 0.16397017
000100 c6 8d 8e bd 7a a9 11 3e a8 c6 8f bd c5 5f 18 3e
       -0.06960635 0.14224806 -0.070203125 0.14880283
000110 e0 ae 16 3e 59 c1 27 be 09 35 c1 bd 2c 4e e1 bd
       0.14715147 -0.1638235 -0.09433944 -0.11001238
000120 35 23 e6 3d d8 56 2b be ed 12 17 3c ec 1c b2 3d
       0.11237184 -0.16732347 0.009220821 0.08696923
000130 60 0c a8 bc 27 11 de 3d a2 89 2c be e4 72 6e 3d
       -0.020513713 0.10843115 -0.16849378 0.058215037
000140 a9 43 bb bd 77 a9 8d bd 82 f5 2e 3d f4 cb 3f 3e
       -0.091437645 -0.069170885 0.042714603 0.18730146
000150 ae 3b b0 3b 37 df c0 3d 8c 21 e5 bc 49 7c 17 3e
       0.005378208 0.09417575 -0.027970098 0.14793505
000160 e6 33 19 be 52 96 7f 3d 7d 81 83 bd 50 35 26 be
       -0.14961204 0.062399216 -0.06421182 -0.16231275
000170 be 7f 53 3d 89 4a 18 3e b6 b9 ae 3d ee 43 82 bd
       0.051635496 0.14872183 0.08531515 -0.06360613
000180 cf b4 bc 3d fc f4 02 3e 68 50 9d 3d f3 e8 93 3d
       0.09214174 0.12788767 0.07681352 0.07222166
000190 ba 7d c3 bd d5 08 ed bd ff 1c 30 be 51 50 9f 3d
       -0.09545465 -0.1157395 -0.17198561 0.07778991
0001a0 63 09 d2 3d 8d 49 84 bd b2 e7 4f 3d 4b e0 30 3e
       0.102556966 -0.06459341 0.05075807 0.17273061
0001b0 52 7c b4 3d 8b ae 08 3a 1a f8 14 be 33 2c 12 be
       0.08812775 0.0005213997 -0.14547768 -0.14274673
0001c0 85 97 80 3c 34 09 6d bd ab fb 09 3c 2c 2a 08 3d
       0.01569725 -0.057870105 0.008421819 0.033243343
0001d0 12 04 a7 bd 7f 4a da bd 7d e9 1e 3d 7c 6b f1 3d
       -0.08155073 -0.1065874 0.03879689 0.11788079
0001e0 cf 3a 42 bd 34 78 fe bc 97 95 ce 3c 60 03 34 bd
       -0.047419365 -0.031063177 0.025217814 -0.04394853
0001f0 38 fe 33 bd 8f dd 54 bb 3f 56 e4 3d 52 5c e5 3d
       -0.043943614 -0.0032480692 0.11149263 0.11199249
000200 b7 2a e6 3d 48 eb e3 bc c3 84 56 3d f9 8a 24 3d
       0.11238616 -0.027822152 0.052372705 0.040171597
000210 4e a3 1a 3e b4 93 31 bd fd 89 03 3d 23 6a f3 3c
       0.15101358 -0.04335375 0.032114018 0.029713696
000220 eb 72 ae 3c db a2 52 bd de fd 5a bd 91 ce f2 3d
       0.021295032 -0.051424842 -0.053464763 0.11855806
000230 b9 0c e5 bd e0 40 15 bc 74 1d c7 3d 94 52 24 be
       -0.11184067 -0.009109706 0.097224146 -0.16047126
000240 ff 88 5d bd f1 43 e5 3d 76 1e 20 3e b4 57 00 be
       -0.054085728 0.111945994 0.1563662 -0.12533456
000250 28 2d fa bd 7f 72 fd 3d f2 db 03 be fd 2a f3 3d
       -0.12215644 0.12375354 -0.12876871 0.11873434
000260 89 4f 38 bd 3d e7 f4 3d 8b 34 e1 bd 5a 70 16 be
       -0.044997726 0.11958168 -0.1099635 -0.14691296
000270 59 32 e4 3c d8 87 9f 3d e1 ab 84 3d 1c 35 1e be
       0.027856039 0.07789582 0.06478096 -0.15449947
000280 20 cf e8 bd 27 e9 13 be 24 d2 fe 3d d3 53 a7 bd
       -0.11367631 -0.1444441 0.12442425 -0.08170285
000290 85 1a 09 bd 7e 21 df 3d a0 3c d7 3d 4f 15 13 be
       -0.033472557 0.1089506 0.1050961 -0.14363597
0002a0 55 4f f9 3d d0 2a 12 bd 6c 81 31 3e 35 22 34 3e
       0.121733345 -0.03568536 0.17334527 0.17591174
0002b0 2d f5 25 3e 34 72 82 3d 27 70 09 be 66 af 31 be
       0.16206808 0.06369439 -0.13421689 -0.17352065
0002c0 f9 89 f9 3d ae a7 f0 bd c1 93 f2 bd 9f ec 00 be
       0.12184519 -0.11750732 -0.11844588 -0.12590264
0002d0 ea 16 5b 3d 03 e2 b0 bd ef 40 19 3e 6e f6 fd 3d
       0.05348865 -0.08636858 0.14966176 0.12400518
0002e0 4b a6 da bd 5c 5e 53 bd df a9 15 be 5a 64 d4 3b
       -0.10676249 -0.05160366 -0.14615582 0.0064816894
0002f0 2a 4d 04 3e e0 af 20 3d 9e 7e 1e be 88 b7 92 3d
       0.12920061 0.039230227 -0.15477988 0.07163912
000300 f5 aa ef 3c b2 7c 24 be 62 cf f4 bd 0e f2 e9 3d
       0.029256323 -0.16063192 -0.11953618 0.114231214
000310 6d 09 06 3e f4 af 96 bc ac b3 d8 bd 23 2a ff 3d
       0.13089533 -0.018394448 -0.10581145 0.12459209
000320 45 15 1b 3e 16 09 d7 bd df 68 2e 3e 60 80 58 bb
       0.15144832 -0.1049978 0.17032193 -0.0033035502
000330 09 06 01 be 0b 9e 34 3e 04 1c 8a bd 97 92 0c be
       -0.12599958 0.17638414 -0.06743625 -0.13727795
000340 71 79 18 be 94 ec 0e be bf 84 1a 3d d3 5d 95 bd
       -0.14890076 -0.13957435 0.037724253 -0.07293286
000350 7d 5f 75 bd d3 98 08 be e8 30 c8 3d fc b2 0e 3e
       -0.059905518 -0.13339548 0.09774953 0.13935465
000360 ee 8d a3 bc 01 04 0e bd 1a c4 e9 bd 14 ff 80 3d
       -0.019965138 -0.034671787 -0.114143565 0.06298652
000370 8f a5 86 3d 06 c8 dc bd 4c 4c 1f 3d bd c9 d7 3d
       0.065745465 -0.10780339 0.03889112 0.105365254
000380 c4 6b 32 3d 2b 63 fd 3d 94 7e e0 3d 09 cb 03 3e
       0.043559805 0.123724304 0.10961643 0.1287042
000390 38 8d 82 3d 24 3b b9 3d 3e 8e 4a bd 8f 82 bb 3c
       0.063745916 0.09044483 -0.04945206 0.022889404
0003a0 bd 49 a6 3d d3 d9 2a 3d f0 4c 12 bd 90 08 33 3d
       0.08119533 0.04171164 -0.035717905 0.043709338
0003b0 4e 86 7b 3d f7 7b 64 bd 12 e3 16 be f0 3c a3 3d
       0.06140738 -0.055782285 -0.14735058 0.07970607
0003c0 b1 e0 00 be 3c cb 0d 3d 50 96 d6 3d 5e 8c ca bd
       -0.12585713 0.034617648 0.104778886 -0.09890054
0003d0 44 51 17 be b3 da 80 3c 64 cc 8b 3d f0 ae 21 3e
       -0.14777094 0.015729284 0.06826094 0.1578939
0003e0 a5 3f 3a 3d 6a 1b 05 be 03 ac 91 3c 5b 1c ba bb
       0.045470852 -0.12998739 0.017782217 -0.0056796498
0003f0 92 3f 0d be 4b 29 a7 3d fc 1d 1f be ba 50 4f 3d
       -0.13793781 0.08162173 -0.15538782 0.050614096

rnn.weight_hh_l0 f4 [32, 32]
000000 e2 89 06 3e 1e 1c c0 bd d0 48 9c 3c 54 be 9b bd
       0.13138536 -0.09380363 0.019077688 -0.076046616
000010 a6 03 c1 3d 9a d3 05 3e d1 cb 7b 3d 7e 6a 28 be
       0.09424524 0.13069001 0.06147367 -0.16446874
000020 f2 35 bc 3b b6 1b ec bd 05 0a 8f bd 15 5a 18 bd
       0.0057437355 -0.11528723 -0.06984333 -0.037195284
000030 00 a3 0e bd 04 70 72 3d bc d8 91 3b a7 8a 31 3e
       -0.034823418 0.059188858 0.0044508856 0.17338048
000040 54 32 c4 bd 9f 10 90 bd 23 9d 78 bd ea 37 12 be
       -0.09579912 -0.0703442 -0.060696732 -0.14279142
000050 d3 95 2c 3e 21 1b 2e 3c e1 bb 34 3e ad c1 9c 3d
       0.16854028 0.010626585 0.17649795 0.07654128
000060 ca b1 e0 3d 7b 1e 10 3e c9 96 aa 3d a5 d9 10 be
       0.109714106 0.14074127 0.08329541 -0.14145525
000070 ca 4d 0b 3d ef 73 f7 bd 4f e1 8b bd 60 c5 f1 bd
       0.034009732 -0.120826595 -0.068300836 -0.118052244
000080 93 a3 51 3d 8b 12 01 3e c2 6c cb bd ff f8 46 3d
       0.051181387 0.1260473 -0.09932853 0.048577305
000090 90 4e 2b 3e 46 5b 9b 3c 1c 97 80 3d 11 e0 93 bc
       0.16729188 0.018964421 0.06278822 -0.01805118
0000a0 77 4c 13 3e 48 38 70 3d b7 2e 0a 3e 96 9b ce 3d
       0.14384638 0.058647424 0.13494383 0.100882694
0000b0 c1 ca ac bc d7 71 98 bd 23 6d 7d 3d 4b 82 8b bd
       -0.021092774 -0.07443588 0.06187166 -0.06811961
0000c0 17 8b 09 3e 54 03 0a 3d f5 0f 2d be 44 df 05 bd
       0.13431965 0.03369458 -0.16900618 -0.032683626
0000d0 63 dc 3e bd 56 8b 82 bd 54 3d 90 3b 08 82 7d bc
       -0.046596896 -0.063742325 0.004401842 -0.015472896
0000e0 04 e3 e8 3d 5c c3 c8 bd 42 16 e8 bd a0 f1 2e 3d
       0.11371425 -0.09802887 -0.1133237 0.0427109
0000f0 a0 01 b6 3c 21 2f 0e 3e 23 43 64 bd 8d 77 18 3c
       0.022217572 0.13885166 -0.05572809 0.009305847
000100 ee 3e 22 3e e0 30 02 be 81 0d ea bd 5e db 57 3d
       0.15844318 -0.12713957 -0.11428357 0.05269944
000110 01 5f 4c ba 4e 63 59 bc 5b bc 27 be 50 7a 06 3e
       -0.0007796139 -0.013268305 -0.16380446 0.13132596
000120 9e b0 97 3d 43 ad 04 bd 20 89 cc 3d fb 7c eb 3d
       0.07406734 -0.032391798 0.09987092 0.114984475
000130 22 49 e4 3d cd 24 8e bd 01 8a 20 3e 5c f3 24 be
       0.111467615 -0.06940613 0.15677644 -0.16108459
000140 ce 6c 27 be 93 0a 5c 3c 1f 4f 10 3e 27 d5 4c bd
       -0.163501 0.013430255 0.14092682 -0.050007965
000150 77 57 89 bc b4 72 ff bd 19 93 f8 3d c2 63 ae 3d
       -0.01676534 -0.1247305 0.12137432 0.08515121
000160 dd bb 23 3e 63 e6 2b 3e 89 ff 0d 3e b1 b8 99 bd
       0.15989633 0.16787104 0.1386701 -0.0750593
000170 b9 eb ad bd fa f8 19 3d 17 c9 0a 3d d8 a9 ca 3d
       -0.08492226 0.03759096 0.03388318 0.098956764
000180 fc 7c cd bd a8 cf 8e 3d 4e 65 1c 3d 9c ee 75 3c
       -0.100336045 0.06973201 0.03818255 0.015010502
000190 e9 df d8 3d 97 c8 8f bd 0f 4d 09 3e 67 fe d6 3d
       0.105895825 -0.07020681 0.13408302 0.10497742
0001a0 00 58 58 bd d6 28 5f 3b 39 f2 58 3d 0c 6c 0b 3e
       -0.0528183 0.003405144 0.052965377 0.13615435
0001b0 59 a1 7a bd c1 6f aa 3d b3 6a bd bd f1 2b 30 3e
       -0.06118903 0.083220966 -0.09248867 0.17204262
0001c0 68 33 bb bd 6f d0 9c 3d d8 6a f1 3c 91 da 2f 3e
       -0.09140664 0.07656943 0.029469892 0.1717322
0001d0 84 28 09 3d 50 76 0f 3b 58 fc 12 be 49 5d bb bd
       0.033485904 0.0021890588 -0.14354074 -0.09148652
0001e0 a8 e6 c8 3d bf 33 fc bd 57 96 f6 3c f3 d1 ca bd
       0.09809619 -0.12314557 0.030100984 -0.09903326
0001f0 6c ab 12 3e f7 ff 2d 3e a8 41 7c bc aa 26 0a be
       0.14323205 0.16992174 -0.015396513 -0.13491312
000200 ff 1b 18 be 04 65 b0 3d 49 06 1b be 04 90 76 3c
       -0.1485443 0.08613017 -0.15139116 0.015048984
000210 b6 23 01 3d 18 96 2e be bf 6c 0e be 3f 31 4f 3d
       0.031528197 -0.17049444 -0.13908671 0.050584074
000220 7f 52 f1 bd da 7a 0d be 58 56 30 3d ec 8f 24 3e
       -0.11783313 -0.13816395 0.043051094 0.16070527
000230 6d 71 09 be 7d 45 75 3d 03 1b 32 3e 1c 40 27 3e
       -0.13422175 0.059880722 0.17393117 0.1633305
000240 66 57 1d bd 59 44 0b 3d 4f 4b 09 be 25 58 2b 3e
       -0.038413428 0.03400073 -0.13407634 0.16732843
000250 d4 e9 d8 3d 19 4d 8b bd e5 5b eb bc 7a 97 f6 3d
       0.10591474 -0.068018146 -0.028730342 0.120406106
000260 bb b4 9f 3d 77 02 5e bc b0 19 1d 3e 9c de 51 bd
       0.077981435 -0.013550392 0.1534183 -0.051237687
000270 5d 49 23 3d b6 90 39 bd 1e 91 a0 3c ee a4 6d 3d
       0.039864887 -0.045304023 0.019600447 0.058018617
000280 10 44 29 be b8 87 16 3e 41 66 a3 3d f1 e8 38 bc
       -0.1652987 0.1470021 0.07978488 -0.011286006
000290 7e 69 be bd ad 16 1a bc 2f 75 c3 3d a0 ec 25 be
       -0.09297465 -0.00940482 0.09543835 -0.16203547
0002a0 e3 09 78 3d af 8d ed 3d 2a b2 6d bc b3 2c 1c 3e
       0.060556304 0.115992896 -0.01450781 0.15251426
0002b0 85 b1 16 be 66 0b 85 3d 15 ca f4 bd ff 4c 61 bd
       -0.14716156 0.06496315 -0.119526066 -0.05500507
0002c0 9e 73 16 be 20 8f 54 3d ca 01 33 be 5a 4d 0b 3d
       -0.14692542 0.051894307 -0.17481151 0.034009315
0002d0 64 1d ab bd 48 dc 2d 3e 0e e9 02 bd ef ed db bd
       -0.08355215 0.16978562 -0.03196054 -0.107387416
0002e0 2c 23 24 3e 0c e6 28 3e 2c 38 07 3e d5 00 b2 3d
       0.16029042 0.16494006 0.13205022 0.08691565
0002f0 11 37 ae 3c 88 32 b4 bc c6 57 87 3d 15 65 71 ba
       0.021266492 -0.021996751 0.06608538 -0.0009208483
000300 e0 0c bb bd 63 dc 25 bd 69 60 1d be 5c f6 33 bd
       -0.09133315 -0.04049338 -0.15368809 -0.04393612
000310 54 85 a7 bd 2f 9f d8 bd b5 93 5c 3d 4a 2a 86 bd
       -0.08179727 -0.10577237 0.053851802 -0.06551035
000320 ee 23 e4 bd 69 d9 06 3e bd d1 c4 3d 53 18 98 bd
       -0.111396655 0.13168873 0.09610317 -0.074265145
000330 39 3a a7 3d c1 b6 2f bd b7 da bb bd c2 94 9d 3c
       0.08165402 -0.042898897 -0.09172576 0.019235972
000340 e7 9c 11 be ab 00 41 3d d6 fa 26 be bb 9f d8 bd
       -0.1422001 0.047119778 -0.16306624 -0.10577341
000350 78 cf de bd 10 48 76 bd 63 cc 94 bd 0f 0b f5 bd
       -0.10879415 -0.060127318 -0.07265546 -0.11965
000360 92 18 03 3e bc b6 33 3d 16 52 e8 bc 00 aa c7 bd
       0.12802342 0.04387544 -0.028359454 -0.09749222
000370 76 8a b9 bd 48 a0 29 be 16 1a cb 3d 17 5a 0a 3e
       -0.090596125 -0.16565049 0.09917085 0.13510929
000380 35 1b ff bd 28 c8 6f bd 7d da b8 bd 0a c5 df bd
       -0.12456361 -0.058540493 -0.09026048 -0.10926254
000390 f2 57 23 be f1 85 ea 3c d1 a6 4d bd 99 55 10 3e
       -0.15951517 0.028628321 -0.050207917 0.14095153
0003a0 b3 8d ca bc fa 07 e2 bd c1 fa 16 3d d1 9c ea bc
       -0.02472577 -0.11036678 0.03686023 -0.028639229
0003b0 a0 24 ae bd 48 2d 67 bd d2 e2 13 3e d4 e9 1f 3e
       -0.085030794 -0.056439668 0.14441994 0.15616542
0003c0 84 80 0a bc 7d 6e e1 bb 1a 5a 32 3d ac 46 0c 3e
       -0.008453492 -0.0068796263 0.04354296 0.13698834
0003d0 80 f9 fc bd d4 1d 2a 3e 6c ae fa bd 7e f5 d9 bd
       -0.12352276 0.16612941 -0.122402996 -0.10642527
0003e0 66 7b 32 3e da 3b 16 3e f0 26 bc 3d 30 f4 2c 3e
       0.17429885 0.14671269 0.09187114 0.16890025
0003f0 85 fd c3 3d d9 f0 cb bc 25 53 0f 3e 39 ae 19 3e
       0.095698394 -0.024895119 0.13996561 0.15007867

rnn.bias_ih_l0 f4 [32]
000000 3b 55 20 3e 90 23 2b bb 05 ff f8 bd 5f 38 95 bd
       0.15657513 -0.0026113726 -0.12158016 -0.072861426
000010 b1 5a 93 3d 13 aa 1e 3e 4e 89 c0 bd d6 f8 0f be
       0.071950324 0.15494566 -0.09401189 -0.14059767
000020 16 d7 62 bd 0c a2 0a 3e bb 58 0a be 75 3c 00 3e
       -0.055380903 0.13538378 -0.1351041 0.12523063
000030 ce 13 0b bd ff 27 ff 3d d2 36 3f bd 96 a0 f2 3d
       -0.033954434 0.124588005 -0.04668314 0.118470356
000040 c4 fc e0 bd 8a af 85 3d 7d a6 17 3e a2 d7 96 3c
       -0.10985711 0.06527622 0.14809604 0.018413369
000050 69 61 52 3d 86 ed 70 bc 92 0e a8 3d b2 aa 9d bd
       0.05136243 -0.0147050675 0.08205904 -0.07698573
000060 0f 52 16 3d de eb 33 be e2 b9 16 be 80 05 42 3d
       0.03669935 -0.17570445 -0.14719346 0.047368526
000070 3a 72 c5 3d 38 5c 0f be 3a 8c 09 3d 88 2a e1 bb
       0.096409276 -0.14000022 0.033580996 -0.006871525

rnn.bias_hh_l0 f4 [32]
000000 16 60 5b 3d 89 fb 38 bd 66 dc bf 3d 7a 41 76 bd
       0.05355843 -0.045161758 0.093682095 -0.060121037
000010 17 16 b7 bc 6f 0f f5 bd cf 14 17 bd a3 c1 b8 3d
       -0.0223494 -0.11965834 -0.03688508 0.09021308
000020 13 dc b9 bd cd 7f a5 bb 1b a3 12 3e 06 a3 81 3d
       -0.09075179 -0.0050506354 0.14320032 0.063299224
000030 46 f4 09 3e ad 98 21 3e 72 02 90 3d ca 67 4d 3d
       0.13472089 0.15780897 0.070317164 0.05014781
000040 fd 27 0a be ac dd cf bd fb 65 11 3e 9b 14 97 bd
       -0.13491817 -0.101497024 0.14199059 -0.07376977
000050 44 18 8a 3d f6 0f 84 3d 58 27 1b 3d a0 df 6b 3d
       0.067429096 0.06448357 0.037879318 0.057586312
000060 2b 9e d2 3d 9d af bd 3d a0 aa 0a 3d 46 19 9e bd
       0.102840744 0.09262011 0.033854127 -0.07719664
000070 8d 5a 44 3d 79 78 ea bd 4c 12 95 bd 0f 60 b5 bd
       0.04793792 -0.114487596 -0.072788805 -0.08856212

classifier.weight f4 [5, 32]
000000 ed c5 98 3d 46 ab e9 b9 8d 92 d4 bd dd c9 3f bd
       0.07459626 -0.00044568832 -0.10379515 -0.04682337
000010 81 71 2d be 6b cf ae 3d f8 68 a3 3d 5b 5c a9 bd
       -0.1693783 0.085356556 0.079790056 -0.082695685
000020 e2 61 27 be e5 e2 b5 3d 63 fc 69 bd e2 9d d0 3c
       -0.16345933 0.08881167 -0.05712546 0.02546591
000030 07 00 01 3e 4c ba ae 3c 08 47 74 3d 3e 79 33 be
       0.12597667 0.021329068 0.059638053 -0.17526719
000040 fd 0e d6 3a 2a d1 db bd 2a 79 98 bd 78 58 21 3e
       0.0016331371 -0.10733254 -0.07444985 0.15756404
000050 c4 7d 14 be 94 57 0f be a5 04 50 bd 04 62 bd 3c
       -0.14501101 -0.13998252 -0.05078568 0.023118027
000060 f9 e4 0a 3e 15 6b 16 3b c8 2d aa 3d 75 4e b8 bd
       0.13563909 0.002295201 0.08309513 -0.089993395
000070 93 94 29 3d 50 75 65 bd e9 22 35 bd 3c d8 42 3c
       0.041401457 -0.05602008 -0.044222746 0.011892375
000080 1e ae 00 bd 7f 75 db 3d 16 86 07 be a7 32 56 3d
       -0.03141605 0.1071577 -0.13234743 0.0522944
000090 b8 8c 33 be bb 65 ff 3c 42 73 29 be 9d bc b6 bc
       -0.17534149 0.031176439 -0.16547874 -0.022306735
0000a0 62 0c 18 be 16 10 28 3e 55 49 b8 bd 71 94 fc 3d
       -0.14848474 0.16412386 -0.08998362 0.123330005
0000b0 c7 d1 2f 3e 4b 81 a2 3d bd b8 e9 3d c5 9d d6 bd
       0.17169867 0.07934817 0.11412189 -0.10479311
0000c0 3b 2c 04 3d 94 89 ef bd 9f 68 88 3c 41 4e b8 3d
       0.032268744 -0.11696163 0.01665145 0.08999301
0000d0 cc cc 2a be 45 a2 a4 3d fd 05 01 bd 8b 55 94 bd
       -0.16679686 0.08038763 -0.03149985 -0.072428785
0000e0 85 e3 b3 3d c0 5a 8a 3c 62 01 b1 bd 32 4f c6 bd
       0.0878363 0.016888976 -0.08642842 -0.09683074
0000f0 ff ae 26 3e 3a b8 94 3d 7b bc cd 3d ac 31 1c be
       0.16277693 0.07261701 0.100457154 -0.15253323
000100 95 f2 2d 3e b8 7e 68 3b 3a 6b d3 3c a9 0e 4b 3d
       0.16987069 0.003547592 0.025807966 0.049574528
000110 9d 7b 0e be 7c d9 03 3b 50 97 89 bd 07 d2 34 be
       -0.13914342 0.0020118644 -0.06718314 -0.17658244
000120 c1 83 87 bd b0 6e 1d be 56 89 26 3e af b9 aa 3d
       -0.06616927 -0.15374255 0.16263327 0.083361976
000130 08 b2 20 bb d2 9f fa 3d 85 c0 3b bd 05 29 80 bc
       -0.0024520177 0.122375146 -0.045837898 -0.01564456
000140 31 d1 81 3d 09 33 36 be e0 96 18 be 3b b8 27 3d
       0.06338728 -0.17792906 -0.14901304 0.04094718
000150 17 08 c5 3d c3 48 c4 3d 69 4e db bc 5b bf 87 bd
       0.09620684 0.09584191 -0.026770787 -0.06628295
000160 a4 39 fd bc d7 3e 48 bd 58 c7 52 bd 67 e5 31 bc
       -0.030911274 -0.048888054 -0.05145964 -0.010857916
000170 12 d3 b5 3d 0c 18 de bc 2d 78 0b bd 14 d6 ed 3b
       0.08878149 -0.027111076 -0.034050155 0.007258186
000180 af c4 2d be e1 b9 db 3c 43 03 17 be 65 19 cf bd
       -0.1696956 0.026822032 -0.14747338 -0.101122655
000190 59 50 0d bd 3b 98 b8 bb 02 47 bf 3c f9 7a 05 3d
       -0.034500454 -0.0056333817 0.023349289 0.03258798
0001a0 66 58 55 3d 1d 6e 1b 3e 55 54 41 3d a4 53 00 be
       0.052086256 0.15178724 0.047199566 -0.12531906
0001b0 09 05 c8 bd 7c 1e bc bd 7e 42 c2 bd 12 2d 8f 3c
       -0.097665854 -0.09185502 -0.09485339 0.017477546
0001c0 bb b3 45 3e b6 5f fa 3d 84 1e b4 bd f8 c8 4c 3e
       0.19306843 0.12225287 -0.08794883 0.19998538
0001d0 65 b7 01 be 3d 71 26 be a8 1c b1 bd 18 2c 2c 3e
       -0.12667616 -0.16254134 -0.08648044 0.16813695
0001e0 93 0b 15 be 4a 85 13 bd d4 1c 52 bb 15 78 37 3d
       -0.14555196 -0.036015786 -0.003206064 0.044792254
0001f0 34 2a 5a 3d 43 b2 04 bd e1 1c 20 3e b6 1d f3 bd
       0.053262904 -0.032396566 0.15636016 -0.11870901
000200 0e 76 41 be ad 48 7a bc 1b e7 09 3e a9 f4 02 3e
       -0.1889269 -0.015276116 0.13467066 0.12788643
000210 a4 ed c4 bc 49 75 1f 3e 16 ad 12 3d ae 6a 40 3d
       -0.024039097 0.15572084 0.0358096 0.046976738
000220 16 7d e5 bc de 2a e7 bc f9 af b2 bd 81 f5 a9 3d
       -0.028013747 -0.028218683 -0.0872497 0.08298779
000230 de ce 19 be ab 7e d7 bd 20 6c 1e 3e a7 b2 a9 bc
       -0.1502032 -0.10522207 0.15470934 -0.02071507
000240 cb 17 c8 3d bb e3 05 be 7f de ca bd f8 b4 1c 3e
       0.09770163 -0.13075154 -0.09905719 0.15303409
000250 e9 7c 68 bd 8f 8b a6 bd 4f 8c 82 3d 04 b1 cc bc
       -0.05675975 -0.081320874 0.06374418 -0.024986751
000260 bd c6 04 3d 4b 93 21 3e 47 b9 79 3d 06 40 e0 bc
       0.032416094 0.15778844 0.06096771 -0.027374279
000270 9a 9c 1d be ac ed a1 3c d0 36 a7 3d 5e ea c5 3d
       -0.1539177 0.019766651 0.081647515 0.096638426

classifier.bias f4 [5]
000000 6c ec 20 3e 9a 13 2a 3e b0 df 01 be 35 c2 15 be
       0.15715188 0.1660904 -0.12682986 -0.14624865
000010 2d 5e a1 3d
       0.07879291
