save/2-1_rnn_sp_60.pt (torch, 12937 bytes, 6 tensors)

emb_layer.weight f4 [60, 16]
0	0x00000000	0.0
1	0x00000000	0.0
2	0x00000000	0.0
3	0x00000000	0.0
4	0x00000000	0.0
5	0x00000000	0.0
6	0x00000000	0.0
7	0x00000000	0.0
8	0x00000000	0.0
9	0x00000000	0.0
10	0x00000000	0.0
11	0x00000000	0.0
12	0x00000000	0.0
13	0x00000000	0.0
14	0x00000000	0.0
15	0x00000000	0.0
16	0x3f00fb97	0.50383896
17	0xbf6478af	-0.8924665
18	0x3f975b37	1.1824712
19	0xbe5bb1e7	-0.21454583
20	0xbfa749da	-1.3069413
21	0x3e9dc3b1	0.30813363
22	0xbe735251	-0.2376187
23	0xc00f8429	-2.2424414
24	0x4018439a	2.379126
25	0x3ed6a69c	0.41923988
26	0x3e12d04d	0.14337273
27	0x3e77117c	0.24127764
28	0xbf76de51	-0.9643298
29	0x3fc76108	1.5576487
30	0xbe1e5cef	-0.15465139
31	0xbf3835af	-0.71956915
32	0xbf80f3f8	-1.0074453
33	0x3df623bd	0.12018535
34	0x3f91c1e7	1.1387299
35	0x401a498b	2.4107387
36	0xbf4a3a1b	-0.7899491
37	0xbe8a4d97	-0.2701232
38	0xbff0b18b	-1.8804182
39	0x3f3dfb04	0.74211144
40	0x3f1db46b	0.6160342
41	0x3f82800d	1.0195328
42	0xbf9e0764	-1.2346005
43	0xbecc1c9b	-0.39865574
44	0xbfa9cf28	-1.3266344
45	0x3f182f26	0.5944694
46	0x3a04e104	0.00050689303
47	0x3f350199	0.7070556
48	0xbfddfcc5	-1.7342764
49	0xbea8816b	-0.32911238
50	0x3ff44738	1.9084234
51	0xbeedb6e5	-0.464286
52	0x3b219a83	0.0024658747
53	0xbf7c8012	-0.9863292
54	0xbf25f4c1	-0.6482659
55	0x3f81651d	1.0108982
56	0xbf56a258	-0.83841467
57	0x3e2f46c6	0.17116842
58	0x3e894c1f	0.26815888
59	0xbf146b6c	-0.5797641
60	0xbfa7a5e2	-1.3097498
61	0x3e337a8e	0.1752722
62	0xbf317489	-0.69318444
63	0x3f1b901d	0.60766774
64	0x3f50b1ff	0.815216
65	0x3fc31b17	1.5242642
66	0xbe982198	-0.2971313
67	0xc00d7ff5	-2.2109349
68	0x3ef43f7b	0.47704682
69	0xbf9b807c	-1.2148585
70	0x3e028d88	0.12749302
71	0xc0078d9a	-2.1180177
72	0x3f88d39a	1.0689576
73	0x3f0bb602	0.54574597
74	0xbf219f89	-0.63134056
75	0xbec3f5ba	-0.38273412
76	0xbdb8c289	-0.0902148
77	0x3ff2898d	1.8948227
78	0xbff6b749	-1.9274684
79	0x3ebb0a5b	0.36531338
80	0xbff49942	-1.910927
81	0x3f65ee17	0.8981642
82	0xbf658b51	-0.89665705
83	0xbf7306f0	-0.9493246
84	0x3fdb33f4	1.712523
85	0x3fce9725	1.6139876
86	0x3f0e6544	0.5562327
87	0x3cf7b942	0.030239705
88	0x3f8161e7	1.0108002
89	0x3f176709	0.59141594
90	0x3fc9a135	1.5752321
91	0xbe9a9e73	-0.30199012
92	0x3f81cc30	1.0140438
93	0x3deb1a82	0.11479665
94	0x3f55e9ab	0.83559674
95	0xbfd39501	-1.6529847
96	0xbef2aa02	-0.4739533
97	0x3e61ebfd	0.22062679
98	0x3f7b4e15	0.9816602
99	0xbfb49783	-1.4108738
100	0x3f16f575	0.5896829
101	0x3faeb1da	1.3648026
102	0x3f06207d	0.52393323
103	0x3f34add4	0.7057774
104	0x3f67d3cd	0.9055756
105	0x3f4f0d4e	0.80879676
106	0x3f66450a	0.89949095
107	0xbf82debb	-1.0224222
108	0xbeae5d77	-0.34055683
109	0xbf39f96f	-0.7264623
110	0x3f5fb3b8	0.87383604
111	0x40217cad	2.5232346
112	0x3ed9435b	0.424342
113	0xbe28ca85	-0.16483505
114	0x3f9b03fd	1.2110592
115	0xbf3fb781	-0.7488938
116	0xbd9f139d	-0.07767413
117	0x3d7fdf90	0.062469065
118	0xbf9eea39	-1.2415229
119	0xbbedaf5c	-0.0072535705
120	0xbdff3119	-0.124605365
121	0x3d8a82aa	0.067632034
122	0xbd750544	-0.059819475
123	0x3c6daf2c	0.014507096
124	0xbec4ecf1	-0.38462022
125	0x3f435f8f	0.76317686
126	0x40354769	2.8324835
127	0x3f5bd1e2	0.8586713
128	0xbf797b10	-0.97453403
129	0x3ef9166d	0.48649922
130	0x3edbf1fc	0.42958057
131	0xbf85b2a8	-1.0445147
132	0xbf40a124	-0.7524588
133	0x3dfa5128	0.122225106
134	0x3f6580b0	0.89649487
135	0x3f3cce98	0.7375274
136	0xbff3f85f	-1.9060172
137	0x3f11ad27	0.56904835
138	0x3f127c5a	0.57220995
139	0x3efc2688	0.49248147
140	0x3e1fe947	0.15616332
141	0x3ef9be40	0.48777962
142	0x3f20aa6a	0.6276003
143	0xbfe60f42	-1.7973406
144	0x3f3f0be7	0.74627537
145	0x3f1ff7a1	0.62487227
146	0x3f145389	0.57939965
147	0xbc840f14	-0.016120471
148	0x3e15630f	0.14588569
149	0xbf99014f	-1.1953524
150	0xbf17241c	-0.59039474
151	0xbd28ac0e	-0.04117971
152	0x3d256e4b	0.040388387
153	0x3ed1e7ab	0.4099706
154	0xbeb9c4e1	-0.3628302
155	0xbfe7c902	-1.8108218
156	0x3f07ee30	0.5309782
157	0xbfdd1f32	-1.7275145
158	0xbe8cd952	-0.27509552
159	0x3fb8927a	1.4419701
160	0x3fa9572f	1.3229731
161	0x3ee577df	0.44818017
162	0xbf107951	-0.56435114
163	0x3e1d8c62	0.15385583
164	0x3f9a0983	1.2034153
165	0x3f836c23	1.0267376
166	0xbf4dcb85	-0.8038867
167	0xbf4e7e9b	-0.80661935
168	0xbd21ca78	-0.03949973
169	0xbebed2b0	-0.37270117
170	0x3f0749c0	0.5284691
171	0xbcf93bf1	-0.03042409
172	0xbf00d1ea	-0.50320303
173	0xbfdfbc01	-1.7479249
174	0xbf3c1c43	-0.73480624
175	0xbe26df93	-0.16296224
176	0xbd9f4d42	-0.07778408
177	0xbf83724b	-1.0269254
178	0x3fa2e44c	1.2725921
179	0xbde5de5d	-0.11224053
180	0x3f00ab88	0.50261736
181	0x3fd48b35	1.6604983
182	0xbeb18fdd	-0.3468007
183	0xbe362951	-0.17789198
184	0xbda34456	-0.079720184
185	0x3f5c5e37	0.8608126
186	0x3d581f43	0.05276419
187	0xbc988b82	-0.01862121
188	0xbed4f4e5	-0.4159309
189	0xbf3e7be7	-0.7440781
190	0xbf81082a	-1.0080616
191	0xbeb5385c	-0.3539456
192	0xbc2a9062	-0.0104104
193	0xbe8fccbe	-0.28085893
194	0xbf6db8cd	-0.9286011
195	0x3ffb075a	1.9611619
196	0x3fb17b44	1.3865743
197	0x3ea786d2	0.32720047
198	0x3d7cd243	0.06172396
199	0xbded3929	-0.11583168
200	0x3fa4536e	1.2837961
201	0x3f0610e6	0.52369535
202	0x400efda3	2.2342308
203	0x3fd87a97	1.6912411
204	0x3fb2f16c	1.3979926
205	0xbbccc907	-0.0062495503
206	0x3fa5ed1d	1.2962986
207	0xbee426f9	-0.44560984
208	0x3e484782	0.19558528
209	0x3eb7c372	0.358913
210	0x3e8a5e57	0.270251
211	0xbf517e16	-0.81833017
212	0xbebe9cdb	-0.37229046
213	0xbf28bc1c	-0.6591203
214	0xbf023b57	-0.50871795
215	0x3ed21a78	0.4103582
216	0xbf673e13	-0.9032909
217	0xbf0432ce	-0.5164002
218	0xbf33189e	-0.6995944
219	0x3f00c7f7	0.5030512
220	0x3eb8d226	0.3609783
221	0x3ec9aa9d	0.3938798
222	0x3ec190da	0.37805825
223	0x3f44257c	0.76619697
224	0x3d1b8e74	0.03797765
225	0xbe51a001	-0.20471193
226	0xbe7554b4	-0.23958093
227	0xbd89ed7d	-0.067347504
228	0x3e10368f	0.14083312
229	0xbf63ffb0	-0.89062023
230	0xbe6ffe53	-0.2343686
231	0x3f3afd0e	0.7304238
232	0x3f15dfc7	0.5854458
233	0x3f0845ce	0.53231514
234	0xbf8095a9	-1.0045673
235	0x3e965fe5	0.29370037
236	0x3f02003b	0.507816
237	0x3e939216	0.28822392
238	0xbf5ce16e	-0.8628148
239	0xbf87d928	-1.0613146
240	0xbeaea3ce	-0.34109348
241	0x3ee1a0db	0.44068035
242	0xbf10097b	-0.56264466
243	0xbcf43d5f	-0.02981442
244	0x3da84608	0.082164824
245	0xbe78ad82	-0.24284938
246	0xbe4ce059	-0.20007457
247	0x3f0c60a3	0.54834956
248	0xbea69c3b	-0.3254107
249	0x3d9a9011	0.0754701
250	0xbdd294f6	-0.10282318
251	0xbf8918bf	-1.0710677
252	0xbf826ccd	-1.0189453
253	0x4000c054	2.0117388
254	0xbf0b1efd	-0.5434416
255	0x3d8a51f7	0.06753915

rnn.weight_ih_l0 f4 [32, 16]
0	0x3db22f33	0.08700409
1	0x3ae79138	0.001766718
2	0x3e0a623d	0.13514037
3	0x3d97f405	0.0741959
4	0x3c884b14	0.016637363
5	0x3e012165	0.12610395
6	0xbc8b4d44	-0.017004617
7	0xbd1b3e57	-0.03790125
8	0xbe165fb3	-0.14684944
9	0xbda2c270	-0.07947242
10	0xbdd5437c	-0.10413262
11	0x3c117d25	0.008879934
12	0x3dfd197c	0.123583764
13	0x3ddbc77c	0.10731408
14	0x3dc00655	0.09376208
15	0x3bfb0fc4	0.0076617915
16	0x3df420d8	0.11920327
17	0xbe015404	-0.12629706
18	0xbddb3af9	-0.107046075
19	0x3ca1609d	0.01969939
20	0x3db0c116	0.08630578
21	0xbd1940d7	-0.03741535
22	0xbdd902d8	-0.105962455
23	0xbdfcd402	-0.12345125
24	0xbe123809	-0.14279188
25	0xbe355854	-0.17709476
26	0x3dc4820f	0.09595119
27	0x3e215157	0.15753685
28	0x3e498e49	0.19683184
29	0x3d4a6e79	0.04942176
30	0x3cb351f7	0.02188967
31	0xbd2317dd	-0.03981768
32	0x3e20f0d8	0.15716875
33	0x3dc1a3b1	0.0945505
34	0xbd83d096	-0.06436269
35	0x3e24c55c	0.16090912
36	0x3e1398ad	0.1441371
37	0x3db7da6a	0.08977206
38	0xbcc3bca8	-0.02389367
39	0xbe2e3785	-0.17013367
40	0xbcd08e6d	-0.025458539
41	0xbdcf60c8	-0.101258814
42	0x3d24f589	0.040273223
43	0x3d788acc	0.060679242
44	0x3db047f4	0.08607474
45	0xbc8efd02	-0.017454628
46	0x3d896698	0.06709021
47	0x3de6e405	0.1127396
48	0x3dedbfbd	0.11608837
49	0x3e0cba4d	0.13742943
50	0x3dda21d0	0.106509805
51	0xbdfcb6de	-0.12339567
52	0x3e0ca5f9	0.13735189
53	0x3ddc0438	0.10742992
54	0xbd908e81	-0.070584305
55	0x3c86b15c	0.016441993
56	0x3e367c10	0.17820764
57	0xbe104340	-0.14088154
58	0xbd9c2929	-0.07625038
59	0x3caebd84	0.021330602
60	0xbd3bf72a	-0.04589001
61	0xbe0ae12f	-0.13562463
62	0x3e060383	0.13087277
63	0xbdea3c85	-0.114373244
64	0xbaf3407d	-0.0018558648
65	0x3cf84c88	0.03030993
66	0xbdbbfa83	-0.09178641
67	0x3dbfa9e2	0.093585745
68	0xbd93fb47	-0.07225662
69	0x3d7f3d67	0.062314417
70	0xbdf46524	-0.119333535
71	0xbe0e350c	-0.13887423
72	0x3cb3e5d5	0.021960178
73	0x3ca0bfda	0.019622732
74	0x3c8f021e	0.017457064
75	0x39445d02	0.00018726665
76	0x3e3b2d44	0.18278986
77	0xbe035e54	-0.12828952
78	0xbe1171fb	-0.14203636
79	0xbddd5386	-0.108069465
80	0xbdc82d48	-0.09774262
81	0xbd237fa4	-0.03991665
82	0x3d4a5e94	0.049406603
83	0x3d0f9ef0	0.035063684
84	0xbdaa7214	-0.0832254
85	0xbab6001a	-0.0013885528
86	0x3e09807d	0.1342792
87	0xbd5e857c	-0.05432652
88	0xbd94247e	-0.07233523
89	0x3c59c91f	0.01329258
90	0xbdcd8037	-0.10034221
91	0x3dff7306	0.12473111
92	0x3dfd4a77	0.12367719
93	0xbbe8578e	-0.0070905155
94	0xbd2c9847	-0.04213741
95	0x3e433ffe	0.1906738
96	0x3da45686	0.080243155
97	0xbc9c8839	-0.019107925
98	0xbd58627c	-0.052828297
99	0xbde233a8	-0.11045009
100	0x3dff904f	0.124786966
101	0xbdedfeb4	-0.116208464
102	0xbca0e3ae	-0.019639816
103	0xbe0d7eb0	-0.13817859
104	0x3d1f9d80	0.038968563
105	0xbe371289	-0.17878164
106	0x3e13fa70	0.14451003
107	0x3e263536	0.16231236
108	0x3c3e2377	0.011605135
109	0xbd9b5380	-0.07584286
110	0xbac60d1e	-0.001511011
111	0x3e1f3946	0.15549192
112	0x3dd28a53	0.102802895
113	0xbe0c50a5	-0.13702638
114	0xbe0bfec9	-0.13671412
115	0x3e1336dd	0.14376397
116	0xbca6cb58	-0.020360634
117	0xbcce05ff	-0.025149344
118	0x3d40f335	0.04710694
119	0x3e224713	0.15847425
120	0x3dee38cb	0.11631926
121	0x3e2d68b0	0.16934466
122	0xbd796c9f	-0.060894605
123	0x3dde7897	0.108628444
124	0xbe110cbd	-0.14165016
125	0x3e119a3c	0.14218992
126	0x3ddc3798	0.10752791
127	0xbcace30d	-0.02110436
128	0x3e5c4211	0.21509577
129	0xbbd9e2c6	-0.006649348
130	0x3d3d3187	0.04618981
131	0xbde0dc5b	-0.109795295
132	0xbce5287e	-0.02797341
133	0x3e2d0da4	0.16899735
134	0xbddea647	-0.10871559
135	0xbd92dc1b	-0.07170888
136	0x3e125c94	0.14293128
137	0x3da5ef40	0.08102274
138	0x3de12431	0.10993231
139	0x3e0a210a	0.13489166
140	0x3db7a598	0.089671314
141	0xbd18d909	-0.037316356
142	0x3cccc3c4	0.024995692
143	0xbdcc6da6	-0.09981851
144	0xbe4b6469	-0.19862522
145	0xbde2a90c	-0.110673994
146	0x3aaceb8d	0.0013192758
147	0x3ce81a3d	0.028332824
148	0x3dcc7922	0.09984042
149	0xbb4c34ce	-0.0031159404
150	0xbe23277c	-0.15933031
151	0xbcad467b	-0.021151772
152	0xbe4a61f6	-0.19763932
153	0x3dac083e	0.084000096
154	0xbccaff11	-0.024779828
155	0x3dd034f0	0.10166347
156	0x3a733b15	0.0009278518
157	0xbcf4e559	-0.029894518
158	0x3dfd79b3	0.12376728
159	0x3e0a6f9c	0.13519138
160	0xbc566b7b	-0.013087149
161	0x3e081d89	0.13292517
162	0xbe48d69e	-0.1961312
163	0x3ddf9ae4	0.10918215
164	0x3d4b7c0e	0.049678855
165	0xbb8f15fe	-0.0043666353
166	0xbd8e1e7d	-0.06939409
167	0xbe48850e	-0.19582006
168	0x3d80cf70	0.062895656
169	0xbe055e35	-0.13024218
170	0x3d88286a	0.06648333
171	0x3dd03363	0.10166051
172	0x3c81e297	0.015855117
173	0x3da9af2b	0.08285364
174	0x3e0be675	0.13662131
175	0x3d2b19d2	0.04177267
176	0xbdc36978	-0.09541601
177	0x3d42684c	0.047462747
178	0xbdf8d3cb	-0.12149771
179	0x3cfe87f8	0.031070694
180	0xbdc378e1	-0.0954454
181	0xbd107cef	-0.035275396
182	0x3d176aff	0.036967274
183	0xbe3188c3	-0.17337327
184	0x3dd7a8ef	0.105302684
185	0xbe02c806	-0.12771615
186	0x3d7b9337	0.061419692
187	0xbde37ccf	-0.1110779
188	0x3dacfd25	0.08446721
189	0xbd46d954	-0.048547104
190	0xbcb71446	-0.022348534
191	0x3d939cba	0.072076276
192	0x3e258752	0.16164902
193	0xbde20769	-0.110365696
194	0xbe1203bc	-0.14259237
195	0x3d4f6603	0.050634395
196	0xbce608bb	-0.028080335
197	0xbddb2352	-0.10700096
198	0xbd57c57d	-0.052678574
199	0xbdb40a0b	-0.08790978
200	0xbae2c982	-0.0017302486
201	0xbdef8987	-0.11696153
202	0x3e2a8273	0.16651325
203	0xbe05549c	-0.13020557
204	0xbda745bd	-0.081675984
205	0x3de2eb8e	0.11080085
206	0x3e0b296b	0.13590018
207	0xbbb52111	-0.0055276235
208	0xbc6bd8a7	-0.014394916
209	0xbbc890a3	-0.0061207577
210	0x3e33d64d	0.17562218
211	0x3dd90316	0.10596292
212	0x3df3043b	0.11866041
213	0xbddb5cbc	-0.10711047
214	0xbdeade75	-0.114682116
215	0xbd69e9b0	-0.057107627
216	0xbe3284f0	-0.17433524
217	0x3e16f015	0.14740022
218	0xbcae44a9	-0.021272974
219	0x3de7e174	0.11322299
220	0x3e05ca4b	0.1306545
221	0xbd3fd93f	-0.04683804
222	0x3de0e44a	0.10981043
223	0x3e31acb7	0.17351042
224	0x3df4b779	0.11949057
225	0xbd468394	-0.048465326
226	0xbdfe8306	-0.124273345
227	0x3d022467	0.031772997
228	0x3de7be06	0.11315541
229	0x3e1d333c	0.15351576
230	0x3d91c457	0.07117527
231	0xbdea12e6	-0.11429386
232	0xbe2cde5d	-0.168817
233	0xbe282423	-0.16420035
234	0x3e28c336	0.16480717
235	0x3e20054a	0.15627018
236	0x3e207b13	0.15671949
237	0x3db1dc85	0.08684639
238	0x3e12d9a6	0.14340839
239	0x3e2016e4	0.15633732
240	0xbd82e7b9	-0.06391854
241	0x3d1b6bd4	0.03794463
242	0x3d2de36f	0.042453226
243	0xbe01b352	-0.12666062
244	0x3d9e703d	0.077362515
245	0xbe2f4e89	-0.17119803
246	0x3c98496f	0.018589703
247	0xbdc35aa8	-0.09538776
248	0xbcefe816	-0.029285472
249	0x3db6d59f	0.08927464
250	0xbe1d02e9	-0.15333141
251	0x3d233134	0.039841846
252	0x3e1d548c	0.15364283
253	0xbe0dbc4d	-0.13841362
254	0xbe0e3ee6	-0.13891181
255	0xbc6798f1	-0.014135585

rnn.weight_hh_l0 f4 [32, 32]
0	0xbd4504b3	-0.048100185
1	0x3dfd6d44	0.123743564
2	0xbe2dd556	-0.16975912
3	0x3cacdbde	0.021100935
4	0xbd745acf	-0.059656914
5	0xbd2e860a	-0.0426083
6	0xbca69860	-0.02033633
7	0x3d3c1a72	0.045923658
8	0x3d4b405c	0.049621925
9	0xbe122bfe	-0.14274594
10	0xbe2c6a69	-0.16837467
11	0xbd8524d6	-0.065011665
12	0xbd9364aa	-0.071969345
13	0x3ce88640	0.028384328
14	0xbe0792eb	-0.13239639
15	0x3dcc4ccb	0.099755846
16	0x3e1d6bd0	0.15373158
17	0xbd94c86b	-0.07264789
18	0xbe2a191c	-0.16611141
19	0xbdd76526	-0.105173394
20	0x3d85881f	0.06520104
21	0x3dfc033a	0.12305303
22	0x3e36f8f7	0.1786841
23	0x3df0eeb5	0.1176428
24	0x3d4746ae	0.04865139
25	0xbd9f3792	-0.07774271
26	0x3d89b74f	0.067244165
27	0x3e332a7f	0.1749668
28	0x3ca3ed6c	0.020010673
29	0xbde968dc	-0.113969535
30	0xbe23f0dc	-0.1600985
31	0xbe16d21a	-0.14728585
32	0xbce63779	-0.028102623
33	0xbde1702d	-0.11007724
34	0x3da6cece	0.081449136
35	0x3dd733be	0.10507916
36	0x3e1f4669	0.15554203
37	0x3d3c1960	0.045922637
38	0xbe1a01e9	-0.15039791
39	0xbe2b71a0	-0.16742563
40	0x3d693e98	0.05694446
41	0x3dfc0d58	0.123072326
42	0xbcff98db	-0.031200817
43	0x3def6194	0.116885334
44	0xbb9dc6ad	-0.0048149438
45	0xbd64418c	-0.055726573
46	0x3d617c7c	0.05505036
47	0x3d359f29	0.04434124
48	0x3def557a	0.11686225
49	0xbc064e0a	-0.008197317
50	0xbd0cf207	-0.034410503
51	0x3e332091	0.17492892
52	0x3d038212	0.032106467
53	0x3d738e5c	0.059461936
54	0xbc40bdf5	-0.011764039
55	0xbddaa234	-0.10675469
56	0xb9c283d6	-0.0003710079
57	0xbdc121b6	-0.09430258
58	0xbd868e34	-0.06570092
59	0xbd6947e8	-0.05695334
60	0x3dc8a23d	0.097965695
61	0xbe34965f	-0.17635487
62	0x3dc9d586	0.098551795
63	0xbd5e376d	-0.054252077
64	0xbc8e349c	-0.01735907
65	0xbd087b62	-0.033320792
66	0xbdd7e718	-0.105421245
67	0xbe1caaba	-0.15299502
68	0xbde6fc4e	-0.11278592
69	0x3e1c76af	0.15279649
70	0x3df722f1	0.120672114
71	0x3e04b9d9	0.1296152
72	0xbe18395a	-0.14865628
73	0xbd3e8458	-0.04651293
74	0xbd25b76d	-0.04045813
75	0xbd8571ed	-0.0651587
76	0x3e02867d	0.12746616
77	0xbd5df1e2	-0.054185756
78	0xbcefb2dc	-0.029260091
79	0x3b7c2780	0.0038475692
80	0x3dc053bc	0.09390971
81	0xbd171876	-0.036888562
82	0xbe2ad2a6	-0.16681919
83	0xbc9b1c05	-0.01893426
84	0x3dacc7a6	0.084365174
85	0xbd86ca94	-0.065816075
86	0xbd932f91	-0.07186807
87	0x3e0b29f2	0.1359022
88	0x3cfcbcfb	0.030851832
89	0xbdcff939	-0.10154957
90	0xbde550b5	-0.11197034
91	0x3e2f2a2b	0.1710593
92	0x3df57044	0.119843036
93	0x3d4910f3	0.04908843
94	0x3e03c7fd	0.12869258
95	0x3d76fb6a	0.06029836
96	0x3d1553d2	0.03645689
97	0xbca3f7d0	-0.020015627
98	0xbc82266d	-0.015887463
99	0x3dc7c7a0	0.09754872
100	0x3a9ef552	0.0012127555
101	0xbd9460bd	-0.07245014
102	0xbd838a80	-0.06422901
103	0xbdcd8eb4	-0.10036984
104	0x3e03d131	0.12872769
105	0xbd359d2e	-0.04433935
106	0x3e0deffc	0.13861078
107	0x3bf09224	0.00734164
108	0x3e277e1c	0.163567
109	0xbd4398a7	-0.047753002
110	0x3bb79dd2	0.0056035304
111	0xbdbbef6f	-0.09176528
112	0x3da76199	0.08172912
113	0x3e180923	0.14847235
114	0xbd340db7	-0.043958392
115	0x3d7016b4	0.0586154
116	0x3e019e9b	0.1265816
117	0xbad6f589	-0.001640008
118	0xbc84fa89	-0.016232746
119	0x3c595c69	0.013266661
120	0xba83f520	-0.001006756
121	0xbd9e32a8	-0.07724506
122	0xbe2338b4	-0.159396
123	0xbe1fa844	-0.15591532
124	0x3df78e97	0.12087744
125	0x3decb6c9	0.11558301
126	0x3de6b3e8	0.11264783
127	0x3dffb205	0.124851264
128	0x3c947654	0.01812283
129	0x3dd0c31c	0.10193464
130	0xbdbef340	-0.0932374
131	0xbdbf9e4d	-0.09356365
132	0x3e18e030	0.1492927
133	0x3e34766b	0.17623298
134	0x3e247e4a	0.160638
135	0xbd614281	-0.054995064
136	0x3bf51253	0.007478991
137	0xbac429b6	-0.0014966044
138	0x3e1d91c7	0.15387641
139	0x3d868e00	0.06570053
140	0x3c573603	0.013135436
141	0xbcdaea09	-0.026722925
142	0xbddaaa3e	-0.10677002
143	0x3e0d909e	0.13824698
144	0xbe20560c	-0.15657824
145	0xbdfe40ec	-0.124147266
146	0x3d3b654c	0.0457509
147	0xbd84b8e6	-0.06480579
148	0x3c9e7c69	0.019346433
149	0xbdea2601	-0.1143303
150	0x3d0862ab	0.033297222
151	0xbcc5f974	-0.0241668
152	0x3b7d078c	0.0038609235
153	0x3e181f64	0.14855725
154	0xbe1d021c	-0.15332836
155	0x3e240e45	0.16021068
156	0x3e220ee3	0.15825991
157	0x3de13ddd	0.109981276
158	0x3e2afe0e	0.16698477
159	0xbd18b4f9	-0.037281964
160	0x3dfac6b5	0.122449316
161	0x3d86f207	0.06589132
162	0x3e3f3eb7	0.18676268
163	0xbbd57f8e	-0.00651545
164	0xbe05f42c	-0.13081425
165	0xbde6870a	-0.112562254
166	0x3dc29927	0.09501868
167	0xbe006d28	-0.1254164
168	0x3e35e161	0.17761756
169	0x3dd15263	0.10220792
170	0x3d795adb	0.060877662
171	0xbc32f846	-0.010923451
172	0x3bdf5d55	0.006816546
173	0xbd97dbfd	-0.07415006
174	0xbdfd64a5	-0.12372712
175	0xbe19e207	-0.15027629
176	0x3bc7df7e	0.0060996404
177	0x3d9919d3	0.07475629
178	0x3dd6944c	0.10477504
179	0xbdf5eeae	-0.12008415
180	0x3e3759d7	0.17905365
181	0xbc7f876d	-0.015596253
182	0xbe03dd54	-0.12877399
183	0x3e2fbdae	0.17162201
184	0x3da622f2	0.08112134
185	0x3ca5230b	0.020158311
186	0x3e31d093	0.17364721
187	0xbd9c66ad	-0.07636771
188	0xbdbf1cf0	-0.09331691
189	0x3d19292e	0.037392788
190	0xbdc5558d	-0.09635458
191	0x3e225cf3	0.1585577
192	0xbdb9f0fb	-0.090791665
193	0x3d5581a1	0.052125577
194	0x3ab656de	0.0013911386
195	0x3d9ac0fa	0.075563386
196	0xbd835420	-0.0641253
197	0xbdb540a3	-0.08850219
198	0xbe16eba8	-0.14738333
199	0xbd6aee7b	-0.05735634
200	0xbe01477e	-0.12624928
201	0x3e09e3f1	0.13465859
202	0x3d281bf0	0.04104227
203	0x3da48542	0.080332294
204	0xbe10d324	-0.14143044
205	0xbe306764	-0.1722694
206	0x3d7ebabd	0.062189806
207	0x3d1fe421	0.03903592
208	0x3dca3fd9	0.09875459
209	0xbd07a6e1	-0.033118133
210	0x3e0a76f6	0.13521942
211	0x3e07f57f	0.13277243
212	0x3e1682bd	0.1469831
213	0x3dbe5f35	0.09295503
214	0x3d2e3e06	0.04253962
215	0x3e0a9255	0.13532384
216	0x3d5d4538	0.05402109
217	0x3e191e29	0.14952911
218	0x3cc15e2a	0.023604471
219	0x3e03ae4b	0.12859456
220	0x3e04d129	0.12970413
221	0x3e1d363f	0.15352724
222	0xbc840154	-0.016113915
223	0xbb190ebf	-0.0023354737
224	0x3dc20c3b	0.09474989
225	0xbd68041c	-0.056644544
226	0x3d1ce482	0.03830386
227	0x3cfbc784	0.030734785
228	0xbcb3eb64	-0.021962829
229	0xbe2e9c97	-0.17051922
230	0xbcb7cac0	-0.022435546
231	0xbda9cd69	-0.08291132
232	0xbe26415f	-0.16235875
233	0x3d5be2a9	0.053682957
234	0xbcc09a1b	-0.023510983
235	0x3d4bb426	0.04973235
236	0x3df6eb49	0.12056596
237	0x3dd4c338	0.103887975
238	0x3c8ce4bb	0.017198911
239	0xbd4a7ce5	-0.049435515
240	0xbe21df6a	-0.15807882
241	0xbc8f2911	-0.017475637
242	0xbdf0bd99	-0.11754913
243	0xbc7bbffc	-0.015365597
244	0x3e03c8fc	0.12869638
245	0x3cb24fa5	0.021766493
246	0xbd5f4dc4	-0.054517522
247	0xbdc78987	-0.09743028
248	0xbd0d29b9	-0.034463618
249	0x3e3ee1ca	0.18640819
250	0x3ca30f6a	0.019904811
251	0x3dac74b3	0.08420696
252	0x3cc4c3b8	0.024019107
253	0x3d970992	0.07374872
254	0xbe0048c4	-0.12527758
255	0xbcfbadf7	-0.030722601

rnn.bias_ih_l0 f4 [32]
0	0xbde1077a	-0.10987754
1	0xbda4ad5d	-0.08040879
2	0x3e0f983d	0.14022918
3	0xbe1d6ba9	-0.153731
4	0xbe27b622	-0.16378072
5	0x3de43976	0.11143772
6	0xbe4735e3	-0.1945415
7	0xbdf92e28	-0.12167007
8	0xbcdebe34	-0.027190305
9	0xbe06c4c1	-0.13160993
10	0xbd00b27f	-0.031420227
11	0x3e1a46e3	0.15066104
12	0xbb0a361b	-0.0021089378
13	0x3d8ed205	0.06973652
14	0xbdef0528	-0.11670905
15	0x3e30a5b6	0.17250714
16	0xbd65ef24	-0.056136265
17	0xbca7ce13	-0.020484006
18	0xbb91cf48	-0.0044497587
19	0xbd5191af	-0.051164325
20	0x3d9769e9	0.07393248
21	0x3d9b2d21	0.07576967
22	0xbde70ae8	-0.11281377
23	0x3d266999	0.04062805
24	0x3e408baf	0.18803285
25	0x3d0cad82	0.034345157
26	0x3d723d42	0.05914045
27	0xbd28e2eb	-0.04123203
28	0x3e24f4b8	0.16108978
29	0x3bca84cc	0.0061803814
30	0x3d847dcd	0.06469307
31	0x3d90047b	0.070321046

rnn.bias_hh_l0 f4 [32]
0	0xbdd96a56	-0.10615985
1	0xbdc8a7f2	-0.09797658
2	0x3c82fdfe	0.015990254
3	0x3d948045	0.07251028
4	0x3d99d470	0.07511222
5	0x3c4fa94a	0.012674639
6	0x3d471697	0.048605528
7	0xbdeb3b3f	-0.1148591
8	0x3d8c40c9	0.06848294
9	0xbe09079b	-0.13381808
10	0xbd5ace1c	-0.053419217
11	0x3d7698b5	0.060204227
12	0xbdb8d630	-0.09025228
13	0xbd6475a0	-0.05577624
14	0x3dec5160	0.115389585
15	0xbcde17ac	-0.027110897
16	0xbdbd9617	-0.09257143
17	0x3e30b833	0.17257766
18	0xbe06c4db	-0.13161032
19	0xbbfb2223	-0.0076639815
20	0xbe234333	-0.15943603
21	0x3e361ace	0.17783663
22	0x3d9f4998	0.07777709
23	0xbd27cfff	-0.040969845
24	0xbc480d17	-0.012210152
25	0xbe1e88bf	-0.15481852
26	0xbd1882a6	-0.03723397
27	0x3e33a01c	0.17541546
28	0x3cefef81	0.029289009
29	0xbc50e505	-0.012749915
30	0x3e2df04c	0.16986197
31	0x3c933ffb	0.017974844

classifier.weight f4 [1, 32]
0	0xbe207eed	-0.15673418
1	0xbe43acb2	-0.19108847
2	0xbe02fd9b	-0.12792055
3	0xbe1629a8	-0.14664328
4	0xbe1b785a	-0.15182629
5	0x3e1168df	0.14200161
6	0xbe0d89ab	-0.13822047
7	0x3d891d4c	0.06695041
8	0xbe5bb2a2	-0.21454862
9	0x3e0180f5	0.1264685
10	0xbe9dffd5	-0.30859247
11	0xbd3d4d2e	-0.046216182
12	0x3d040bb8	0.03223774
13	0x3e374a81	0.17899515
14	0xbe19e128	-0.15027297
15	0x3d88636b	0.066595875
16	0xbc65a8f4	-0.014017332
17	0x3da45c84	0.080254585
18	0xbe70e720	-0.23525667
19	0x3e109e21	0.14122821
20	0x3d354368	0.044253737
21	0x3dc8d99c	0.09807131
22	0xba9a0674	-0.0011751191
23	0xbdb0b9ef	-0.08629214
24	0x3e84f739	0.25969866
25	0x3d63e800	0.055641174
26	0xbe006157	-0.12537132
27	0x3e79ab7c	0.24381822
28	0x3da0dba9	0.07854397
29	0xbdaac111	-0.08337606
30	0x3df479e3	0.119373105
31	0x3b98a31b	0.0046581156
