save/2-2_rnn_sp_60.pt (torch, 12937 bytes, 6 tensors)

emb_layer.weight f4 [60, 16]
0	0x00000000	0.0
1	0x00000000	0.0
2	0x00000000	0.0
3	0x00000000	0.0
4	0x00000000	0.0
5	0x00000000	0.0
6	0x00000000	0.0
7	0x00000000	0.0
8	0x00000000	0.0
9	0x00000000	0.0
10	0x00000000	0.0
11	0x00000000	0.0
12	0x00000000	0.0
13	0x00000000	0.0
14	0x00000000	0.0
15	0x00000000	0.0
16	0x3f9c2942	1.2200091
17	0x3fcbd9dd	1.5925862
18	0xbe1556b8	-0.14583862
19	0x3e8bda76	0.2731511
20	0x3fa87617	1.3161038
21	0x3f64c59c	0.8936403
22	0x3e9e673b	0.30938134
23	0x3ef5fdc6	0.48045176
24	0x3f6612ac	0.8987224
25	0x3fe0bd19	1.7557708
26	0xbfa9400a	-1.3222668
27	0x3ef2df8f	0.47436187
28	0xbdbab65e	-0.09116815
29	0x3f640b29	0.8907953
30	0xbde9b266	-0.1141098
31	0xbfa1983b	-1.2624582
32	0xbf379f72	-0.7172767
33	0x3efd3b52	0.4945932
34	0x3f161ed5	0.58640796
35	0xbf64e9b7	-0.8941912
36	0x3eca445f	0.39505288
37	0xbef64f12	-0.481072
38	0x3e35dd93	0.17760305
39	0xbfca4924	-1.5803571
40	0x3fc3e933	1.5305542
41	0x3e6a0859	0.22854747
42	0xbf3e0cfa	-0.7423855
43	0x4004e6be	2.0765834
44	0xbf93aa72	-1.1536391
45	0xbfe7b1e4	-1.8101163
46	0xbfe327ad	-1.7746483
47	0xbcbf790f	-0.023373155
48	0x3ed55d9a	0.41672975
49	0x3f243a5b	0.64151543
50	0xbfcdcee2	-1.6078761
51	0xbea83376	-0.32851762
52	0xbf43c994	-0.7647946
53	0x3faa576d	1.330793
54	0xbea70733	-0.3262268
55	0x3f373a0e	0.7157296
56	0x402ad4db	2.6692417
57	0x3e306ca2	0.1722894
58	0x3f92adbf	1.1459273
59	0x3e8821de	0.2658834
60	0x3ecda298	0.40163112
61	0xbec64df3	-0.38731346
62	0xbf12fe4c	-0.57419276
63	0x3ec84587	0.39115545
64	0xbfcd95b9	-1.6061317
65	0xbf9e9dee	-1.2391946
66	0xbd6d2acf	-0.057902154
67	0xbe5f0b6b	-0.217817
68	0xbfb2d0ec	-1.3970008
69	0x3d02e15e	0.03195321
70	0x3e03c16c	0.12866753
71	0x3fbee168	1.4912539
72	0xbfb936df	-1.446987
73	0x3d7b2b45	0.061320562
74	0xbf25eec4	-0.6481745
75	0xbed67e0f	-0.4189305
76	0x3f2aa745	0.66661483
77	0xbe7e64ee	-0.24843189
78	0x3f803ce1	1.0018579
79	0x3f9440c4	1.1582265
80	0x40147a9b	2.3199832
81	0xbe98436f	-0.29738948
82	0xbf24160e	-0.6409615
83	0xbfa1ad63	-1.2631038
84	0xbfd54866	-1.6662719
85	0xbeb96f5d	-0.36217776
86	0xbdf752c4	-0.12076333
87	0xbee33611	-0.44377187
88	0x3f066c3e	0.52508914
89	0xbc818088	-0.015808359
90	0x3f42e835	0.7613557
91	0xbfb681a1	-1.425831
92	0x3fb27780	1.3942719
93	0x3f1935a3	0.5984747
94	0xbf2e24e0	-0.68025017
95	0xbef34f38	-0.47521377
96	0xbf250302	-0.64457715
97	0x3eb2d737	0.3492982
98	0x3f5dfda1	0.8671513
99	0x40050954	2.0786943
100	0xbec70612	-0.3887182
101	0xbf2601ed	-0.6484669
102	0x3e855aa7	0.26045725
103	0x3f32e795	0.69884616
104	0x3f72ba3e	0.94815433
105	0x3e1b84fb	0.15187447
106	0xbf6bed73	-0.92159194
107	0x3ebc5ed0	0.36791086
108	0xbef355d2	-0.47526413
109	0x3d89907f	0.067170136
110	0x3f085354	0.5325215
111	0x3e4525dd	0.19252725
112	0x3fa10ff2	1.2582991
113	0xbfa8cfc0	-1.31884
114	0x3f94393b	1.1579965
115	0x3f43eaee	0.7653035
116	0xbe16a1d1	-0.14710166
117	0xbf94c8fe	-1.1623838
118	0x3eeb0d29	0.45908478
119	0xbf2af2ca	-0.66776717
120	0xbe716ecb	-0.2357742
121	0xbf504e3d	-0.8136938
122	0xbfaa2f2b	-1.3295645
123	0x3f0b12a2	0.54325306
124	0x3e73426a	0.23755804
125	0xb9f74b73	-0.00047167725
126	0x3e60e8d4	0.21963817
127	0x3f18dfb0	0.5971632
128	0x3e05b265	0.13056333
129	0xbee85de9	-0.45384148
130	0x3f424c8a	0.7589804
131	0xbf10ebb6	-0.56609666
132	0xbfa418b0	-1.2820034
133	0x3e3f03a8	0.18653738
134	0x3f456c06	0.77117956
135	0xbfaf7837	-1.3708562
136	0x3ff5d2d5	1.9204966
137	0x3ef5f86f	0.48041102
138	0x3f185f67	0.5952057
139	0xbf8ba713	-1.0910362
140	0x3f84790f	1.0349444
141	0x3eecaf72	0.46227604
142	0x3f771b4d	0.9652603
143	0x3d2cdcb8	0.04220268
144	0xc0004c14	-2.0046434
145	0x3f7e95cd	0.9944733
146	0x3d2b4e6d	0.04182284
147	0xbe43af18	-0.19109762
148	0x3fc5f227	1.5464524
149	0xbe1611b6	-0.14655194
150	0x3fc404fa	1.5314019
151	0xbe875fa1	-0.26440147
152	0x3f18be73	0.596656
153	0xbfcd388c	-1.6032882
154	0x3f80e3c2	1.0069506
155	0x3def9097	0.116975
156	0x3f4b13bc	0.7932699
157	0xbf8a403c	-1.0800853
158	0x3fcadf7f	1.5849456
159	0xbeec3bf2	-0.46139485
160	0xbd27d81e	-0.04097759
161	0xbfa6e56f	-1.3038768
162	0x3fa207a1	1.2658578
163	0xbfb69091	-1.4262868
164	0x3f31491f	0.692522
165	0xbf4cde76	-0.8002695
166	0xbfd19c9b	-1.6375917
167	0x3f4f252c	0.80916095
168	0x3f071e1b	0.5278031
169	0xbeab470a	-0.33452636
170	0xbfbb3467	-1.4625367
171	0x3f948c53	1.1605324
172	0xbfcb50bd	-1.5884014
173	0x3f094df6	0.53634584
174	0x3fb9a0a1	1.4502145
175	0xbf1a0e9f	-0.6017856
176	0xbd60e126	-0.05490222
177	0xbe5c5d86	-0.21520051
178	0xbe22d882	-0.15902904
179	0xbfd66c48	-1.6751795
180	0xbf33916b	-0.70143765
181	0xbe903f1d	-0.28173152
182	0xbf045739	-0.5169559
183	0x3e69d2bf	0.228343
184	0x3f711c1f	0.94183534
185	0xbfc52924	-1.540318
186	0x3e1d6567	0.15370713
187	0x3c9b3e7c	0.018950693
188	0xbf40705d	-0.7517145
189	0x3fa3f277	1.2808369
190	0x3fa7d4fd	1.3111874
191	0x3f0ce2d6	0.55033624
192	0xbdc595a2	-0.09647681
193	0xbf95b30a	-1.1695263
194	0x3fd3b0e8	1.6538363
195	0xbf42d2c6	-0.76102865
196	0xbf34fad3	-0.7069523
197	0xbf2ddd6b	-0.6791598
198	0x3fb8ff7d	1.4452969
199	0x3f12bc4b	0.5731856
200	0xbf0b82df	-0.5449657
201	0x3ddd6999	0.10811157
202	0xbf6e2968	-0.9303193
203	0x3f83b59f	1.0289801
204	0x400859d5	2.130483
205	0xbf3edcee	-0.7455586
206	0xbdcd91dd	-0.10037587
207	0xbf80f752	-1.0075476
208	0xbf22faf3	-0.6366417
209	0x3efef4d6	0.4979617
210	0x3e6fdd8d	0.23424359
211	0xbe30f6f7	-0.1728171
212	0x400e671e	2.2250438
213	0xbf1883cd	-0.5957611
214	0x3e7f741e	0.24946639
215	0x3e680c93	0.22661047
216	0x3e226cb9	0.15861787
217	0x3f54daed	0.83146554
218	0x3f9d0062	1.2265742
219	0x3f4cb366	0.7996124
220	0xbe63ac5d	-0.2223372
221	0xbe650e00	-0.22368622
222	0xbdd56026	-0.104187295
223	0x3db46093	0.088074826
224	0x3e51bf97	0.20483242
225	0xbffd77ef	-1.9802226
226	0xbf9de6ca	-1.2336056
227	0xbf371b47	-0.71525997
228	0x3d1765f4	0.036962464
229	0xbfafb1f8	-1.3726187
230	0xbf208550	-0.6270342
231	0xbfbe5b0e	-1.4871538
232	0x3fc1dd12	1.514559
233	0x3f3575d8	0.7088294
234	0xbf845f03	-1.0341495
235	0x3ebd1054	0.3692652
236	0x3fa4ff3d	1.2890393
237	0x3eeef3b3	0.46670303
238	0xbf09da9c	-0.53849196
239	0xbfaf40cf	-1.3691653
240	0xbfb1afa1	-1.3881723
241	0x3f9405ce	1.1564271
242	0xbea21747	-0.31658384
243	0xbf75f066	-0.96069944
244	0x3deb399c	0.114855975
245	0xbe4bc8c3	-0.19900803
246	0x3e6b1d23	0.22960334
247	0x3f252ae4	0.6451857
248	0xbfbff3a7	-1.4996232
249	0xbf1822c7	-0.59428066
250	0x3f47ffbc	0.78124595
251	0xbfa4f73d	-1.2887951
252	0xc036fe15	-2.859258
253	0xbf5d8108	-0.8652501
254	0xbfef135a	-1.8677781
255	0x3f272c1d	0.65301687

rnn.weight_ih_l0 f4 [32, 16]
0	0xbdc05cb7	-0.09392684
1	0x3e30be8c	0.17260188
2	0x3e36e732	0.17861632
3	0xbc33188c	-0.010931145
4	0x3d7b2654	0.06131585
5	0x3d5cacc5	0.053875703
6	0x3e398da1	0.18120433
7	0xbdaa501f	-0.08316063
8	0xbdfb6c25	-0.12276486
9	0x3dae3dc9	0.08507878
10	0x3de67959	0.11253614
11	0xbdd98160	-0.106203794
12	0x3d8a16c3	0.06742623
13	0x3dd690a3	0.10476806
14	0xbd930b37	-0.071798734
15	0xbcc463e8	-0.02397342
16	0xbe1ec531	-0.1550491
17	0xbdbbe756	-0.09174983
18	0x3d351ddd	0.044217933
19	0x3e0ffd4f	0.14061473
20	0xbd0d04e3	-0.03442849
21	0x3d738424	0.05945219
22	0xbe2f9fba	-0.17150775
23	0xbd9e361c	-0.07725164
24	0x3e2bc33b	0.16773693
25	0x3e3324de	0.17494532
26	0xbd0c79f8	-0.034296006
27	0x3d638832	0.055549808
28	0x3e1a44a0	0.15065241
29	0x3df759bc	0.12077662
30	0x3d8b482f	0.06800877
31	0x3dcc8b7d	0.09987543
32	0xbe21ae26	-0.15789089
33	0xbd23c842	-0.039985903
34	0x3e0dda84	0.13852888
35	0xbd3c6122	-0.04599107
36	0xbe411d9e	-0.18858954
37	0x3e30ba59	0.17258586
38	0x3d8862ee	0.06659494
39	0xbd4fe896	-0.05075892
40	0x3d0f8d76	0.035047017
41	0xbbe3031a	-0.00692786
42	0x3c8804b5	0.016603807
43	0xbc0cfcef	-0.008605226
44	0x3d386f3e	0.045027964
45	0xbe1d6be2	-0.15373185
46	0x3da4e16c	0.08050808
47	0x3d6d15fa	0.057882287
48	0x3d3e7f11	0.0465079
49	0xbe268c19	-0.1626438
50	0xba54bc51	-0.00081152195
51	0xbe4513f6	-0.19245896
52	0x3df21b62	0.11821629
53	0xbd3c624b	-0.045992177
54	0x3ce08c19	0.027410554
55	0x3e1785d3	0.14797144
56	0x3e32a114	0.17444259
57	0x3d58c208	0.052919418
58	0x3c5f85bf	0.013642727
59	0x3dca126a	0.098667935
60	0x3c038b6f	0.008028849
61	0xbd009796	-0.031394564
62	0x3e3d2c57	0.18473946
63	0xbc8cd719	-0.01719241
64	0xbd002429	-0.031284485
65	0x3ceabafc	0.028653614
66	0xbdf59bfd	-0.11992643
67	0x3d933aa1	0.07188917
68	0xbda5e1b4	-0.0809969
69	0xbdadfaf2	-0.0849513
70	0x3e280ad6	0.16410384
71	0x3db382cc	0.08765182
72	0xbe324501	-0.17409135
73	0xbd489f0e	-0.04897981
74	0xbcc0f08d	-0.023552204
75	0xbd79c060	-0.06097448
76	0x3e1b1713	0.15145521
77	0x3e05d978	0.13071239
78	0x3d90230f	0.07037937
79	0xbc280e75	-0.010257353
80	0x3d24fcc7	0.04028013
81	0xbd693e7e	-0.056944363
82	0xbe1dddfb	-0.1541671
83	0x3e3cec68	0.18449557
84	0x3dbdedac	0.09273848
85	0xbc95df21	-0.018294873
86	0xbdeeeb94	-0.11666027
87	0xbdb160df	-0.08661055
88	0xbdecaeed	-0.11556802
89	0x3e1de8bf	0.15420817
90	0xbda00593	-0.07813563
91	0xbcede339	-0.029039012
92	0x3d1e7a8d	0.038691092
93	0x3dba1e3e	0.090877995
94	0x3d203a2b	0.039117973
95	0xbe2e692a	-0.17032304
96	0xbde36579	-0.11103339
97	0x3d163f34	0.03668137
98	0x3de372b2	0.11105861
99	0xbe037258	-0.12836587
100	0xbd8611d1	-0.06546367
101	0x3e12b157	0.14325462
102	0x3e17d185	0.14826019
103	0xbdd80a5d	-0.10548852
104	0x3d9d535a	0.07681914
105	0x3e11c39c	0.14234775
106	0x3d7f2734	0.062293246
107	0xbd302cca	-0.043011464
108	0xbdb01d8e	-0.08599387
109	0xbd9a9c4e	-0.07549344
110	0x3ddf251b	0.10895749
111	0xbd7aec4e	-0.061260514
112	0xbe188e38	-0.14898002
113	0xbddc9e9c	-0.1077244
114	0x3e2284f9	0.15871038
115	0x3e05f40e	0.1308138
116	0x3d9050c0	0.07046652
117	0x3d37007d	0.0446782
118	0x3e237569	0.15962757
119	0xbd1203a3	-0.035648
120	0xbd8bd5cb	-0.06827887
121	0x3c6315f3	0.013860214
122	0xbce8eb9f	-0.028432665
123	0xbcf06214	-0.029343642
124	0xbe1b35da	-0.15157261
125	0x3e36b951	0.1784413
126	0xbd9d7421	-0.076881655
127	0x3d50d130	0.050980747
128	0xbdbf0c04	-0.09328464
129	0xbe26cf21	-0.16289951
130	0xbd9a3e21	-0.075313814
131	0x3e1c752a	0.1527907
132	0x3dd88e06	0.10573964
133	0xbdb624ba	-0.08893724
134	0x3df92a9d	0.12166331
135	0xbe275561	-0.16341163
136	0xbe1ec51b	-0.15504877
137	0xbd31985e	-0.0433582
138	0xba4859b3	-0.0007642761
139	0x3d574366	0.05255451
140	0xbd80e21a	-0.062931255
141	0xbe1f1d64	-0.15538555
142	0x3e15ffb8	0.1464833
143	0xbd1a869a	-0.037726022
144	0x3e248119	0.16064872
145	0xbb977cec	-0.004623046
146	0x3e0d6915	0.13809617
147	0x3daaa1b0	0.08331621
148	0x3e25bb24	0.1618467
149	0x3d279139	0.04090998
150	0xbd6d5064	-0.057937995
151	0x3e0f024a	0.13965717
152	0xbdc2aff1	-0.095062144
153	0x3d926cf9	0.07149691
154	0xbc404837	-0.011735967
155	0x3dab4dd3	0.08364453
156	0x3e0a238a	0.1349012
157	0xbdd2e0b0	-0.10296762
158	0xbdbd69f2	-0.09248723
159	0x3e23f7f6	0.16012558
160	0xbc10edfa	-0.0088458005
161	0x3e47f6f5	0.195278
162	0xbe2a3e94	-0.16625434
163	0xbb14f93a	-0.0022731558
164	0x3def4db1	0.1168474
165	0xbdd93ec8	-0.10607678
166	0xbe1a12a3	-0.15046172
167	0x3cd937c4	0.026515849
168	0x3e22a4ee	0.15883228
169	0xbd34b537	-0.044118132
170	0x3e12bb71	0.14329316
171	0xbdf53dd3	-0.11974683
172	0xbcc2e115	-0.023788968
173	0x3e1714c8	0.14754021
174	0xbde1cd99	-0.11025543
175	0xbc853b9d	-0.016263777
176	0xbd78f3c1	-0.060779337
177	0xbdd44cec	-0.10366234
178	0xbe386939	-0.1800889
179	0x3c07e78d	0.008294952
180	0xbdf1c50c	-0.11805162
181	0x3e32f7e6	0.17477378
182	0xbe00b18d	-0.1256773
183	0xbdb6cd02	-0.08925821
184	0x3d08c179	0.033387635
185	0x3df673c2	0.12033798
186	0x3d53ea85	0.051737327
187	0xbe13fdd1	-0.14452292
188	0x3db5527b	0.088536225
189	0xbe2a7007	-0.16644298
190	0x3db4f1fe	0.08835219
191	0x3e37fccf	0.17967533
192	0xbd04c09c	-0.03241025
193	0x3e281048	0.16412461
194	0xbe12e2a4	-0.14344269
195	0xbe1aef97	-0.15130459
196	0x3d3206aa	0.043463387
197	0x3d7f5b73	0.062343072
198	0xbd0db87a	-0.03459976
199	0x3e254076	0.16137871
200	0x3d3801a5	0.044923443
201	0xbd6bbe11	-0.05755431
202	0x3cb60aef	0.02222201
203	0xbe06ec2d	-0.13176031
204	0xbdb58f69	-0.08865244
205	0xbe1a2a83	-0.1505528
206	0xbdab0b7d	-0.083518006
207	0xbe291617	-0.16512333
208	0xbdede50e	-0.11615954
209	0x3cde4d20	0.027136385
210	0xbcb03eee	-0.021514382
211	0x3e26c627	0.16286527
212	0x3d2be1da	0.041963436
213	0x3e18c058	0.14917123
214	0xbd81e863	-0.063431524
215	0xbe180959	-0.14847316
216	0x3c76087e	0.015016673
217	0xbdb941ca	-0.090457514
218	0xbe06c0ae	-0.13159439
219	0xbdcf2a31	-0.10115469
220	0x3df22c7b	0.1182489
221	0xbd2c7352	-0.042102166
222	0x3dce24af	0.100655906
223	0xbd2e1fdc	-0.042510852
224	0xbd0a6480	-0.03378725
225	0xbc5af87d	-0.013364908
226	0xbe0804d7	-0.13283096
227	0x3e145ba7	0.14488088
228	0x3db58556	0.088633224
229	0x3c083a76	0.008314719
230	0xbd3df3ea	-0.046375193
231	0xbdbfc51d	-0.09363768
232	0xbd2c259a	-0.042028047
233	0x3dc5594c	0.09636173
234	0xbdc00be2	-0.093772665
235	0xbe284294	-0.16431648
236	0xbe163343	-0.14667992
237	0xbd41b093	-0.047287535
238	0xbd2b5334	-0.041827396
239	0xbd4ed80c	-0.050499007
240	0x3e222637	0.1583489
241	0xbdf5b9d0	-0.119983315
242	0xbd2f9590	-0.042867243
243	0x3dc0ed09	0.09420211
244	0x3d31f984	0.043450847
245	0xbcc6fc80	-0.024290323
246	0x3cb2fa66	0.021847915
247	0xbd9f668d	-0.07783232
248	0xbd60dac5	-0.054896135
249	0x3e20cd77	0.15703379
250	0x3dac029c	0.08398935
251	0xbd161bca	-0.036647595
252	0xbc4ce866	-0.01250658
253	0xbd80ffbd	-0.06298778
254	0x3d2d3a07	0.042291667
255	0x3b094804	0.0020947466

rnn.weight_hh_l0 f4 [32, 32]
0	0x3df1f412	0.11814131
1	0x3b71d4a0	0.0036900416
2	0xbdc0a673	-0.09406748
3	0xbe0f4497	-0.13991009
4	0xbe299681	-0.16561319
5	0x3d3994cc	0.04530792
6	0x3d3bfb20	0.04589379
7	0xbe1bd9ee	-0.15219852
8	0x3ddf1a9e	0.10893749
9	0xbcdc913e	-0.026924726
10	0x3d9b87f5	0.07594291
11	0x3dbc0df5	0.091823496
12	0x3cad8d63	0.021185583
13	0xbc5ddcde	-0.013541428
14	0x3e28ffd0	0.16503835
15	0xbe19788f	-0.14987396
16	0x3dc66799	0.096877284
17	0x3e1deefa	0.15423194
18	0xbdf9ae1b	-0.12191411
19	0xbdbb319f	-0.09140324
20	0x3dccce44	0.100002795
21	0x3e282a7c	0.16422457
22	0xbdad3f37	-0.08459323
23	0x3d72f1ae	0.059312515
24	0xbe1a7cf1	-0.15086724
25	0xbde70ec9	-0.11282117
26	0x3e2b05c4	0.16701418
27	0xbe322b51	-0.17399336
28	0x3be152d2	0.006876328
29	0xbdf0565d	-0.117352225
30	0xbda676d9	-0.08128137
31	0x3e31f1d7	0.17377411
32	0x3d5516d7	0.052023735
33	0xbde7f3f8	-0.1132583
34	0xbdee7aaa	-0.1164449
35	0x3d4884e1	0.04895485
36	0xbdec1988	-0.11528307
37	0xbe05f3d2	-0.13081291
38	0x3e2810ba	0.1641263
39	0xbe24e07e	-0.16101262
40	0x3e29d158	0.16583765
41	0x3de02c30	0.10945928
42	0x3d15d64a	0.036581315
43	0x3d6c693d	0.05771755
44	0x3d9ccc9d	0.076562144
45	0x3ddb2523	0.10700443
46	0xbdc4d87b	-0.09611603
47	0xbdbeb5c6	-0.09312014
48	0xbdc6cb45	-0.09706739
49	0x3a85b4f9	0.0010201029
50	0x3de96281	0.11395741
51	0x3ce3d70a	0.0278125
52	0x3d2d1385	0.042254943
53	0xbb191ac2	-0.0023361896
54	0xbbbfcbf3	-0.00585317
55	0xbd09c899	-0.03363857
56	0xbdd77aab	-0.10521444
57	0x3ca64853	0.020298159
58	0xbe22cd8d	-0.15898724
59	0xbc125886	-0.008932238
60	0xbd8b86e2	-0.06812836
61	0xbb6a8d42	-0.0035789763
62	0xb7c6c8b4	-2.3696899e-05
63	0x3b3bb266	0.002864027
64	0x3e1c25fb	0.15248863
65	0xbd6aefe9	-0.057357702
66	0xbd08e712	-0.03342349
67	0x3cf46e0f	0.029837636
68	0xbe065e39	-0.1312188
69	0xbd61ea88	-0.055155307
70	0x3db7b276	0.089695856
71	0xbd6d78ff	-0.05797672
72	0x3d0a51b6	0.033769332
73	0x3e123a67	0.14280091
74	0xbd949aac	-0.07256064
75	0x3d8f91fe	0.07010268
76	0xbdaa49ca	-0.083148554
77	0xbdbadfc7	-0.091247134
78	0xbe301f2c	-0.17199391
79	0xbdb2eed7	-0.08736961
80	0xbdb49436	-0.088173315
81	0x3daf2d9f	0.085536234
82	0xbd65b353	-0.05607922
83	0xbe2790f1	-0.16363885
84	0xbdab220b	-0.083561026
85	0xbdf19417	-0.11795824
86	0xbe0c7d38	-0.13719642
87	0x3d87ce10	0.066311
88	0x3d491e8c	0.049101397
89	0x3e298748	0.16555512
90	0xbd36b8c2	-0.044609793
91	0xbda1ad9f	-0.07894444
92	0xbccb316c	-0.02480384
93	0xbdac0271	-0.08398903
94	0x3d090ebb	0.033461314
95	0xbdba098b	-0.090838514
96	0x3dec805e	0.115479216
97	0xbd2b950c	-0.04189019
98	0x3e1d61bc	0.15369314
99	0x3d1d6926	0.038430355
100	0xbc1a5bec	-0.00942133
101	0xbd28f28a	-0.04124693
102	0xbd04510e	-0.032303862
103	0xbd815b41	-0.063162334
104	0xbd1bb0ed	-0.038010526
105	0xbe2c5188	-0.16827977
106	0xbdd53466	-0.10410385
107	0xbda0f963	-0.07860067
108	0x3e0de1e4	0.13855702
109	0x3e0b1494	0.13582069
110	0x3d026204	0.031831756
111	0xbd4c5fbf	-0.049895998
112	0xbe182e47	-0.14861403
113	0x3c3a4da7	0.011371053
114	0xbd58e513	-0.052952837
115	0xbe14ec89	-0.14543356
116	0x3e17b8e4	0.14816624
117	0x3d39bc36	0.045345508
118	0x3e030ffe	0.1279907
119	0xbdae2bdd	-0.0850446
120	0x3dad7c49	0.08470971
121	0xbd90d686	-0.07072167
122	0xbdf50ace	-0.119649515
123	0x3b84ce86	0.00405294
124	0xbd8435fb	-0.064556085
125	0x3d406a4a	0.046976365
126	0x3d621ab7	0.05520126
127	0x3e224d6b	0.15849845
128	0x3d475666	0.04866638
129	0xbc039395	-0.008030792
130	0x3de32c5f	0.110924475
131	0x3c59ffb5	0.013305594
132	0x3d53a642	0.051672228
133	0xbe2d8d04	-0.16948324
134	0xbd721d47	-0.059109952
135	0x3e0efa41	0.13962652
136	0xbd6c8c52	-0.057751007
137	0xbb76da1c	-0.0037666624
138	0x3cf25f13	0.02958635
139	0xbe1ed902	-0.1551247
140	0xbd1b0240	-0.037843943
141	0xbd42442c	-0.047428295
142	0x3b8b4fb2	0.004251444
143	0x3dd530b9	0.10409684
144	0xbe1086f9	-0.14113988
145	0x3e10b38c	0.14130992
146	0xbd99f0f6	-0.07516663
147	0x3db5c7ef	0.08876025
148	0x3d3758a3	0.044762265
149	0x3d519d02	0.051175125
150	0xbd02ae95	-0.031904776
151	0x3e1e3576	0.15450081
152	0x3df2a48b	0.1184779
153	0x3d2ac668	0.04169312
154	0x3ceac484	0.02865816
155	0xbacef985	-0.0015790915
156	0x3d9d262a	0.07673295
157	0x3d28ea0f	0.04123884
158	0x3d80832d	0.0627502
159	0x3c35ca36	0.011095574
160	0x3e140224	0.14453942
161	0xbdcc0441	-0.09961749
162	0x3dcfe533	0.10151138
163	0xbe03265c	-0.12807602
164	0xbd3d2594	-0.046178415
165	0x3d4818bb	0.04885171
166	0xbc83bfa5	-0.016082594
167	0x3dbc5482	0.09195806
168	0x3d2bb262	0.041918166
169	0xbd828b81	-0.063742645
170	0x3dbad583	0.091227554
171	0x3d18fbbe	0.037349455
172	0x3c033aa6	0.008009588
173	0x3e005c7c	0.1253528
174	0xbdf8c48b	-0.121468626
175	0x3e0b2daa	0.13591638
176	0xbdf26d0a	-0.11837204
177	0xbb37c381	-0.0028040113
178	0x3db01b54	0.085989624
179	0xbd76a623	-0.060217034
180	0x3b5a0291	0.003326569
181	0xbdd1ae2a	-0.10238297
182	0xbdfb3c43	-0.122673534
183	0x3d6d3e1d	0.057920564
184	0x3e29be82	0.16576579
185	0xbc31585c	-0.010824289
186	0x3daafe85	0.08349327
187	0x3e096ca3	0.13420348
188	0xbde4f56e	-0.111796245
189	0xbe2d4088	-0.16919148
190	0xbe0b0080	-0.1357441
191	0xbe28809a	-0.16455308
192	0x3dc501b0	0.096194625
193	0xbe2a7d5c	-0.16649383
194	0xbe1fce52	-0.15606049
195	0x3d46e8f7	0.048562016
196	0x3d888550	0.06666052
197	0x3dc5592a	0.09636147
198	0x3e1b4e8f	0.15166686
199	0x3ba53366	0.0050415276
200	0xbe27328c	-0.16327876
201	0xbc6b2e65	-0.014354323
202	0xbdbae922	-0.09126498
203	0xbd446273	-0.04794545
204	0x3e26797d	0.16257282
205	0xbc509c5c	-0.0127325915
206	0x3dc77fe6	0.097411916
207	0x3d32e8e7	0.043679144
208	0x3d88f8f2	0.066881076
209	0xbe2a336b	-0.16621177
210	0x3d4c0073	0.049805116
211	0xbe0194a5	-0.1265436
212	0x3d24bfa0	0.04022181
213	0x3e29677d	0.16543384
214	0xbc8f5dda	-0.017500807
215	0x3d5e48c8	0.05426863
216	0xbda924ab	-0.08258947
217	0x3e09af11	0.13445689
218	0x3cae58ba	0.021282542
219	0x3e2b9502	0.1675606
220	0x3af26e99	0.0018496095
221	0x3dc97418	0.09836596
222	0xbd6b1a58	-0.05739817
223	0x3dd74f5a	0.10513182
224	0x3de54abc	0.11195895
225	0xbd3b69be	-0.04575514
226	0xbd8e108b	-0.06936749
227	0xbe0387e0	-0.12844801
228	0xbd216aed	-0.039408613
229	0x3e2a2123	0.16614203
230	0x3df63308	0.12021452
231	0x3d9ec725	0.077528276
232	0xbdc5ae62	-0.096524015
233	0x3e297d9a	0.1655182
234	0x3e18c4a2	0.1491876
235	0xbdc9fbcf	-0.09862482
236	0x3e1a608c	0.15075892
237	0xbe297a27	-0.16550504
238	0xbdda5957	-0.106615715
239	0xbe13d6bb	-0.14437382
240	0xbdc2d389	-0.095130034
241	0x3cfabe33	0.030608272
242	0x3dac4b44	0.08412793
243	0x3ddc937e	0.107703194
244	0xbe12bec7	-0.14330588
245	0x3d8ac62b	0.06776079
246	0xbdae723b	-0.085178815
247	0xbd10189c	-0.03517972
248	0x3ba40580	0.0050055385
249	0xbdfe295a	-0.12410231
250	0xbce7930e	-0.028268363
251	0x3d4574c5	0.048207063
252	0x3d86b84a	0.06578119
253	0xbd2f779f	-0.04283869
254	0x3e24b3fd	0.16084285
255	0xbdc44a97	-0.095845394

rnn.bias_ih_l0 f4 [32]
0	0xbe0aa552	-0.13539627
1	0x3dab3c41	0.08361102
2	0x3dedc190	0.11609185
3	0x3da526bd	0.08064029
4	0x3e00e11e	0.12585875
5	0xbe28f72d	-0.1650054
6	0x3d92f0cd	0.07174835
7	0xbd549f8e	-0.051909976
8	0xbdeaed50	-0.11471045
9	0xbd4f58cc	-0.050621793
10	0xbdb34b65	-0.08754615
11	0x3e21486c	0.15750283
12	0xbc24d466	-0.010060405
13	0xbe0dd4cc	-0.13850707
14	0x3d917e8c	0.07104215
15	0xbdfb8fe3	-0.122833036
16	0x3cb374e3	0.021906322
17	0xbccf7c7c	-0.025327913
18	0x3e0d6cab	0.13810985
19	0xbe098de1	-0.13433029
20	0xbe2addf4	-0.16686231
21	0xbde7331d	-0.11289046
22	0x3df50369	0.11963541
23	0x3e046b57	0.12931572
24	0x3e16fd87	0.1474515
25	0xbda6d5ea	-0.081462696
26	0xbe3ab752	-0.18233994
27	0x3d813d0e	0.063104734
28	0x3e11e179	0.14246167
29	0xbd8732e9	-0.06601507
30	0xbd9fa836	-0.077957556
31	0xbdcacd22	-0.09902407

rnn.bias_hh_l0 f4 [32]
0	0xbdc01eb5	-0.09380857
1	0xbe032cfc	-0.12810129
2	0xbc9020ad	-0.017593706
3	0xbc3128af	-0.010812922
4	0x3d168502	0.03674794
5	0xbc661075	-0.01404201
6	0x3d88c56d	0.06678281
7	0xbdbfc5ba	-0.09363885
8	0x3b15ab3c	0.002283766
9	0xbdbbb34d	-0.09165058
10	0x3d4135ea	0.047170557
11	0xbde3313f	-0.11093377
12	0x3dfceef1	0.12350262
13	0xbcc926de	-0.024554666
14	0xbe30f3ff	-0.17280577
15	0x3dbff9a0	0.09373784
16	0xbc197c0f	-0.009367957
17	0x3dfe59e4	0.12419489
18	0xbdca3ef9	-0.09875292
19	0x3e1c98a4	0.15292603
20	0x3d93bb81	0.07213498
21	0x3e27f56d	0.16402216
22	0x3e10c659	0.14138164
23	0x3e100bd6	0.14067015
24	0xbe38ec5e	-0.18058917
25	0x3e06579b	0.13119356
26	0x3d555bd2	0.05208952
27	0x3dfa89ff	0.12233352
28	0x3e1b9fb7	0.15197645
29	0x3e1295e9	0.14314999
30	0x3e330665	0.17482908
31	0x3d2cf6a7	0.042227414

classifier.weight f4 [1, 32]
0	0xbe91831c	-0.2842034
1	0x3c5a5885	0.013326769
2	0x3d0f35e5	0.034963507
3	0x3dfe21dd	0.12408803
4	0xbe259b9e	-0.16172644
5	0xbdddc50c	-0.10828599
6	0x3d071ce2	0.03298653
7	0xbe4fdb6a	-0.20298544
8	0xbe7b30b4	-0.24530298
9	0xbd15f76d	-0.036612917
10	0x3d6dc4de	0.058049075
11	0x3e1a634b	0.1507694
12	0xbb6cf2a0	-0.0036155358
13	0xbe2299e6	-0.1587902
14	0xbdc18ee9	-0.09451086
15	0xbe2b77ae	-0.16744873
16	0x3b8a93d9	0.0042290506
17	0xbcf081b7	-0.029358728
18	0xbe173800	-0.14767456
19	0x3dafc434	0.08582345
20	0xbdf83903	-0.12120249
21	0xba0126b0	-0.00049267244
22	0xbdb662aa	-0.089055374
23	0x3e6a1980	0.2286129
24	0xbe0df34d	-0.13862343
25	0xbe178cbf	-0.14799784
26	0xbe7b26bb	-0.24526493
27	0x3e2d231c	0.16907924
28	0xbe2d745f	-0.16938923
29	0xbbca53b7	-0.0061745304
30	0x3d55534f	0.052081402
31	0x3dc92de0	0.09823203
