save/2-3_rnn_sp_60.pt (torch, 12937 bytes, 6 tensors)

emb_layer.weight f4 [60, 16]
0.0 0.0 0.0 0.0 0.0 0.0 0.0 0.0
0.0 0.0 0.0 0.0 0.0 0.0 0.0 0.0
-1.2905118 -0.73504186 0.8754371 -1.6640996 -0.16190669 1.3211541 0.093830064 -1.2821766
-0.6515184 -0.76021165 -0.89118284 0.33789262 0.41856027 -0.41300935 0.40239573 0.96420777
-1.5787939 -0.5358119 0.834619 -0.37007695 -0.29496527 -0.09825674 1.3523881 -0.11095983
0.84514135 -0.045081276 -2.2648365 -0.5460029 -2.914478 0.100092985 -1.3464161 -0.8516227
0.9562324 1.4199868 0.36771557 0.064364545 -0.4979786 -0.47031078 0.26507106 0.098177224
0.26146764 -0.93954176 0.10761815 1.753541 -0.27526972 -1.3512758 -1.4858589 0.31770176
1.7542818 -0.9457237 0.3948957 -0.5850573 0.32715708 0.22448175 0.42743355 -0.023899836
-1.592379 0.21375732 -0.21415243 0.8410895 0.38157523 0.37926847 0.14620823 1.8263118
-0.35250244 1.1490152 0.3290717 0.8684548 -0.48044875 0.92472357 0.7367949 -0.59892744
-1.318255 -0.17703113 -1.482545 -0.81982714 1.417224 -1.6039745 1.2418752 -0.61136276
-0.7977615 0.20175505 -1.158033 -0.994132 1.203938 0.12828557 1.2777156 0.47968197
-0.91414905 -0.8648885 0.0039538937 1.3307948 1.5699515 -0.1045908 -0.7398465 -0.43106464
-0.08940624 -0.03999092 0.2856061 0.092267185 -1.2429248 -0.9547913 2.5724416 0.25476596
0.47407824 -1.1217912 -0.917233 2.003859 -0.35878026 -0.53919023 1.2453403 -0.30100822
0.90577847 0.44946033 -0.26199308 -1.4724112 0.025134228 0.6244438 -0.76557785 -0.68870276
-0.70339364 0.18265085 -0.45686054 -0.7498166 1.0659752 -0.27967918 0.6880886 0.41559675
-1.2611897 -0.22705409 -1.8818512 -1.7388713 0.93033916 1.599169 -0.7450786 -0.22997536
0.092450276 1.6426691 -0.3615096 -0.30599567 0.18521242 -0.12860383 2.3660827 0.7756696
0.9021577 -1.3313664 0.37532973 0.13123484 -1.3708929 3.5723715 -0.45479423 0.87632227
1.5561585 -0.38993064 -1.3451726 -0.77416956 0.4741112 -0.2567618 0.13830201 1.9806526
0.16401188 1.3623077 -0.5874309 -0.7437858 0.084036775 0.2044016 0.2531254 0.44387788
0.61462444 0.023939047 -0.68416065 0.5745006 -0.44193086 0.004161427 -0.5759039 0.15702757
1.1145488 0.3413489 -0.44187573 -0.027963078 -0.7183215 -0.8488377 1.3579805 -1.4828197
2.072512 2.7821224 0.37459671 0.66172785 -0.85953367 -0.8063408 0.69234157 -0.85089535
-0.59435105 -0.16352846 -1.3789691 -1.1630341 0.8696022 0.6036416 -0.001317302 -0.3455944
-1.9077051 1.2399485 -1.5672091 0.56029123 -0.105769955 -1.2716931 -1.4073747 -1.0802604
1.3196341 0.19178966 -0.4146086 1.3504227 -0.31879056 -0.053347606 -0.058970395 -1.9132857
-0.5380516 1.7993157 -1.9724524 -0.008912859 -1.0277288 1.8182648 -1.5009068 -0.6795373
-0.017404692 -0.77791196 -0.92116964 -0.26738098 -0.21446286 0.47238517 -1.8927443 1.0495425
-0.10154711 1.8141943 -0.01786214 0.229251 -0.4213916 1.0269991 -2.4061255 -0.9141615
00000000: 0000 0000 0000 0000 0000 0000 0000 0000
00000010: 0000 0000 0000 0000 0000 0000 0000 0000
00000020: 0000 0000 0000 0000 0000 0000 0000 0000
00000030: 0000 0000 0000 0000 0000 0000 0000 0000
00000040: 7e2f a5bf b42b 3cbf a51c 603f 3701 d5bf
00000050: deca 25be 941b a93f fa29 c03d 5d1e a4bf
00000060: e9c9 26bf 3b9d 42bf 8f24 64bf 4300 ad3e
00000070: 884d d63e f675 d3be d006 ce3e 52d6 763f
00000080: eb15 cabf f82a 09bf 97a9 553f ba7a bdbe
00000090: b005 97be d43a c9bd 0e1b ad3f e83e e3bd
000000a0: 2f5b 583f 25a7 38bd 15f3 10c0 d9c6 0bbf
000000b0: cf86 3ac0 8dfd cc3d 5d57 acbf f203 5abf
000000c0: a6cb 743f 21c2 b53f 3745 bc3e 8fd1 833d
000000d0: 0df7 febe 93cc f0be 65b7 873e 2411 c93d
000000e0: 16df 853e cf85 70bf e866 dc3d 0874 e03f
000000f0: 27f0 8cbe 9bf6 acbf a030 bebf cea9 a23e
00000100: 4e8c e03f f31a 72bf c52f ca3e 51c6 15bf
00000110: 2281 a73e 8bde 653e 92d8 da3e 97c9 c3bc
00000120: 13d3 cbbf 33e3 5a3e c64a 5bbe a451 573f
00000130: d45d c33e 7a2f c23e 9cb7 153e 96c4 e93f
00000140: 337b b4be ee12 933f 167c a83e 0e53 5e3f
00000150: 61fd f5be afba 6c3f 979e 3c3f 4f53 19bf
00000160: 94bc a8bf a647 35be 09c4 bdbf 31e0 51bf
00000170: 9967 b53f 094f cdbf c4f5 9e3f 4582 1cbf
00000180: 193a 4cbf e098 4e3e 6d3a 94bf 6f7f 7ebf
00000190: a41a 9a3f 4b5d 033e 2f8c a33f e098 f53e
000001a0: ac05 6abf 5569 5dbf aa8f 813b 7c57 aa3f
000001b0: 2cf4 c83f b433 d6bd 9566 3dbf 81b4 dcbe
000001c0: 9e1a b7bd 85cd 23bd f63a 923e 94f6 bc3d
000001d0: 2918 9fbf 346d 74bf e2a2 2440 af70 823e
000001e0: 62ba f23e db96 8fbf c8cf 6abf 3a3f 0040
000001f0: 0cb2 b7be 5f08 0abf 5067 9f3f c01d 9abe
00000200: 19e1 673f aa1f e63e f523 86be f877 bcbf
00000210: 4ce6 cd3c 8ddb 1f3f e9fc 43bf d34e 30bf
00000220: 9b11 34bf d308 3b3e a0e9 e9be fbf3 3fbf
00000230: e071 883f 1c32 8fbe 9326 303f 19c9 d43e
00000240: aa6e a1bf de80 68be 80e0 f0bf 5693 debf
00000250: b52a 6e3f 92b1 cc3f 79bd 3ebf a97e 6bbe
00000260: 9256 bd3d fb42 d23f c917 b9be 77ab 9cbe
00000270: 53a8 3d3e b9b0 03be e66d 1740 4892 463f
00000280: cff3 663f 376a aabf 382b c03e 6d62 063e
00000290: 6b79 afbf bca1 6440 cada e8be a856 603f
000002a0: 3430 c73f fda4 c7be 9e2e acbf fa2f 46bf
000002b0: b4be f23e 4876 83be 0b9f 0d3e 0686 fd3f
000002c0: bbf2 273e 1960 ae3f df61 16bf bf68 3ebf
000002d0: 791b ac3d a74e 513e a799 813e f643 e33e
000002e0: 0758 1d3f d21b c43c 2725 2fbf 7912 133f
000002f0: c344 e2be 945c 883b 706e 13bf d6cb 203e
00000300: 89a9 8e3f 48c5 ae3e 893d e2be d312 e5bc
00000310: ebe3 37bf 6d4d 59bf 4ed2 ad3f 09cd bdbf
00000320: 09a4 0440 4b0e 3240 24cb bf3e ff66 293f
00000330: 660a 5cbf 5a6c 4ebf 4c3d 313f 47d4 59bf
00000340: 6427 18bf 0174 27be 0f82 b0bf 4dde 94bf
00000350: 409e 5e3f 4288 1a3f 52a9 acba c0f1 b0be
00000360: ae2f f4bf a2b6 9e3f 4f9a c8bf 3f6f 0f3f
00000370: eb9d d8bd d7c6 a2bf db24 b4bf f945 8abf
00000380: c5e9 a83f 8264 443e 9447 d4be a7da ac3f
00000390: 8438 a3be 0583 5abd f18a 71bd 8ce6 f4bf
000003a0: c0bd 09bf fa4f e63f 5279 fcbf 3d07 12bc
000003b0: 9e8c 83bf e7bc e83f b71d c0bf 28f6 2dbf
000003c0: 4994 8ebc 3d25 47bf c6d1 6bbf 29e6 88be
000003d0: 279c 5bbe 78dc f13e 7245 f2bf 6957 863f
000003e0: eef7 cfbd 8537 e83f 9f53 92bc c6c0 6a3e
000003f0: a4c0 d7be b574 833f f6fd 19c0 7d06 6abf

rnn.weight_ih_l0 f4 [32, 16]
0.15236144 0.11202911 0.056736317 0.033703677 -0.117050566 -0.15932585 -0.082634665 0.081117615
0.008587835 -0.019048287 0.0073733944 -0.12592039 -0.12428892 -0.08813511 -0.08278688 0.117202
0.015794445 0.12061701 0.09268415 -0.03347059 0.14301609 -0.009827792 0.07951826 0.062706485
-0.13335009 0.079601884 0.12428692 -0.21559696 -0.13304418 -0.09841969 0.20738572 0.13760006
-0.068869 0.14076063 -0.031333536 0.030452106 0.12133739 -0.15810487 -0.0060220105 -0.14006305
-0.0073923976 0.15778609 0.074328944 -0.06572304 -0.06960641 0.057549328 -0.122762755 -0.09467481
-0.045998037 -0.17933953 -0.16337484 0.025202537 0.12604024 -0.055473972 0.089079745 0.00028451614
-0.07773166 0.11186781 0.10795137 -0.07371754 -0.05649937 -0.033838503 -0.01541321 0.012185236
-0.15235598 -0.15124416 -0.10561269 0.02393415 -0.014533296 -0.048270583 -0.15751307 0.03906951
-0.063497216 -0.07571322 -0.08902172 -0.009159511 0.15065508 -0.1685304 -0.14650942 0.0070803394
0.07288569 0.10955436 -0.11856779 -0.06995084 -0.030789226 -0.09668166 0.047852248 -0.115623556
0.094044164 -0.15299386 -0.07895485 0.02716556 -0.024147652 0.04790152 0.004596776 0.08971313
-0.195451 -0.16336025 -0.13463788 0.088161044 0.03737031 0.08362524 -0.010510707 0.050870936
0.04554012 0.023980873 0.116566576 0.13970418 -0.06707075 -0.048607722 -0.0369454 -0.19565262
0.13068889 -0.05285289 -0.16345541 0.019595569 0.08829934 0.101821624 -0.07918968 0.15984008
0.15663679 -0.10712474 0.038318604 -0.16550434 0.16023868 0.04499211 0.14548856 0.1596906
-0.044472266 0.11024548 -0.15306683 0.052474223 0.12730043 -0.055724483 0.0587545 0.13077947
0.047897156 -0.052360177 0.05016659 -0.008576618 -0.12740724 -0.027547427 0.07849379 -0.114095755
0.04818953 0.08509999 0.1496134 0.16470394 -0.09508934 -0.16132396 0.07374756 0.0874984
0.10489094 0.040017318 0.10649771 -0.058645733 0.0008970922 0.03326859 0.14446172 -0.15376735
-0.13403499 -0.14751431 -0.15201189 0.08371544 -0.061100654 -0.024669461 0.03741114 0.15119733
0.03890249 -0.114843674 -0.17947148 -0.107395016 0.026912231 -0.18489835 -0.008593147 0.15509064
0.1311415 0.040206537 -0.124865405 -0.10648637 -0.038871244 0.11200196 -0.09982067 0.15495539
-0.05373424 -0.15698414 -0.056192707 0.13186002 0.07379081 -0.051315732 -0.11519484 -0.1346848
0.14152382 -0.043730974 0.15099806 0.022746278 -0.08387754 -0.107735075 -0.15268254 0.10136935
0.1666753 -0.14278644 -0.1222601 -0.18987516 -0.07602423 0.16344926 -0.05199888 0.028833168
0.118122034 0.08225122 -0.03668974 0.13584773 -0.16084518 0.0021164159 -0.07687632 -0.06136826
0.03799464 -0.08140477 0.08201717 0.06454444 -0.12751357 -0.04926438 -0.092978574 -0.09561922
0.068129905 0.1067711 0.11779578 0.060183488 0.12726168 -0.009265327 0.16525513 0.091309704
-0.13612314 -0.025584798 -0.045613866 -0.1191607 0.0526633 0.03683517 -0.15084147 0.14604321
-0.051721234 -0.07113626 0.06100589 -0.03272889 0.021609547 0.16066106 -0.042684127 0.04218523
0.0927919 -0.108049735 0.035960082 0.1487221 0.07621003 0.11501721 -0.13808157 -0.017866062
00000000: a304 1c3e 856f e53d 5764 683d de0c 0a3d
00000010: 35b8 efbd 5126 23be 5d3c a9bd fe20 a63d
00000020: feb3 0c3c 270b 9cbc 849c f13b 46f1 00be
00000030: 308b febd 2e80 b4bd 2b8c a9bd 9a07 f03d
00000040: 5a63 813c 0d06 f73d 30d1 bd3d 7518 09bd
00000050: cf72 123e bf04 21bc 78da a23d 426c 803d
00000060: ed8c 08be 5006 a33d 248a fe3d 73c5 5cbe
00000070: bc3c 08be 4390 c9bd ec5c 543e 08e7 0c3e
00000080: 310b 8dbd 8e23 103e 9857 00bd b276 f93c
00000090: bd7f f83d 3ee6 21be 4954 c5bb b06c 0fbe
000000a0: ed3b f2bb ad92 213e c639 983d cd99 86bd
000000b0: ce8d 8ebd d8b8 6b3d 0a6b fbbd dee4 c1bd
000000c0: 7068 3cbd c8a4 37be bc4b 27be 8d75 ce3c
000000d0: b110 013e ad38 63bd 716f b63d 1c2b 9539
000000e0: c731 9fbd f31a e53d 9c15 dd3d 39f9 96bd
000000f0: e26b 67bd 3e9a 0abd b087 7cbc 96a4 473c
00000100: 3503 1cbe c0df 1abe 774b d8bd 8d11 c43c
00000110: 101d 6ebc 60b7 45bd 1b4b 21be 5a07 203d
00000120: d40a 82bd 880f 9bbd 0551 b6bd c611 16bc
00000130: 5345 1a3e 3c93 2cbe 9106 16be 3102 e83b
00000140: 1845 953d 095e e03d abd3 f2bd 6342 8fbd
00000150: b039 fcbc 0901 c6bd b800 443d 0bcc ecbd
00000160: 3a9a c03d 6caa 1cbe 15b3 a1bd 4f8a de3c
00000170: 4cd1 c5bc 6234 443d 8da0 963b 84bb b73d
00000180: 4f24 48be e947 27be 83de 09be c78d b43d
00000190: 9c11 193d b643 ab3d 1a35 2cbc 0b5e 503d
000001a0: 4788 3a3d 8973 c43c 75ba ee3d 9d0e 0f3e
000001b0: 645c 89bd e418 47bd 0f54 17bd 2959 48be
000001c0: 4fd3 053e 467c 58bd db60 27be e386 a03c
000001d0: 49d6 b43d db87 d03d 332e a2bd 1ead 233e
000001e0: 6565 203e 3764 dbbd f8f3 1c3d f879 29be
000001f0: 9c15 243e a649 383d f4fa 143e ef85 233e
00000200: 8d28 36bd 62c8 e13d 8dbd 1cbe 36ef 563d
00000210: 0b5b 023e 5b3f 64bd 8fa8 703d 0eeb 053e
00000220: cf2f 443d a077 56bd 7b7b 4d3d f184 0cbc
00000230: 0b77 02be 24ab e1bc 5ac1 a03d 09ab e9bd
00000240: 6262 453d e748 ae3d 4134 193e 26a8 283e
00000250: 33be c2bd 1c32 25be f608 973d 5c32 b33d
00000260: 10d1 d63d 33e9 233d 791b da3d 8236 70bd
00000270: d72a 6b3a a544 083d c6ed 133e 3075 1dbe
00000280: 7840 09be fe0d 17be 01a9 1bbe 0073 ab3d
00000290: ae44 7abd 9c17 cabc 6c3c 193d 79d3 1a3e
000002a0: 3858 1f3d 2933 ebbd 5fc7 37be ebf1 dbbd
000002b0: 0a77 dc3c fe55 3dbe 45ca 0cbc 15d0 1e3e
000002c0: f549 063e 9caf 243d 6fb9 ffbd 8715 dabd
000002d0: 7437 1fbd 4961 e53d c86e ccbd a0ac 1e3e
000002e0: 6f18 5cbd 73c0 20be 532a 66bd 5006 073e
000002f0: a31f 973d 7230 52bd 46eb ebbd d0ea 09be
00000300: 9feb 103e 401f 33bd 3c9f 1a3e 6756 ba3c
00000310: fdc7 abbd 35a4 dcbd d058 1cbe bc9a cf3d
00000320: eeac 2a3e 9c36 12be 8163 fabd a26e 42be
00000330: 97b2 9bbd 3e5f 273e c7fc 54bd 8933 ec3c
00000340: f7e9 f13d 5473 a83d fb47 16bd ab1b 0b3e
00000350: 99b4 24be 91b3 0a3b 5571 9dbd 495d 7bbd
00000360: 45a0 1b3d 8bb7 a6bd 9ef8 a73d e02f 843d
00000370: eb92 02be 72c9 49bd 8d6b bebd 02d4 c3bd
00000380: b187 8b3d ceaa da3d ea3e f13d f682 763d
00000390: e350 023e 99cd 17bc a438 293e 9500 bb3d
000003a0: dd63 0bbe 3697 d1bc 9bd5 3abd 860a f4bd
000003b0: 79b5 573d 7ae0 163d 3076 1abe 5a8c 153e
000003c0: a5d9 53bd e3af 91bd 50e1 793d bb0e 06bd
000003d0: 8106 b13c 5584 243e 8dd5 2ebd 6bca 2c3d
000003e0: ae09 be3d 2e49 ddbd e14a 133d 9b4a 183e
000003f0: 0114 9c3d 258e eb3d 4165 0dbe d95b 92bc

rnn.weight_hh_l0 f4 [32, 32]
0.092773385 -0.04213405 -0.0879063 -0.104325585 -0.16472284 -0.17274678 0.16403799 0.004515052
0.08481595 -0.007544646 -0.003908083 0.089122295 0.15670465 -0.078571744 0.042813558 0.08743867
0.15495004 -0.12961198 -0.009702718 0.08429223 0.15901265 0.10488156 0.09677683 0.016997358
-0.07421768 -0.16064024 -0.031947512 0.060155716 0.14920367 -0.12782791 -0.13236777 -0.045514997
0.11846357 0.09456101 0.07916605 -0.0038932872 0.10920639 -0.14929768 -0.02354553 0.09307414
0.026279649 0.09034411 -0.045000773 -0.16752997 0.15101412 0.098760284 0.11588818 -0.011145
0.12769142 0.0021553743 -0.030936597 -0.011355908 -0.058411546 0.07029884 -0.023375003 -0.16018946
-0.006501261 0.05444052 -0.0025205151 0.091761105 -0.090887375 -0.08564234 -0.1343315 -0.07681708
0.16074039 -0.15393066 -0.1299602 -0.03380036 0.14223847 0.12496652 -0.12006424 -0.046877578
-0.17524058 0.07351656 0.16603646 0.1319711 0.042316083 0.023592088 -0.16864024 0.13283885
0.1726235 0.0449873 0.07477973 0.025401702 0.094609015 0.015405052 0.08910426 -0.077972114
0.13705729 -0.00037243863 -0.032732066 -0.063284814 -0.090685084 -0.08130886 -0.017120289 -0.055788375
-0.004600748 0.07237543 -0.011725661 0.17901528 -0.014808647 -0.11219634 -0.02146155 -0.16906777
0.14499104 0.037891276 0.097219184 0.058463402 0.05839108 -0.12794651 -0.08170228 -0.15556324
0.17247348 0.056845143 -0.09681971 0.13548854 -0.032080468 -0.039001096 0.051769696 -0.15489742
0.16834643 -0.05061588 0.070881575 -0.037332285 -0.10515374 -0.09306521 0.08050674 -0.044826232
-0.16113941 -0.1022257 0.16004166 -0.08121059 0.13029225 -0.13849856 0.11607094 -0.10952485
-0.1320373 0.012840465 0.061588705 0.011558611 -0.0372432 -0.06622354 0.07448484 -0.005475514
-0.07274584 0.118036315 0.17257707 -0.16689442 -0.024935514 -0.09639375 0.048745908 -0.0013137786
-0.14684185 0.117796086 0.040249407 -0.12485107 -0.021148063 0.15074374 0.084975876 0.092990756
0.15441398 -0.044295624 0.12635572 -0.055245783 0.13263106 -0.034624804 -0.1604163 0.058241945
-0.16305944 -0.074840255 -0.097221 0.12550835 -0.14047633 -0.12907013 0.15841618 0.15536202
-0.14104591 -0.019537639 0.07933194 -0.04287568 -0.07490126 -0.07624514 -0.019095372 0.032991428
0.10763342 0.010795466 0.14733048 0.08958623 -0.032503754 0.10230998 -0.089512795 0.09020355
-0.09120635 0.0012675656 0.055035513 -0.16928999 0.09522951 -0.034286007 -0.13172737 -0.0580146
-0.1041852 -0.02668111 -0.019266836 -0.04266744 -0.13658603 -0.17781281 -0.008606041 0.008290013
0.1398945 0.0026614193 0.11488437 -0.12673381 -0.014245436 0.13165314 0.059437294 0.132943
0.16131255 0.0068155793 0.049463045 -0.07439141 -0.17708671 0.08299618 0.16299486 0.11971875
0.118291095 0.13534003 -0.00024169448 -0.028603155 -0.06570495 0.14069222 0.1274255 -0.16073424
0.11369469 0.1597867 0.047240123 0.011804291 0.14243025 0.013787905 -0.057924774 -0.09930496
0.07925684 -0.055346597 -0.08411482 -0.028535666 0.09302911 -0.0018946712 -0.11026992 0.13109764
0.041924033 0.027496882 -0.022633022 0.019095328 -0.08979098 0.00936049 -0.012470165 0.10348186
00000000: f9ff bd3d c194 2cbd 3808 b4bd a7a8 d5bd
00000010: 1bad 28be 88e4 30be 93f9 273e 00f3 933b
00000020: fcb3 ad3d 1439 f7bb 600f 80bb c085 b63d
00000030: 2f77 203e 39ea a0bd 455d 2f3d 0c13 b33d
00000040: 39ab 1e3e 01b9 04be 26f8 1ebc 68a1 ac3d
00000050: 36d4 223e 25cc d63d ee32 c63d 0b3e 8b3c
00000060: 70ff 97bd e07e 24be 65db 02bd d765 763d
00000070: d9c8 183e 52e5 02be 6b8b 07be ef6d 3abd
00000080: 079d f23d 34a9 c13d cf21 a23d 8526 7fbb
00000090: 9aa7 df3d 7ee1 18be 8ee2 c0bc a89d be3d
000000a0: 6b48 d73c 5506 b93d bb52 38bd fa8c 2bbe
000000b0: 72a3 1a3e d542 ca3d c856 ed3d 8599 36bc
000000c0: 8ac1 023e 2e41 0d3b bf6e fdbc 210e 3abc
000000d0: f240 6fbd d7f8 8f3d ef7c bfbc b508 24be
000000e0: 8808 d5bb 06fd 5e3d 3a2f 25bb 3fed bb3d
000000f0: 2923 babd 4065 afbd 328e 09be 4652 9dbd
00000100: 2199 243e 00a0 1dbe 4914 05be 3f72 0abd
00000110: f6a6 113e 72ee ff3d 3ee4 f5bd b402 40bd
00000120: 4472 33be da8f 963d 7605 2a3e 6f23 073e
00000130: a153 2d3d 3244 c13c 07b0 2cbe e806 083e
00000140: 37c4 303e 9a44 383d 1d26 993d 3b17 d03c
00000150: 5fc2 c13d 7965 7c3c 4b7c b63d d8af 9fbd
00000160: bf58 0c3e de43 c3b9 0f12 06bd 789b 81bd
00000170: 1ab9 b9bd 4285 a6bd d93f 8cbc 5a82 64bd
00000180: dfc1 96bb 9239 943d fd1c 40bc c84f 373e
00000190: f89f 72bc 32c7 e5bd 22d0 afbc 1a20 2dbe
000001a0: 8878 143e e233 1b3d da1a c73d 5277 6f3d
000001b0: 7c2b 6f3d 6904 03be 8653 a7bd f84b 1fbe
000001c0: e39c 303e 74d6 683d 6a49 c6bd 82bd 0a3e
000001d0: cf66 03bd 9dbf 1fbd 760c 543d 6e9d 1ebe
000001e0: 0263 2c3e 9952 4fbd 5c2a 913d bde9 18bd
000001f0: d85a d7bd f998 bebd b8e0 a43d b69b 37bd
00000200: bb01 25be b55b d1bd f6e1 233e bd51 a6bd
00000210: 556b 053e 91d2 0dbe 9ab6 ed3d 914e e0bd
00000220: c934 07be d060 523c 7044 7c3d 5460 3d3c
00000230: 538c 18bd 35a0 87bd 828b 983d f16b b3bb
00000240: c5fb 94bd 06bd f13d 0bb8 303e 5fe6 2abe
00000250: 9045 ccbc 166a c5bd caa9 473d 1833 acba
00000260: b65d 16be 133f f13d 90dc 243d ebb1 ffbd
00000270: b43e adbc 915c 1a3e d507 ae3d f071 be3d
00000280: b31e 1e3e 546f 35bd 6563 013e 6749 62bd
00000290: 70d0 073e bdd2 0dbd 2c44 24be 1b8f 6e3d
000002a0: 0ef9 26be d945 99bd ce1b c7bd 4385 003e
000002b0: 07d9 0fbe f62a 04be da37 223e 3917 1f3e
000002c0: 576e 10be 660d a0bc c978 a23d 699e 2fbd
000002d0: d565 99bd 6926 9cbd e66d 9cbc 0522 073d
000002e0: e96e dc3d 77df 303c cddd 163e fc78 b73d
000002f0: a822 05bd e587 d13d 7c52 b7bd a4bc b83d
00000300: 65ca babd 7224 a63a eb6c 613d 5b5a 2dbe
00000310: b007 c33d 7c6f 0cbd 8ae3 06be b8a0 6dbd
00000320: 0d5f d5bd 5892 dabc 7cd5 9dbc 0ec4 2ebd
00000330: 35dd 0bbe 9014 36be 5a00 0dbc d6d2 073c
00000340: 8140 0f3e 356b 2e3b 7f48 eb3d 82c6 01be
00000350: b065 69bc 15d0 063e 8574 733d 3622 083e
00000360: 1e2f 253e 3955 df3b c399 4a3d 865a 98bd
00000370: 3856 35be e7f9 a93d 20e8 263e 1b2f f53d
00000380: 9a42 f23d 9496 0a3e 5e6f 7db9 2a51 eabc
00000390: 5190 86bd 9f11 103e d57b 023e 8497 24be
000003a0: c3d8 e83d 209f 233e dc7e 413d c966 413c
000003b0: 3cd9 113e aae6 613c 8742 6dbd 6660 cbbd
000003c0: 6951 a23d 1db3 62bd 6444 acbd a1c3 e9bc
000003d0: 0c86 be3d 9e56 f8ba 32d5 e1bd 763e 063e
000003e0: 89b8 2b3d 2441 e13c e368 b9bc ce6d 9c3c
000003f0: 55e4 b7bd be5c 193c aa4f 4cbc 4cee d33d

rnn.bias_ih_l0 f4 [32]
-0.036633305 0.103254296 0.011706948 0.07805845 0.10538341 0.19057809 -0.031954937 0.050171137
0.057337698 0.118629895 -0.014634504 0.15823326 0.03820242 0.018831765 -0.081689276 0.006780528
0.16945761 -0.0038906843 -0.17348886 -0.11023302 0.124089025 -0.09758401 0.09115535 -0.1753471
0.11030162 0.1041551 -0.07688554 -0.14663012 0.02283895 0.004306425 0.030870648 -0.097727776
00000000: ce0c 16bd fd76 d33d 80ce 3f3c 1cdd 9f3d
00000010: 42d3 d73d e726 433e 2ee3 02bd 4080 4d3d
00000020: efda 6a3d 3bf4 f23d 8fc5 6fbc e607 223e
00000030: 247a 1c3d 1345 9a3c b54c a7bd 312f de3b
00000040: 4c86 2d3e dafa 7ebb 10a7 31be d9c1 e1bd
00000050: 6322 fe3d 20da c7bd a8af ba3d 318e 33be
00000060: d1e5 e13d 454f d53d 2a76 9dbd 3526 16be
00000070: c018 bb3c e91c 8d3b 71e4 fc3c 8025 c8bd

rnn.bias_hh_l0 f4 [32]
0.01761888 0.07944626 -0.10118821 -0.079331584 -0.058432322 -0.06293787 0.081925794 0.17038049
0.034997027 -0.13425107 0.03899502 -0.018466063 -0.048956174 0.12408517 -0.14598377 0.16152078
0.1192515 0.08604106 0.043298107 0.16790785 0.0038576743 -0.13675891 -0.079652175 0.14160173
0.058374006 0.12706834 0.14554551 0.021726232 -0.15636796 0.13530178 0.1361613 -0.0945181
00000000: 7855 903c b9b4 a23d c43b cfbd 9978 a2bd
00000010: bb56 6fbd 92e5 80bd b6c8 a73d 3978 2e3e
00000020: 0b59 0f3d 1d79 09be 3eb9 1f3d 2446 97bc
00000030: 4586 48bd 5e20 fe3d c57c 15be b465 253e
00000040: 213a f43d 4c36 b03d 5b59 313d 09f0 2b3e
00000050: 09d1 7c3b 870a 0cbe ae20 a3bd 0b00 113e
00000060: 9519 6f3d 341e 023e e209 153e 36fb b13c
00000070: ec1e 20be 8d8c 0a3e de6d 0b3e b592 c1bd

classifier.weight f4 [1, 32]
0.11919177 -0.17573054 0.10771221 -0.27365014 0.0011231824 0.24268544 -0.12576723 -0.0852582
0.1319561 -0.09707965 0.23005176 0.20633262 -0.19278389 0.14720659 0.19860463 -0.10738112
0.19300987 -0.25979707 -0.1737985 0.1308498 0.14442132 -0.073267885 0.011310821 -0.021415213
-0.020607851 0.0222571 0.013759419 0.11994033 0.034859058 0.07778318 0.23625226 0.20225172
00000000: d11a f43d b5f2 33be 3898 dc3d df1b 8cbe
00000010: bf37 933a 8882 783e 20c9 00be da9b aebd
00000020: 801f 073e b2d1 c6bd b092 6b3e dc48 533e
00000030: 2469 45be 53bd 163e 035f 4b3e a2ea dbbd
00000040: 61a4 453e 1f04 85be 3cf8 31be 7dfd 053e
00000050: 2fe3 133e 790d 96bd 0651 393c f56e afbc
00000060: ccd1 a8bc 8654 b63c 306f 613c 47a3 f53d
00000070: 5fc8 0e3d ca4c 9f3d 1dec 713e 131b 4f3e
