save/2-4_rnn_sp_60.pt (torch, 12937 bytes, 6 tensors)

emb_layer.weight f4 [60, 16]
0.0 0.0 0.0 0.0 0.0 0.0 0.0 0.0
0.0 0.0 0.0 0.0 0.0 0.0 0.0 0.0
0.28442314 -0.34984624 1.1293029 1.3533555 -1.3920745 0.39216733 -1.2336385 1.5494874
0.53709394 0.707591 -1.0416723 -3.1217322 0.40905973 0.1344007 -0.46758455 2.1714532
-1.7726138 0.9874406 1.3932413 -1.0778905 0.41569895 -2.5753264 -1.4269755 -0.15319222
-0.32563192 1.1910037 0.34383848 0.796311 1.5020119 1.1708521 0.30649793 -0.9958944
1.5863184 -0.43795314 -0.03469037 0.28359708 0.82349867 0.8053238 -0.61344767 -0.04092422
-0.85583085 0.6759109 -2.185819 -0.36304307 -1.1400133 -0.0066118636 -0.91343635 0.6959699
0.7387461 -0.2851003 2.5162513 0.06767204 -2.3016434 -0.20666172 0.3112542 -0.78870237
-0.8860234 0.9467891 1.7051023 0.32234862 -0.8192784 0.5906368 1.1488895 -0.23063628
1.1529335 -1.2236872 -0.074156485 -0.17047743 0.18741827 -1.2137749 -1.7856867 0.95352954
1.0063704 0.22130139 -0.63468224 -0.11914451 0.6549733 -0.8415872 0.91037923 -0.9056408
-0.8078612 2.7751546 -1.1830833 0.4391877 -0.23684776 -0.6590229 0.16199878 1.5138202
-0.5456584 0.052756783 0.45763788 0.04696264 0.2901351 -1.4328429 0.8109592 -0.3383977
-0.82770556 -0.96148676 -0.7975259 1.2345704 0.014269549 -0.85535145 0.035651844 -0.86108667
-1.1627544 -1.8135444 -0.70773125 0.49101266 0.29702434 0.7126153 0.5851987 -0.39826193
1.8955367 0.7997744 1.0822105 0.24500318 -1.4043742 0.9362659 0.7151023 0.32546005
-0.4233912 0.4730095 2.0581455 0.21528228 0.26380482 -1.1871942 -0.9792466 -1.2597668
1.278815 0.10532851 0.15639487 -0.07087634 -0.3393999 1.0737058 -0.2546599 0.6531759
0.5667017 -1.107649 0.3179345 -1.4851846 -0.9132213 0.4530741 -0.7345341 -0.9776676
-1.1901859 1.1130036 -1.5933399 -0.53852266 -1.6031541 -0.26897085 0.4551222 -0.29246902
-0.16802998 -0.84109217 -0.74510455 -0.46086484 0.31659275 0.85590345 -1.1385528 -0.5290444
0.2515431 -0.49354103 0.7521794 -0.36646742 -0.7871306 1.4672428 -0.28951192 0.029346574
-0.6976186 -0.74901414 1.1349478 -0.2899368 -0.8753322 -0.18556707 0.3382095 -1.5499724
-0.84587836 0.509992 0.4879592 0.84648615 1.1409267 1.1969818 0.9260547 1.3266115
-1.0043306 -1.2184781 -0.96948487 0.9572836 -1.3527368 -1.0058825 -1.3641332 0.15841646
0.8048877 -1.071818 -0.52005434 -0.16026227 -0.19175011 0.11754261 1.824089 -0.62216383
-1.7054411 -0.07441133 -0.97575575 -1.3333778 0.4016904 0.11398576 -0.94288284 0.82567596
-2.2372885 0.5222146 1.0654031 1.7882744 0.23605949 0.30855155 0.36375222 0.5677267
2.2128372 1.2434039 1.0898783 0.40943834 0.24308544 0.86402726 1.2040827 -0.8962515
0.28437498 -0.10487323 -1.5755978 -1.3042519 -0.40943003 -1.067228 -0.36143032 -0.5078617
1.058083 0.2325625 0.50842047 0.369479 1.2082494 -0.27757794 -0.7398296 -0.14434624
00000000: 0000 0000 0000 0000 0000 0000 0000 0000
00000010: 0000 0000 0000 0000 0000 0000 0000 0000
00000020: 0000 0000 0000 0000 0000 0000 0000 0000
00000030: 0000 0000 0000 0000 0000 0000 0000 0000
00000040: e99f 913e 0c1f b3be ff8c 903f c13a ad3f
00000050: 7f2f b2bf 28ca c83e dee7 9dbf 9a55 c63f
00000060: fd7e 093f af24 353f 8555 85bf 76ca 47c0
00000070: 4770 d13e 56a0 093e 3e67 efbe 17f9 0a40
00000080: 02e5 e2bf e8c8 7c3f bb55 b23f 51f8 89bf
00000090: 7ed6 d43e 26d2 24c0 22a7 b6bf 6cde 1cbe
000000a0: 3ab9 a6be cf72 983f 990b b03e 0adb 4b3f
000000b0: ed41 c03f 7bde 953f 4ced 9c3e eff2 7ebf
000000c0: 7b0c cb3f 653b e0be 7d17 0ebd a333 913e
000000d0: cfd0 523f b329 4e3f e80a 1dbf 28a0 27bd
000000e0: bb17 5bbf 7f08 2d3f 75e4 0bc0 c8e0 b9be
000000f0: f5eb 91bf 55a8 d8bb f7d6 69bf 152b 323f
00000100: 771e 3d3f abf8 91be 430a 2140 a397 8a3d
00000110: 204e 13c0 219f 53be b65c 9f3e 66e8 49bf
00000120: 6ed2 62bf c560 723f cb40 da3f e10a a53e
00000130: 3bbc 51bf f933 173f d00e 933f eb2b 6cbe
00000140: 5393 933f c8a1 9cbf 5bdf 97bd a391 2ebe
00000150: 93ea 3f3e fa5c 9bbf 6291 e4bf 831a 743f
00000160: bfd0 803f d59c 623e 897a 22bf 0902 f4bd
00000170: 55ac 273f 4272 57bf 9d0e 693f 13d8 67bf
00000180: fecf 4ebf 229c 3140 466f 97bf 36dd e03e
00000190: 3888 72be bab5 28bf 02e3 253e dcc4 c13f
000001a0: 45b0 0bbf 7f17 583d 834f ea3e e65b 403d
000001b0: 968c 943e 6567 b7bf 069b 4f3f 7742 adbe
000001c0: 83e4 53bf ff23 76bf a82a 4cbf 6706 9e3f
000001d0: d4ca 693c 50f8 5abf ab07 123d 2d70 5cbf
000001e0: 23d5 94bf 3922 e8bf e02d 35bf 0366 fb3e
000001f0: 9313 983e f56d 363f 95cf 153f fde8 cbbe
00000200: f2a0 f23f 04be 4c3f e085 8a3f 1de2 7a3e
00000210: 89c2 b3bf 1faf 6f3f f210 373f b3a2 a63e
00000220: bbc6 d8be 4d2e f23e a8b8 0340 f572 5c3e
00000230: 6d11 873e fbf5 97bf e8af 7abf 0a40 a1bf
00000240: 36b0 a33f 79b6 d73d fa25 203e 9d27 91bd
00000250: d3c5 adbe 316f 893f c862 82be 8936 273f
00000260: 5d13 113f 71c7 8dbf 50c8 a23e 871a bebf
00000270: dfc8 69bf 54f9 e73e 6d0a 3cbf 6d48 7abf
00000280: 0358 98bf e776 8e3f 90f2 cbbf 9fdc 09bf
00000290: 2734 cdbf 8cb6 89be c705 e93e 80be 95be
000002a0: 0d10 2cbe d151 57bf 2cbf 3ebf 7af6 ebbe
000002b0: 7218 a23e 7d1c 5b3f 19bc 91bf 746f 07bf
000002c0: 42ca 803e 69b1 fcbe d48e 403f 9ea1 bbbe
000002d0: 6481 49bf 9dce bb3f e83a 94be 3a68 f03c
000002e0: 2297 32bf 64bf 3fbf f845 913f 9972 94be
000002f0: c515 60bf 4b05 3ebe cc29 ad3e 7f65 c6bf
00000300: 7c8b 58bf d68e 023f cad5 f93e 51b3 583f
00000310: e309 923f b336 993f ec11 6d3f 68ce a93f
00000320: e88d 80bf 17f7 9bbf 2930 78bf 8a10 753f
00000330: 7b26 adbf c2c0 80bf eb9b aebf ed37 223e
00000340: 1f0d 4e3f 5531 89bf 4822 05bf cb1b 24be
00000350: 245a 44be 2eba f03d c07b e93f 2146 1fbf
00000360: e54b dabf f864 98bd 21cb 79bf 20ac aabf
00000370: 5daa cd3e 5e71 e93d c560 71bf 805f 533f
00000380: bc2f 0fc0 dbaf 053f 215f 883f 2de6 e43f
00000390: 94b9 713e 78fa 9d3e bb3d ba3e 8956 113f
000003a0: 209f 0d40 dc27 9f3f 2281 8b3f e7a1 d13e
000003b0: 64eb 783e e430 5d3f 621f 9a3f bd70 65bf
000003c0: 9999 913e c7c7 d6bd 30ad c9bf baf1 a6bf
000003d0: d0a0 d1be ed9a 88bf 650d b9be 3903 02bf
000003e0: 446f 873f dd24 6e3e d827 023f 5a2c bd3e
000003f0: eba7 9a3f b21e 8ebe 7965 3dbf 80cf 13be

rnn.weight_ih_l0 f4 [32, 16]
-0.05406744 0.07227638 -0.065641776 0.052815832 -0.080913216 0.017941618 -0.06698896 0.0829563
0.18567435 0.121817276 -0.16398138 -0.026502827 0.08698783 -0.0705229 -0.0571482 -0.009672317
-0.080708064 -0.10602471 -0.08380696 0.025722606 0.16899303 -0.14729507 -0.017320897 -0.00092827313
-0.0072338814 -0.12565081 0.0047522224 0.047718886 -0.08665036 -0.13381952 -0.023421362 0.08523662
-0.1416972 -0.06620677 -0.011977234 -0.20269288 -0.095108144 0.09961194 0.014605696 -0.10489708
-0.15453202 -0.1337947 0.16509351 0.13305837 -0.011117227 0.067452386 0.03587954 0.10121809
-0.14119361 -0.15370469 0.12436169 0.050073482 0.16360334 0.15489867 0.09642914 0.08428475
-0.04835055 -0.119804256 -0.17105295 -0.07385943 0.031426344 -0.16344896 0.12592398 -0.1457837
-0.18962301 0.0800794 0.051532306 -0.0019263094 -0.05797823 0.0810466 0.03492469 0.029752988
0.12071439 -0.12998606 0.010385334 0.1041964 0.17176956 -0.104290254 0.09130427 -0.003379497
-0.0748738 0.038380686 0.09639899 0.0688562 0.1236694 0.10701941 0.16230753 -0.12582779
-0.12981844 -0.02374657 0.035900638 -0.032623854 -0.051503643 -0.061379954 -0.106679246 0.07002428
-0.082567 0.16671477 -0.09253878 0.057195883 0.15266897 -0.05323598 0.1607711 -0.023557508
0.13386185 0.11975721 -0.0034801727 -0.11059528 0.103078686 -0.13229068 0.120260336 0.029057443
-0.14478935 0.04341869 -0.03073662 0.019124731 -0.16840632 0.06957707 -0.16089104 0.039754998
-0.025905386 0.021371428 0.14520288 0.14110695 0.09416827 0.08798459 0.14385363 -0.006506866
-0.014763005 -0.034854446 0.011589714 -0.06600168 0.16375634 0.041199703 -0.014206404 0.11789194
-0.18192697 -0.058284543 -0.17673823 -0.15530284 0.06944358 -0.17609909 -0.026849248 -0.07234392
0.11988643 0.104744144 0.021271598 -0.055725895 0.16023709 -0.06270206 0.060770944 0.05539095
0.0030578598 -0.12512581 -0.033433903 0.14949133 0.17463787 -0.043659773 0.10119779 -0.04421348
0.05376352 0.058548495 -0.12390145 -0.0779868 -0.11925037 -0.13847625 -0.09698672 0.17159379
-0.051464032 0.13796458 0.12726443 -0.07451691 0.08617195 -0.0746108 0.03132079 0.020401055
-0.086478196 0.12806833 0.007876361 -0.055463362 -0.08192016 -0.010673199 0.014231055 0.09004619
-0.014769006 -0.1737997 0.03753006 0.028067293 0.14223066 -0.022398014 -0.0896737 -0.14109573
-0.08287626 0.04938059 -0.0038830736 -0.14460698 -0.11865421 -0.016902832 0.05336829 -0.13350125
-0.10176526 -0.13517593 0.0043010246 -0.111803845 -0.11126316 -0.15046231 0.08761212 0.011511637
-0.04623208 0.0009247149 -0.06575432 -0.14224553 -0.018853346 0.16703106 -0.010091862 -0.03731925
0.03989337 -0.09630822 -0.20951445 0.020961458 -0.04757038 0.088659495 0.12880418 0.19534333
0.017465094 -0.00046549263 0.054303344 -0.10365324 0.012468306 0.09599996 -0.0022707845 -0.1491246
-0.049942717 -0.088702984 -0.12453687 -0.17801282 0.016107352 0.058273952 -0.07998995 -0.030039605
-0.19741109 0.06775574 -0.10756592 -0.119488895 -0.026743298 -0.076995 0.16977346 0.13368334
-0.008658418 0.15167864 -0.12956531 0.11661007 0.15069963 0.0028311645 -0.0550468 0.05397307
00000000: d275 5dbd a405 943d 326f 86bd 6a55 583d
00000010: d4b5 a5bd 4dfa 923c 8231 89bd fee4 a93d
00000020: 6b21 3e3e 567b f93d bcea 27be 751c d9bc
00000030: ad26 b23d 4f6e 90bd 3b14 6abd a378 1ebc
00000040: 454a a5bd 7c23 d9bd fca2 abbd 37b8 d23c
00000050: 820c 2d3e 85d4 16be 8ee4 8dbc 5b57 73ba
00000060: 320a edbb 9baa 00be 88b8 9b3b e174 433d
00000070: be75 b1bd fc07 09be 28de bfbc 8990 ae3d
00000080: 1219 11be 6a97 87bd 293c 44bc b98e 4fbe
00000090: 0fc8 c2bd 5801 cc3d bb4c 6f3c 48d4 d6bd
000000a0: a43d 1ebe 7a01 09be 460e 293e 7440 083e
000000b0: 0825 36bc 7a24 8a3d 6df6 123d 6e4b cf3d
000000c0: 0f95 10be c364 1dbe 57b1 fe3d da19 4d3d
000000d0: a287 273e c29d 1e3e a47c c53d 7c9d ac3d
000000e0: 3a0b 46bd ef5b f5bd 8128 2fbe 9d43 97bd
000000f0: e9b8 003d 2a5f 27be 37f2 003e 5248 15be
00000100: 892c 42be ab00 a43d 8a13 533d 387c fcba
00000110: 957a 6dbd c3fb a53d 310d 0f3d 8abc f33c
00000120: 1b39 f73d 111b 05be 3f27 2a3c ec64 d53d
00000130: 5ce4 2f3e 2196 d5bd bcfd ba3d 8d7a 5dbb
00000140: 6f57 99bd 1135 1d3d d56c c53d 7b04 8d3d
00000150: 6246 fd3d fe2c db3d f233 263e 00d9 00be
00000160: 20ef 04be 2b88 c2bc 8c0c 133d 97a0 05bd
00000170: 7cf5 52bd 8c69 7bbd a67a dabd e468 8f3d
00000180: e318 a9bd 47b7 2a3e f984 bdbd 3b46 6a3d
00000190: 4155 1c3e f90d 5abd 2ea1 243e adfb c0bc
000001a0: 1513 093e 4543 f53d 9c13 64bb c77f e2bd
000001b0: eb1a d33d 3577 07be 0d4b f63d e009 ee3c
000001c0: a943 14be ccd7 313d 5dcb fbbc 78ab 9c3c
000001d0: b572 2cbe 6c7e 8e3d 9fc0 24be 23d6 223d
000001e0: 8837 d4bc 2213 af3c 10b0 143e 577e 103e
000001f0: 4bdb c03d 4431 b43d 5e4e 133e 8c37 d5bb
00000200: 88e0 71bc 89c3 0ebd c9e2 3d3c e42b 87bd
00000210: beaf 273e 05c1 283d fac1 68bc 5471 f13d
00000220: 104b 3abe c6bb 6ebd defa 34be b507 1fbe
00000230: 7038 8e3d 5253 34be f4f2 dbbc 0d29 94bd
00000240: 0487 f53d 1984 d63d c641 ae3c d640 64bd
00000250: 3115 243e f069 80bd f4ea 783d 9fe1 623d
00000260: 6066 483b fb20 00be fdf1 08bd 4114 193e
00000270: 45d4 323e 97d4 32bd c940 cf3d 3219 35bd
00000280: 2337 5c3d 8cd0 6f3d 0bc0 fdbd 8bb7 9fbd
00000290: 8a39 f4bd b8cc 0dbe f9a0 c6bd 48b6 2f3e
000002a0: f3cb 52bd 9646 0d3e 9b51 023e 529c 98bd
000002b0: eb7a b03d 8ccd 98bd 3b4a 003d 1d20 a73c
000002c0: 7b1b b1bd 5824 033e da0b 013c 8d2d 63bd
000002d0: c2c5 a7bd a4de 2ebc 5f29 693c 236a b83d
000002e0: b3f9 71bc 8cf8 31be 1fb9 193d 61ed e53c
000002f0: eaa4 113e 0a7c b7bc d8a6 b7bd 667b 10be
00000300: 07bb a9bd 4d43 4a3d 2a7b 7ebb da13 14be
00000310: fa00 f3bd cf77 8abc b598 5a3d 8db4 08be
00000320: 4e6a d0bd 8f6b 0abe 9cef 8c3b 6af9 e4bd
00000330: f1dd e3bd cb12 1abe fc6d b33d 4e9b 3c3c
00000340: d95d 3dbd 9168 723a 33aa 86bd d0a8 11be
00000350: 5572 9abc 310a 2b3e 5658 25bc 12dc 18bd
00000360: 3b67 233d 3e3d c5bd f58a 56be 5db7 ab3c
00000370: 29d9 42bd 1c93 b53d 3ee5 033e 1508 483e
00000380: f512 8f3c 5d0d f4b9 2f6d 5e3d 2648 d4bd
00000390: de47 4c3c a19b c43d 71d1 14bb 1fb4 18be
000003a0: bc90 4cbd e9a9 b5bd 300d ffbd fe48 36be
000003b0: 91f3 833c abb0 6e3d c5d1 a3bd 9e15 f6bc
000003c0: 2226 4abe 85c3 8a3d 854b dcbd 98b6 f4bd
000003d0: c314 dbbc 8eaf 9dbd 18d9 2d3e 49e4 083e
000003e0: 0adc 0dbc a551 1b3e c5ac 04be 43d1 ee3d
000003f0: 0151 1a3e 0f8b 393b c178 61bd de12 5d3d

rnn.weight_hh_l0 f4 [32, 32]
0.0969926 -0.0966433 0.16999273 0.09058125 -0.09604721 -0.095248014 0.16156149 -0.038555853
-0.039799433 -0.034213077 -0.093601696 -0.10837401 0.029505504 -0.043078996 -0.005779466 0.18435034
-0.110090904 -0.08789074 -0.039535202 -0.1555694 -0.026312986 -0.04660994 -0.17602968 -0.054975532
-0.0502823 -0.029988514 0.15395455 0.06474075 0.068144776 0.09915141 -0.14148325 0.0071952385
0.102680445 0.16784827 0.012490318 0.14684871 0.086392336 0.1522104 -0.06469212 -0.07321695
-0.025312902 0.088160016 0.05740061 0.15242597 -0.118726514 -0.040367972 -0.11812559 0.04072411
0.13322604 -0.046765562 0.07834743 0.04688956 -0.11625439 0.117846124 -0.14068365 -0.002076959
0.012495666 -0.0035335391 0.023418821 0.12547219 0.08882292 0.08734847 -0.10173801 -0.042749472
0.072848335 -0.068275556 0.1800081 -0.039553657 -0.051746316 0.012060251 -0.18109383 -0.14527172
0.13113503 -0.033291385 0.118758604 0.15022434 -0.15750982 0.17843656 -0.14686224 0.14338566
-0.060504343 0.04648763 0.14436872 0.06709915 0.12283584 0.04348396 0.014974155 -0.08568369
-0.06752386 0.047279134 -0.14975405 -0.0322664 -0.025765466 0.120434836 0.033641703 -0.15932012
-0.16288705 -0.1587849 -0.11676521 0.138152 0.13370599 0.17359908 -0.11830014 0.09376161
-0.068962686 0.141755 -0.1868856 -0.121067144 -0.074123725 -0.014454197 -0.045841835 -0.0046006883
-0.04956552 0.1396571 0.07426747 0.06742362 0.0928014 -0.013825469 -0.10070362 -0.13940331
0.040250372 0.11864578 -0.18936695 0.1408357 -0.13330983 0.14842087 0.11218456 -0.16921556
0.09643303 0.0060609435 -0.09595885 0.16974138 -0.012221274 -0.118990034 0.1037326 0.05066937
-0.052936662 -0.012111464 0.16663654 -0.05910599 0.14175302 0.027312614 0.07475001 0.09192652
-0.16694151 -0.089886196 -0.061844274 -0.15364748 0.056963794 -0.094768986 -0.08530827 -0.06489316
-0.13222946 -0.026011918 0.15254936 -0.07665437 0.04029406 0.12774137 -0.0042085988 0.041443106
0.118589945 0.03249366 -0.12623313 -0.06936978 -0.09305939 -0.069881916 -0.16003715 -0.004235209
-0.0903925 -0.059443694 0.08537371 -0.16576996 0.0628874 -0.16139728 -0.111392595 0.01237454
0.14786388 0.056071997 -0.13774931 -0.076880716 -0.07461543 0.09610597 -0.06525873 -0.11336748
0.044314723 -0.03932207 0.08093826 -0.13076401 -0.0073171505 0.005603563 -0.10610388 -0.06302121
-0.12383286 -0.050628956 0.16416594 -0.0018713404 0.07444209 0.0148347365 -0.09284106 0.105696574
-0.07676922 0.02148937 0.051897496 0.044554647 -0.023837246 0.16652659 -0.05798945 -0.08150824
-0.099865355 -0.01011811 -0.13808346 -0.13685583 -0.041875325 0.091943115 0.034259766 0.139213
0.16149282 -0.028170958 0.05124923 0.092072286 -0.16727597 -0.15668169 0.012779265 0.058087483
0.14387256 -0.049825035 0.120672375 0.09976233 0.04779938 -0.10811796 0.09210504 -0.060014714
-0.109694675 -0.05648632 0.019268917 -0.04678084 -0.06415023 -0.07565068 0.066790245 0.009775733
0.04600402 -0.07996132 0.01817627 -0.08855207 0.15589607 -0.14075385 0.030964559 0.04384012
-0.14648241 -0.1034627 -0.015040916 -0.14483634 0.111598305 -0.001874896 0.119976476 -0.06589157
00000000: 0ea4 c63d ecec c5bd 9312 2e3e aa82 b93d
00000010: 66b4 c4bd 6411 c3bd 6070 253e beec 1dbd
00000020: bb04 23bd 0323 0cbd 3fb2 bfbd 31f3 ddbd
00000030: 87b5 f13c 9a73 30bd ad61 bdbb 56c6 3c3e
00000040: 5777 e1bd 0f00 b4bd aaef 21bd 964d 1fbe
00000050: 558e d7bc 10ea 3ebd 2041 34be 062e 61bd
00000060: d0f4 4dbd 79aa f5bc 43a6 1d3e cc96 843d
00000070: 7d8f 8b3d e50f cb3d fce0 10be 09c6 eb3b
00000080: 204a d23d 6be0 2b3e 31a4 4c3c 825f 163e
00000090: 77ee b03d 0bdd 1b3e 4d7d 84bd c5f2 95bd
000000a0: 015d cfbc 3d8d b43d e71c 6b3d 8e15 1c3e
000000b0: e326 f3bd e358 25bd d4eb f1bd 53ce 263d
000000c0: 686c 083e 3f8d 3fbd 9e74 a03d 440f 403d
000000d0: c816 eebd 4f59 f13d 600f 10be 971d 08bb
000000e0: 9fba 4c3c f392 67bb d4d8 bf3c c87b 003e
000000f0: cbe8 b53d c1e3 b23d 055c d0bd 121a 2fbd
00000100: 8231 953d 0ed4 8bbd 0b54 383e 0403 22bd
00000110: f2f3 53bd 5c98 453c a970 39be 1cc2 14be
00000120: 4348 063e 8c5c 08bd b637 f33d 69d4 193e
00000130: 414a 21be 13b8 363e 0e63 16be b1d3 123e
00000140: 67d3 77bd d069 3e3d 65d5 133e 476b 893d
00000150: 5b91 fb3d 3d1c 323d 2956 753c ee7a afbd
00000160: f349 8abd c4a7 413d 2059 19be c629 04bd
00000170: 1912 d3bc 8aa6 f63d e2cb 093d d024 23be
00000180: ddcb 26be 8298 22be 9922 efbd b877 0d3e
00000190: 39ea 083e f5c3 313e 5847 f2bd 1606 c03d
000001a0: 4f3c 8dbd 3928 113e f05e 3fbe 0df2 f7bd
000001b0: 2ece 97bd 4cd1 6cbc a6c4 3bbd 5fc1 96bb
000001c0: 3705 4bbd 4502 0f3e 8b19 983d 6515 8a3d
000001d0: a90e be3d 3884 62bc b33d cebd bebf 0ebe
000001e0: 93dd 243d 8ffc f23d 69e9 41be 3c37 103e
000001f0: 5f82 08be a4fb 173e 05c1 e53d d846 2dbe
00000200: ae7e c53d e19a c63b 1386 c4bd afd0 2d3e
00000210: bd3b 48bc 0cb1 f3bd c271 d43d af8a 4f3d
00000220: 1dd4 58bd 296f 46bc c5a2 2a3e 1f19 72bd
00000230: b427 113e b4be df3c 8916 993d f943 bc3d
00000240: b7f2 2abe 4116 b8bd 6c50 7dbd c455 1dbe
00000250: de52 693d 3e16 c2bd 1ab6 aebd b4e6 84bd
00000260: 2967 07be f216 d5bc e635 1c3e f7fc 9cbd
00000270: 620b 253d a2ce 023e 49e8 89bb 3fc0 293d
00000280: 49df f23d 1218 053d 4243 01be be11 8ebd
00000290: ec95 bebd 401e 8fbd c7e0 23be 82c7 8abb
000002a0: b41f b9bd 3b7b 73bd 69d8 ae3d 9abf 29be
000002b0: 1ccb 803d 5445 25be cd21 e4bd 95be 4a3c
000002c0: a169 173e c0ab 653d 280e 0dbe a373 9dbd
000002d0: f9cf 98bd 35d3 c43d 5ea6 85bd 362d e8bd
000002e0: 5b83 353d 2e10 21bd f5c2 a53d 00e7 05be
000002f0: b5c4 efbb 189e b73b fe4c d9bd 4411 81bd
00000300: 159c fdbd 4f60 4fbd 1e1b 283e c447 f5ba
00000310: 1875 983d 650d 733c 7423 bebd 7277 d83d
00000320: 2e39 9dbd 7a0a b03c 7892 543d ef7e 363d
00000330: 5446 c3bc f285 2a3e 5886 6dbd cbed a6bd
00000340: 3586 ccbd 6ec6 25bc c065 0dbe ef23 0cbe
00000350: 7685 2bbd ac4c bc3d f853 0c3d da8d 0e3e
00000360: 605e 253e c8c6 e6bc b6ea 513d 6590 bc3d
00000370: 644a 2bbe 2a71 20be 1f60 513c 24ed 6d3d
00000380: 5453 133e 5615 4cbd 1423 f73d 3150 cc3d
00000390: 48c9 433d f36c ddbd 91a1 bc3d fdd1 75bd
000003a0: 9aa7 e0bd 335e 67bd d9d9 9d3c 449d 3fbd
000003b0: 3261 83bd beee 9abd 53c9 883d 652a 203c
000003c0: b66e 3c3d c3c2 a3bd 67e6 943c ca5a b5bd
000003d0: 38a3 1f3e c721 10be 63a9 fd3c b391 333d
000003e0: 7cff 15be 41e4 d3bd 2d6e 76bc fa4f 14be
000003f0: a78d e43d 12bf f5ba 3ab6 f53d 29f2 86bd

rnn.bias_ih_l0 f4 [32]
0.07788706 -0.10416318 -0.1195872 0.13518557 0.004403403 -0.12934741 0.08435714 -0.048031047
0.18257965 0.08305317 -0.13540432 0.10281238 0.04604223 -0.06736537 -0.05587382 0.05263699
0.15812752 -0.10287874 -0.1573573 -0.020004142 -0.16366091 0.058148067 -0.14380716 0.07924545
0.031530306 0.034945257 -0.1463844 0.020930456 0.09694195 -0.067259185 -0.09704325 0.09581702
00000000: 4083 9f3d 8153 d5bd 22ea f4bd 166e 0a3e
00000010: 6c4a 903b a673 04be 70c3 ac3d 34bc 44bd
00000020: 29f6 3a3e c817 aa3d 6ea7 0abe 4c8f d23d
00000030: c796 3c3d dbf6 89bd f2db 64bd e299 573d
00000040: 2eec 213e 17b2 d2bd 4622 21be badf a3bc
00000050: ba96 27be ab2c 6e3d 2f42 13be 704b a23d
00000060: ec25 013d c222 0f3d cbe5 15be 5976 ab3c
00000070: 8089 c63d 2fbf 89bd 9dbe c6bd b73b c43d

rnn.bias_hh_l0 f4 [32]
-0.08263358 -0.10296205 -0.08638662 -0.11543024 0.15068102 -0.10349063 0.14547817 0.045548752
-0.122890815 -0.06457504 0.053971067 0.00054481375 -0.09447721 0.076747954 -0.14678955 0.169043
0.15108371 -0.032938894 -0.104464345 0.063467 -0.120404206 -0.18177138 -0.028235352 0.07472521
0.06346452 0.08574026 -0.02211238 0.034422293 0.039618075 -0.0660397 0.18501756 0.078732274
00000000: cb3b a9bd c4dd d2bd 78eb b0bd b166 ecbd
00000010: 204c 1a3e e5f2 d3bd 3bf8 143e 5491 3a3d
00000020: 2eae fbbd eb3f 84bd c410 5d3d d5d1 0e3a
00000030: 447d c1bd 082e 9d3d 0050 16be 9c19 2d3e
00000040: b0b5 1a3e efea 06bd 67f1 d5bd fdfa 813d
00000050: 7b96 f6bd 4722 3abe d34d e7bc 8809 993d
00000060: b0f9 813d 9798 af3d 0625 b5bc 64fe 0c3d
00000070: 9046 223d d23f 87bd 3e75 3d3e 633e a13d

classifier.weight f4 [1, 32]
0.06131296 0.15584628 -0.20162061 0.20954496 -0.0971264 -0.053224817 -0.17920214 -0.071048856
0.19558784 -0.0148931015 -0.15106134 -0.051358923 0.09402628 0.12470936 -0.04818845 -0.17742647
-0.09098747 -0.050120104 -0.23334852 -0.24500269 -0.12972888 -0.1755308 0.097466595 0.11526387
0.20321473 -0.13323629 -0.02129106 -0.18344557 -0.16387971 -0.27083144 0.13161562 0.032213673
00000000: 4c23 7b3d 2b96 1f3e a275 4ebe f492 563e
00000010: 35ea c6bd 4402 5abd c480 37be 1082 91bd
00000020: 2e48 483e 3202 74bc d3af 1abe bc5d 52bd
00000030: da90 c03d 9f67 ff3d 4161 45bd 49af 35be
00000040: a357 babd bd4a 4dbd eaf2 6ebe fce1 7abe
00000050: a6d7 04be 59be 33be 919c c73d 770f ec3d
00000060: 8617 503e 186f 08be 976a aebc 28d9 3bbe
00000070: 15d0 27be 6baa 8abe 3fc6 063e 7cf2 033d
