save/2-5_rnn_sp_60.pt (torch, 13065 bytes, 7 tensors)

emb_layer.weight f4 [60, 16]
0.0 0.0 0.0 0.0 0.0 0.0 0.0 0.0
0.0 0.0 0.0 0.0 0.0 0.0 0.0 0.0
0.26606885 -0.7203185 -0.016997768 0.19766699 0.0056336983 0.808611 0.9577563 -1.1746508
-1.7224451 -0.28515294 0.02380369 0.71730775 -0.16136977 0.34462014 -1.0462095 0.09102936
-0.025241176 -0.19410819 -0.035171658 -0.63082135 -0.96149695 0.6912763 -1.8193294 0.9388273
0.17360638 -0.25625804 0.7412824 -0.5321468 0.59353113 0.15008366 0.5499243 -1.1475347
0.14252114 1.8209405 0.5956406 -1.6090144 -2.2096307 1.0992641 0.41294843 0.06577899
0.93907213 -0.39503267 0.40965396 0.6413859 -1.3203447 1.2672788 1.9106381 -0.61703396
-1.9484364 1.0958315 0.20107022 0.8678991 0.080177255 -3.4222822 0.46990845 0.6878643
-0.5653986 1.25949 0.59127384 -0.068886355 -0.405575 2.0463483 1.3632954 -0.4477481
-0.5578178 -0.25320604 0.27480474 -0.58489585 0.30726022 0.8420205 0.76121575 -2.2157993
0.0009201385 0.8845884 -0.66547805 0.061566412 1.501343 -1.1011338 -0.85708225 0.21733138
-0.79538757 -0.044955853 -0.24863863 0.7750602 0.2300774 -2.8689752 1.2283789 0.7527034
-1.2565588 -0.07368896 -0.061270762 1.3160019 0.23625478 -0.76969355 0.80265504 -1.0152401
1.0358605 0.9603616 -0.94777185 0.79411423 -0.05587857 0.19368587 -2.0303447 -0.42537537
2.06592 -0.13762634 0.85098845 0.027790949 2.0584714 -0.6557713 -1.1406617 1.1242715
-1.4856035 0.49595115 -0.12107813 1.8083897 0.8679978 -0.4077595 -1.7036958 1.1033874
0.56432825 0.3950893 0.6821361 -1.9039552 0.2507663 1.2656358 0.34179372 0.15951152
1.1296172 -0.34360442 0.0682205 -0.79572016 1.1523808 -0.8850527 -0.79277617 -0.95310074
0.42991692 -0.35380477 0.82636946 0.75519586 0.59543765 0.33270305 0.4854054 0.9757092
0.9333477 -0.30844608 0.6211447 1.4801059 0.7618219 -0.85996616 -2.198292 0.78681844
-0.79932624 -0.5956556 0.38767713 -0.83599776 -0.6068814 -1.5206883 -1.3691614 0.09473461
0.5753308 0.14616556 -0.06815997 -1.1233495 0.9520928 -0.006686013 0.46381617 0.6178445
-0.5483463 0.33330703 0.7816509 -0.78943485 -1.5325397 1.5436932 0.2497937 0.8750788
0.57792795 0.77555794 0.34843928 0.47650295 -1.2461622 -1.2179697 0.8474751 1.4352425
-1.5021987 -0.21245164 0.8497126 -1.1070048 0.5403118 -0.2397118 1.1323763 -0.29001698
0.21817529 -0.22081737 -1.3491246 -0.91960603 0.05102366 1.8183776 0.7240369 -0.51265764
0.730117 -0.5230312 0.31053668 -1.402807 -0.03612419 0.6198238 1.6596005 -0.25461
-0.30356926 0.566082 -0.4384395 0.5801121 0.19578578 0.46444738 1.2179143 -0.7712263
0.058254126 -0.43928853 -0.29954395 -1.2124747 -0.8262649 1.3506343 -1.024982 -1.3963009
0.4397715 0.32207873 0.13173679 -1.8980012 -0.45960626 0.062119547 -0.13719375 0.19139056
0.28090784 0.36392218 0.60774124 -0.22573794 0.48602742 -0.9745468 0.8442448 0.5476329
00000000: 0000 0000 0000 0000 0000 0000 0000 0000
00000010: 0000 0000 0000 0000 0000 0000 0000 0000
00000020: 0000 0000 0000 0000 0000 0000 0000 0000
00000030: 0000 0000 0000 0000 0000 0000 0000 0000
00000040: 2d3a 883e cb66 38bf e73e 8bbc 3769 4a3e
00000050: e39a b83b 2101 4f3f 842f 753f f55a 96bf
00000060: 1579 dcbf 91ff 91be f5ff c23c 7ba1 373f
00000070: 1e3e 25be 0d72 b03e 31ea 85bf 9a6d ba3d
00000080: 95c6 cebc 4cc4 46be 2810 10bd 827d 21bf
00000090: aa24 76bf 7cf7 303f c9df e8bf fc56 703f
000000a0: dfc5 313e 4134 83be afc4 3d3f c63a 08bf
000000b0: a8f1 173f 88af 193e d7c7 0c3f 6be2 92bf
000000c0: 10f1 113e 9414 e93f e77b 183f 2ff4 cdbf
000000d0: 976a 0dc0 b0b4 8c3f fa6d d33e 23b7 863d
000000e0: 0867 703f b941 cabe 2abe d13e de31 243f
000000f0: 0e01 a9bf 3136 a23f ca8f f43f f0f5 1dbf
00000100: 5d66 f9bf 3544 8c3f 5ae5 4d3e a32e 5e3f
00000110: f933 a43d ac06 5bc0 d797 f03e e017 303f
00000120: f6bd 10bf f836 a13f b95d 173f 4a14 8dbd
00000130: 87a7 cfbe 5ff7 0240 7780 ae3f 3d3f e5be
00000140: 26cd 0ebf 39a4 81be 35b3 8c3e bcbb 15bf
00000150: 3651 9d3e a88e 573f 09df 423f a8cf 0dc0
00000160: 7335 713a 6374 623f c55c 2abf 102d 7c3d
00000170: 022c c03f f4f1 8cbf be69 5bbf 1e8c 5e3e
00000180: 859e 4bbf a123 38bd 209b 7ebe 586a 463f
00000190: 6999 6b3e 4a9d 37c0 853b 9d3f 2cb1 403f
000001a0: ebd6 a0bf 3dea 96bd 0df7 7abd c072 a83f
000001b0: c6ec 713e a30a 45bf cd7a 4d3f 63f3 81bf
000001c0: 1497 843f 42da 753f 2da1 72bf 124b 4b3f
000001d0: ede0 64bd 9755 463e 2bf1 01c0 cdca d9be
000001e0: 0938 0440 ebed 0cbe 61da 593f d8a9 e33c
000001f0: ffbd 0340 a1e0 27bf 3401 92bf 21e8 8f3f
00000200: 4128 bebf 4fed fd3e d0f7 f7bd 5079 e73f
00000210: 1b35 5e3f dac5 d0be b412 dabf cc3b 8d3f
00000220: d177 103f 2549 ca3e 79a0 2e3f ceb4 f3bf
00000230: 7164 803e 5b00 a23f 96ff ae3e fd56 233e
00000240: 4c97 903f ebec afbe 31b7 8b3d 51b4 4bbf
00000250: 3781 933f d092 62bf 61f3 4abf 69fe 73bf
00000260: 121e dc3e e625 b5be f38c 533f 8454 413f
00000270: 9a6e 183f 0e58 aa3e 0e87 f83e 14c8 793f
00000280: e0ef 6e3f a5ec 9dbe 5703 1f3f 1c74 bd3f
00000290: c306 433f be26 5cbf d1b0 0cc0 ef6c 493f
000002a0: a5a0 4cbf e37c 18bf 9e7d c63e f303 56bf
000002b0: 945c 1bbf eaa5 c2bf ae40 afbf 3804 c23d
000002c0: e148 133f 6dac 153e 7497 8bbd ebc9 8fbf
000002d0: 5bbc 733f 5816 dbbb 5079 ed3e 0f2b 1e3f
000002e0: 6c60 0cbf 38a7 aa3e 461a 483f 6718 4abf
000002f0: 432a c4bf bd97 c53f ebc9 7f3e 2a05 603f
00000300: 16f3 133f f78a 463f a266 b23e 32f8 f33e
00000310: 3e82 9fbf 6ee6 9bbf 21f4 583f 07b6 b73f
00000320: 0c48 c0bf ec8c 59be c486 593f 55b2 8dbf
00000330: e051 0a3f 0377 75be b5f1 903f 1b7d 94be
00000340: 5869 5f3e f31d 62be 1db0 acbf 4d6b 6bbf
00000350: 2ffe 503d 99c0 e83f 7b5a 393f 883d 03bf
00000360: f3e8 3a3f 5fe5 05bf aafe 9e3e 2e8f b3bf
00000370: f5f6 13bd c6ac 1e3f ca6d d43f 3e5c 82be
00000380: 6e6d 9bbe c0ea 103f 247b e0be 3a82 143f
00000390: 117c 483e 0ccc ed3e 9ee4 9b3f 166f 45bf
000003a0: e19b 6e3d 6dea e0be d35d 99be 5f32 9bbf
000003b0: 1986 53bf 96e1 ac3f 9c32 83bf fdb9 b2bf
000003c0: bb29 e13e 81e7 a43e 02e6 063e b4f1 f2bf
000003d0: 8351 ebbe 1171 7e3d 857c 0cbe e3fb 433e
000003e0: 27d3 8f3e 0254 ba3e ee94 1b3f d927 67be
000003f0: 96d8 f83e e67b 79bf 6d20 583f ab31 0c3f

rnn.weight_ih_l0 f4 [32, 16]
0.1300259 0.03299256 -0.14632411 0.07772054 0.053252727 0.08834211 -0.060174733 -0.053212203
0.1080653 -0.12386646 -0.013213761 0.10090735 0.0150294425 -0.09494525 0.13512993 -0.12393114
0.16682927 -0.01358127 -0.06235868 -0.15796094 -0.051300474 0.104033396 0.006149701 0.13449736
0.1830713 -0.12755997 0.025184324 0.12789346 0.14722978 0.10838851 0.034229223 -0.16003326
-0.030102344 0.09086832 -0.08768426 -0.030092163 0.058496375 -0.07276275 0.11983567 0.04070853
0.031083865 0.13337147 0.13949859 0.042220984 0.058151335 0.2029156 -0.08606213 -0.12435567
0.16970202 -0.16078518 -0.09825605 -0.05746038 0.02427945 -0.024659961 -0.15463957 -0.06839414
-0.06585039 0.16949494 0.16984846 -0.12226622 0.025051685 0.0574167 0.07741583 0.0023673573
0.11785372 0.07108572 0.13101159 -0.11938405 -0.17164221 0.053269483 -0.14082421 -0.08234149
0.1832799 0.038233593 -0.022794185 -0.12512094 0.07348617 0.13936888 -0.014595218 0.11289077
0.0922335 0.029640896 -0.04426019 0.011782003 0.15350612 0.11487988 0.12436772 0.16285247
0.1169839 0.095470995 0.13232061 -0.14806579 -0.0022138422 -0.08043097 -0.08461725 0.105323695
-0.038528133 0.069108255 0.016851788 0.0093876 -0.18257487 -0.13985394 0.18216802 0.18254088
-0.06883222 0.16667488 -0.051025707 0.049954902 0.06887246 -0.018349633 0.14741875 -0.04953436
-0.032281663 -0.06411558 0.10809253 0.036458157 -0.10358892 -0.12623422 -0.16199192 0.02406788
0.10035668 0.055443585 0.12570855 -0.18157877 -0.06243009 -0.097231984 0.13936141 0.03633786
0.089408904 -0.04074175 0.1076063 -0.12998278 0.11467951 -0.12767874 0.07977008 -0.11260513
0.06925494 0.15691395 0.112918675 -0.14163645 -0.12679143 0.19001015 0.0015865379 -0.13078317
0.002579411 -0.051950216 -0.12989336 0.15033288 0.04407195 -0.06380836 -0.0018527481 -0.011703265
-0.11817753 0.12921019 -0.15859751 -0.006786435 0.01008089 0.15996939 -0.06803788 0.1787924
-0.080822304 0.021957722 0.13716486 0.088710405 0.10375943 0.034249067 -0.14804149 0.1285843
0.044475846 0.031838987 0.062891476 -0.021432938 0.11799534 -0.12887685 0.15279919 -0.15674624
0.07433596 -0.04525383 -0.05017336 -0.10696382 -0.020620886 0.024016973 -0.06885621 -0.08045757
0.00496011 0.10507918 0.10851804 0.007124262 -0.11801566 -0.06108632 0.054521 -0.13115932
0.07702809 0.0998954 -0.10391158 0.01716525 -0.06805089 -0.017507814 -0.11248251 0.06573966
0.084024176 -0.15156792 0.084441826 -0.16415754 0.049515385 -0.18425626 -0.10189575 -0.07624279
-0.03578515 0.16883205 0.12853582 0.056873128 0.025352962 -0.01437447 0.04724465 -0.14413302
-0.10372108 -0.10519465 -0.08750012 0.092195876 -0.01402273 0.13422251 0.19688033 -0.16570982
0.0868021 -0.1361947 -0.08588864 -0.14478444 -0.016888997 0.0110182725 -0.1769921 0.11638383
-0.05146914 0.07095716 -0.05994851 -0.0670896 -0.11093869 0.09341194 -0.00356822 0.087788664
0.0382095 -0.0034449156 0.040554177 -0.008679602 -0.023228614 -0.055383097 -0.16154657 -0.026168996
-0.054703794 -0.13865037 0.03270376 0.1359403 0.07195802 -0.12034931 -0.069586806 0.15867321
00000000: 8225 053e 3523 073d fdd5 15be f22b 9f3d
00000010: 881f 5a3d b5ec b43d c879 76bd 0af5 59bd
00000020: 5751 dd3d b3ad fdbd 887e 58bc 83a8 ce3d
00000030: 0d3e 763c a872 c2bd 805f 0a3e 9ccf fdbd
00000040: 4bd5 2a3e fa83 5ebc d16b 7fbd 83c0 21be
00000050: 7220 52bd 760f d53d 6e83 c93b adb9 093e
00000060: 0b77 3b3e 159f 02be 5b4f ce3c 81f6 023e
00000070: 67c3 163e ccfa dd3d f133 0c3d c2df 23be
00000080: 3199 f6bc 2b19 ba3d ce93 b3bd d783 f6bc
00000090: e599 6f3d a304 95bd 676c f53d fdbd 263d
000000a0: 97a3 fe3c 8892 083e b8d8 0e3e e9ef 2c3d
000000b0: 1830 6e3d 1bc9 4f3e 5841 b0bd 2fae febd
000000c0: 5ec6 2d3e dfa4 24be 783a c9bd 935b 6bbd
000000d0: b2e5 c63c b003 cabc d659 1ebe 3a12 8cbd
000000e0: 92dc 86bd 1590 2d3e c1ec 2d3e b666 fabd
000000f0: 3139 cd3c c62d 6b3d 318c 9e3d aa25 1b3b
00000100: 4b5d f13d 6495 913d e727 063e a07f f4bd
00000110: fac2 2fbe 1a31 5a3d 3934 10be a8a2 a8bd
00000120: baad 3b3e d49a 1c3d dfba babc b41f 00be
00000130: eb7f 963d b7b6 0e3e c820 6fbc 4733 e73d
00000140: ebe4 bc3d 77d1 f23c 2c4a 35bd 4d09 413c
00000150: b530 1d3e 2446 eb3d 81b4 fe3d ccc2 263e
00000160: 4195 ef3d 4c86 c33d 0e7f 073e 8f9e 17be
00000170: 1c16 11bb feb8 a4bd cf4b adbd f3b3 d73d
00000180: adcf 1dbd a188 8d3d c30c 8a3c 73ce 193c
00000190: e8f4 3abe df35 0fbe 418a 3a3e ffeb 3a3e
000001a0: e8f7 8cbd d2ac 2a3e 5500 51bd 839d 4c3d
000001b0: 010d 8d3d f851 96bc f1f4 163e 8be4 4abd
000001c0: c739 04bd 074f 83bd 9e5f dd3d 2655 153d
000001d0: 6d26 d4bd 8b43 01be 36e1 25be 012a c53c
000001e0: ce87 cd3d d018 633d beb9 003e c9ef 39be
000001f0: b2b6 7fbd 9021 c7bd c2b4 0e3e 02d7 143d
00000200: 041c b73d d2e0 26bd b160 dc3d 351a 05be
00000210: 17dd ea3d 37be 02be 7f5e a33d 859d e6bd
00000220: 89d5 8d3d 0dae 203e e841 e73d 2509 11be
00000230: 9dd5 01be 0592 423e 61f3 cf3a 06ec 05be
00000240: 560b 293b c0c9 54bd c402 05be ddf0 193e
00000250: ca84 343d f5ad 82bd e9d7 f2ba 0dbf 3fbc
00000260: 1007 f2bd ad4f 043e 6367 22be be60 debb
00000270: 512a 253c 04cf 233e 7257 8bbd 5b15 373e
00000280: 2a86 a5bd aee0 b33c f274 0c3e cdad b53d
00000290: d37f d43d c048 0c3d 3098 17be 9aab 033e
000002a0: 4e2c 363d 9969 023d 3fcd 803d 2194 afbc
000002b0: 8aa7 f13d 4bf8 03be 6477 1c3e 1682 20be
000002c0: 743d 983d 145c 39bd 9582 4dbd d90f dbbd
000002d0: 22ed a8bc 3ebf c43c 7c04 8dbd f0c6 a4bd
000002e0: 6b88 a23b c133 d73d b53e de3d a472 e93b
000002f0: 32b2 f1bd a635 7abd 6951 5f3d a14e 06be
00000300: e7c0 9d3d f695 cc3d 98cf d4bd 239e 8c3c
00000310: 445e 8bbd 8c6c 8fbc 3b5d e6bd 84a2 863d
00000320: de14 ac3d 9f34 1bbe d6ef ac3d ea18 28be
00000330: a5d0 4a3d acad 3cbe b8ae d0bd 2e25 9cbd
00000340: 7393 12bd 4fe2 2c3e e59e 033e ccf3 683d
00000350: 04b1 cf3c e682 6bbc 9b83 413d 9b97 13be
00000360: b86b d4bd 4b70 d7bd 4333 b3bd 31d1 bc3d
00000370: 98bf 65bc a071 093e ff9a 493e d6af 29be
00000380: 4dc5 b13d a076 0bbe 62e6 afbd 5f42 14be
00000390: cb5a 8abc fc85 343c 6b3d 35be a55a ee3d
000003a0: 4ed1 52bd fd51 913d 928c 75bd 4666 89bd
000003b0: d333 e3bd c24e bf3d ccd8 69bb 8bca b33d
000003c0: 9181 1c3d 18c4 61bb 231c 263d e434 0ebc
000003d0: ef49 bebc 63d9 62bd 776c 25be 5d60 d6bc
000003e0: 1611 60bd 5dfa 0dbe 61f4 053d ef33 0b3e
000003f0: ba5e 933d b379 f6bd 8783 8ebd 3b7b 223e

rnn.weight_hh_l0 f4 [32, 32]
0.16350336 -0.12198288 -0.031856634 0.00572961 -0.119105905 -0.029851105 -0.078059584 0.12131142
-0.10929586 -0.010645965 0.15676379 0.11488673 0.15060972 -0.15869503 -0.08807407 0.10909957
-0.114248134 -0.14815919 0.10895249 0.085240334 0.06628027 -0.06889978 0.021091694 -0.16300587
0.080129944 0.02435369 0.10525132 0.1728254 0.117828496 -0.1608007 -0.014841909 0.16692924
0.08314486 0.09888824 -0.08263086 -0.040030353 0.17805986 0.14222161 -0.063517325 -0.0622442
-0.15821232 -0.14254943 -0.0986629 -0.00035327266 0.17091362 0.13722569 -0.14865755 0.00864072
0.1185093 -0.16155201 0.04901946 0.014425101 -0.16372836 -0.17669001 -0.08648475 0.040033676
0.1266023 0.15971993 0.1434623 -0.037461888 -0.1423644 -0.00056942145 -0.14032976 -0.02577029
-0.065361224 -0.16517371 0.030681854 -0.1366542 -0.042229533 0.09939123 -0.16846395 0.15255593
-0.048346505 0.16093905 0.13513201 0.01688551 0.024959905 0.0074969293 -0.0067669842 -0.14096372
0.103200674 0.14904773 -0.08185578 -0.023014178 0.0492881 0.06967793 -0.05269652 -0.020572597
0.012742289 0.10917056 0.1530379 -0.017471073 -0.14440924 -0.035955973 -0.052894175 0.07923261
0.18348968 0.014597264 0.007880186 0.028968489 0.018536635 -0.1314814 0.004418113 -0.0032721143
-0.16992058 -0.17401554 -0.16686888 -0.12632824 0.17418951 0.014707695 0.051748324 0.011021249
-0.076257765 0.0043504657 -0.11922468 0.098101616 -0.16369955 -0.1346442 -0.042658117 -0.14827736
0.15698758 -0.025204122 -0.031580828 -0.014416369 0.015795562 -0.08904909 -0.13648857 -0.11272336
-0.10327455 0.12054282 0.0762943 0.13263342 -0.16488591 -0.116267994 -0.036838427 -0.0685487
0.15220805 -0.16689113 0.026847176 0.06997898 -0.1734496 0.14009164 -0.06926684 0.17210716
0.07128647 -0.026585286 0.019233495 -0.10681723 -0.1691574 -0.0005182526 -0.065648235 0.11418463
-0.098625325 -0.114515595 0.17814448 -0.10012387 0.1195394 0.019826772 -0.16387932 0.044918682
-0.085065976 0.042218644 0.12528169 0.09129854 0.018890483 -0.015074266 0.041978706 0.17008817
0.13092127 0.15732852 0.069522046 -0.06725885 0.022141578 0.032475196 0.10390929 -0.16716498
0.17203853 0.14452866 0.105576 0.14512727 0.17660844 -0.16215739 -0.09817989 -0.036397938
0.05138428 -0.030357592 -0.120438255 -0.16869582 0.11595289 -0.17879103 0.14949216 -0.14584945
0.09346715 0.12825759 -0.103522725 -0.12604485 0.07653753 0.14792825 -0.13398038 -0.10728871
-0.099915415 -0.00092392106 -0.077514686 -0.04698082 -0.09269325 0.11275444 0.16994889 0.16277538
-0.09791319 -0.1534531 0.0587176 0.03787252 0.018868137 -0.08703695 0.11910893 0.10855133
-0.092015944 -0.07849351 -0.08700439 0.051298052 0.14426978 -0.016483007 -0.1647937 0.08168236
0.16079046 0.11021123 0.0082615595 -0.07261352 -0.07361645 -0.09466568 -0.121369876 0.15459535
0.16405115 0.061052505 -0.15429312 -0.048295632 -0.028371343 -0.017582254 0.08186439 3.4530098e-05
-0.08946292 0.008792882 0.12515363 -0.093890496 0.13080099 -0.022792796 -0.10107328 -0.05549964
-0.17647354 -0.009874793 0.079128824 -0.08205041 0.10390327 -0.042590532 -0.04644531 -0.14682777
00000000: 6d6d 273e 29d2 f9bd 1a7c 02bd 74bf bb3b
00000010: cced f3bd 4e8a f4bc b4dd 9fbd 1f72 f83d
00000020: 82d6 dfbd 6a6c 2ebc b086 203e bc49 eb3d
00000030: 6f39 1a3e f380 22be 2e60 b4bd 986f df3d
00000040: edfa e9bd 0bb7 17be 7c22 df3d 7c92 ae3d
00000050: f3bd 873d 541b 8dbd 7dc8 ac3c 03eb 26be
00000060: 2b1b a43d 6481 c73c 018e d73d 24f9 303e
00000070: 1150 f13d f0a8 24be 7a2b 73bc 80ef 2a3e
00000080: da47 aa3d eb85 ca3d 5e3a a9bd def6 23bd
00000090: 5355 363e 8ba2 113e 5f15 82bd c6f3 7ebd
000000a0: 6902 22be 7af8 11be c60f cabd 7437 b9b9
000000b0: fb03 2f3e e484 0c3e af39 18be ce91 0d3c
000000c0: 01b5 f23d e46d 25be a1c8 483d 4257 6c3c
000000d0: 68a8 27be 3aee 34be eb1e b1bd 5afa 233d
000000e0: 09a4 013e 9f8d 233e c8e7 123e a371 19bd
000000f0: f9c7 11be 3a45 15ba 9bb2 0fbe 371c d3bc
00000100: 1bdc 85bd 4c23 29be 8358 fb3c 14ef 0bbe
00000110: e0f8 2cbd a18d cb3d d081 2cbe 9f37 1c3e
00000120: fc06 46bd 35cd 243e 0c60 0a3e 7b53 8a3c
00000130: b778 cc3c cda8 f53b 94bd ddbb cb58 10be
00000140: e05a d33d f89f 183e 01a4 a7bd 3b88 bcbc
00000150: 52e2 493d 4db3 8e3d 4ed8 57bd dd87 a8bc
00000160: 09c5 503c d194 df3d f8b5 1c3e 7f1f 8fbc
00000170: 04e0 13be 9246 13bd 90a7 58bd b544 a23d
00000180: b8e4 3b3e 5d29 6f3c e51b 013c 534f ed3c
00000190: 24da 973c 0fa3 06be d1c5 903b f870 56bb
000001a0: a9ff 2dbe 2131 32be addf 2abe 315c 01be
000001b0: bc5e 323e 8bf8 703c 0df6 533d 7892 343c
000001c0: 082d 9cbd 5a8e 8e3b 122c f4bd 80e9 c83d
000001d0: dba0 27be 2be0 09be 47ba 2ebd 05d6 17be
000001e0: 5ac1 203e e078 cebc e65a 01bd a232 6cbc
000001f0: b265 813c 5f5f b6bd a9c3 0bbe 81db e6bd
00000200: 9b81 d3bd 27df f63d 3040 9c3d 0ed1 073e
00000210: dad7 28be ea1d eebd e4e3 16bd 4363 8cbd
00000220: 6ddc 1b3e 82e5 2abe 9cee db3c 2451 8f3d
00000230: c69c 31be 2f74 0f3e c6db 8dbd dc3c 303e
00000240: a4fe 913d 63c9 d9bc 908f 9d3c fec2 dabd
00000250: 9937 2dbe 58db 07ba 9572 86bd a2d9 e93d
00000260: 13fc c9bd 2787 eabd 826b 363e be0d cdbd
00000270: 13d1 f43d c16b a23c fbcf 27be a7fc 373d
00000280: 1237 aebd 75ed 2c3d d849 003e bbfa ba3d
00000290: 37c0 9a3c 0efa 76bc ddf1 2b3d 982b 2e3e
000002a0: 3a10 063e ba1a 213e 9361 8e3d 02bf 89bd
000002b0: 4162 b53c b604 053d 65ce d43d 4c2d 2bbe
000002c0: de2a 303e 52ff 133e 3b38 d83d 3e9c 143e
000002d0: d8d8 343e 960c 26be 8a12 c9bd 0116 15bd
000002e0: 5378 523d 7cb0 f8bc 55a8 f6bd 99be 2cbe
000002f0: b578 ed3d ff14 37be 7914 193e 8f59 15be
00000300: b56b bf3d f555 033e b903 d4bd e711 01be
00000310: b5bf 9c3d 817a 173e 2732 09be 2fba dbbd
00000320: 74a0 ccbd 4b33 72ba 05c0 9ebd f66e 40bd
00000330: f5d5 bdbd cdeb e63d 1507 2e3e 97ae 263e
00000340: b686 c8bd cf22 1dbe de81 703d 3720 1b3d
00000350: 5a91 9a3c 6e40 b2bd 62ef f33d 2950 de3d
00000360: db72 bcbd 35c1 a0bd 5c2f b2bd e81d 523d
00000370: 75bb 133e 5f07 87bc aebf 28be 1549 a73d
00000380: 41a6 243e 6db6 e13d 7e5b 073c 66b6 94bd
00000390: 39c4 96bd 14e0 c1bd c590 f8bd 3e4e 1e3e
000003a0: 06fd 273e 3112 7a3d 04ff 1dbe a4d1 45bd
000003b0: 056b e8bc a908 90bc 84a8 a73d 69d4 1038
000003c0: 5638 b7bd 0510 103c 4628 003e a949 c0bd
000003d0: b2f0 053e f5b7 babc 82ff cebd 9753 63bd
000003e0: 7bb5 34be e2c9 21bc 4b0e a23d 0c0a a8bd
000003f0: 3dcb d43d 6973 2ebd 703d 3ebd 055a 16be

rnn.bias_ih_l0 f4 [32]
0.12721965 -0.11294483 0.16487174 -0.02029711 0.1301009 -0.044770032 -0.14312044 -0.11236096
-0.04140004 0.13042863 0.12005945 -0.035178587 -0.16866538 0.0776784 0.05225019 -0.11822813
-0.07592685 -0.07284293 -0.054525204 0.09909397 0.13673435 0.09744866 0.09451866 -0.07233872
-0.17567806 -0.0945148 -0.09217631 -0.04433468 0.05821091 -0.04397894 -0.14238182 -0.0976948
00000000: de45 023e 9e4f e7bd 23d4 283e 2046 a6bc
00000010: 2c39 053e c860 37bd 2a8e 12be 811d e6bd
00000020: 1793 29bd 158f 053e bbe1 f53d 6c17 10bd
00000030: 9eb6 2cbe da15 9f3d 4c04 563d 9721 f2bd
00000040: 897f 9bbd ad2e 95bd d255 5fbd c8f1 ca3d
00000050: 1704 0c3e 2a93 c73d 0093 c13d 5326 94bd
00000060: f3e4 33be fa90 c1bd efc6 bcbd 4898 35bd
00000070: 906e 6e3d 4323 34bd 8acc 11be 3614 c8bd

rnn.bias_hh_l0 f4 [32]
-0.0124097215 -0.1287249 0.09880258 -0.11962425 0.048907198 -0.16053459 0.091621354 -0.1350307
0.06322274 0.08921176 -0.026566578 0.037186794 -0.012609763 0.06687276 0.11351251 -0.14675896
0.03397764 -0.059834253 -0.018895116 -0.037648767 0.012373369 0.13669655 -0.11164253 0.07942045
0.022564935 0.03389048 -0.038070057 0.16270922 0.087636665 0.105695054 -0.007569167 0.0064092223
00000000: 2552 4bbc 76d0 03be 0259 ca3d 8ffd f4bd
00000010: ea52 483d 2e63 24be faa3 bb3d 7d45 0abe
00000020: ed7a 813d a8b4 b63d 27a2 d9bc 2e51 183d
00000030: 2e99 4ebc 96f4 883d 3f79 e83d fb47 16be
00000040: 232c 0b3d c314 75bd eec9 9abc 9835 1abd
00000050: acb9 4a3c 2efa 0b3e d7a4 e4bd 30a7 a23d
00000060: 19da b83c bed0 0a3d 59ef 1bbd 3f9d 263e
00000070: da7a b33d a676 d83d c606 f8bb 7404 d23b

classifier.weight f4 [2, 32]
0.15052113 0.1870399 0.14932014 -0.11522319 0.076985314 0.099163674 0.1203365 0.03210896
0.0177994 -0.15927607 0.023559997 -0.12158058 -0.02084311 0.22903454 -0.036507517 -0.09826799
-0.13611816 -0.043170866 0.027769456 0.018233944 -0.06937313 0.17847058 0.04991779 0.11760547
-0.17372823 0.042340778 -0.07424105 0.10849633 0.0758711 0.13066423 -0.062343825 0.12062853
0.1808476 0.06514209 0.1389956 0.013274117 0.15610015 -0.06726055 0.18374597 -0.03677572
0.18945555 -0.01457661 -0.11498125 -0.14185604 -0.19719915 0.1743568 -0.056504946 0.035339892
-0.056478437 0.07086084 -0.0012926164 0.020870272 -0.12291304 0.19846751 -0.14951916 0.19439955
-0.033338517 0.13192847 0.016149633 0.18345985 -0.045457058 -0.04854664 -0.15634042 -0.03691404
00000000: 3622 1a3e 6387 3f3e 61e7 183e 23fa ebbd
00000010: 7aaa 9d3d 5316 cb3d fc72 f63d af84 033d
00000020: 0cd0 913c 4419 23be e500 c13c 3dff f8bd
00000030: 2bbf aabc 0888 6a3e e888 15bd ba40 c9bd
00000040: 8f62 0bbe efd3 30bd c57c e33c 5a5f 953c
00000050: 8013 8ebd fec0 363e 9976 4c3d 23db f03d
00000060: d0e5 31be 866d 2d3d b10b 98bd 5333 de3d
00000070: 4f62 9b3d d8cc 053e 3d5c 7fbd 170c f73d
00000080: 1d30 393e 3769 853d dd54 0e3e af7b 593c
00000090: b8d8 1f3e e6bf 89bd e727 3c3e 23a2 16bd
000000a0: a300 423e bcd2 6ebc 4a7b ebbd b642 11be
000000b0: 93ee 49be 978a 323e bb71 67bd 90c0 103d
000000c0: ef55 67bd 7d1f 913d 026d a9ba 22f8 aa3c
000000d0: d5b9 fbbd 113b 4b3e 8d1b 19be ad10 473e
000000e0: f88d 08bd 4218 073e 3c4c 843c e6dc 3b3e
000000f0: 2e31 3abd d7d8 46bd b417 20be 2d33 17bd

classifier.bias f4 [2]
0.14023083 -0.048746802
00000000: ac98 0f3e baaa 47bd
