save/2-6_rnn_sp_100.pt (torch, 16018 bytes, 7 tensors)

emb_layer.weight f4 [100, 16]
0.0 0.0 0.0 0.0 0.0 0.0 0.0 0.0
0.0 0.0 0.0 0.0 0.0 0.0 0.0 0.0
1.3246229 0.05255115 -1.3986871 -2.0271292 -1.854056 0.165524 -0.88094723 1.420244
0.6910907 -0.16286476 -1.3368355 -1.0955297 0.88982975 -1.4247187 0.47573894 1.9367731
0.025739072 0.77067107 -0.6303769 0.805028 -0.0058827144 -0.083312996 -0.5331473 0.6035465
1.2074585 0.5232576 0.6726545 -0.1023281 1.3298204 0.011518783 1.714358 0.12449976
0.74139667 -0.19920403 1.2470826 -0.24403127 0.25593457 -0.6206495 1.1657417 0.21743453
-1.4047664 0.4877302 -0.38018966 -1.1705202 1.7810225 0.5826639 1.7388127 0.35774314
-0.15580294 0.25477841 0.9452396 -1.1072214 -1.4352896 -0.4023104 0.85669154 -0.49262682
-0.3665407 -0.19923414 -0.094789974 0.97716314 2.2070084 0.97917074 1.0718219 -1.0679668
1.3169351 -3.1417706 -1.0956806 -0.5114327 -0.9754236 0.70672405 0.12556809 -0.17710227
0.77035135 1.3577297 -0.40314507 -2.1003022 2.0548549 0.33729476 0.20547146 1.7648389
0.009014644 0.1662822 -0.9919829 0.5726646 1.2871015 -0.66349447 0.6099944 -0.8291757
0.5026049 1.7098813 -0.4508899 0.8970895 0.91563785 0.6166053 0.7035264 -0.9208175
0.9041614 0.18930598 2.2516358 -1.024605 0.7778338 -0.3417786 -1.5603782 0.9765329
0.14773004 -1.8817803 -1.7192398 0.38132843 1.1496787 -0.33630723 -0.8968529 -1.416849
2.1596086 -0.44731987 0.43788537 -0.29634047 -0.66719294 -0.41003442 -0.2769438 0.10138263
0.5486187 0.6457949 -0.65122885 -0.75659674 -0.5842933 0.777758 -0.19292238 1.0315222
0.8064537 1.4713247 -0.48135406 0.6906337 -0.8753609 -2.2799308 -0.5852027 0.25913593
-2.103592 0.70852554 -0.36924985 0.05045873 0.28119668 -0.20264235 -0.8239867 -0.38451868
-1.3382564 -0.54685426 -0.072143205 -0.5003416 -0.8810729 -1.6008136 1.210458 -0.351927
1.6067454 -0.910817 -1.033295 0.18468378 1.9402657 -0.33258408 0.4872415 -1.7328699
-0.21738866 -0.29673675 1.5525907 -0.22859739 0.103016734 0.6038629 0.18973434 -0.099270724
-0.43573177 0.14387406 -1.0882956 -0.24236903 0.25112948 -0.27742043 0.9710187 -1.3158997
-0.31722322 -1.1749086 -1.3040414 1.5106722 0.9493183 -1.281511 1.618395 -0.012598979
0.8629321 0.42473096 0.7568287 0.4833178 -0.93415344 -1.6950529 -0.1922031 -0.1565705
-0.92602015 0.41065452 -0.65639853 -1.320142 -2.096035 -2.5455313 -3.3713255 -0.9271367
-1.3459786 -0.13443299 0.31509802 -0.0051371087 0.76765126 -0.075703636 0.81383705 -1.5705069
0.0967346 1.8850478 2.2717607 -1.2948719 0.87083226 -1.8344887 0.84434944 1.4664662
-1.5117483 0.80536556 -0.52055246 -0.60682344 1.0073309 1.602295 -0.1176151 -1.9820063
0.5886471 0.28073218 -0.060308628 -0.8082912 2.2274406 0.27417758 -1.1084903 0.61522526
-0.65777296 0.6465591 -1.270322 0.050966743 -0.31373498 0.45732418 -0.23008156 -0.23721921
00000000: 0000 0000 0000 0000 0000 0000 0000 0000
00000010: 0000 0000 0000 0000 0000 0000 0000 0000
00000020: 0000 0000 0000 0000 0000 0000 0000 0000
00000030: 0000 0000 0000 0000 0000 0000 0000 0000
00000040: 3e8d a93f e03f 573d 2e08 b3bf 7cbc 01c0
00000050: b551 edbf 207f 293e c285 61bf 8eca b53f
00000060: 52eb 303f 05c6 26be 6d1d abbf 513a 8cbf
00000070: e2cb 633f 2f5d b6bf 0e94 f33e 2ee8 f73f
00000080: bfda d23c b34a 453f 6160 21bf 5116 4e3f
00000090: c9c3 c0bb 01a0 aabd 577c 08bf 0682 1a3f
000000a0: 008e 9a3f 36f4 053f 1633 2c3f 6591 d1bd
000000b0: 8e37 aa3f 47b9 3c3c 1570 db3f bbf9 fe3d
000000c0: 2ccc 3d3f 24fc 4bbe 67a0 9f3f 55e3 79be
000000d0: db09 833e e3e2 1ebf 0637 953f 28a7 5e3e
000000e0: 63cf b3bf c6b7 f93e 38a8 c2be 9bd3 95bf
000000f0: 8cf8 e33f 7629 153f 6a91 de3f 1c2a b73e
00000100: ce8a 1fbe 5172 823e 39fb 713f 6eb9 8dbf
00000110: 92b7 b7bf a1fb cdbe 2350 5b3f 9539 fcbe
00000120: 39ab bbbe 0904 4cbe 3f21 c2bd 5d27 7a3f
00000130: a03f 0d40 efaa 7a3f 7631 893f 23b3 88bf
00000140: 5491 a83f c512 49c0 433f 8cbf 41ed 02bf
00000150: 5cb5 79bf deeb 343f ec94 003e 4c5a 35be
00000160: bf35 453f 16ca ad3f 0869 cebe 5a6b 06c0
00000170: be82 0340 e6b1 ac3e 1c67 523e 3ee6 e13f
00000180: 28b2 133c e245 2a3e 97f2 7dbf 269a 123f
00000190: bebf a43f c6da 29bf 9828 1c3f dc44 54bf
000001a0: b7aa 003f 64dd da3f 0adb e6be a8a7 653f
000001b0: 3e67 6a3f d8d9 1d3f 4e1a 343f b2ba 6bbf
000001c0: 1f77 673f 6dd9 413e cd1a 1040 4226 83bf
000001d0: 1e20 473f 9bfd aebe 79ba c7bf 0ffe 793f
000001e0: 8b46 173e 2dde f0bf 0d10 dcbf 7b3d c33e
000001f0: ac28 933f 7630 acbe 2798 65bf 4f5b b5bf
00000200: 0737 0a40 1c07 e5be 8332 e03e f0b9 97be
00000210: 28cd 2abf 08f0 d1be 94cb 8dbe b2a1 cf3d
00000220: 4672 0c3f d152 253f efb6 26bf 53b0 41bf
00000230: 3f94 15bf 261b 473f 728d 45be eb08 843f
00000240: c073 4e3f 5e54 bc3f 0a74 f6be 5fcd 303f
00000250: a717 60bf 63ea 11c0 d8cf 15bf 77ad 843e
00000260: 40a1 06c0 ee61 353f 510e bdbe d0ad 4e3d
00000270: 03f9 8f3e 7a81 4fbe cbf0 52bf a2df c4be
00000280: fc4b abbf a4fe 0bbf d1bf 93bd 6316 00bf
00000290: fe8d 61bf 76e7 ccbf 4af0 9a3f c72f b4be
000002a0: d5a9 cd3f 4e2b 69bf 0343 84bf bf1d 3d3e
000002b0: a05a f83f 7648 aabe b877 f93e aece ddbf
000002c0: 229b 5ebe e1ed 97be 4bbb c63f 6f15 6abe
000002d0: 70fa d23d c296 1a3f b849 423e 734e cbbd
000002e0: 3c18 dfbe b953 133e 454d 8bbf 962f 78be
000002f0: 0b94 803e 0d0a 8ebe ae94 783f 676f a8bf
00000300: 156b a2be 6863 96bf d4ea a6bf b55d c13f
00000310: 8606 733f 8d08 a4bf 9127 cf3f f36b 4ebc
00000320: 1ee9 5c3f 5676 d93e 87bf 413f 6e75 f73e
00000330: ae24 6fbf 7ef7 d8bf e4d0 44be 0454 20be
00000340: a80f 6dbf 4f41 d23e bc09 28bf 6afa a8bf
00000350: 7025 06c0 fce9 22c0 ccc3 57c0 d558 6dbf
00000360: 0749 acbf cda8 09be 8754 a13e 3155 a8bb
00000370: cb84 443f 820a 9bbd a057 503f 5f06 c9bf
00000380: ca1c c63d 3f49 f13f 8764 1140 5dbe a5bf
00000390: ddee 5e3f 87d0 eabf 4927 583f 2ab5 bb3f
000003a0: f880 c1bf 702c 4e3f ed42 05bf c858 1bbf
000003b0: 38f0 803f 0118 cd3f 30e0 f0bd 62b2 fdbf
000003c0: 94b1 163f 21bc 8f3e 2e06 77bd 2cec 4ebf
000003d0: 638e 0e40 0161 8c3e 03e3 8dbf 677f 1d3f
000003e0: cf63 28bf e684 253f e999 a2bf 81c2 503d
000003f0: dfa1 a0be 6526 ea3e 809a 6bbe 98e9 72be

rnn.weight_ih_l0 f4 [32, 16]
-0.15261708 -0.07657715 -0.116767645 0.11032114 -0.092123024 0.12782757 0.15351284 -0.06457197
-0.069351144 0.09600132 -0.0794257 0.16719665 0.106980465 0.1288871 0.14645973 -0.09549593
0.10632826 -0.0599438 -0.1656793 -0.10042885 -0.1637055 0.15781096 -0.008924318 -0.09839534
-0.03654485 -0.17955002 0.15566932 -0.12228494 0.17982176 0.08964328 0.16843192 -0.16502911
-0.07483701 -0.16604471 0.18714343 -0.050452385 -0.09013948 -0.012611866 -0.02767476 0.1112388
-0.16527829 -0.009663541 0.14282611 0.12198527 -0.14100732 -0.010153736 -0.14773546 -0.07217324
-0.022017878 -0.013026591 0.09863859 -0.105203845 0.056306932 -0.067179956 -0.11982826 -0.11700593
0.025063647 0.08942667 0.11949928 -0.033252053 -0.13720058 0.02041474 -0.17350121 -0.13276814
-0.044476382 -0.10887511 -0.13549049 -0.09845459 0.16709727 -0.03131407 0.037189674 0.004502161
0.1553012 0.1365822 -0.102510765 0.07606762 -0.094269104 0.09997303 0.14101183 0.08146733
0.1695239 -0.019283552 0.12676933 -0.069347076 -0.113899276 0.02419755 0.052939832 -0.16702084
0.114259265 -0.16434403 -0.15448047 -0.09688032 -0.09477171 -0.13658065 0.11677783 0.12384666
0.026816985 -0.13131183 0.09193107 0.094408475 -0.1395953 -0.14971806 0.04787848 -0.056529216
-0.17254855 -0.111840926 -0.0049674497 -0.096719414 -0.05831218 0.11457324 0.12259645 -0.074572384
0.011613472 -0.062429156 0.07013973 0.0845892 -0.012117266 0.114324145 -0.036738563 -0.09807376
0.10283806 0.17663388 -0.0075960574 0.00022010233 -0.13326284 0.13953999 0.14674345 0.015695073
0.07123018 -0.1524677 0.13312666 0.043093953 -0.049020644 -0.10420467 0.08966087 0.04421656
0.05840347 0.1636419 -0.029272486 0.0070978715 -0.05509977 -0.03083133 -0.07164035 -0.11824155
-0.07918493 -0.10187353 0.15737936 -0.06457878 -0.05890658 -0.10322122 -0.08964718 0.14545354
-0.065201275 0.014726067 0.10763302 -0.12769157 0.14269836 0.17061338 -0.07466462 -0.13437371
-0.049732577 -0.078705356 0.08429578 -0.017152073 -0.12881123 -0.14767234 -0.15912665 0.17379415
0.17658262 0.093255125 -0.1093682 -0.047445755 0.16336252 0.031260625 0.011362718 -0.030217031
-0.09739548 0.13667583 0.06314195 -0.113646224 0.04771177 0.059908472 -0.011720756 0.14274853
-0.09615029 -0.07859198 0.10357667 0.0031307982 -0.12121857 -0.0622581 -0.04886308 0.08278354
-0.12794818 -0.07600214 0.09234437 0.014887843 0.11329454 0.108812995 -0.0353616 -0.04760492
0.015164753 0.06722136 0.0999795 -0.13346608 -0.05645678 0.10779281 -0.090536304 0.13809678
0.010517759 -0.13896002 0.15310481 0.047716882 -0.0363187 0.060639292 0.108438045 0.11458327
-0.087268 -0.08800432 -0.029426325 -0.15832414 0.1067863 0.0009693139 0.1253691 -0.15214321
0.13249275 -0.15041699 0.081054315 0.12449589 -0.033593956 -0.16915576 -0.1426432 0.044924147
0.08399948 -0.12722719 -0.0053719454 0.1382465 -0.12422106 0.008859021 0.119117565 -0.0072291754
-0.1518144 -0.11754365 -0.12459787 -0.041675374 0.106041685 -0.12695988 -0.13574243 -0.053969193
-0.040250268 -0.16120698 -0.039633516 0.11342004 -0.1781191 0.050236806 0.13538201 -0.005916751
00000000: a747 1cbe 7bd4 9cbd e023 efbd 0df0 e13d
00000010: ffaa bcbd 3be5 023e 7832 1d3e 4f3e 84bd
00000020: f907 8ebd 579c c43d f1a9 a2bd 9935 2b3e
00000030: 9318 db3d fbfa 033e 8af9 153e 5f93 c3bd
00000040: a1c2 d93d a187 75bd d6a7 29be a4ad cdbd
00000050: 6aa2 27be 3299 213e 4d37 12bc 7f83 c9bd
00000060: 0db0 15bd f6db 37be c767 1f3e 8770 fabd
00000070: 3223 383e e596 b73d 6b79 2c3e 64fd 28be
00000080: 2544 99bd a007 2abe 87a2 3f3e 29a7 4ebd
00000090: 0c9b b8bd 00a2 4ebc 2eb6 e2bc 2bd1 e33d
000000a0: b63e 29be d453 1ebc 0241 123e 6ad3 f93d
000000b0: 3964 10be db5b 26bc f747 17be 90cf 93bd
000000c0: d65e b4bc 7c6d 55bc 0703 ca3d 1d75 d7bd
000000d0: 19a2 663d a595 89bd 8568 f5bd cea0 efbd
000000e0: 4752 cd3c 5425 b73d 0abc f43d 4e33 08bd
000000f0: 4f7e 0cbe d03c a73c 4daa 31be 5ff4 07be
00000100: de2c 36bd eaf9 debd 05be 0abe 8fa2 c9bd
00000110: 8c1b 2b3e 2f43 00bd 3354 183d dd86 933b
00000120: 4707 1f3e 34dc 0b3e 2af1 d1bd 57c9 9b3d
00000130: 2910 c1bd a9be cc3d 6865 103e 58d8 a63d
00000140: ac97 2d3e 8af8 9dbc d2cf 013e d705 8ebd
00000150: 0644 e9bd f139 c63c 70d7 583d 8307 2bbe
00000160: c300 ea3d cd49 28be 2130 1ebe 3069 c6bd
00000170: ac17 c2bd ccdb 0bbe 3729 ef3d 51a3 fd3d
00000180: 4baf db3c 9c76 06be 5b46 bc3d 3b59 c13d
00000190: 12f2 0ebe b14f 19be 3a1c 443d 2e8b 67bd
000001a0: 91b0 30be db0c e5bd fdc5 a2bb d414 c6bd
000001b0: c1d8 6ebd 60a5 ea3d d913 fb3d 68b9 98bd
000001c0: 6f46 3e3c b7b5 7fbd 6ba5 8f3d 1a3d ad3d
000001d0: 7f87 46bc c722 ea3d 2d7b 16bd e5da c8bd
000001e0: c39c d23d 83df 343e 59e8 f8bb 45cb 6639
000001f0: 0e76 08be 92e3 0e3e ea43 163e f492 803c
00000200: 21e1 913d 7e20 1cbe 5b52 083e 4983 303d
00000210: dfc9 48bd 4269 d5bd 1ea0 b73d 6c1c 353d
00000220: 7a38 6f3d be91 273e dacc efbc 4395 e83b
00000230: 4cb0 61bd fc91 fcbc 2db8 92bd a028 f2bd
00000240: b52b a2bd 12a3 d0bd 0e28 213e e141 84bd
00000250: 0748 71bd a665 d3bd f198 b7bd c6f1 143e
00000260: 3f88 85bd 9a45 713c b36e dc3d 94c1 02be
00000270: 851f 123e 46b5 2e3e c4e9 98bd 4399 09be
00000280: 63b4 4bbd 4630 a1bd 44a3 ac3d 8182 8cbc
00000290: 17e7 03be 6b37 17be 19f2 22be 18f7 313e
000002a0: 13d2 343e 8bfc be3d 6ffc dfbd 7b56 42bd
000002b0: 8148 273e 240b 003d b22a 3a3c b589 f7bc
000002c0: 4877 c7bd c0f4 0b3e 9150 813d 5abf e8bd
000002d0: 6b6d 433d 9662 753d 6a08 40bc ac2c 123e
000002e0: 71ea c4bd d5f4 a0bd 0120 d43d 142e 4d3b
000002f0: 7141 f8bd 5902 7fbd a724 48bd 6b8a a93d
00000300: d904 03be 03a7 9bbd 0c1f bd3d 24ec 733c
00000310: f806 e83d 59d9 de3d 53d7 10bd 60fd 42bd
00000320: 9675 783c 5aab 893d 0dc2 cc3d 55ab 08be
00000330: 393f 67bd 7ac2 dc3d 196b b9bd 3e69 0d3e
00000340: ae52 2c3c 894b 0ebe 82c7 1c3e c772 433d
00000350: ebc2 14bd e860 783d c414 de3d a2aa ea3d
00000360: 91b9 b2bd 9c3b b4bd 7a0f f1bc b91f 22be
00000370: c7b2 da3d 8e19 7e3a c260 003e 6ecb 1bbe
00000380: 2eac 073e e906 1abe ceff a53d b4f7 fe3d
00000390: d199 09bd 2b37 2dbe 0f11 12be 6202 383d
000003a0: eb07 ac3d d847 02be 2507 b0bb 7e90 0d3e
000003b0: 9c67 febd 6d25 113c e9f3 f33d b8e2 ecbb
000003c0: 3c75 1bbe baba f0bd 2b2d ffbd ccb3 2abd
000003d0: 622c d93d c501 02be 1000 0bbe cd0e 5dbd
000003e0: 77dd 24bd 7113 25be c156 22bd c448 e83d
000003f0: da64 36be 1cc5 4d3d 95a1 0a3e 4ee1 c1bb

rnn.weight_hh_l0 f4 [32, 32]
0.115199395 -0.16936651 -0.14052013 0.009568186 0.029648174 0.17089203 0.15333691 -0.084497064
-0.018361092 0.08947911 0.022135938 0.040257838 0.021382786 -0.07137244 -0.16808186 -0.13564683
0.14077188 0.02009852 -0.0011946242 -0.1354639 0.042292476 -0.107018575 -0.027501922 -0.16573596
0.10677658 0.00371825 0.13973933 -0.14484204 0.14274777 -0.16099751 -0.11842243 -0.14931974
-0.07492299 -0.121680476 -0.0023288415 -0.048211902 -0.09477594 -0.08940473 -0.045338653 -0.089281306
-0.12820803 0.10174303 -0.057920985 -0.030063054 -0.04340152 -0.097405225 -0.1341525 0.077905804
-0.101664 -0.1539809 0.17007229 -0.12630652 0.051116493 0.08904457 -0.13893762 0.09305609
0.074781656 0.063868836 0.14071195 -0.16865155 0.13516462 -0.17440788 -0.044207208 0.11236637
-0.09477721 0.13491195 -0.1424289 0.10475965 -0.053947352 0.11223775 0.14432251 -0.061179094
-0.05604972 -0.014899586 -0.1081228 0.16198862 -0.04078764 0.15947299 -0.13242231 0.16152632
-0.11125466 -0.097671084 0.022538656 0.17577554 -0.06482246 0.11737025 -0.011916672 -0.050787818
-0.05549805 -0.07190692 -0.12980156 -0.12925842 0.16761364 -0.061319813 -0.14430174 0.13261285
-0.12652461 0.14304462 0.04750583 0.06323576 -0.035778232 0.17346111 -0.123897515 0.036682803
-0.018994628 0.16967686 -0.13629214 0.042171843 0.06385124 0.10206183 0.011412982 -0.14022355
0.040698983 6.1523526e-05 -0.078264125 0.10972896 -0.12795304 0.009611146 -0.14014046 -0.11381262
0.04127096 -0.023627507 0.07160188 -0.0461578 -0.08203846 -0.16675432 0.017848717 0.050044052
0.0038496037 -0.013446291 -0.0697947 0.09914979 0.15946366 -0.056143574 0.036117386 -0.09245791
-0.0372085 0.09848483 0.11907471 -0.07038965 -0.15803604 -0.076574266 -0.09309083 0.09974272
-0.062584214 0.020522285 -0.10037067 -0.06939108 0.15354435 -0.07798204 -0.16022478 0.15221997
0.07766388 -0.049748044 -0.119736835 -0.098583065 0.0674706 0.15590966 -0.027247163 0.15933417
-0.061468907 0.024900177 -0.055171676 0.13190177 0.15520523 0.120310925 0.1675484 0.08929521
0.09577318 -0.060806356 -0.04515056 0.03837825 -0.08672173 -0.10732546 -0.047350366 0.055962503
-0.14583446 0.10279251 0.0978331 0.15981275 0.16924326 0.08448909 -0.13475446 -0.13338822
-0.1167719 0.15157175 -0.14466545 0.09857663 -0.00095675274 0.087206185 -0.1296525 0.03340583
0.11315003 -0.07638094 -0.13000283 -0.114487916 0.030076535 0.053749565 -0.0033528318 0.07406563
-0.00016611672 0.14055033 -0.074452326 0.040706906 -0.012329686 -0.015892185 -0.12804158 0.10539778
-0.05387288 0.11104182 -0.16856678 -0.059169017 0.05697465 -0.13279903 -0.028084463 -0.16027299
-0.10032084 -0.019124689 -0.008677447 -0.13089165 -0.115106404 0.096586235 -0.07469961 -0.15641156
-0.013928437 -0.16923463 0.035992358 0.019206673 0.1512763 0.1394071 0.07202499 0.1558361
-0.02676386 0.057138894 0.052337855 -0.08452084 -0.14084992 0.030700345 0.06621379 -0.17407985
0.056900628 -0.16899401 0.030253328 0.038767263 -0.018754875 -0.14629723 -0.007164745 0.13987374
-0.1377837 -0.14080796 0.10363793 -0.15684752 -0.021287892 0.073821455 0.040209886 -0.020944033
00000000: a9ed eb3d 6a6e 2dbe 82e4 0fbe e1c3 1c3c
00000010: bae0 f23c 52fe 2e3e 5a04 1d3e cc0c adbd
00000020: 006a 96bc d340 b73d 6d56 b53c 67e5 243d
00000030: f42a af3c b72b 92bd a71d 2cbe 01e7 0abe
00000040: 8126 103e a7a5 a43c f094 9cba 0cb7 0abe
00000050: e03a 2d3d 8e2c dbbd b64b e1bc b0b6 29be
00000060: aead da3d e2ad 733b d417 0f3e 7951 14be
00000070: 792c 123e 88dc 24be 7587 f2bd 46e7 18be
00000080: 3971 99bd 9d33 f9bd 7a9f 18bb d879 45bd
00000090: e319 c2bd d419 b7bd 06b5 39bd 1ed9 b6bd
000000a0: f748 03be a65e d03d 8e3e 6dbd cb46 f6bc
000000b0: cbc5 31bd 647c c7bd 465f 09be 148d 9f3d
000000c0: 3735 d0bd 2bad 1dbe 6e27 2e3e 7f56 01be
000000d0: 875f 513d 005d b63d aa45 0ebe 3194 be3d
000000e0: 2027 993d aacd 823d cb16 103e feb2 2cbe
000000f0: 9868 0a3e fb97 32be 9e12 35bd 5720 e63d
00000100: 8e1a c2bd 5c26 0a3e e2d8 11be 3a8c d63d
00000110: e6f7 5cbd e8dc e53d 48c9 133e ee96 7abd
00000120: 6494 65bd 651d 74bc 7d6f ddbd 58e0 253e
00000130: f110 27bd e34c 233e b799 07be 2867 253e
00000140: 7cd9 e3bd c707 c8bd fda2 b83c 81fe 333e
00000150: a3c1 84bd d05f f03d 253e 43bc e306 50bd
00000160: ec51 63bd ef43 93bd b3ea 04be 525c 04be
00000170: e9a2 2b3e 7c2a 7bbd d6c3 13be aacb 073e
00000180: ab8f 01be 4a7a 123e 7995 423d c081 813d
00000190: 328c 12bd ca9f 313e fbbd fdbd b540 163d
000001a0: 9f9a 9bbc c5bf 2d3e 2b90 0bbe 62bc 2c3d
000001b0: 70c4 823d cb05 d13d 84fd 3a3c c396 0fbe
000001c0: fab3 263d 3106 8138 f148 a0bd 94b9 e03d
000001d0: 1f06 03be 1178 1d3c fb80 0fbe 9716 e9bd
000001e0: bd0b 293d 798e c1bc 02a4 923d f60f 3dbd
000001f0: c803 a8bd a5c1 2abe 7937 923c fefa 4c3d
00000200: a249 7c3b d54d 5cbc 86f0 8ebd 0c0f cb3d
00000210: 714a 233e cef6 65bd d3ef 133d 935a bdbd
00000220: f167 18bd 6ab2 c93d 71dd f33d 7328 90bd
00000230: 33d4 21be f8d2 9cbd 68a6 bebd e945 cc3d
00000240: 272c 80bd 5a1e a83c 238f cdbd e91c 8ebd
00000250: bb3a 1d3e 0cb5 9fbd f711 24be 8ddf 1b3e
00000260: 3e0e 9f3d 9bc4 4bbd 9638 f5bd ebe5 c9bd
00000270: 072e 8a3d c8a6 1f3e 7135 dfbc 7f28 233e
00000280: d2c6 7bbd 75fb cb3c b2fb 61bd 4211 073e
00000290: 1fee 1e3e 9365 f63d cf91 2b3e 68e0 b63d
000002a0: bb24 c43d 1610 79bd cbef 38bd 8332 1d3d
000002b0: 2a9b b1bd 73cd dbbd 75f2 41bd f038 653d
000002c0: a155 15be e184 d23d b85c c83d f4a5 233e
000002d0: 1b4e 2d3e 9e08 ad3d 13fd 09be ec96 08be
000002e0: 1b26 efbd a035 1b3e 2e23 14be 8be2 c93d
000002f0: 97ce 7aba 2899 b23d a0c3 04be 8dd4 083d
00000300: 34bb e73d 9c6d 9cbd 761f 05be a478 eabd
00000310: 1163 f63c 8128 5c3d 2fbb 5bbb b9af 973d
00000320: 9e2f 2eb9 6dec 0f3e 767a 98bd 49bc 263d
00000330: 7402 4abc 5430 82bc 551d 03be cbda d73d
00000340: cfa9 5cbd e569 e33d c59c 2cbe 365b 72bd
00000350: 405e 693d 78fc 07be 6311 e6bc 9a1e 24be
00000360: 0375 cdbd 61ab 9cbc da2b 0ebc 7608 06be
00000370: e8bc ebbd 01cf c53d 1cfc 98bd 5a2a 20be
00000380: 1934 64bc d84b 2dbe b96c 133d 5057 9d3c
00000390: 2de8 1a3e bcc0 0e3e d781 933d 8093 1f3e
000003a0: e23f dbbc 790a 6a3d 3860 563d 4319 adbd
000003b0: f63a 10be 4a7f fb3c 189b 873d fd41 32be
000003c0: a210 693d c40c 2dbe d4d5 f73c 6cca 1e3d
000003d0: d3a3 99bc f1ce 15be 3dc6 eabb 103b 0f3e
000003e0: 2c17 0dbe f62f 10be 1f40 d43d a39c 20be
000003f0: f263 aebc b42f 973d 1fb3 243d d292 abbc

rnn.bias_ih_l0 f4 [32]
-0.020761129 0.1281715 -0.14230242 -0.07390943 -0.09655807 0.07431801 0.10754528 -0.14537154
-0.14057063 0.15527226 -0.066325866 0.16333479 0.07475733 -0.042400047 0.117790304 -0.024297914
0.17361125 0.012040072 0.07123183 -0.14681739 0.11041749 0.08777957 0.042596985 0.013058501
-0.040226962 0.17046185 -0.1773579 0.11737719 0.1295588 -0.17452946 0.08504698 -0.104031496
00000000: 3e13 aabc 643f 033e bab7 11be d45d 97bd
00000010: 3dc0 c5bd 0a34 983d b340 dc3d 47dc 14be
00000020: bff1 0fbe b1ff 1e3e dbd5 87bd 3c41 273e
00000030: 5f1a 993d acab 2dbd 0b3c f13d 6b0c c7bc
00000040: 26c7 313e b943 453c fee1 913d 4c57 16be
00000050: 9122 e23d c6c5 b33d 2d7a 2e3d 53f3 553c
00000060: 07c5 24bd 8d8d 2e3e 4f9d 35be 7463 f03d
00000070: 10ab 043e dab7 32be 1c2d ae3d 770e d5bd

rnn.bias_hh_l0 f4 [32]
0.08168207 -0.15247221 -0.09073826 -0.017175548 -0.11259984 0.015436917 0.086886816 0.04288524
-0.06803066 -0.03200274 0.1345303 -0.16678841 -0.16186836 0.08739027 0.11524913 0.015044699
0.11781535 0.08837158 -0.07983133 -0.035386425 0.11868236 -0.11901285 -0.15148167 0.1578757
0.105356656 0.16091232 -0.008858968 0.12622601 -0.14020495 -0.057972517 -0.0067722127 -0.099756315
00000000: ee48 a73d ad21 1cbe fbd4 b9bd bcb3 8cbc
00000010: bf9a e6bd 1feb 7c3c b7f1 b13d 6fa8 2f3d
00000020: a953 8bbd 4e15 03bd 50c2 093e 95ca 2abe
00000030: d2c0 25be abf9 b23d bc07 ec3d 0b7e 763c
00000040: 2d49 f13d 29fc b43d 9c7e a3bd 5bf1 10bd
00000050: bd0f f33d 02bd f3bd 031e 1bbe 2baa 213e
00000060: 3bc5 d73d 33c6 243e 3425 11bc 6441 013e
00000070: e391 0fbe 9774 6dbd 70e9 ddbb 0a4d ccbd

classifier.weight f4 [5, 32]
0.0734084 0.0721509 0.15065533 -0.13778527 -0.07502849 -0.02123684 0.029555252 -0.10424894
-0.035088554 0.15114345 0.09576535 0.031019844 -0.025655955 -0.15920898 -0.15522252 -0.0813662
-0.14526802 0.01831502 0.07517697 0.1608278 0.16350317 -0.09564395 0.07785807 0.14512369
-0.022471149 -0.17398128 0.06938785 -0.004902422 0.16546918 0.09906663 -0.120809056 0.09252744
0.006247582 -0.01497076 0.085863285 -0.03779571 0.008823989 -0.111437425 -0.023873087 0.10252431
-0.018152734 0.010463587 0.03571139 -0.10330305 0.048121158 0.05969232 -0.110402055 0.0050859754
-0.021023162 -0.10286431 -0.06509018 -0.1287325 -0.15417232 0.15279968 -0.038203407 0.14214253
0.17159575 -0.009199525 -0.028190825 -0.1225236 0.12872605 0.026226662 -0.05973117 0.13280948
0.06346057 -0.051149704 0.09013489 -0.17363207 -0.023989715 0.0504454 0.08265431 -0.015306189
-0.08862127 0.077148795 -0.026164113 -0.14006884 0.1368618 0.17344655 0.0369446 -0.09046188
-0.04344165 -0.011553159 -0.10343897 0.10236343 -0.12768322 0.029111195 -0.1594092 0.049100287
0.03566192 -0.010022609 0.08573503 -0.15656495 -0.04214839 0.017323608 0.15094161 0.1344456
0.031214656 0.07889521 0.11238343 -0.048995122 -0.072102286 0.036583666 0.16319345 0.09839059
-0.023496706 0.016514089 -0.07918062 0.024373015 0.11434734 0.16836213 -0.1759079 -0.15298463
0.1074417 -0.025498105 0.14553699 0.014318312 0.18156998 0.026168227 0.09348922 0.0755756
-0.10451248 0.054670442 0.026076868 -0.17729011 -0.11050059 0.11611635 0.08117745 -0.014690739
0.01168984 0.068173096 0.0024681357 -0.17099585 -0.1804672 0.010170074 0.10818785 0.008308349
0.08837892 0.074581504 -0.07597588 0.034760088 -0.09097049 0.09434821 0.109199226 0.028033832
0.0056113554 -0.13297433 -0.05155694 0.018355535 0.022390997 0.117558576 0.17232734 -0.078815654
-0.043778755 0.0031738663 -0.12544303 0.14081703 0.06623008 -0.075348265 0.114326924 -0.15454635
00000000: 2557 963d dac3 933d 6445 1a3e 9517 0dbe
00000010: 89a8 99bd e2f8 adbc db1d f23c 7880 d5bd
00000020: 04b9 0fbd 59c5 1a3e a020 c43d 541d fe3c
00000030: 702c d2bc ae07 23be a7f2 1ebe 52a3 a6bd
00000040: 24c1 14be 6109 963c 62f6 993d 0bb0 243e
00000050: 606d 273e fae0 c3bd 0d74 9f3d 4e9b 143e
00000060: 6a15 b8bc 2628 32be 381b 8e3d 7fa4 a0bb
00000070: c170 293e 72e3 ca3d bd6a f7bd 077f bd3d
00000080: 84b8 cc3b eb47 75bc 17d9 af3d adcf 1abd
00000090: 7e92 103c 4e39 e4bd 7e91 c3bc 44f8 d13d
000000a0: 0bb5 94bc 776f 2b3c 1b46 123d 8d90 d3bd
000000b0: b11a 453d ef7f 743d 791a e2bd 41a8 a63b
000000c0: c438 acbc 86aa d2bd 004e 85bd 74d2 03be
000000d0: 59df 1dbe 8577 1c3e 2d7b 1cbd d08d 113e
000000e0: ccb6 2f3e 9bb9 16bc 72f0 e6bc a7ed fabd
000000f0: c3d0 033e 4cd9 d63c aca8 74bd 35ff 073e
00000100: 9ef7 813d 5a82 51bd a498 b83d 9bcc 31be
00000110: 1486 c4bc d69f 4e3d aa46 a93d cfc6 7abc
00000120: 127f b5bd 3000 9e3d 1f56 d6bc 356e 0fbe
00000130: 8025 0c3e f99b 313e 3953 173d 1444 b9bd
00000140: dfef 31bd 7649 3dbc d0d7 d3bd eba3 d13d
00000150: 64bf 02be 9a7a ee3c 2a3c 23be 621d 493d
00000160: 3c12 123d de35 24bc d995 af3d 9052 20be
00000170: caa3 2cbd 3dea 8d3c 7090 1a3e 1bac 093e
00000180: e1b5 ff3c d093 a13d 4929 e63d 1caf 48bd
00000190: 5daa 93bd c1d8 153d 2f1c 273e 0181 c93d
000001a0: 2a7c c0bc 8e48 873c 7329 a2bd eba9 c73c
000001b0: f02e ea3d 1f67 2c3e 3321 34be 01a8 1cbe
000001c0: 650a dc3d 67e1 d0bc a607 153e 5a97 6a3c
000001d0: 7bed 393e c05e d63c 4777 bf3d 61c7 9a3d
000001e0: a40a d6bd 1dee 5f3d 289f d53c 8a8b 35be
000001f0: 224e e2bd 69ce ed3d 5d40 a63d 6db1 70bc
00000200: be86 3f3c 569e 8b3d 72c0 213b 8919 2fbe
00000210: 65cc 38be 62a0 263c 9791 dd3d be1f 083c
00000220: 0200 b53d 30be 983d 3e99 9bbd 9860 0e3d
00000230: bc4e babd a239 c13d d8a3 df3d 35a7 e53c
00000240: 76df b73b 6c2a 08be 5f2d 53bd 595e 963c
00000250: 536d b73c 8dc2 f03d 9476 303e 1a6a a1bd
00000260: 5a51 33bd a400 503b 2374 00be 5732 103e
00000270: a3a3 873d 3150 9abd 3c24 ea3d 6641 1ebe

classifier.bias f4 [5]
-0.034268882 0.03687631 -0.13494936 0.097551994 0.054445833
00000000: 875d 0cbd 9d0b 173d 2a30 0abe 57c9 c73d
00000010: 9802 5f3d
