save/2-7_rnn_sp_100.pt (torch, 15890 bytes, 7 tensors)

emb_layer.weight f4 [100, 16]
00000000: 0000 0000 0000 0000 0000 0000 0000 0000
00000010: 0000 0000 0000 0000 0000 0000 0000 0000
00000020: 0000 0000 0000 0000 0000 0000 0000 0000
00000030: 0000 0000 0000 0000 0000 0000 0000 0000
00000040: 270a adbe ae03 46bf 4ee1 04bf 7e9c ebbf
00000050: 1955 2ebf 03e6 ddbe e1a5 3abf 225f 47be
00000060: e1fc 77bf 5086 29be 37ca d23c 5c30 89be
00000070: 34cc e63e 9321 acbd fa8d b13e 08fe ce3d
00000080: fa49 833f e491 023f 8121 dfbe b449 25bf
00000090: c8e6 cabf 7a96 0b3e 2200 963c df98 893e
000000a0: 61b5 bbbe 9e4c 53bf 8efb 31bf b7c8 9fbf
000000b0: 46b5 723f 77a1 ebbe e049 c4be 6a4c e93e
000000c0: ffee 913f 386c e4bf 870f 0d40 0a3f 89be
000000d0: 2073 87be 8765 e5be 3aba 99be d59f 973f
000000e0: de43 bd3f 813c 1fbf 1965 ff3d cc2a 47bf
000000f0: 7e1c e23f db61 583f 6c9a 35bf c2cb 153f
00000100: 0509 fbbf 1677 64be c8d7 f8be cb1f 3f3f
00000110: 6432 99bf 5c05 943f 705b 4b3f 9dde 1dbf
00000120: 2812 9c3e 5f74 1ec0 e21a 00c0 2c6b 01c0
00000130: 65f5 5e3f ca86 1b3f 1fbc 72bf f6e7 693e
00000140: 2f14 0e3f 16e6 c1bc 5087 2e3f 9a86 523e
00000150: 0fd6 d03f a06b 87bf 8186 14bf aa68 803f
00000160: e749 7d3e d845 403d d049 803f 4dcf 1a3f
00000170: 25a4 4dbf 5d0a d4be dae3 8f3e 471d afbe
00000180: 2894 703f 44a1 e53e 1448 613f 2328 b4bf
00000190: 804e 18be d3ac a23f d2e0 c03e 3a0c 833f
000001a0: ebc1 693e 38bd 383f 0a0e a3bf 981c 053f
000001b0: 7ce2 49bf 1ab5 a43d cae7 c13f 2b26 813f
000001c0: 6223 91bf a12e 983f 07c1 143f bb7e e6bf
000001d0: fec8 02be 80a4 c0bf 04f8 883f 324d 01c0
000001e0: 9b2d 0040 520c 923f c621 b3bf 5530 cc3e
000001f0: bf17 61bf a311 3c3f 6408 81be 119e aabf
00000200: b2da 09be 4bff c33f 5772 7bbd a644 20c0
00000210: 2b83 be3d be9b cc3f 6b9c c43e 765c c43f
00000220: 46e6 aebf 582a a23e b190 34be 7e3c 753e
00000230: 76c7 6f3e 4320 523f 683e 90bf 305d 6a3e
00000240: 167f 16bf 20a3 1abe 3f33 e23e 79b3 273f
00000250: f01d 72be bd8e d7be e9e3 6c3e 91c3 a9bf
00000260: 79d9 f7be f849 c23e fe9a a73e 9f9b 9dbf
00000270: 2593 a6be 7ba1 0fbf 59a7 93bd d98d 31bf
00000280: edcc 543e aad7 f0bd cf8b a23e fc39 f4bd
00000290: 3843 863e 0cfa 2c3e 726d 04c0 36ab e0bf
000002a0: 3a2b 2dbf fed2 10bf c5b4 963d 2c87 89bf
000002b0: 3ce6 a33d 0463 163e fcc8 afbf 45fc 643f
000002c0: 64a3 ebbd 377d 27bf b0a0 abbe 98e0 2bbf
000002d0: e993 17bf e08f 50bf 2a50 be3f 989a bfbf
000002e0: 77c1 b1bf 49d5 a8be 276d 3dbf 5734 a03e
000002f0: 0a0a 30bf 1f36 2e3f a1f3 2840 794d b73f
00000300: c2f9 903e 0979 5cbf 9e85 263f 3b1c 40bf
00000310: 0709 9ebf d847 82be 96b2 06bf 7b72 f2be
00000320: a07b 68bf 7837 843e b250 f43f 1cce 9e3e
00000330: 8e0e a53f 7ead c5be 3498 cabf 1d5a 61bf
00000340: 3542 a93f 4e3c d6be 3a29 3dc0 d47f dfbf
00000350: a7d9 23bf 3f2d 593f 30ac 133d 2fd7 8a3f
00000360: ad8c 9cbe 712f 8abf fa8b 59be 59e9 8cbd
00000370: 5e4b ad3e e8bc c03e d7b0 3ebf 9674 c83d
00000380: d34a 24bb 2f46 abbd ce74 703f 540b f73f
00000390: 4390 d03e 25b2 dd3e 35d8 46bf b667 b5bf
000003a0: 91a3 833f 5689 60be 9379 163c 435d 4cbe
000003b0: 221a 193f 0472 d03f 03bc 683e cf89 0ebf
000003c0: bf60 7b3e ce5b 8bbf 5514 f1be a288 1fbd
000003d0: dfba a43f 6019 413f 2ad4 26bf 50c4 b5bf
000003e0: 3f9f 2d3f 1995 9e3f b32d 673d 39f6 7e3f
000003f0: f6b6 653f 83ff cf3e ab50 833f 7822 23bf
0.0 0.0 0.0 0.0 0.0 0.0 0.0 0.0
0.0 0.0 0.0 0.0 0.0 0.0 0.0 0.0
-0.33796808 -0.77349365 -0.5190629 -1.8407133 -0.680986 -0.43339548 -0.7290936 -0.19469884
-0.9687024 -0.16555142 0.02573119 -0.26794708 0.4507767 -0.08404841 0.34678632 0.10107046
1.0256951 0.5100386 -0.4358025 -0.6456559 -1.5851679 0.13631621 0.01831061 0.26874444
-0.3666182 -0.82538784 -0.69524467 -1.2483128 0.9480785 -0.46021625 -0.38337612 0.45566112
1.1401061 -1.7845526 2.2040727 -0.26805907 -0.2645502 -0.44804022 -0.30024892 1.1845652
1.4786336 -0.62201697 0.12470455 -0.7779968 1.7664945 0.84524316 -0.70938754 0.58514035
-1.9612128 -0.22311053 -0.48602128 0.7465789 -1.1968503 1.1564136 0.794364 -0.61667806
0.30482602 -2.4758527 -2.0016408 -2.0221663 0.8709319 0.60752547 -0.948183 0.22842392
0.5549955 -0.023669284 0.6817522 0.20559159 1.6315325 -1.057972 -0.58017737 1.0031941
0.24735223 0.04694161 1.0022526 0.60472566 -0.8032859 -0.41414157 0.28103524 -0.34202024
0.9397607 0.44849598 0.8800061 -1.4074749 -0.14873695 1.2708992 0.37671524 1.0238106
0.2282788 0.72163725 -1.2738659 0.51996756 -0.7886121 0.08042355 1.5148861 1.0089773
-1.1338923 1.188923 0.58107036 -1.8007425 -0.12771985 -1.5050201 1.0700688 -2.0203366
2.0027835 1.141001 -1.3994682 0.39880624 -0.8792686 0.7346441 -0.25201714 -1.3329488
-0.13462332 1.5312284 -0.06138834 -2.50419 0.09302362 1.5985029 0.38400587 1.5340717
-1.3664024 0.3167293 -0.1763332 0.23948857 0.23415932 0.8208048 -1.1269045 0.2288711
-0.5878767 -0.1510129 0.44179723 0.6550823 -0.23644233 -0.42101088 0.23133816 -1.3262807
-0.48408106 0.3794706 0.32735437 -1.2313117 -0.32534137 -0.56105775 -0.072096534 -0.6935707
0.20781298 -0.11759885 0.3174729 -0.11925122 0.2622316 0.1689226 -2.06918 -1.755225
-0.67644083 -0.5657195 0.07358698 -1.0744376 0.08002898 0.14686209 -1.373321 0.8944743
-0.11505774 -0.6542544 -0.33521032 -0.6713958 -0.5921007 -0.81469536 1.4868214 -1.4969053
-1.3887166 -0.32975224 -0.7399468 0.31289932 -0.6876532 0.6805133 2.63987 1.4320518
0.2831555 -0.86122185 0.65047634 -0.75043076 -1.2346505 -0.25445437 -0.5261625 -0.47352967
-0.90813637 0.2582357 1.9087126 0.31016624 1.2895067 -0.38608927 -1.5827699 -0.88028127
1.322333 -0.41842884 -2.9556413 -1.7460885 -0.64003986 0.84834665 0.036052883 1.0846919
-0.30576077 -1.0795728 -0.21244803 -0.06880445 0.33846563 0.37644124 -0.74488586 0.09787862
-0.0025069013 -0.08362996 0.9392823 1.9300332 0.40735063 0.43299976 -0.77673656 -1.4172275
1.0284292 -0.2192739 0.009184259 -0.19957452 0.598055 1.6284795 0.22727971 -0.5567903
0.24548624 -1.0887392 -0.47085825 -0.038948663 1.2869529 0.75429344 -0.65167487 -1.4200535
0.67821115 1.2389251 0.056440067 0.99594456 0.897323 0.40624627 1.0258993 -0.6372447

rnn.weight_ih_l0 f4 [32, 16]
00000000: c7e6 9abd 1437 153e 1030 cdbd b6d3 153d
00000010: a877 f8bd db99 7e3c 8871 28be 7f74 363e
00000020: 7242 0f3d 1cec 9fbd 4476 be3c 0e37 3bbd
00000030: ead0 fcbd 9337 c23d 4ab9 b43d fcd7 013c
00000040: 800b fb3b a202 8abc 5302 dabd 6590 373c
00000050: 4684 24bd 4b5a 213e 1d9c 213e af71 26be
00000060: 302a 5c3d 70d4 163d d05f 9dbc adf1 2a3d
00000070: ed01 bbbc 5db8 9bbd 7f72 b8bd 019d 8e3c
00000080: d6a3 3abe 1c97 94bd 0b18 233e 8f76 07be
00000090: 8259 fabd 44cc d3ba 1b81 c6bc 2ce9 f2bd
000000a0: 285c f83d 44c9 b03d 7b1c b73d 401d 0a3d
000000b0: 5d92 0ebe 2619 22be 5b09 9fbd 273c 8ebd
000000c0: 2f58 95bd 98d9 433e e93d f0bc 7501 04bd
000000d0: b68a 16be 86d4 babd e485 e2bd e9ac 823d
000000e0: 3e0c e13d b363 3abd 0bf6 2bbd b0b0 7dbd
000000f0: 3c40 7e3d 2c27 01be 1f3b fa3d 5d49 873d
00000100: 9de3 513b 587a 69bb 54da 473d cf48 1abe
00000110: 85ad 8cbd 2803 103e bccd 7e3c d580 1cbd
00000120: 6ca5 26be 3f81 8dbc f65d a2bd ecda d1bc
00000130: 3141 38bd cc4f 173d feca f4ba 076c 32be
00000140: 51ba 68bc 11bb 22be fd76 2a3e 1066 ddbd
00000150: 059d 1c3e 2963 c83d 846b 9ebd 390d 2d3d
00000160: 34dd 1e3e 4d8f 33bc e746 bbbd 7fa4 18be
00000170: debf 9bbd ce4f cb3c caf1 19bc fc86 eebc
00000180: b2c7 d33d 807b 3cbe d41b 673d 9d77 fd3d
00000190: 5bcd 31be f80c 2dbe f1d2 25be bbed 803c
000001a0: a057 c93d d04a e33c 5e3f 48bd 6e5b ae3d
000001b0: 6237 7d3d b343 1c3e eddd 25be c7f3 e9bd
000001c0: a91e dbba 1f5d 4b3d 0fd7 e33c 2f04 273e
000001d0: 7e2a 88bd 5968 253e 684e 08be 870b eebd
000001e0: a662 7dbd 43f6 0c3e 2fd4 2ebe 417d 27bd
000001f0: 4a50 e13d d888 093d 6aed 093e 46f4 dcbd
00000200: 9207 de3d ae3b 133e 303a 31bd ad6a 233e
00000210: 127d 5e3c ba3b 0f3e fd7f 6b3d 65a2 0d3e
00000220: 4e5a 073e d67e 18be 7a21 253e 5948 95bd
00000230: fc92 f9bd e02c 313e a28c d0bd e966 cd3d
00000240: dece 163e 2e4e d2bc daa8 393e 1522 0c3d
00000250: 4a0d 083e 8e63 a5bd 686a 283e 3a48 c2bd
00000260: 135d 03be b25e d6bd a540 48bc d436 223e
00000270: a667 ff3d 6908 31bd 2cf6 073e 8d73 27be
00000280: 6c56 0bbe b389 74bd 3d6c 413d 2567 8b3d
00000290: 5e52 1fbe 0114 9b3c c926 c9bd ab88 f23a
000002a0: 2f88 bcbd 41d8 70bb dce7 c238 dcbb f43d
000002b0: 0b49 683d 7717 093d b941 d2bc cae3 fa3c
000002c0: 37d0 81bd 5498 ee3d 8b30 4cbd 6ede 5e3d
000002d0: 1523 b93d c63a 1dbe 7115 16be 0a5a 0e3e
000002e0: f889 42be 061f 0abe 9261 59bd 5413 8bbd
000002f0: 5d84 1c3e f3df 91bc 7233 0b3e bb8f 77bd
00000300: feb3 0abd 8ca6 1a3e 164d 8f3c 5e4b 0ebc
00000310: ffc8 28be 77cd d0bc 1918 773c 3ae9 fc3c
00000320: bf13 04be ce68 00be aae4 01be e63a d63d
00000330: 989a bd3d f8b8 cbbd 21ef c63d ee0b aabd
00000340: 93c7 c0bd 7347 463a 6958 3bbe 891b 903c
00000350: ead8 263c a751 fd3d c719 28be 9e75 89bd
00000360: ef33 cc3c 0dc6 f23c 0b8f 8b3d 472e 213e
00000370: 8af2 31be 970f 8abd f50b b5bd b6f2 f0bd
00000380: 5771 3ebe e5fa 93bd fe51 24be 42d8 23be
00000390: 1248 0a3e 1efe 2bbe 9324 b6bc 2669 87bd
000003a0: ca8f 20be 0690 13bd da6c de3d 2fc0 e3bb
000003b0: ccb5 213e 0647 0abe 6455 bbbd 9cf6 34be
000003c0: 95db 21bd 2bd2 ebbb ce51 413e ef6a b73c
000003d0: cbd7 733c 068c 1ebe 8222 29be c07e efbd
000003e0: a76b 703d b51a c03d 9268 49bb d6ed e23c
000003f0: b565 4cbc 3cfa 343e d0eb cbbd cb97 be3d
-0.075635485 0.14571792 -0.10018933 0.036578856 -0.121321976 0.015539612 -0.16449559 0.17817877
0.034975477 -0.07808706 0.023249753 -0.0457068 -0.12344535 0.09483256 0.088244036 0.00792503
0.007661283 -0.016846959 -0.106449746 0.01120386 -0.04016521 0.157571 0.15782209 -0.16254304
0.05375117 0.03682369 -0.019210726 0.041734386 -0.022828067 -0.07603524 -0.090062134 0.01740885
-0.18226561 -0.07255384 0.1592714 -0.1322882 -0.122241035 -0.0016158898 -0.024231484 -0.1186088
0.121269524 0.08632138 0.08940979 0.0337193 -0.1392302 -0.15829906 -0.07765456 -0.06945067
-0.0729221 0.19125974 -0.029326396 -0.032227952 -0.14701352 -0.09122567 -0.11060694 0.06380636
0.10988663 -0.045505237 -0.04198269 -0.06193608 0.062072977 -0.12612599 0.12218308 0.0660579
0.0032026537 -0.00356259 0.0487922 -0.15066837 -0.06869034 0.14063704 0.015551981 -0.0382088
-0.16274041 -0.017273543 -0.07928078 -0.025617085 -0.044984046 0.036941335 -0.0018676219 -0.17424022
-0.014204578 -0.15891673 0.16646953 -0.108104825 0.15294273 0.09784538 -0.07735351 0.04224894
0.1551407 -0.010959459 -0.09144383 -0.149065 -0.07604955 0.024818327 -0.009396026 -0.0291171
0.10340823 -0.18406487 0.056423023 0.1237633 -0.17363493 -0.16899478 -0.16193749 0.015738359
0.09831166 0.027745634 -0.048888557 0.085135326 0.061820395 0.152602 -0.16197939 -0.1142345
-0.0016717511 0.049649354 0.027812509 0.1631019 -0.0664873 0.16153087 -0.1331116 -0.116232924
-0.061861657 0.13765816 -0.17073129 -0.040890936 0.11001642 0.03357777 0.13469473 -0.10788779
0.10841288 0.14378235 -0.043268383 0.15958662 0.013579624 0.13987628 0.057495106 0.1383148
0.13218042 -0.14892134 0.16126052 -0.0728919 -0.12186238 0.17302275 -0.101830736 0.10029394
0.14727351 -0.025672045 0.18130818 0.03421219 0.1328632 -0.08075629 0.16446841 -0.094864324
-0.12828474 -0.104672804 -0.012222444 0.15841228 0.12470941 -0.04322091 0.13277501 -0.16352673
-0.13607186 -0.059701633 0.047222365 0.06806783 -0.15558764 0.018930437 -0.09821851 0.0018503865
-0.092056625 -0.003674999 9.293828e-05 0.11949894 0.056710284 0.033469643 -0.025666105 0.030626196
-0.06338542 0.11650148 -0.04985098 0.054411344 0.090398945 -0.15354452 -0.14656617 0.13901535
-0.18997943 -0.13488397 -0.053071566 -0.06790796 0.15284868 -0.017806983 0.13593844 -0.060439806
-0.03386306 0.15102595 0.017492812 -0.008684961 -0.16482924 -0.025488598 0.015081429 0.03087293
-0.12898158 -0.1253998 -0.12684885 0.10460453 0.09258002 -0.09947389 0.09713579 -0.08303057
-0.09413066 0.00075637473 -0.18295445 0.017591255 0.010183552 0.123690896 -0.16416083 -0.06711887
0.024927108 0.029635454 0.06814393 0.1574031 -0.17377678 -0.06741255 -0.08840171 -0.117650434
-0.18597923 -0.07225589 -0.16046903 -0.16000465 0.13504055 -0.16796157 -0.022234237 -0.06611852
-0.15679851 -0.036026023 0.108606055 -0.0069504003 0.15792006 -0.13503656 -0.09147146 -0.17672199
-0.03951605 -0.007196685 0.18878862 0.022389857 0.014882992 -0.15483102 -0.1651707 -0.116940975
0.058696415 0.09380094 -0.0030732495 0.0277013 -0.012475421 0.17673582 -0.09957087 0.09306296

rnn.weight_hh_l0 f4 [32, 32]
00000000: 7858 e8bd 5fbd 0cbe 0561 9e3c 70e0 213e
00000010: 85d5 96bb 9060 d1bc c30f dc3d 8385 26bd
00000020: 6885 273d de93 063e c566 b2bd 179d 10bd
00000030: 6abf 113d 77c2 bbbd ae3e 7abd cd43 f2bd
00000040: ac01 27be 4259 1f3e bbec f0bb 17d2 b9bd
00000050: 92f5 a53d e038 de3c f6e5 18be af87 a1bd
00000060: 4506 82bd 9c7d 083e 2ff4 ae3d 1ebc fcbd
00000070: f5e7 babd 1c8c 1dbe 33d2 1c3c b68e 543d
00000080: 79f0 f4bd f261 3b3d 847b 2abe b594 fa3d
00000090: a6e5 ad3d c127 b13d 533c 283a 223b 643b
000000a0: 2135 fabd 4dd3 85bd 017d ca3c cce5 dcbd
000000b0: 2a6a 203e 31d7 1a3e b454 e3bd 31ab 39be
000000c0: e121 28bd 54f6 a13d 29ea 323e ff89 103d
000000d0: f9ab b03c c414 0d3e 9f2f d9bc 7737 983c
000000e0: 40f8 0ebe 2206 be3d 2165 ea3a 827f e03d
000000f0: 2db6 dd3c 4904 0b3e 0cc1 eb3b f78d c33c
00000100: d4e1 c63c c932 d43d f11f 4b3d acb7 23be
00000110: 8340 d23c 2ab3 ca3c 8ae5 113e 202e 193e
00000120: 7fdc 9abd 6a8d ddbd 2b2e 343d c722 b4bc
00000130: c3bf d93d d5c1 d839 ec0b f7bc 6d7a a8bc
00000140: d1d4 34be bcc2 04bd b339 323d 76d2 40bd
00000150: e758 2cbd d9dc edbd 4950 06be 49d7 21be
00000160: 3e70 f33d 78b8 cb39 d910 2abd a108 e8bd
00000170: b303 ca3d 6d89 353d 0ad7 e4bc 23fb 13be
00000180: 3d38 8b3d 1b3a 0d3e a314 073e efc8 163e
00000190: ffed 053e 12c6 ffbd 8c1e db3d d637 fcbd
000001a0: d528 04be debc 43bd 1e1e d1bd 0a6f a63d
000001b0: 6a77 4c3c b438 cabc e216 93bd ad45 7e3b
000001c0: b3b8 453d a94e 8d3d b23d 39bb ddcc fdbd
000001d0: d3f6 f939 323e a3bc 4b0c ed3c 4fcc 693d
000001e0: 66df 5e3d 2935 14be 1b32 123e 31b9 f0bd
000001f0: 7031 d83a f6f2 12bd 7835 533c a894 f9bd
00000200: 7147 233e 4414 b43d c49d 29bc c973 503d
00000210: 8b58 c0bd 08cb 783d 562c 2ebe e58c 703d
00000220: ba69 d73d 94a2 a03d f413 94bd 87b5 85bd
00000230: e1bc 883d ddfe dc3c 53bf 8ebd c83e ad3d
00000240: 17a8 183e 2c7a 943d e740 f2bd b713 343e
00000250: 1a0a b13d ce6a 0c3e a1cc b1bd d35b 33be
00000260: f307 893d 9f5d 0bbe 154a ec3d 6430 ce3d
00000270: b8f5 d33d 087b 18be d3d7 a53d ca80 7c3d
00000280: be25 6d3c ca02 193e 72a4 dc3c ea06 0bbe
00000290: 93da 18be 59ec 0dbe 89a6 893a 39ae febd
000002a0: 0cd2 13be 1aa1 72bd bdc4 98bd a077 fc3d
000002b0: d100 5fbd 3cfb 4bbd 6733 1a3e 394a b6bc
000002c0: 7a00 ebbd 6e4e 203e 6d15 70bd 2cea d0bd
000002d0: 970d 233e 8b98 b8bd f0e3 13be 78c2 0dbe
000002e0: ad9f 13be 8ec1 343e 6729 2b3c 7470 12be
000002f0: b340 1a3e 3e1a 103e de24 10be 2edc 15be
00000300: 2b47 203e 52c6 483d a924 9b3c 1b31 ccbc
00000310: 785c 303e 3fb1 1d3e 38de b13d 1816 253e
00000320: c9b0 2cbd c981 8a3d 6392 813d 8d52 0f3e
00000330: a295 a83d e942 223d 639e 423d 70ef 87bd
00000340: b646 b8bd 659a 87bd 3165 16be 4c32 19be
00000350: 2832 22be 78c8 20bc 63e7 923d 81cc 07be
00000360: 2aa6 adbd 85ba 0c3e ab21 103e 32b4 173e
00000370: 7128 2c3e 520e e1bd 055a 0bbe 0766 10be
00000380: 1f48 d63c 3964 66bc a421 73bd 4d20 80bd
00000390: b174 bd3d e5c9 6f3d e1fc 933d 307d 0d3e
000003a0: 811c 2cbe f817 993d 44be 65bd a4a8 223e
000003b0: a46f debc cd72 12be a658 e5bd fae4 debc
000003c0: 853d 15be d0df 123b 1862 88bd c40e 463d
000003d0: ac7a 1ebd 51fa 083e cf1f 30bd c6fb 60bd
000003e0: 35df 80bd 0d59 d2bd 1351 5ebd 89d5 19be
000003f0: 9554 4c3d caf5 bd3d a71f 9e3d af9f 5ebd
-0.11344999 -0.13744114 0.019333372 0.15808272 -0.00460309 -0.02555874 0.10745194 -0.04065467
0.04089871 0.13142344 -0.08711008 -0.035306063 0.035582937 -0.091679506 -0.061094932 -0.11829338
-0.16309232 0.15561393 -0.007352439 -0.090732746 0.081034794 0.02712673 -0.14931473 -0.07887208
-0.06348852 0.13329166 0.08542668 -0.12340568 -0.091262735 -0.15385479 0.0095716 0.051893912
-0.11959929 0.045747705 -0.1664868 0.12235395 0.084910676 0.086501606 0.00064176804 0.0034825285
-0.12217165 -0.06534443 0.02471781 -0.10786018 0.15665498 0.15121152 -0.1110014 -0.1813171
-0.041047934 0.079083115 0.17472138 0.035287853 0.021566378 0.13777453 -0.026511965 0.018581135
-0.13961887 0.092785135 0.0017882922 0.1096182 0.027064407 0.13575853 0.007194644 0.023871405
0.024277605 0.10361249 0.04959101 -0.15988034 0.025665527 0.024743635 0.14247718 0.14959002
-0.075615875 -0.10817988 0.04398934 -0.02198924 0.10632279 0.00041343147 -0.030157052 -0.02056619
-0.17659308 -0.032412276 0.043512058 -0.04707571 -0.04207697 -0.11614389 -0.13116564 -0.15804781
0.11886643 0.00038856617 -0.041519973 -0.11329771 0.09863987 0.044320513 -0.02793457 -0.1445127
0.06797836 0.13791697 0.13191466 0.14725088 0.1307907 -0.12488951 0.10699186 -0.12315337
-0.12906201 -0.04778754 -0.102108225 0.08126648 0.012479642 -0.024685241 -0.07182099 0.0038798854
0.048271846 0.06899769 -0.0028265533 -0.1239259 0.0004767688 -0.019927118 0.028936526 0.05707961
0.054412268 -0.14473404 0.14276926 -0.117540725 0.0016494226 -0.035876237 0.012891166 -0.12186557
0.15945221 0.08792928 -0.010352556 0.05089167 -0.09391888 0.0607405 -0.170091 0.058728117
0.105182126 0.07843509 -0.07230368 -0.06528764 0.06676651 0.026976997 -0.06970086 0.0845924
0.14907871 0.07249865 -0.118287854 0.17585646 0.08644505 0.13712618 -0.08681608 -0.17515497
0.06690969 -0.13609932 0.115375675 0.100678235 0.103496015 -0.14890683 0.08097806 0.06164626
0.0144743305 0.1494247 0.026933882 -0.13576856 -0.1492713 -0.1385969 0.0010501902 -0.12435574
-0.14435595 -0.05923567 -0.074594 0.12327504 -0.054444138 -0.049800143 0.15058671 -0.022252189
-0.114747 0.15654919 -0.058614183 -0.10200915 0.15923153 -0.0901347 -0.1444242 -0.13843715
-0.1441638 0.1765196 0.010446883 -0.1430071 0.15063743 0.1407251 -0.14076564 -0.14634773
0.15652148 0.049017258 0.01893838 -0.024925759 0.17222774 0.15399645 0.08684963 0.1612171
-0.042160783 0.06763036 0.06326749 0.13996334 0.08231665 0.03961459 0.04751433 -0.06637466
-0.08997862 -0.06621245 -0.14687039 -0.14960593 -0.15839446 -0.0098134205 0.0717304 -0.13261606
-0.08478959 0.13743027 0.14075343 0.14814833 0.16812302 -0.109890595 -0.13608558 -0.1410142
0.026157437 -0.014061981 -0.059358254 -0.06256161 0.09250773 0.05854215 0.07225967 0.13817286
-0.16807748 0.07475275 -0.056089655 0.15884644 -0.027152844 -0.14301606 -0.11198549 -0.027208794
-0.14574249 0.0022411235 -0.06659335 0.048353925 -0.038691208 0.13376738 -0.042999085 -0.05492761
-0.06292573 -0.10270891 -0.054276537 -0.15022863 0.04988535 0.09275396 0.07720881 -0.054351505

rnn.bias_ih_l0 f4 [32]
00000000: 9bc4 94bd fa3d 92bd 6748 6dbc dd59 13be
00000010: 7169 a5bc a244 583d 2c3c 3a3b 706b a03d
00000020: 0342 f7bd a743 183e ea08 143d dad9 2d3e
00000030: 00c7 b1bd 4c68 08bd 305b eb3d 28ec 88bd
00000040: 4420 bb3d 02cc 93bd a637 33be 3527 31bd
00000050: 0f8c 2f3e 94bf c2bd 8e12 8fbd d4f6 1d3e
00000060: b9e2 983b 2f1f 4d3d 7268 1ebe 91b8 58bd
00000070: 8eea 2d3e 121e ed3d 6f16 463c da7a 07be
-0.07264062 -0.07140727 -0.014482594 -0.14389749 -0.02019188 0.05279983 0.0028417213 0.07832992
-0.120731376 0.14869557 0.036141314 0.16977635 -0.08680534 -0.03330259 0.11492002 -0.06685668
0.091370136 -0.07216646 -0.17501697 -0.04325028 0.17143272 -0.09509197 -0.06985961 0.15426189
0.0046656993 0.050078567 -0.1546953 -0.05291039 0.16984007 0.11578001 0.0120903095 -0.13230458

rnn.bias_hh_l0 f4 [32]
00000000: 1e0e 6bbd 5ad6 9f3d 1e18 dcbc fe7f ddbd
00000010: ac06 853d bd12 03be aa0a c63d 792a 08be
00000020: 0089 27bc 730b 033e abbe 573a 2b6a efbd
00000030: 985f 913d 5649 973d f4a6 fbbd 1334 12bc
00000040: fe95 693d 5c84 df3c 2007 2a3d 955a 3cbe
00000050: defd d4bc d641 dbbd 85ab 113e 481c ad3c
00000060: fc6e 7b3d ad2a 8a3d 22ed ddbd e017 ce3b
00000070: 9c73 95bc 62cd 22be 77da 04bd cd27 cfbc
-0.05738651 0.07804556 -0.026866969 -0.10815428 0.06495413 -0.12800117 0.09670003 -0.13297452
-0.010225534 0.12797336 0.0008230011 -0.11690172 0.07098311 0.073870346 -0.12287703 -0.008923548
0.05702781 0.027284794 0.0415107 -0.1839393 -0.02599996 -0.107059166 0.14225586 0.02113165
0.06138514 0.06746421 -0.10836245 0.006289467 -0.018243603 -0.1589866 -0.032434907 -0.025287533

classifier.weight f4 [4, 32]
00000000: 9ee2 d73c b927 f43c cc8d 0abe 4580 afbd
00000010: 5200 99bd 55b2 44bd 8875 253e 3140 16be
00000020: 2002 093e 31b7 a03d c437 063e 50e6 233e
00000030: d236 033e 3d57 63be bef7 efbd 5202 093e
00000040: 641b 263d 022b f93c 1bf4 5abe f1fc 45be
00000050: fd87 533c 783b 16be 602e 65be 525e 26bd
00000060: b4ff ba3c 76b0 89bd 5407 06bd faeb d0bd
00000070: 6f8e aa3d 8775 623e dbe8 883c c14a 753d
00000080: b21a 2cbd a70c 3dbe 3b19 383d c418 17be
00000090: c51d a9bb 465e dc3d e741 443e 920d e03d
000000a0: f3f4 25bd f60d 0c3d 3804 9b3d 4969 e5bd
000000b0: 52b6 89bd 0928 ccbd 617e e03c 7de0 433e
000000c0: 7fd2 863d f4bb eebc 74c4 87bc 82d1 67bd
000000d0: 9c0f b93d 85c5 fe3d e50d fcbd 56bf 0d3c
000000e0: 7e88 d83d 0edb a4bd ca48 7dbd c371 4d3e
000000f0: b8e9 c23b afcd 84bd 7671 183e 4ab1 423e
00000100: 1ba2 27bd 4c54 d7bc ff6f ad3d 17e8 45bd
00000110: 3edf 9fbb b0ba da3d 5fdd e53d 3f9e ecbd
00000120: a702 853d c3c6 1f3e 5a0e c83d 8a7f c1bc
00000130: 1724 dcbd 7a2a 0fbe 40fa 82bd 189d 6e3c
00000140: 3128 99bc 50e3 8d3d 3e3b d1bd e56e 163d
00000150: dfa4 0fbe 203c b7bd 1020 64bc a8a3 f63c
00000160: eb3b 1c3e 57fb aabd 186e 80bd 0e65 eabb
00000170: 9cc6 c6bd 8ab7 2f3e f52f 003e 8bcd 393e
00000180: 7586 ae3c 16e8 57be 7d49 b5bc 298f 0bbb
00000190: 72d5 dabd cf90 dc3d a529 303e e01c cb3d
000001a0: affc f7bb 1351 293e 1448 793c 553d 18be
000001b0: a9bf a8bc af2a 9a3d d11a b9bd 96eb d4bd
000001c0: 81b3 0f3c ee03 9bbd 2e3e 12bc 15ba 39be
000001d0: 4830 f23c d4ef 87bd f9a8 e8bd 68f5 86bd
000001e0: 39f5 5e3e c031 1c3e 2a63 88bd 41ff 043c
000001f0: 245f 8c3d 334f 083e cc03 f2bc b3a8 12be
0.026353177 0.029804097 -0.13530654 -0.08569387 -0.07470764 -0.048021633 0.16158116 -0.14672925
0.13379717 0.07847441 0.1310721 0.16005826 0.12813881 -0.22201248 -0.11717175 0.13379791
0.040553465 0.030416016 -0.21382181 -0.1933477 0.01291084 -0.14671123 -0.22380972 -0.040617295
0.022827007 -0.067231104 -0.032721832 -0.10201259 0.08327948 0.22115146 0.016712597 0.059885744
-0.042017646 -0.18461858 0.044945937 -0.14755541 -0.0051610195 0.10760169 0.19165765 0.10940088
-0.040516805 0.034193 0.07569164 -0.11201722 -0.06724228 -0.099685736 0.027404012 0.19128604
0.06583118 -0.029142357 -0.016573168 -0.056596287 0.090361804 0.124400176 -0.12307338 0.008651575
0.10572909 -0.08049594 -0.061836995 0.20062928 0.0059482716 -0.064845435 0.14887032 0.19012943
-0.04092608 -0.026285313 0.08468627 -0.04831704 -0.0048789075 0.10680139 0.11223864 -0.115536205
0.064946465 0.15603165 0.09768362 -0.023620386 -0.10749071 -0.13981047 -0.06395388 0.014563821
-0.018695923 0.06928122 -0.10216378 0.03672685 -0.14027737 -0.08947015 -0.01392366 0.030107334
0.15257232 -0.083487205 -0.06270999 -0.00715316 -0.097058505 0.17159858 0.12518294 0.18144815
0.021304348 -0.21084628 -0.022129769 -0.0021295047 -0.10685243 0.107698075 0.17203386 0.09917617
-0.007567964 0.16534834 0.015214939 -0.14867146 -0.020599203 0.075276725 -0.09038318 -0.10396497
0.008770824 -0.07569109 -0.008925958 -0.18137391 0.029564038 -0.066375405 -0.11360354 -0.06589776
0.21773233 0.15253353 -0.06659539 0.008117498 0.06854084 0.13311462 -0.029542826 -0.14322166

classifier.bias f4 [4]
00000000: c538 04bd b944 db3c 95be 2b3e d778 bbbd
-0.032280702 0.026766168 0.1677192 -0.09153908
