save/2-8_rnn_sp_140.pt (torch, 18706 bytes, 7 tensors)

emb_layer.weight f4 [140, 16]
000000 00 00 00 00 00 00 00 00 00 00 00 00 00 00 00 00
       0.0 0.0 0.0 0.0
000010 00 00 00 00 00 00 00 00 00 00 00 00 00 00 00 00
       0.0 0.0 0.0 0.0
000020 00 00 00 00 00 00 00 00 00 00 00 00 00 00 00 00
       0.0 0.0 0.0 0.0
000030 00 00 00 00 00 00 00 00 00 00 00 00 00 00 00 00
       0.0 0.0 0.0 0.0
000040 66 d8 93 3f c0 4c e7 3f d8 af 86 bf d8 43 fe be
       1.1550415 1.8070297 -1.0522413 -0.49661136
000050 4d 34 1f 3d c6 d3 ae be 22 64 9d 3f 50 7f a2 3f
       0.038868237 -0.34145945 1.2296183 1.2695103
000060 61 da 1f 40 56 63 47 3d d8 e8 0d 3a 5e 1d 90 3e
       2.4977038 0.04867872 0.00054134196 0.28147405
000070 82 a7 a3 3f 42 41 a6 3e bc 40 b7 3e cf a7 c5 be
       1.2785494 0.32471663 0.35791576 -0.3860459
000080 93 45 19 bd 04 09 e5 be 66 0a b7 be 3a 57 e5 bd
       -0.037419867 -0.4473344 -0.3575012 -0.11198278
000090 da 72 89 3f 18 3b f6 be bd dd 73 3f 96 45 ba 3f
       1.0738175 -0.4809196 0.9526022 1.4552486
0000a0 a0 a2 36 bf 73 aa 74 bf 2b e4 a7 3f bd e3 3a be
       -0.71341896 -0.95572585 1.3116506 -0.18250938
0000b0 1e fa 8b 3e 41 41 18 bf 94 49 f9 3e 58 f6 bf be
       0.27339262 -0.5947457 0.48688948 -0.37492633
0000c0 9b 38 43 3f ea 28 90 bf 8e 0c 05 bf 05 c4 d8 3e
       0.7625825 -1.1262486 -0.5197228 0.4233705
0000d0 96 0a 9e bf 9c 63 97 3e 5d a9 5a bf b0 5b 2c 3f
       -1.234698 0.29568183 -0.8541468 0.67327404
0000e0 29 b3 1c 3f 2f 7d 04 3f f8 7c 36 bf 82 f8 ef bf
       0.61210877 0.51753515 -0.7128444 -1.8747714
0000f0 3a c0 92 3f 86 12 a3 bf dc 4c 78 3f 81 31 1c 3f
       1.1464913 -1.2740028 0.9699228 0.61013037
000100 57 85 21 3f 95 28 c9 bf 92 ee 26 3f 87 a6 21 3f
       0.63094085 -1.571551 0.6520778 0.63144726
000110 7e 15 b6 3f df 18 aa 3e a5 ce 1a be db d4 71 3d
       1.4225309 0.332221 -0.15117891 0.059040885
000120 7a 2c 8a bf a5 c9 0a be 70 33 88 bf 55 46 21 c0
       -1.0794823 -0.13553484 -1.0640697 -2.5199177
000130 0e 6e b6 bf 86 15 6c be d7 96 ee 3f cf 11 ea be
       -1.4252336 -0.23055086 1.8639783 -0.45716712
000140 b2 23 0b bf 52 42 5f 3e 2c e7 1b bf 56 90 76 bc
       -0.5435134 0.21802643 -0.60899615 -0.015049061
000150 0a a5 d6 3f 5a e9 72 3e cd 4d 6c bd 14 65 1b be
       1.6769116 0.23721829 -0.057691384 -0.15175277
000160 c3 a2 04 bf 39 e5 09 bf d7 cd 1a 3f ba 6d e6 3f
       -0.51810855 -0.5386539 0.60470337 1.8002236
000170 84 3d 32 3f 91 78 78 3d 9e cf b5 3f 23 b3 04 bf
       0.69625115 0.060661856 1.4203985 -0.5183584
000180 4c fe 8f 3f 95 4c a2 be 7f 92 2c 3e 82 80 b0 3e
       1.124948 -0.31699052 0.16852759 0.34473044
000190 86 1d 7c 3f bd 44 77 3f 96 1b 0a 3f 08 0f 26 3f
       0.9848255 0.9658926 0.5394834 0.64866686
0001a0 31 ed 87 bf c7 75 57 be d8 64 b3 3f 41 f9 b7 3f
       -1.061926 -0.21041022 1.401515 1.4372941
0001b0 f8 73 44 3e eb c8 a2 be 6d de 59 3f cf 7c fe be
       0.19184864 -0.31793913 0.8510502 -0.49704596
0001c0 c1 12 dc 3f d7 14 a8 bf 16 1d e7 3f 53 58 10 c0
       1.7193223 -1.313136 1.8055751 -2.255391
0001d0 b9 0e d2 be 00 90 ba 3e e8 22 a8 3f 84 98 01 bf
       -0.41026857 0.36437988 1.3135653 -0.50623345
0001e0 38 4f 21 bf 68 08 eb 3e f6 23 0f bf 11 84 63 bf
       -0.63011503 0.4590485 -0.5591425 -0.8887339
0001f0 e2 e7 7f 3f ed 69 9e 3f 31 47 ea 3e f4 f1 91 3f
       0.999632 1.2376076 0.4575744 1.1401963
000200 85 b1 2b 3f 55 93 f1 3f 26 01 34 be 9c 94 6c 3f
       0.6706775 1.8873087 -0.17578563 0.9241426
000210 c6 19 d7 3e b7 d0 05 3f c0 c5 95 3f f8 72 61 bf
       0.4201185 0.522716 1.1700974 -0.88066053
000220 d6 cc 53 be 25 ec ca 3e 8d 2a 17 c0 18 a2 37 bf
       -0.20683607 0.3963329 -2.361972 -0.7173171
000230 d0 04 9e bf 16 e5 6b 3f 89 99 8d 3e dc 5b ae 3f
       -1.2345219 0.9214643 0.276562 1.3621783
000240 73 c8 ad 3f bf 04 1b 3f 36 a6 bf 3e ef 32 cf 3e
       1.3576797 0.60554117 0.37431496 0.40468547
000250 4c f6 36 3f bf ab f8 be b4 63 f6 3e 60 51 ce bf
       0.7146957 -0.48568532 0.48122942 -1.6118584
000260 b0 35 a8 3f 1a 2a 44 3f 35 2c c3 be a1 a2 34 be
       1.3141384 0.7662674 -0.38119665 -0.17640163
000270 df 7c 18 3f 43 44 ab bf 92 52 23 3e 32 69 08 3f
       0.5956554 -1.3380207 0.15949467 0.53285515
000280 bd 97 56 be 77 ea 92 3e 11 ea de 3e 5c b6 5b 3f
       -0.20956321 0.28694507 0.43537953 0.85825133
000290 40 a8 96 3f 02 10 99 3f 24 f3 b8 3e d0 ad 09 c0
       1.1770096 1.195801 0.36123002 -2.1512337
0002a0 aa f1 20 be aa 46 f7 bf f6 2a 00 3e eb f2 0c 40
       -0.15717188 -1.931844 0.12516388 2.2023265
0002b0 e5 8b 0b 3f 5d 6d c4 bf ba 4f d7 3e 2d 36 9c 3e
       0.5451034 -1.5345875 0.42053014 0.30510083
0002c0 2d 36 23 bf ad d8 15 bf c4 66 02 bf 48 0f dc 3f
       -0.6375454 -0.58533746 -0.5093806 1.7192163
0002d0 75 f4 b4 3e d0 21 75 bf 18 4a 05 3f 1c c2 1a bf
       0.35342756 -0.9575472 0.52066183 -0.6045244
0002e0 51 18 27 bf 0d 68 3a bf 15 85 7b bf bf 1d a5 bf
       -0.6527148 -0.7281502 -0.9824994 -1.2899703
0002f0 4a 27 a2 3d 31 7d c5 be 63 8e b2 3e 42 31 b5 bf
       0.0791765 -0.38572076 0.34874257 -1.4155657
000300 c4 73 b1 3f 3a 3b 14 be bc 11 d7 3f dd a1 41 be
       1.3863454 -0.14475718 1.6802287 -0.18909402
000310 3d db 3c be d4 7d 14 bf 98 14 ef bf 76 ff 0f be
       -0.18443008 -0.580045 -1.867816 -0.14062294
000320 4f 61 29 bf eb ad e6 bd 3e 43 44 bf 6a bb da 3f
       -0.66164106 -0.11263641 -0.76665103 1.7088444
000330 59 9d a0 bf 6e f1 67 be 82 10 87 bd bd 0b 39 3f
       -1.2548019 -0.22650692 -0.065949455 0.72283536
000340 52 1b b8 3e 20 1f 13 bf 6e 34 d0 3f fa 66 4a bf
       0.35958344 -0.5746937 1.6266 -0.7906338
000350 98 24 20 bd 8a 15 82 3f 9c e8 30 bf 27 cd 09 40
       -0.0390974 1.0162823 -0.69104934 2.1531465
000360 f7 ef cd bf 0d 4b 5b 3f bd e8 b5 bf 9a 50 a7 3d
       -1.6088856 0.85661393 -1.4211651 0.081696704
000370 c8 87 91 3f 06 51 96 bf 1d 42 0b 3f 2f 69 fc be
       1.1369562 -1.1743476 0.54397756 -0.49299
000380 1a 4d de be a8 b7 c9 3d 24 83 94 be e5 11 7b be
       -0.434182 0.09849483 -0.29006302 -0.24518545
000390 d3 1c 18 3e 8b 1b 25 40 8a 59 97 3e 01 1f ee 3e
       0.14854746 2.579806 0.295605 0.4650803
0003a0 f8 b5 21 3f 3c 5f aa bf d1 93 65 b9 f5 85 74 bf
       0.6316829 -1.3310313 -0.00021894208 -0.955169
0003b0 c8 67 34 3e ab 14 1d 3f 89 a7 a7 3f 7c be 98 bf
       0.17617714 0.6135966 1.3098003 -1.1933131
0003c0 20 0b 27 be 0f 3f 13 40 3b 7a 81 bf b3 92 a9 bf
       -0.16312838 2.3007238 -1.0115427 -1.3247894
0003d0 be 3a 87 3f ac 85 f6 3d 4f 6b 16 bf bb e7 0f 3f
       1.0564802 0.12037215 -0.5875749 0.5621297
0003e0 45 f4 ad 3f 4e 4a d4 be 2e d6 54 be e6 5d 0e 3f
       1.359017 -0.4146294 -0.20784828 0.5561203
0003f0 c9 38 7c 3d b7 55 5b 3e b8 99 85 3f 38 83 c1 bf
       0.061577592 0.21419416 1.0437536 -1.511817

rnn.weight_ih_l0 f4 [32, 16]
000000 68 63 b2 3d fc 8e 96 bb d6 49 0f be ed 2e 0f be
       0.087103665 -0.004594682 -0.1399301 -0.13982745
000010 20 3e f0 3c 4d aa 74 bd b2 4f 65 3c 31 9a 9f bc
       0.029326499 -0.059732724 0.013996052 -0.019482704
000020 db fd d1 3d bb 60 da 3c 06 53 f9 3d 79 f5 43 3e
       0.10253497 0.026657453 0.121740386 0.19136609
000030 96 cb 61 3d d3 ac 01 3e 21 57 d2 3d c5 ab 37 be
       0.055125795 0.12663583 0.10270525 -0.17936619
000040 38 ef 19 bd a9 40 e6 bd 18 dd 83 3d 0a 1e f9 3c
       -0.037581652 -0.11242802 0.06438655 0.030409832
000050 29 fa 41 bd 9c f3 03 be c3 e5 26 3e 53 ab a3 3d
       -0.047357712 -0.12885898 0.16298585 0.07991662
000060 e2 77 9f bc 2e 35 1d bd df 7c 1d be 87 2b 05 be
       -0.019466344 -0.038380794 -0.15379666 -0.13004886
000070 f4 a0 01 3e 0b 19 ed 3d 4e 83 26 3e 6a 52 18 be
       0.12659055 0.11577042 0.16261026 -0.14875188
000080 00 ec 7b bd d5 6f 86 3c 26 33 fa 3d 8e a3 9d 3c
       -0.061504364 0.016410748 0.12216787 0.019243028
000090 1f 31 12 be 94 bf 00 be 35 b3 cf 3b 35 22 05 be
       -0.1427655 -0.12573081 0.006338502 -0.1300133
0000a0 ee e1 86 bd 4a 2b 17 bd d2 5c ed bb 17 86 cd 3d
       -0.065860614 -0.036906518 -0.007243731 0.10035341
0000b0 a8 5e 8f 3b 6a be f2 3d 40 20 27 3e 79 e8 2b 3e
       0.0043752976 0.11852725 0.16320896 0.167879
0000c0 5f 78 7d bd f7 02 06 3e 50 1e 28 be 66 11 84 3d
       -0.061882373 0.13087068 -0.16417813 0.06448631
0000d0 43 33 fb 3d 0d fc 67 bd 62 cb b8 bc 57 88 55 3d
       0.12265637 -0.05663686 -0.022557918 0.052131977
0000e0 f3 4e 05 be 19 18 cf bd c3 59 f5 bd c2 bb 1a 3e
       -0.13018398 -0.10112018 -0.11980011 0.15110686
0000f0 9c 6c 82 3d a7 40 2c 3c 0b 95 79 bc 3d b7 97 bd
       0.06368372 0.010513461 -0.0152332885 -0.07407997
000100 bd 9d 98 bd 9e 36 ff bb 01 4b 08 be 95 dd 38 bc
       -0.07451961 -0.0077884933 -0.13309862 -0.011283298
000110 8e fe 57 3e 07 1b 23 3e cf df d1 3d 1a ca 8f 3d
       0.21093199 0.15928279 0.10247766 0.0702097
000120 1d 8a 05 3e 05 ab 85 bd 4a 77 04 3e f0 b3 24 3d
       0.13040967 -0.0652676 0.1293613 0.040210664
000130 6d f3 63 bd 5f e3 e7 3d fa 41 97 bd 55 b3 84 3d
       -0.05565207 0.113226645 -0.07385631 0.06479517
000140 f8 88 51 bb b7 43 7e bd 55 c1 2f 3d f9 c2 e9 3d
       -0.003197251 -0.062076297 0.042908985 0.11414141
000150 45 ad 0e be 0d 42 0d be bd 3d 47 3c 1e 54 02 be
       -0.13933285 -0.13794728 0.012160716 -0.127274
000160 f3 ef a1 bd b6 c5 41 bd 46 bf 92 bd 48 fd 27 bd
       -0.07907095 -0.047307692 -0.07165389 -0.041013032
000170 a4 72 04 3e f8 09 2d 3e cd 92 c2 3c 75 ff 5c bc
       0.12934357 0.16898334 0.02375164 -0.01348864
000180 18 59 0f 3e 44 5f 8a 3d a2 8b 20 3e 84 66 09 3e
       0.1399883 0.06756452 0.15678266 0.13418013
000190 99 48 08 be 7b ec 25 3e 38 b4 85 bd c9 62 3d 3e
       -0.13308944 0.16203491 -0.065285146 0.18494715
0001a0 29 b7 4f 3d fd c8 56 bc 13 c7 dd 3d 0f 40 05 3e
       0.050711785 -0.013109443 0.10828986 0.13012718
0001b0 79 a9 3d 3e 8f 63 e5 bd e6 23 db 3d ca 76 15 3e
       0.1852168 -0.1120063 0.107002065 0.14596096
0001c0 43 7b 08 be 5f a7 22 3d 98 c6 ee bd b3 d5 03 be
       -0.1332827 0.0397104 -0.116589725 -0.12874489
0001d0 14 1e 10 3e ac 63 95 3d 1b 49 a7 3d cf 11 a8 3d
       0.14073974 0.072944015 0.08168241 0.08206522
0001e0 21 b0 09 bd 9f 3d ec bd 20 cf 27 bd 94 ab 1b be
       -0.033615235 -0.11535191 -0.040969014 -0.1520217
0001f0 14 8c a7 bd ff aa 99 3c 81 6a cf 3d 68 54 8c bd
       -0.08181015 0.018758295 0.10127736 -0.06852037
000200 c1 c3 d8 3b 71 7a 02 3e e9 a7 31 3e 33 3f 5f bd
       0.0066151326 0.1274202 0.17349209 -0.05450363
000210 e5 37 0c bd 8c 36 14 b9 d9 ef 08 3e b1 4a 2b be
       -0.034232993 -0.000141347 0.13372745 -0.16727711
000220 10 03 26 be 61 1d d6 3c f7 7c 17 be 08 0a 40 bd
       -0.16212106 0.026137056 -0.14793764 -0.046884567
000230 f6 22 a0 3b e8 4e e9 bc 49 ea d0 3d 9c 01 9d bd
       0.00488698 -0.028480008 0.10200936 -0.076663226
000240 90 ed 24 3e c7 53 cd bc 55 38 dd bd a0 67 3b 3d
       0.16106248 -0.025064362 -0.1080176 0.04575312
000250 50 14 1a 3e 9a b3 2d be c4 aa 8e bc 7d b3 df 3c
       0.15046811 -0.16963044 -0.017415412 0.027307266
000260 1f 7a 9a bd 0f e0 81 3d f2 83 07 3e 7d 5f b4 bd
       -0.07542824 0.06341564 0.13233927 -0.088072754
000270 78 0e f5 bd 1a be 1f be 12 0e 4a bd ea 9b bb bd
       -0.1196565 -0.15599862 -0.049329825 -0.091605976
000280 21 ae 0b be 37 b8 a6 3d df eb 97 bd 90 91 00 bd
       -0.13640644 0.08140605 -0.07418036 -0.03138882
000290 00 1e 52 bd d0 21 34 be 1a dd 2e 3e 7c 48 b0 3d
       -0.05129814 -0.17591023 0.17076531 0.08607575
0002a0 7f 06 1d bd 51 cb ca 3b 00 fe aa 3d d1 ad 05 be
       -0.038336273 0.006188788 0.08349228 -0.13054587
0002b0 d0 13 05 be d9 d9 1c 3d b0 6d 9c bd 1f e2 85 bd
       -0.12995839 0.038293693 -0.07638109 -0.0653727
0002c0 38 5f 18 3e db 7d 1d bd 89 21 46 bc 1e 65 22 be
       0.14880073 -0.038450103 -0.012092956 -0.15858886
0002d0 a9 15 a3 bd a1 ca 25 bc 16 b2 2b 3e 8a ac 0e be
       -0.07963116 -0.010119111 0.16767153 -0.13933006
0002e0 a5 40 e8 bd 30 f3 35 be 76 a5 d8 bd 06 20 cd bd
       -0.11340455 -0.1776855 -0.10578434 -0.100158736
0002f0 6b c5 2e be 5e e7 7e bd 39 07 92 3d 90 9e 95 bd
       -0.17067496 -0.062232368 0.07130284 -0.07305634
000300 dd 37 69 3c 17 bb 97 bd d5 4b 58 3d 98 18 b8 bd
       0.01423451 -0.074087314 0.052806694 -0.08989066
000310 9f 1d 86 bd d6 29 cf 3d d0 cb 06 bd 91 09 cc 3d
       -0.065486185 0.101154014 -0.032909214 0.09962762
000320 65 4b 8b bd 7f cd 02 3e 2a 08 58 3d 26 bc c2 3c
       -0.0680149 0.12773703 0.05274216 0.023771357
000330 b6 ed d3 3b a1 1c d7 3d 2f eb 25 3e d2 f6 0a 3e
       0.0064675463 0.105035074 0.16202997 0.13570717
000340 0a 99 a8 3d fb 06 0d 3d 87 b9 cb bd b0 72 11 3e
       0.08232315 0.034430485 -0.09947496 0.14203906
000350 60 37 30 be 3d dd 2d bd 73 cf 93 3d 3e 10 93 3b
       -0.17208624 -0.042447317 0.07217302 0.00448802
000360 80 7b 78 3d 5d ca 4f 3d 92 2e 17 3d 37 8e 2c 3d
       0.060664654 0.050730098 0.036909647 0.042127814
000370 0b 4a f5 bd fc 6a c9 bd 0a 7e 26 be b5 e1 23 3d
       -0.11977013 -0.09834859 -0.16259018 0.040010173
000380 98 db 95 bd 57 1b 57 3c da 01 8e bd a0 cd 8d 3b
       -0.07317275 0.013129077 -0.06933947 0.004327491
000390 2b 1a b7 bd 79 56 d3 bd d0 fd 10 3e cc 82 43 bc
       -0.08940538 -0.10319228 0.14159322 -0.01193304
0003a0 96 69 13 3e 0e 49 65 bd bf 27 25 3e dd 13 02 be
       0.14395747 -0.055977874 0.16128443 -0.1270289
0003b0 fd fa 76 bd 37 de a4 bd 2c 6b 15 bd d5 be 1b 3e
       -0.060297955 -0.080501966 -0.03647916 0.15209515
0003c0 37 6a 3a 3e 19 2b f9 3b 89 95 cd 3d 13 f3 a0 3d
       0.1820458 0.0076040146 0.10038287 0.07858863
0003d0 c8 4d 19 be 16 4b 0d be a0 67 0c 3d f1 a2 d1 3d
       -0.14971077 -0.13798174 0.034278512 0.10236157
0003e0 ea 4d 5a bd 0d 65 11 be 89 7d 14 3e 26 c1 22 bd
       -0.05329696 -0.14198704 0.14501013 -0.039734982
0003f0 2d 85 11 3e b1 98 aa bd 45 78 ad 3a 72 8d 97 bd
       0.14210959 -0.08329905 0.0013234696 -0.074000254

rnn.weight_hh_l0 f4 [32, 32]
000000 d3 db 0d bc 74 fb 1e 3e 9a 1c f9 bd 48 f0 f8 bb
       -0.008658367 0.15525609 -0.121636584 -0.007597003
000010 51 4a 0c 3e 3b bf 9b bd 86 4a 2a 3e 1d df f0 3c
       0.13700224 -0.07604834 0.16629991 0.029403264
000020 89 5c 49 bd 97 59 1e be a0 4f 01 be ec a4 cc bd
       -0.049160514 -0.15463863 -0.12628031 -0.09992394
000030 29 56 25 be 7f 5b 95 3c fc 10 90 bd 94 f0 c7 bd
       -0.16146149 0.018232105 -0.070344895 -0.097626835
000040 e7 ff 2b 3e b3 d8 94 bd 8f f2 48 3c ee ce ec bd
       0.16796838 -0.072678946 0.012264862 -0.11562906
000050 47 65 20 be b5 c2 1f 3e 84 cc a5 3c 3a 4c 15 be
       -0.15663634 0.15601619 0.020239122 -0.1457986
000060 4f 5b 1c be 5f 3d b7 3d 4c da 8b bd 47 6e c9 bd
       -0.15269206 0.089472525 -0.06828746 -0.09835487
000070 8c ec 03 be 30 2f 0a be df 05 67 3d e8 bc 32 3d
       -0.12883204 -0.13494563 0.056402083 0.043637186
000080 32 48 f2 3d 25 10 c6 3d 59 eb 0e 3e 92 21 de 3b
       0.118301764 0.09671048 0.13956966 0.0067789042
000090 d1 cc 09 3c cd ad 0c 3e 07 bd a2 3b 74 c5 0c 3e
       0.008410648 0.13738175 0.0049663815 0.13747197
0000a0 77 83 59 bd 3c b8 ff 3d bc 05 15 3e 93 8b ec bd
       -0.05310389 0.12486312 0.14552969 -0.11550059
0000b0 d7 ad 63 3c e7 34 83 3c 62 4b bb 3d 12 ca c9 3d
       0.013896427 0.016016437 0.091452375 0.09852995
0000c0 ab 34 a3 3d fb 20 20 be b9 c7 0d be d6 b1 a7 3d
       0.0796903 -0.15637581 -0.1384572 0.081882164
0000d0 c7 e3 0e be 55 75 f0 3c 57 a7 05 be 9b 43 78 3c
       -0.13954078 0.029352823 -0.13052116 0.015152837
0000e0 db 3a 10 be 8e 9e ef 3d b5 f6 f7 3c ef f0 03 bd
       -0.14084952 0.11700164 0.030269006 -0.032212194
0000f0 27 59 ad bd 3f a0 60 3d 11 ee a6 3d 88 b0 d5 3d
       -0.0846427 0.054840323 0.08150876 0.10434061
000100 36 1e 1a bd 7f 05 26 3d f0 c0 f8 3d 32 b9 b1 3d
       -0.037626468 0.040532585 0.12146175 0.08677901
000110 e9 21 ee bc cf 45 83 3d df 9d 09 be 6d 9b 81 3d
       -0.029068904 0.06409799 -0.1343913 0.06328473
000120 7f a3 fc bc 9b bb cc 3d e2 40 f2 bd e3 70 1a be
       -0.03083968 0.099967204 -0.11828782 -0.15082125
000130 c7 08 c3 bc cc 19 0e be 42 e2 8a 3d 94 6c 52 bd
       -0.023807896 -0.13877028 0.067814365 -0.05137308
000140 33 fa d7 3d 3d e6 4b 3d 0f a4 7c 3d 09 d5 25 3d
       0.105457686 0.04978012 0.061679896 0.04048637
000150 03 29 8a 3d 63 64 35 bd b9 fe 41 bd 1c 83 22 be
       0.067461036 -0.04428519 -0.047362063 -0.15870327
000160 e0 b4 ca bd 96 5b 61 3d 46 51 97 3d ab 6c ab 3d
       -0.098977804 0.055018984 0.073885486 0.08370336
000170 d0 ae a3 bd 42 3f c3 3c 25 59 1b 3d c5 c9 d9 bd
       -0.07992327 0.023833875 0.03792681 -0.106341876
000180 72 15 3f 3d 5e 2a fe bd 36 58 e0 3d 97 f6 be 3d
       0.04665131 -0.12410425 0.10954325 0.09324377
000190 6b 46 b5 bc 5b 33 f4 3d 1d e3 19 3e 0e af fa bd
       -0.022128304 0.11923858 0.15028043 -0.1224042
0001a0 32 03 96 bd 52 cb 0c 3c 14 4a d6 bc 62 b1 2d 3e
       -0.07324828 0.008593397 -0.02615837 0.16962197
0001b0 30 5d cd bd ff 8a 1c be 91 7d 31 bc 32 9d a9 3d
       -0.1002754 -0.15287398 -0.01083316 0.08281936
0001c0 32 3f d1 3c 04 2f 2f 3e 5e 95 3f bc 71 fe 35 3e
       0.02554283 0.17107779 -0.011693327 0.17772843
0001d0 55 03 e3 bc 63 6b d1 bc c5 f1 2b bd 3e 4a 10 3e
       -0.02771155 -0.025563901 -0.041978616 0.14090821
0001e0 ad bc 7b bd a0 e0 fd bd ff f3 0e 3d b2 8e 12 be
       -0.061459232 -0.123963594 0.03490066 -0.14312246
0001f0 e2 b2 0d 3c 88 05 20 be 5b 8b ec 3d 0f 1c ce bd
       0.008648606 -0.1562711 0.115500174 -0.100639455
000200 f0 16 51 3d fb d6 19 3e e2 b0 17 bd 86 a6 34 be
       0.051047266 0.15023415 -0.037033923 -0.17641649
000210 25 8d 3a be 24 57 0c 3e 3e b7 1c 3e 1c eb d6 3d
       -0.18217905 0.13705117 0.15304276 0.10494062
000220 44 7d 0c be aa b4 44 bd e7 2b f8 3d f0 97 2d be
       -0.1371966 -0.048023857 0.12117749 -0.16952491
000230 ad cd 78 bc ce c7 fe bd 43 2d c1 3d a8 86 79 3d
       -0.015185756 -0.124404535 0.09432461 0.060919434
000240 7b fa 35 be 06 39 9a 3c 89 6f 97 3d 16 a3 9f 3c
       -0.17771332 0.018826019 0.073943205 0.019486945
000250 d2 b0 53 bd c8 8a 96 3d dc d2 ea 3b 3b aa f9 bd
       -0.0516823 0.07350689 0.0071662497 -0.12190672
000260 db 84 9b 3c 66 58 87 3d cf 43 69 3c f8 57 89 bd
       0.018984249 0.066086575 0.014237358 -0.06706232
000270 5a 0e af 3d 51 8f 1f bd 57 1f 8c 3c 03 0c c0 bd
       0.08547659 -0.038955037 0.017104788 -0.09377291
000280 cb ae 82 3d d1 47 93 bd 41 cc cc 3d 32 8b 48 bd
       0.06380995 -0.07191432 0.09999896 -0.048960872
000290 70 5c 02 be 0f 0b 07 be a5 fc cd bd fc ef 8b bd
       -0.12730575 -0.13187812 -0.10057954 -0.06832883
0002a0 e5 e3 01 be 25 48 77 3d 3e 65 1f 3d df 03 dd bd
       -0.12684591 0.060371537 0.03891491 -0.10791754
0002b0 5e 7b 2c 3e ca f8 0a 3e e6 df b9 3d ba 8d d6 3d
       0.16843936 0.13571468 0.09075908 0.10476251
0002c0 c9 f1 d4 3d 9a 87 94 bd c1 c1 81 bc ea ad f9 bd
       0.10397679 -0.072524264 -0.01583946 -0.121913746
0002d0 00 42 cd bc ba 0b f0 bd 86 03 cf 3d 18 28 44 3d
       -0.025055885 -0.11720987 0.10108094 0.0478898
0002e0 27 5e 19 3e 2c 37 c5 3d 92 0e 2f 3e 28 e1 06 be
       0.14977323 0.09629664 0.17095402 -0.13171828
0002f0 6e e2 f4 3d 0e e4 d9 3d 2a ab 30 3e a4 50 28 bc
       0.119572505 0.10639201 0.17252794 -0.0102731325
000300 7a 73 8a 3c 74 60 93 3d c0 71 e7 bd 63 f8 f6 3d
       0.016900767 0.07196131 -0.11300993 0.12059095
000310 39 12 0e be 8b ac 20 3e 0c 3b 14 be 69 d2 41 3d
       -0.13874139 0.1569082 -0.1447565 0.047319803
000320 0a 2d e7 3d 2f 90 8b 3d 07 7a 31 bd 80 32 80 bc
       0.112878874 0.0681461 -0.043329265 -0.01564908
000330 e6 46 00 3e bd 58 29 3e a4 fe f4 bc 0a 5a ce bd
       0.12527046 0.16537757 -0.029906578 -0.10075767
000340 68 05 2a bd 5d f4 01 bd a1 0d 8d bc ee 7e 08 3d
       -0.041509062 -0.031727184 -0.017218413 0.033324175
000350 17 10 f4 bd 2d 10 59 bb 3d 3a 2e be 16 b3 28 be
       -0.119171314 -0.0033121214 -0.17014404 -0.16474566
000360 64 ef 1b 3e da 9f 2f 3d e1 3f c5 bd 03 68 0f be
       0.15228039 0.042877056 -0.096313246 -0.14004521
000370 42 98 9d 3c 28 f3 f0 3c e2 9e 32 bd de be b1 3d
       0.019237641 0.029412821 -0.043608554 0.08678983
000380 12 81 a1 bd 76 26 0f be bc b4 db bd 60 f3 64 3b
       -0.07885946 -0.13979515 -0.10727832 0.0034935102
000390 52 4a 06 3d 98 04 f7 3d 43 dc 19 bd 24 29 a1 3d
       0.03278572 0.12061423 -0.037563574 0.07869175
0003a0 0d 98 9f bc 4d a9 00 3e db c2 67 3c fe be 15 3e
       -0.019481683 0.12564583 0.014145578 0.14623639
0003b0 22 0f c6 bd c4 fb 2c 3e 68 09 41 3d d1 df ee 3c
       -0.09670855 0.16892916 0.04712811 0.029159458
0003c0 a2 13 7a 3c 68 06 11 3e 56 c9 90 3d ef f2 1a be
       0.01526347 0.141626 0.07069652 -0.15131734
0003d0 07 cc 33 3e 58 8b c4 bd ff 33 36 3d b0 45 36 bd
       0.17558299 -0.0959689 0.04448318 -0.044500053
0003e0 7f 92 06 be b2 0f 1e be f5 16 01 be 30 5f 1c be
       -0.13141821 -0.15435675 -0.12606414 -0.15270686
0003f0 a8 96 c8 3a 7d 32 00 bd e6 05 dd bd d2 c9 0a be
       0.0015303688 -0.03129815 -0.10792141 -0.13553551

rnn.bias_ih_l0 f4 [32]
000000 3c 7e cd 3d c2 e9 88 3d 2e 59 62 3d 06 42 84 bc
       0.10033843 0.06685211 0.05526083 -0.016144764
000010 81 45 1f 3e b0 66 75 bd d9 95 88 3d cc ad 0b be
       0.15553857 -0.059912384 0.06669206 -0.13640517
000020 7c e5 29 3e 5e 94 2c 3e 21 ca f5 3c 96 c4 20 be
       0.16591448 0.16853473 0.03000361 -0.15699992
000030 36 4c 48 3d 73 fd db 3b 34 92 da bd b1 b0 33 3e
       0.048900805 0.006713563 -0.10672417 0.17547871
000040 48 4b ec bd 20 59 db bd ff e4 fd 3c b9 98 e2 3d
       -0.11537796 -0.107103586 0.030992983 0.11064286
000050 e2 19 5a 3d cb c5 28 be 0e 50 d1 bd 91 8b 56 3d
       0.05324734 -0.16481702 -0.10220347 0.052379195
000060 e3 49 f2 bd 9d a4 0f bd 94 da 87 3d 00 fb 1c 3e
       -0.11830499 -0.035069097 0.06633487 0.15330124
000070 f7 d5 a8 bd a0 c3 0f 3e 37 5a 08 3d 64 80 10 3c
       -0.082439356 0.14039469 0.03328916 0.008819673

rnn.bias_hh_l0 f4 [32]
000000 ff 7e c7 3d 80 7c be 3d 5f 22 9c 3d c3 72 35 be
       0.097410195 0.0930109 0.07623743 -0.1771956
000010 43 60 10 3e 97 ae 0f 3d d8 63 7d 3d 64 0b 0f 3c
       0.14099221 0.03507861 0.061862797 0.008730743
000020 93 8a e4 bd d9 fd e6 bd b0 34 85 3b a7 f0 3b 3d
       -0.111592434 -0.11278886 0.0040651187 0.0458838
000030 d5 aa 9e 3d 20 ef e6 3d 34 1c 14 be dc e0 a4 3d
       0.077474274 0.11276078 -0.14463884 0.08050701
000040 51 3a 57 38 59 b6 22 3e 5e b5 e1 bd d5 46 bb bd
       5.1314306e-05 0.15889873 -0.11020921 -0.091443695
000050 76 43 ef bd e1 c7 c3 3d f3 0a 4c bd 65 db a5 3d
       -0.11682789 0.09559608 -0.04981513 0.08098487
000060 b2 4f 01 3e ec 9a 2d 3e 8e 88 16 3e ae f8 23 be
       0.12628058 0.1695363 0.14700529 -0.16012833
000070 ca 06 ee 3c 98 37 97 3d cc 57 91 bc 31 10 bc bd
       0.029055972 0.073836505 -0.01774206 -0.09182776

classifier.weight f4 [6, 32]
000000 9f 25 2b be 45 fd 2a 3e e5 b9 ed 3d 75 96 81 bc
       -0.1671357 0.16698177 0.11607722 -0.015818814
000010 7e 01 81 bc 8d 77 0c bd 3d 11 26 3e 14 ae 16 3e
       -0.015747782 -0.0342937 0.16217513 0.14714843
000020 f0 3d f1 bd 47 a4 53 3d ca 6e 72 bd 6e ef f3 bc
       -0.11779392 0.05167034 -0.059187688 -0.029777255
000030 75 80 40 3d 54 d8 63 bd d9 09 91 bc e3 d1 b4 3d
       0.046997506 -0.05562623 -0.017704891 0.08829095
000040 79 de 86 3d e6 d8 65 3d 52 c6 4d bc 9a 9a f3 3d
       0.06585402 0.056115054 -0.01255949 0.11894722
000050 eb df 22 3e 9d 2d 5c bd 70 b6 20 bd 24 5e 21 3c
       0.1590573 -0.053754438 -0.039236486 0.009849105
000060 cd a2 dc 3d b8 03 1b be 54 3c db bd 2f 55 ad 3d
       0.10773239 -0.15138137 -0.10704866 0.08463513
000070 ec 89 3f 3e 27 cc 9e bd c1 4d 90 3c 57 aa 4f bb
       0.18704957 -0.07753783 0.017615201 -0.0031687224
000080 9e 4a 29 3e 32 5b 64 3d 9d cc 31 be 54 47 51 be
       0.1653237 0.055751033 -0.1736321 -0.20437366
000090 06 85 0a be 26 40 25 3e a0 38 00 3e f3 99 01 3e
       -0.13527307 0.16137752 0.125216 0.12656383
0000a0 5b 05 bf bc 71 56 5d bc 01 53 3a bd 7b 9b 1d 3d
       -0.023317983 -0.013509379 -0.045489315 0.038478356
0000b0 f3 d6 99 3d fa 04 0b bd b0 d8 10 3e fe 6b 13 3d
       0.075117014 -0.033940293 0.1414516 0.03599166
0000c0 5a ff 31 be 11 ba 9d 3d 35 ab 14 3e 69 b2 1d 3e
       -0.17382565 0.07701505 0.14518435 0.1540009
0000d0 45 b6 9c 3d ba fc cf 3c 78 d7 42 bd a3 e4 1c bc
       0.07651953 0.025389064 -0.04756877 -0.009575996
0000e0 1b d4 e9 bd 2c 07 81 bd bb d1 33 3e 17 08 03 3d
       -0.11417409 -0.06300196 0.17560475 0.031990137
0000f0 c6 42 16 be 99 27 97 3d 48 18 95 3d 5e 60 09 be
       -0.1467391 0.073805995 0.07280022 -0.13415667
000100 f3 55 2d 3d 8b 1e 4b bc 50 45 1c 3e a2 86 22 bd
       0.042318296 -0.012397419 0.15260816 -0.039679177
000110 46 e9 1a be 00 b5 1e 3e 92 4b 03 3e 76 c6 10 be
       -0.15128049 0.15498734 0.12821797 -0.14138207
000120 7c 46 99 bc 30 80 ef 3d 64 27 6e bd 2c 47 ed 3d
       -0.018710367 0.11694372 -0.058143035 0.115858406
000130 e2 5a 3e 3e 1a 95 06 3e 2b 1a 02 bd 30 a7 14 3e
       0.18589357 0.13142815 -0.031763237 0.14516902
000140 b8 e7 db bd 72 10 a3 3d e2 72 60 bd e9 85 3a 3e
       -0.10737556 0.07962121 -0.05479706 0.18215145
000150 6f 8c 3a be c8 4b 11 be d6 5b 8a 3d f8 87 6f bd
       -0.18217634 -0.14189065 0.067557976 -0.05847928
000160 b3 2c c4 3d 29 70 3a bd 44 ae d2 bd e3 bd f5 3b
       0.09578838 -0.04551712 -0.10287145 0.007499443
000170 ce 9a 32 3e 97 0b f3 bd ee d0 22 3e 8f b6 97 3d
       0.17441866 -0.11867445 0.15900013 0.07407867
000180 60 76 ab 3d a2 52 d1 bd 67 76 9b 3d ea 04 e9 bd
       0.083721876 -0.10220839 0.07590943 -0.113778904
000190 50 83 19 bd c9 d0 18 3d e3 85 5b 3d ca 04 9f bd
       -0.037478745 0.037308488 0.05359448 -0.07764585
0001a0 67 2c 1b be 10 96 14 bb 6a 65 f3 3c 8e 40 83 3d
       -0.15153657 -0.0022672452 0.029711444 0.06408797
0001b0 99 af 95 3c e3 5e 89 bd b7 ef d7 bd 2b 15 d1 bd
       0.018272208 -0.06707551 -0.10543769 -0.102091156
0001c0 c7 e8 df 3d 6b 38 c1 3c 90 d5 c5 3d f8 54 42 bd
       0.10933071 0.023586472 0.096598744 -0.047444314
0001d0 f6 60 b2 3c 92 40 7f bd 2e 5d 19 3e ba 4b 32 3e
       0.02177475 -0.06231744 0.14976951 0.174117
0001e0 84 63 cc bc db 43 52 bd 57 d8 3e bd 73 6e e2 bd
       -0.024949796 -0.051334243 -0.046593037 -0.11056223
0001f0 3e 38 ad 3d 1f 74 5b 3d 95 2e eb 3d 98 1b d8 3d
       0.08457993 0.05357754 0.11483494 0.10552138
000200 eb b1 2c be bd d0 1f 3e f7 d1 4e 3d 23 37 f0 3d
       -0.16864745 0.15606971 0.050493207 0.117292665
000210 df 94 3c be c9 ef d0 3c 13 d2 04 3e 80 d2 81 bd
       -0.18416165 0.025504963 0.12970762 -0.06338978
000220 1c 73 5d 3d e1 22 8e bd 38 ae 2c bc 1c a2 0a be
       0.054064855 -0.069402464 -0.010539584 -0.13538402
000230 ec f0 19 bd 12 f2 84 3d 79 14 1a bc 28 63 f3 3d
       -0.037583277 0.06491484 -0.009404295 0.11884147
000240 72 70 f6 bc 2c fe 33 be 53 7f 83 bd f6 81 09 be
       -0.030082915 -0.17577428 -0.064207695 -0.13428482
000250 19 cf 26 3e 1c f9 10 3e e3 65 a7 bd 33 b2 08 3e
       0.16289939 0.14157528 -0.0817373 0.13349228
000260 8b c7 06 be 0a 64 16 3d 47 30 d2 3d 9f 04 38 3d
       -0.13162057 0.0367165 0.102631144 0.044926282
000270 4d 45 0a 3e 78 0c 31 3d 38 38 83 bd 6b a8 e1 bd
       0.13502999 0.04322478 -0.06407207 -0.11018451
000280 24 95 d4 bd 7d 85 1e be 51 24 05 be 1a 43 c5 bd
       -0.10380009 -0.15480609 -0.13002135 -0.09631939
000290 32 3a 01 be 48 b9 2f be af 49 0f 3e 1e 2d 44 3d
       -0.12619856 -0.17160523 0.13992952 0.04789459
0002a0 b1 a6 8f bd e8 89 be bd c8 c3 4a be d2 09 e9 3c
       -0.07014216 -0.09303647 -0.19801247 0.028447066
0002b0 e2 9f 46 3e d9 bf a8 3d 85 73 17 bd 2d 5f 45 3e
       0.19396928 0.08239717 -0.036975402 0.19274588
0002c0 49 1b 45 bd 24 00 e7 bd 70 a2 8b 3d 77 2d 22 be
       -0.048121724 -0.11279324 0.06818092 -0.15837656
0002d0 75 c9 56 3d 0d 92 89 3d 1c f3 fc 3d eb 70 c0 3d
       0.05243822 0.0671731 0.12351057 0.093965374
0002e0 3b 9e 27 be 50 31 64 3d a0 f3 29 3c fa 10 25 3e
       -0.16368954 0.05571109 0.010373026 0.16119757
0002f0 a0 f7 89 3c 3d 1e b1 3d 33 21 07 3e 4a ad af 3d
       0.01684171 0.086483456 0.13196258 0.08577974

classifier.bias f4 [6]
000000 78 98 42 3d 42 c3 38 3e 94 52 ef 3d e5 24 37 3e
       0.047508687 0.18043235 0.116856724 0.17885168
000010 aa bc a4 3d f1 79 d5 bd
       0.08043797 -0.10423649
