save/2-8_rnn_sp_120.pt (torch, 17426 bytes, 7 tensors)

emb_layer.weight f4 [120, 16]
0	0x00000000	0.0
1	0x00000000	0.0
2	0x00000000	0.0
3	0x00000000	0.0
4	0x00000000	0.0
5	0x00000000	0.0
6	0x00000000	0.0
7	0x00000000	0.0
8	0x00000000	0.0
9	0x00000000	0.0
10	0x00000000	0.0
11	0x00000000	0.0
12	0x00000000	0.0
13	0x00000000	0.0
14	0x00000000	0.0
15	0x00000000	0.0
16	0xbea3c4d3	-0.31986102
17	0xbd911e88	-0.070859015
18	0x3f5a99f9	0.85391194
19	0xbeaf5b79	-0.34249476
20	0x400ff6e1	2.2494433
21	0x3f5a5f07	0.8530125
22	0xbed15fea	-0.4089349
23	0x3d0a23b3	0.03372545
24	0xbedbf738	-0.4296205
25	0xbeb226b2	-0.34795147
26	0xc017f83f	-2.3745267
27	0x3e90bbc2	0.28268248
28	0x3f95abe1	1.1693078
29	0x3fa59509	1.2936107
30	0x3f43950a	0.7639929
31	0x3f80a918	1.0051603
32	0xbf1835db	-0.59457177
33	0x3f32b327	0.69804615
34	0x3fad53bb	1.3541178
35	0xbfb3d41f	-1.4049109
36	0xbf69f8fd	-0.9139555
37	0xbf9f4f5b	-1.2446092
38	0x3eb86da9	0.36021164
39	0xbf083b2e	-0.532153
40	0xbe4feae2	-0.20304444
41	0x3f5c5c34	0.8607819
42	0xbfd4d16e	-1.6626413
43	0xbfa05b84	-1.2527928
44	0x3f7a7c1c	0.97845626
45	0xbf9db373	-1.2320389
46	0xbe846a54	-0.25862372
47	0xbdf57385	-0.11984924
48	0x3f094a72	0.5362922
49	0xbec1e3e7	-0.37869188
50	0xbfc58527	-1.543126
51	0xbef9d311	-0.48793843
52	0x3f0b0bdf	0.5431499
53	0xbf941e1c	-1.1571689
54	0xbf9d30c9	-1.2280513
55	0x3e984511	0.29740193
56	0xbf66e9c9	-0.9020048
57	0x3fd53a2a	1.6658375
58	0xbf99d7f1	-1.2019025
59	0xbf23b73a	-0.63951457
60	0xbecdfc92	-0.40231758
61	0x3f9224c1	1.1417466
62	0xbfdc1e05	-1.7196661
63	0x3f9295b4	1.1451936
64	0xbea4b693	-0.32170543
65	0x3f18502c	0.5949733
66	0xbf2de884	-0.67932916
67	0x3eaaec74	0.33383524
68	0x3e33f722	0.17574742
69	0xbea37dc2	-0.31931883
70	0xbf784a02	-0.96987927
71	0xbfb0bc55	-1.3807474
72	0x3d9d2f13	0.07674994
73	0xbe908043	-0.28222856
74	0x3eeaae7a	0.4583624
75	0xbf101738	-0.5628543
76	0xbfb3e0e2	-1.4053004
77	0x3eb555a7	0.3541691
78	0xbea44510	-0.3208394
79	0xbe223a2f	-0.15842508
80	0xbf29977f	-0.6624679
81	0x3f210e44	0.6291239
82	0x3e7ad988	0.24497044
83	0xbfa3c056	-1.2793071
84	0xbe7a15a0	-0.24422312
85	0x40196ccc	2.3972654
86	0x3f526695	0.8218778
87	0xbf82733f	-1.019142
88	0x3f2e365b	0.6805169
89	0xbed1bc5e	-0.40964025
90	0xbfeaeb12	-1.8352988
91	0xbe05f977	-0.13083445
92	0x3e54e331	0.20789792
93	0xc03c0168	-2.9375858
94	0x3f6e388f	0.9305505
95	0x3f657e6f	0.8964605
96	0x3d9dd2f7	0.07706254
97	0x3e37576a	0.1790444
98	0xbe853cc1	-0.26022914
99	0xbeb2ad76	-0.34897965
100	0x3f1c1819	0.6097427
101	0x400b6202	2.177857
102	0xbdca556b	-0.098795734
103	0xbeb5ff02	-0.35546118
104	0x3f7306d1	0.94932276
105	0xbea6f57e	-0.3260917
106	0x3fcfe877	1.6242818
107	0xbf1b2767	-0.60607
108	0x3b10f09f	0.0022116078
109	0xc01701e8	-2.3594913
110	0x3f96c478	1.1778708
111	0x3eeac3c5	0.45852485
112	0x3f0f67e6	0.5601791
113	0xbfe63ac5	-1.7986685
114	0x3d6b0556	0.057378136
115	0xbf5b3be2	-0.8563825
116	0x3f8a59a3	1.0808605
117	0xbffd11c5	-1.9771048
118	0x3fb4551d	1.4088475
119	0xbf159cec	-0.5844257
120	0x3f062fe6	0.5241684
121	0x3d248f4c	0.04017572
122	0xbd104683	-0.035223495
123	0x3eb7d869	0.35907295
124	0x3f82d21a	1.0220368
125	0xbfed2970	-1.8528271
126	0x3fa9017f	1.3203582
127	0x3ea14178	0.3149526
128	0xbeedd540	-0.4645176
129	0x3e36addc	0.1783976
130	0xbcbf0d0c	-0.02332165
131	0x40109d25	2.2595913
132	0xbdd0f742	-0.10203411
133	0xbeba5c75	-0.36398664
134	0xbf8e8766	-1.113507
135	0xbf54b677	-0.8309092
136	0x3b902218	0.0043985955
137	0x3e94f2c2	0.2909146
138	0xbf1118b6	-0.5667833
139	0x3dd0dc47	0.101982646
140	0x3fe79ca0	1.8094673
141	0xbeb03880	-0.34418106
142	0xc0166b08	-2.3502827
143	0x3f1085a5	0.56453925
144	0xbf20700a	-0.6267096
145	0xbf3da2ca	-0.7407652
146	0xbec06774	-0.37578928
147	0xbf18f845	-0.5975383
148	0x3fcf143e	1.6178052
149	0x3ff9050f	1.9454669
150	0x3e38c0b3	0.18042259
151	0xbe80766e	-0.25090355
152	0x3fb8b55f	1.443035
153	0xbf8c485d	-1.0959584
154	0xbf8e73d5	-1.1129099
155	0x3fe9ba66	1.8260009
156	0xbd503353	-0.050830197
157	0x3fad3583	1.3531955
158	0x3ef77caa	0.483373
159	0x3f7de6af	0.9918012
160	0x3f0deda6	0.5544075
161	0xbd09ff9e	-0.03369104
162	0x4007d68d	2.1224701
163	0x3f662a10	0.8990793
164	0xbdd00552	-0.10157265
165	0xbf5e5f78	-0.86864424
166	0xbf796872	-0.97424996
167	0x3e26c083	0.16284375
168	0x3f4208ba	0.75794566
169	0xbeebcc06	-0.46054095
170	0x3f04152d	0.5159481
171	0xbdba7a7d	-0.09105394
172	0x3ff78967	1.9338807
173	0xbf30a66c	-0.6900394
174	0x3f18dff1	0.5971671
175	0xbeb208b7	-0.34772274
176	0xbf0fd817	-0.561891
177	0xbf11ddcf	-0.5697908
178	0x3f0bd275	0.54618007
179	0xbf5d65ac	-0.86483264
180	0x3fa3e014	1.2802758
181	0xbf9fd5a8	-1.2487078
182	0xbf1a6b6e	-0.60320175
183	0xbfda78f0	-1.7068157
184	0xbf81dd83	-1.0145725
185	0xbc17fdf3	-0.009276855
186	0x3fe0f886	1.7575843
187	0x3fc9ad05	1.5755926
188	0xbe4c1c61	-0.199327
189	0xbe93c572	-0.28861576
190	0xbbcb8226	-0.0062105833
191	0xbe89b2a3	-0.26894102
192	0xc013e283	-2.3107002
193	0xbee74a0f	-0.4517369
194	0xbf476b43	-0.77898043
195	0x3e1276d3	0.1430314
196	0x3f882e14	1.0639062
197	0x3ebab1f6	0.36463898
198	0x3e7ffceb	0.24998824
199	0xbd4bdb0f	-0.049769457
200	0xbf73fd07	-0.95307964
201	0xbfe09e41	-1.7548295
202	0xbf09a1f2	-0.53762734
203	0xbf70d110	-0.94069004
204	0x3f0c6f4f	0.54857343
205	0x3e6dac10	0.23210168
206	0x3f9f09bf	1.2424849
207	0xbf547352	-0.82988465
208	0xbebfeebe	-0.37486833
209	0xbf39b155	-0.7253621
210	0x3f0c8de2	0.54903996
211	0xbf699188	-0.9123769
212	0x3d5fa77c	0.054603085
213	0x3ec0203e	0.375246
214	0x3f90d4e4	1.1314969
215	0xbe9bd70f	-0.30437514
216	0x3e52a378	0.20570171
217	0x3d1f622a	0.038911976
218	0x3fa2c411	1.2716085
219	0xbf620684	-0.8829119
220	0xbf8d7468	-1.1051149
221	0xbfb86410	-1.4405537
222	0x3ecbdab1	0.39815286
223	0x3fba9547	1.4576806
224	0xbdd8b06d	-0.105805255
225	0x3eaa7eb8	0.33299804
226	0x3fb01bb4	1.3758454
227	0xbdfecf0d	-0.124418356
228	0xbe6053bb	-0.2190694
229	0x3f5a84d4	0.8535893
230	0x3fceccf7	1.61563
231	0xbf5db288	-0.8660054
232	0xbca1425a	-0.01968496
233	0x4015cfc0	2.340805
234	0x3f0050fc	0.5012357
235	0x403ca2d0	2.9474373
236	0xbe46aa31	-0.1940086
237	0x3f8abfaf	1.0839747
238	0x3f3ca89c	0.7369478
239	0xbd422519	-0.04739866
240	0x3f0dad6b	0.5534274
241	0xbfaae59e	-1.3351324
242	0x3db0409e	0.08606075
243	0x4006bbe2	2.1052175
244	0x3e86f1d5	0.26356378
245	0x3f9cb016	1.2241237
246	0x3d48f218	0.049059004
247	0xbd642ca3	-0.05570663
248	0xbee4490a	-0.44586974
249	0x3cbeb27a	0.023278464
250	0xbff9b3f1	-1.9508039
251	0xbde3c0c9	-0.11120755
252	0xbfc0a3f0	-1.505003
253	0x3ea64679	0.3247564
254	0xbfa320e3	-1.2744411
255	0xbf609c64	-0.87738633

rnn.weight_ih_l0 f4 [32, 16]
0	0xbdc87a5d	-0.09788964
1	0x3d40cf04	0.047072425
2	0x3d887dbc	0.06664607
3	0x3e0666fe	0.13125226
4	0xbe274f73	-0.16338901
5	0xbc879b05	-0.016553411
6	0xbc3a3502	-0.011365177
7	0x3dd86c9e	0.10567592
8	0xbe069a8e	-0.13144895
9	0xbdb16076	-0.086609766
10	0x3db66464	0.08905867
11	0x3e2b8412	0.167496
12	0xbda5b59f	-0.08091282
13	0xbd258c6d	-0.040417124
14	0x3d5b3aac	0.05352275
15	0x3df84d35	0.12124101
16	0x3c26abdb	0.0101728095
17	0xbcebe19a	-0.028794099
18	0xbe10f2e7	-0.1415516
19	0xbded4be4	-0.115867406
20	0x3e384d89	0.17998327
21	0x3e24a90e	0.16080114
22	0x3e09618c	0.13416117
23	0xbda33985	-0.07969955
24	0x3db1bee0	0.08678985
25	0x3e0092e1	0.1255603
26	0xbe083666	-0.13302001
27	0x3b672eaa	0.0035275617
28	0x3d4f074d	0.050544072
29	0xbe0a7f55	-0.13525136
30	0x3d9d7b57	0.07689541
31	0x3e0e9aba	0.13926211
32	0xbd74db00	-0.059779167
33	0x3d8f251a	0.069894984
34	0xbd049b33	-0.032374572
35	0x3dc1e286	0.09467034
36	0xbdc3f59a	-0.09568329
37	0x3e028a83	0.1274815
38	0xbd55082e	-0.052009754
39	0x3d353ad8	0.04424557
40	0xbe0284b1	-0.1274593
41	0x3c3f9f15	0.011695643
42	0xbdee4d7d	-0.116358735
43	0x3c7e4713	0.015519875
44	0xbdad8606	-0.084728286
45	0x3cc81993	0.024426257
46	0x3d4b85d2	0.049688168
47	0xbdfbfa5d	-0.123036124
48	0x3d372ceb	0.04472057
49	0x3e166db9	0.14690293
50	0xbd9d8583	-0.07691481
51	0xbe01a736	-0.12661442
52	0x3d91d57c	0.07120797
53	0x3d92e66b	0.07172855
54	0x3e1916b0	0.14950061
55	0xbd2e351c	-0.042531118
56	0x3e1fb55e	0.1559653
57	0x3d9d2417	0.07672899
58	0x3ca7f006	0.020500194
59	0x3e059fc0	0.13049221
60	0x3d7c6b56	0.0616258
61	0x3d8b13d9	0.06790895
62	0x3e3da708	0.18520749
63	0xbd29cd14	-0.041455343
64	0x3e14bca8	0.14525092
65	0xbcaf312f	-0.021385757
66	0xbc850805	-0.016239176
67	0x3de719fe	0.112842545
68	0xbe164b6c	-0.14677209
69	0xbe25426d	-0.1613862
70	0xbe0a4515	-0.13502915
71	0x3e03abf7	0.12858568
72	0xbe09681f	-0.13418625
73	0x3ddb2538	0.10700458
74	0x3daaa57f	0.08332347
75	0x3d05ba25	0.032648224
76	0x3da666ee	0.08125101
77	0xbdb1521b	-0.086582385
78	0x3dfe0f30	0.124052405
79	0xbdbdf602	-0.09275438
80	0xbdc94e8e	-0.09829436
81	0xbe1d5037	-0.15362631
82	0x3dab7860	0.08372569
83	0xbe11d40e	-0.14241049
84	0xbdeb32d6	-0.114843056
85	0xbdcf0808	-0.10108954
86	0x3df4552f	0.1193031
87	0xbdc79028	-0.097442925
88	0xbe19b13c	-0.15009016
89	0x3e1e452f	0.15456079
90	0xbcfc2af1	-0.030782195
91	0xbdffe3bc	-0.12494609
92	0xbe2e8e6f	-0.17046522
93	0x3cdccd27	0.026953293
94	0xbe03c308	-0.12867367
95	0x3b94a156	0.0045358343
96	0x3dfc8ac5	0.12331156
97	0x3deafab3	0.11473598
98	0x3d327a1e	0.04357349
99	0xbdd8ff5e	-0.105955824
100	0x3d028a66	0.03187027
101	0x3e1dd077	0.15411554
102	0xbe348875	-0.17630179
103	0x3d8457ca	0.06462057
104	0xbcd37eda	-0.025817323
105	0xbe379eae	-0.17931625
106	0x3c906f03	0.01763106
107	0x3db5b84b	0.08873042
108	0x3e202a46	0.15641126
109	0x3ddc7a74	0.107655436
110	0xbd47121b	-0.04860125
111	0x3d69ca7e	0.057077877
112	0x3e365e9f	0.17809533
113	0xbbb191a4	-0.005418973
114	0x3d1867ec	0.037208483
115	0xbe046f6e	-0.12933132
116	0x3d5c6d17	0.053814974
117	0x3d654d0b	0.055981677
118	0x3daf9b2b	0.08574518
119	0xbc39d1e4	-0.011341546
120	0x3e14104b	0.1445934
121	0xbdab0ae9	-0.0835169
122	0xbd9a4922	-0.0753348
123	0x3dfb7554	0.12278238
124	0x3dc16e6d	0.0944489
125	0x3df5a994	0.11995235
126	0xbe0d560a	-0.13802353
127	0x3d8495ff	0.06473922
128	0xbd1d1f71	-0.038360063
129	0x3b9ae8d2	0.0047274614
130	0xbd55b361	-0.052173022
131	0xbc488eab	-0.012241046
132	0xbd126bb7	-0.035747256
133	0x3cbbca6b	0.022923669
134	0xbcd28889	-0.02569987
135	0xbe15ef5b	-0.14642088
136	0xbaf0c919	-0.0018370479
137	0x3cd301d3	0.025757706
138	0x3d99dfa9	0.07513363
139	0x3d1b1b6d	0.037867952
140	0xbe0ec124	-0.13940865
141	0xbd5f3474	-0.054493383
142	0xbe2501b4	-0.16113931
143	0x3e386111	0.18005778
144	0xbd5738b7	-0.052544322
145	0x3e23e591	0.16005541
146	0xbe17b29e	-0.14814231
147	0x3e26b325	0.16279276
148	0xbdda8e21	-0.1067164
149	0x3dc8ba6f	0.098011844
150	0x3e181dc9	0.14855112
151	0xbd835dc3	-0.06414368
152	0x3dea3251	0.11435378
153	0xbcec3ab5	-0.028836587
154	0xbdb82d6e	-0.0899304
155	0x3bceffd8	0.00631712
156	0xbdfcb2f5	-0.12338821
157	0xbc88dfec	-0.016708337
158	0x3e1800cd	0.14844055
159	0xbd0ef96e	-0.034905843
160	0x3def15aa	0.11674054
161	0xbdca1d4c	-0.09868869
162	0x3df4539e	0.11930011
163	0x3d567b6c	0.052363798
164	0xbd0b095c	-0.033944473
165	0xbdd7b0f6	-0.105317995
166	0x3d169cb0	0.036770523
167	0xbdeb7c60	-0.11498332
168	0xbd58dfc3	-0.05294777
169	0xbde8f8ad	-0.11375556
170	0xbe277626	-0.16353664
171	0x3dc63626	0.09678297
172	0xbd7e8e81	-0.06214762
173	0xbdc6f0fd	-0.097139336
174	0x3dfd5a90	0.12370789
175	0x3e335e4e	0.17516443
176	0x3d20959b	0.039205175
177	0x3e10212e	0.14075157
178	0x3e37acb9	0.17936982
179	0xbc5ad74e	-0.013356997
180	0x3dc98ca0	0.09841275
181	0xbe284877	-0.16433893
182	0x3dd4c67d	0.10389421
183	0xbe2ac19c	-0.16675419
184	0xbd04386d	-0.032280374
185	0xbe35d480	-0.17756844
186	0x3e20d51c	0.15706295
187	0x3dfc0bb1	0.123069175
188	0x3c98b0a6	0.01863892
189	0xbdab5cf4	-0.08367339
190	0x3e356ca4	0.17717224
191	0x3df7c845	0.12098745
192	0xbd6d3f00	-0.05792141
193	0x3cdc83d7	0.026918335
194	0x3e1a5c88	0.1507436
195	0x3e0764c4	0.13222033
196	0xbd4fa1d0	-0.050691426
197	0x3c2cc791	0.010545627
198	0x3e415422	0.1887975
199	0x3d74aa04	0.059732452
200	0x3d016b58	0.03159651
201	0xbe1d5c2f	-0.15367197
202	0xbc9524e9	-0.018206077
203	0xbcac51c1	-0.021035077
204	0x3ce3eab9	0.027821885
205	0x3d18653a	0.037205912
206	0x3db81612	0.089885846
207	0x3d958761	0.07301212
208	0xbc68d5b9	-0.014211112
209	0xbdae2819	-0.08503742
210	0xbd45fad1	-0.0483349
211	0x3e1adaea	0.15122572
212	0xbe1b0226	-0.15137538
213	0x3e082a19	0.13297309
214	0xbe16e202	-0.14734653
215	0xbdc88206	-0.09790425
216	0xbe02b175	-0.12763007
217	0xbd069545	-0.0328572
218	0xbd962fc7	-0.073333316
219	0x3e23b514	0.15987045
220	0x3b042531	0.002016377
221	0xbe02c5cc	-0.12770766
222	0xbddd3930	-0.10801923
223	0xbe34a17a	-0.17639723
224	0x3df64e3c	0.12026641
225	0xbb82cd8e	-0.003991789
226	0xbdc26b9f	-0.09493183
227	0x3e3ecba7	0.18632375
228	0x3dbecf39	0.09316868
229	0x3d708b28	0.05872646
230	0xbce7b5c1	-0.02828491
231	0xbe0693f0	-0.13142371
232	0xbcacd56a	-0.021097858
233	0x3d83a43e	0.06427811
234	0xbddea0b5	-0.10870496
235	0x3cd5751e	0.026056822
236	0x3dfa0904	0.12208751
237	0x3df6b293	0.12045779
238	0xbce66467	-0.028124047
239	0xbc18143c	-0.009282168
240	0xbe1f6fb4	-0.15569955
241	0xbdec4f1a	-0.11538525
242	0xbe003991	-0.1252196
243	0xbdab18fc	-0.08354375
244	0xbd06dbbd	-0.032924403
245	0x3c0dcd65	0.008654927
246	0xbd70c7d8	-0.058784336
247	0x3df3465d	0.11878655
248	0x3d523005	0.051315326
249	0x3e0e5fca	0.13903728
250	0x3d6f2dfd	0.058393467
251	0x3e1fe651	0.15615202
252	0xbe074005	-0.13208015
253	0xbd83adee	-0.06429659
254	0xbd26989b	-0.04067288
255	0xbd2f8429	-0.042850647

rnn.weight_hh_l0 f4 [32, 32]
0	0xbd85d3a2	-0.065345064
1	0x3de71257	0.11282795
2	0x3dc2e5da	0.09516497
3	0xbe21c1e9	-0.15796627
4	0x3e05ad80	0.13054466
5	0x3dd7b073	0.10531702
6	0xbde1f9af	-0.110339515
7	0x3e1bc25a	0.15210858
8	0xbd9c26b4	-0.076245695
9	0x3d63b53d	0.055592764
10	0x3d308ca7	0.043102887
11	0xbe266dc8	-0.16252816
12	0xbe1aabde	-0.15104625
13	0xbe11c40a	-0.14234939
14	0xbd6e55da	-0.058187343
15	0xbe0b2b6a	-0.1359078
16	0xbe07b2f4	-0.13251859
17	0x3e127e71	0.14306046
18	0x3da2ab9c	0.07942888
19	0x3e2a474c	0.1662876
20	0xbd88986d	-0.06669698
21	0x3ccc519b	0.024941256
22	0x3e018c55	0.12651189
23	0xbdf932fd	-0.12167928
24	0xbd953807	-0.07286077
25	0x3e2f99b7	0.17148481
26	0xbe13cc38	-0.14433372
27	0xbe26deee	-0.16295978
28	0xbdf913c9	-0.12161977
29	0x3e1e8fb1	0.15484501
30	0xbd5764a2	-0.052586205
31	0x3de361d0	0.11102641
32	0x3dff8c0b	0.12477883
33	0x3dfa0806	0.122085616
34	0xbde245a9	-0.11048443
35	0xbdc295ae	-0.095012054
36	0xbca9b3f8	-0.020715699
37	0x3bb2eb9c	0.0054602157
38	0x3e2f0cb3	0.17094688
39	0xbd464048	-0.048401147
40	0xbc6f2bdd	-0.01459786
41	0x3e0de2f1	0.13856103
42	0x3d95c3f2	0.07312764
43	0x3d0fe903	0.035134327
44	0x3e0dd1b0	0.1384952
45	0x3d758737	0.059943404
46	0x3e0b5be8	0.13609278
47	0xbd8938ff	-0.06700324
48	0xbd8a0a14	-0.067402035
49	0x3dc8a559	0.097971626
50	0x3e29e080	0.16589546
51	0x3d866afa	0.06563373
52	0x3e0d795f	0.1381583
53	0x3d8ecedb	0.06973048
54	0x3d2a4d9e	0.041577928
55	0xbdca570d	-0.09879885
56	0xbd9679d9	-0.07347459
57	0x3e2ac189	0.1667539
58	0x3d1610b1	0.036637012
59	0x3d721689	0.059103522
60	0x3de76dd6	0.113002464
61	0x3deea3a1	0.116523035
62	0x3d9afc04	0.075675994
63	0xbdff6428	-0.12470275
64	0x3da490e8	0.08035451
65	0x3df3de52	0.119076386
66	0xbcf4b01b	-0.02986913
67	0xbd57bc7e	-0.052669995
68	0x3d885203	0.066562675
69	0xbd7ef139	-0.062241767
70	0xbdca999f	-0.09892582
71	0xbdcc1dbd	-0.099666096
72	0xbd03d771	-0.032187883
73	0x3daf819e	0.085696444
74	0xbca0b357	-0.019616766
75	0x3d7537f5	0.059867818
76	0xbcc55314	-0.024087466
77	0x3d7a861e	0.06116306
78	0xbdafce46	-0.085842654
79	0x3e2ac4a7	0.1667658
80	0x3bfb7055	0.007673303
81	0xbd134ff9	-0.03596494
82	0x3ddeaac7	0.10872417
83	0xbce942ce	-0.028474238
84	0x3dc23e8a	0.09484585
85	0xbd4fc22c	-0.050722286
86	0xbc4c25ef	-0.012460216
87	0xbd658bec	-0.056041643
88	0xbe0736e5	-0.13204534
89	0xbc860b74	-0.016362883
90	0xbdfcb8c5	-0.123399295
91	0x3c7f31a6	0.015575802
92	0xbe2c6322	-0.16834691
93	0x3df0a18e	0.11749564
94	0xbe13d0b8	-0.14435089
95	0xbe1f17ba	-0.15536395
96	0x3e036084	0.12829787
97	0x3de0653a	0.109568074
98	0x3e20f516	0.15718493
99	0xbc6e264c	-0.014535498
100	0xbe20a14a	-0.15686527
101	0xbe32b4da	-0.17451802
102	0x3e1ef93f	0.15524767
103	0xbcf4c148	-0.02987732
104	0x3e1394ac	0.14412183
105	0x3e21c6b9	0.15798463
106	0x3d883d02	0.06652261
107	0x3d85eb22	0.06538989
108	0x3a07de5b	0.0005182975
109	0xbde938fe	-0.113878235
110	0x3e2297e5	0.15878256
111	0x3d8e1bf1	0.06938923
112	0xbdcf6867	-0.10127335
113	0xbdd6ff53	-0.10497918
114	0x3d8ac6d8	0.06776208
115	0x3d04ac28	0.032390743
116	0xbcfd1f25	-0.03089864
117	0x3cc1671b	0.023608735
118	0xbd950f6d	-0.07278333
119	0x3d1207c4	0.035651937
120	0x3d2f4ba0	0.04279673
121	0x3d89a8fd	0.06721685
122	0x3d9cc474	0.07654658
123	0x3bb3c756	0.005486409
124	0x3c78cecc	0.015186023
125	0xbd6ca756	-0.05777677
126	0xbe14afe4	-0.14520222
127	0x3adc4f78	0.0016808352
128	0x3e3238e6	0.17404518
129	0xbccb6452	-0.02482811
130	0xbe2b76b3	-0.16744499
131	0xbc38a4d9	-0.0112697715
132	0xbdb46d1a	-0.08809872
133	0x394ff659	0.0001983283
134	0xbdaf6001	-0.08563233
135	0x3d2ca3c5	0.04214837
136	0xbd8d5302	-0.06900598
137	0xbca0192a	-0.01954325
138	0x3c967f72	0.018371318
139	0xbe2166b5	-0.15761836
140	0xbdc91429	-0.09818298
141	0x3cea4875	0.028599003
142	0xbd78d762	-0.06075228
143	0xbca8dd7a	-0.02061342
144	0x3de27bab	0.11058744
145	0x3b8218d2	0.003970244
146	0xbe29364f	-0.16524623
147	0x3d681a66	0.0566658
148	0x3d6bad47	0.057538297
149	0xbe31c386	-0.17359743
150	0x3d7a79b4	0.06115122
151	0xbc9746e3	-0.018466419
152	0x3e01fc42	0.12693885
153	0xbe1139f4	-0.14182264
154	0xbde1f89b	-0.11033746
155	0x3d0454bd	0.032307375
156	0xbce47ab3	-0.027890539
157	0x3e04e90f	0.1297953
158	0x3df376f6	0.118879244
159	0x3c8e6fb9	0.017387258
160	0x3e1aa65c	0.15102524
161	0xbd653823	-0.05596174
162	0xbd9dbb3e	-0.07701729
163	0xbdd19689	-0.102337904
164	0x3de8cef1	0.11367596
165	0xbe215404	-0.15754706
166	0x3e181ffc	0.14855951
167	0xbe1a9904	-0.15097433
168	0xbe2f8e10	-0.17144036
169	0x3d16c183	0.03680564
170	0x3d9564ff	0.07294654
171	0x3e3a58cb	0.18197934
172	0x3bbaf79b	0.0057057864
173	0xbd88bfb6	-0.06677191
174	0xbe05ab61	-0.13053657
175	0xbe2acfe9	-0.16680874
176	0xbdb94c0f	-0.0904771
177	0x3e285fed	0.16442843
178	0x3e0bdf8a	0.13659492
179	0xbdd977af	-0.10618531
180	0xbe16176b	-0.14657371
181	0x3b813999	0.0039436338
182	0x3d71cccb	0.059033196
183	0xbda18d3d	-0.07888267
184	0xbdb6a539	-0.089182325
185	0xbbaa4d6e	-0.0051972186
186	0xbe202604	-0.15639502
187	0x3e0e3606	0.13887796
188	0xbe29a5bd	-0.1656713
189	0xbe02c87d	-0.12771793
190	0x3e1f6795	0.15566857
191	0x3e21a6b2	0.15786245
192	0xbdaeec24	-0.08541134
193	0xbe2595f6	-0.16170487
194	0x3d97563a	0.07389493
195	0xbc1aa290	-0.009438172
196	0xbdc186d3	-0.09449544
197	0xbe024ce6	-0.12724647
198	0x3e285d38	0.1644181
199	0x3d7873b4	0.060657218
200	0xbd463159	-0.048386905
201	0xbe2321aa	-0.1593081
202	0x3dd3cfd2	0.10342373
203	0x3d1926d2	0.037390538
204	0x3debe2c3	0.11517861
205	0xbe2bdff6	-0.16784653
206	0xbde90452	-0.11377777
207	0x3c344df3	0.011004913
208	0xbdfeefbd	-0.1244807
209	0x3cb819ef	0.022473304
210	0x3e1c9856	0.15292487
211	0xbde1174e	-0.10990773
212	0x3dc66351	0.09686912
213	0x3e09ba8e	0.13450071
214	0x3d83b38e	0.06430732
215	0xbdb9058d	-0.09034262
216	0x3b8341b8	0.004005637
217	0x3dc5e105	0.0966206
218	0x3e1f1dc6	0.15538701
219	0xbd2790b0	-0.04090947
220	0xbcf8edf1	-0.030386897
221	0xbd2433d4	-0.04008849
222	0xbce4d491	-0.02793339
223	0xbd9de993	-0.07710566
224	0x3ca1f113	0.019768273
225	0x3dedd283	0.116124175
226	0xbdb48861	-0.08815075
227	0xbdddc284	-0.108281165
228	0x3d9f268c	0.07771024
229	0x3e35f172	0.17767885
230	0x3e06609b	0.1312279
231	0x3e007dc3	0.12547974
232	0x3de2f0c6	0.1108108
233	0xbd3caf55	-0.046065647
234	0xbca97da4	-0.020689793
235	0x3e2641c2	0.16236022
236	0x3e2059d2	0.15659264
237	0xbcd6d1dc	-0.026223116
238	0xbbf06f42	-0.0073374817
239	0x3e040af6	0.12894806
240	0xbdac593a	-0.08415456
241	0x3c810b93	0.01575259
242	0xbe012146	-0.12610349
243	0xbd9ebb17	-0.07750528
244	0x3cbdf145	0.023186335
245	0x3d23613c	0.03988765
246	0x3e074255	0.13208897
247	0x3d20b7b5	0.039237697
248	0xbd3548ae	-0.044258766
249	0xbda865ae	-0.08222519
250	0x3d769a63	0.06020583
251	0x3e1326ff	0.14370345
252	0xbe20bb4d	-0.1569645
253	0xbe1a08da	-0.15042439
254	0xbdc61a49	-0.09672982
255	0x3c6941e4	0.014236901

rnn.bias_ih_l0 f4 [32]
0	0xbd186b32	-0.037211604
1	0x3ce8fab0	0.02843985
2	0x3e0f47dd	0.13992257
3	0xbc496c3a	-0.01229387
4	0xbd8a27f1	-0.067458995
5	0xbdd33c82	-0.10314275
6	0x3d21d732	0.039511867
7	0x3dc50f8f	0.09622108
8	0xbd136265	-0.03598251
9	0xbdd38323	-0.10327747
10	0x3d92b97a	0.07164283
11	0xbe24c058	-0.16088998
12	0xbcc5ea44	-0.024159558
13	0xbe1c1c76	-0.15245232
14	0xbdf0213b	-0.11725088
15	0xbd53b0f5	-0.05168243
16	0x3e2b35e3	0.16719775
17	0xbde62f45	-0.11239485
18	0x3e0745ab	0.1321017
19	0xbd1c8409	-0.038211856
20	0x3ceb6590	0.028734952
21	0x3de8995c	0.11357376
22	0x3d9f5155	0.07779185
23	0x3dfb6c85	0.12276558
24	0xbcaf19c1	-0.021374585
25	0xbdb692ee	-0.08914743
26	0xbdfd3591	-0.123637326
27	0x3da4c52f	0.08045422
28	0x3e1a8a32	0.1509178
29	0x3e2b3850	0.167207
30	0x3db0357c	0.08603951
31	0xbdfc400a	-0.12316902

rnn.bias_hh_l0 f4 [32]
0	0x3e0eb1dd	0.13935037
1	0xbd7b3926	-0.061333798
2	0xbccd7f63	-0.025085157
3	0x3d0c8d5a	0.03431449
4	0x3c4a6a3b	0.012354429
5	0xbe2b484f	-0.16726802
6	0xbe3e599d	-0.18588872
7	0xbdbc7deb	-0.092037044
8	0xbde32367	-0.11090737
9	0x3e2a65e4	0.1664043
10	0xbbe8fe7a	-0.007110414
11	0xbdf3f311	-0.119115956
12	0x3c0d1624	0.008611236
13	0xbdb76bdd	-0.0895612
14	0x3dfec898	0.12440604
15	0xbd972c10	-0.07381451
16	0x3e18dc3f	0.14927767
17	0x3dba2215	0.09088532
18	0x3df25158	0.11831921
19	0xbdf1f6f0	-0.11814678
20	0x3d2e9a58	0.042627662
21	0xbdc3f49d	-0.09568141
22	0x3de1a739	0.11018223
23	0x3e340e99	0.17583694
24	0x3c0312bf	0.008000075
25	0xbdaddb31	-0.08489073
26	0xbcb9869c	-0.022647195
27	0xbe0fc4d8	-0.14039934
28	0x3bb2f979	0.0054618684
29	0x3d09409b	0.03350888
30	0xbe2a7fe2	-0.16650346
31	0x3d1d25be	0.038366072

classifier.weight f4 [6, 32]
0	0xbdecfe47	-0.11571937
1	0xbc9f401a	-0.019439746
2	0x3e23b4a1	0.15986873
3	0x3dc6cf66	0.09707527
4	0x3c9e3971	0.0193145
5	0x3e1be45c	0.15223831
6	0x3e046b60	0.12931585
7	0x3e34ee53	0.17669038
8	0xbd03bd41	-0.03216291
9	0x3db9df53	0.09075799
10	0xbdcb7bef	-0.09935748
11	0xbdb2f076	-0.087372705
12	0x3d1f29f7	0.03885838
13	0xbd33651c	-0.043797597
14	0x3e1f4c07	0.15556346
15	0x3da0912b	0.078401886
16	0xbe26bcb5	-0.16282924
17	0xbdd2b6ec	-0.10288796
18	0xbd68a6aa	-0.05679957
19	0x3e293142	0.16522697
20	0xbda6d93c	-0.08146903
21	0xbda6edc9	-0.08150823
22	0xbc0b1a83	-0.008490208
23	0xbde77e60	-0.11303401
24	0x3d9764c5	0.07392267
25	0xbc152e88	-0.009105332
26	0x3dace571	0.084422
27	0xbd76c475	-0.06024595
28	0x3c37d9e7	0.011221386
29	0x3d4e60b2	0.050385185
30	0x3dfe700d	0.12423716
31	0xbb6191fd	-0.0034419291
32	0x3c9849a0	0.018589795
33	0xb92cb8d6	-0.00016472055
34	0xbdec0b94	-0.11525646
35	0xbdbcd49b	-0.09220239
36	0xbdeb72a9	-0.11496479
37	0xbe206424	-0.156632
38	0xbda234bc	-0.079202145
39	0x3e27732c	0.16352528
40	0x3e30da64	0.1727081
41	0x3df84a44	0.1212354
42	0xbe21ab46	-0.15787992
43	0xbe30e5c6	-0.17275152
44	0xbe1cb563	-0.15303569
45	0x3dc09815	0.09404007
46	0xbe0924d2	-0.13392952
47	0x3cf1a5e0	0.02949804
48	0x3e192685	0.149561
49	0xbdd2f2dc	-0.10300228
50	0x3d7237d1	0.059135262
51	0xbe182dd5	-0.14861234
52	0x3d2924e3	0.041294944
53	0x3cd3a08d	0.025833393
54	0xbdefdd90	-0.117121816
55	0x3e1b41fc	0.1516189
56	0x3e1e9d69	0.15489735
57	0x3c86339f	0.016382037
58	0x3d2604bf	0.04053187
59	0x3bdaeed9	0.006681305
60	0xbdf8234e	-0.12116109
61	0x3e2745d6	0.16335234
62	0xbc930a52	-0.017949257
63	0x3d7fa606	0.06241419
64	0x3e01018d	0.12598248
65	0x3df76edc	0.120816916
66	0x3cfdd720	0.030986369
67	0xbde42b05	-0.11141018
68	0xbd538a19	-0.051645372
69	0x3df30971	0.11867035
70	0xbe046d5d	-0.12932344
71	0xbd725e37	-0.05917188
72	0x3e349a61	0.17637016
73	0xbe1e51c7	-0.15460883
74	0x3cca74eb	0.024713954
75	0xbe348924	-0.1763044
76	0xbd2d9058	-0.042373985
77	0xbdf29ac0	-0.118459225
78	0xbd4174fa	-0.0472307
79	0xbb9c2ce3	-0.004766093
80	0x3cf9e9d4	0.030507006
81	0x3de64789	0.11244113
82	0xbdb11874	-0.08647242
83	0x3d756890	0.05991417
84	0xbe00a3b0	-0.12562442
85	0x3cc94c5a	0.02457254
86	0x3e29877d	0.16555591
87	0x3d9b4040	0.07580614
88	0x3d8b3696	0.06797521
89	0xbe475ba7	-0.19468556
90	0xbdab6436	-0.08368723
91	0xbdd80d58	-0.1054942
92	0x3c6bf2dc	0.014401164
93	0xbe2e1106	-0.16998681
94	0xbd8a7460	-0.06760478
95	0xbd9366de	-0.07197355
96	0x3e28f27f	0.16498755
97	0x3d849e95	0.064755596
98	0x3e2ef746	0.17086515
99	0xbe224517	-0.15846668
100	0x3d8c9a53	0.068653725
101	0xbc82f1ae	-0.015984382
102	0x3d95f6c2	0.07322456
103	0x3e01fc23	0.12693839
104	0xbdeee896	-0.11665456
105	0x3d9fd3d7	0.07804077
106	0x3e11f55b	0.14253752
107	0xbe4b3b10	-0.1984675
108	0xbdd471f1	-0.10373295
109	0xbe3753e6	-0.17903098
110	0xbdbf921c	-0.0935404
111	0x3d26f601	0.04076195
112	0xbd9fd458	-0.07804173
113	0x3bc0c8e4	0.005883323
114	0xbc3cd3fe	-0.011525152
115	0x3e351e57	0.17687355
116	0x3d22aa8a	0.03971342
117	0x3e19420c	0.14966601
118	0xbe1f5ace	-0.15561983
119	0xbdcba637	-0.09943812
120	0x3e2c61b1	0.16834141
121	0xbe4b066e	-0.19826671
122	0x3d00cd96	0.031446062
123	0x3e1c14b2	0.1524227
124	0xbe213114	-0.15741378
125	0x3ce9b36e	0.028527942
126	0x3c93d28c	0.018044733
127	0x3d441971	0.047875825
128	0xbde84cc7	-0.11342769
129	0x3dabda09	0.08391196
130	0xbd58a3d6	-0.05289062
131	0xbe185d8e	-0.14879438
132	0xbd399dd5	-0.045316536
133	0xbe0aad17	-0.13542591
134	0xbd6a7bf0	-0.057247102
135	0x3df98040	0.12182665
136	0x3da73118	0.08163661
137	0xbd9887a6	-0.07447748
138	0xbdb1421e	-0.08655189
139	0x3d93858a	0.07203205
140	0xbe0d664f	-0.13808559
141	0x3de4c9ea	0.111713246
142	0x3d9ff327	0.078100495
143	0x3d712084	0.0588689
144	0xbcfb5741	-0.030681254
145	0xbe162291	-0.14661624
146	0x3d1d9574	0.038472608
147	0xbd596009	-0.053070102
148	0x3e0e62e8	0.13904917
149	0xbd25c212	-0.040468283
150	0x3e2cb98f	0.1686766
151	0x3e3ecd09	0.18632902
152	0x3a9ce884	0.001197115
153	0xbd075035	-0.033035476
154	0x3de60af9	0.112325616
155	0x3de2ae38	0.11068386
156	0x3bffe071	0.007808738
157	0xbd7c8299	-0.061647985
158	0x3e27ad30	0.1637466
159	0x3cecca24	0.028904982
160	0xbe41c3b0	-0.18922305
161	0xbc6077a9	-0.013700404
162	0x3e09aa43	0.13443856
163	0xbe368c1d	-0.17826886
164	0xbd2a92e7	-0.041644003
165	0xbd79bbb7	-0.060970034
166	0x3d61c5cc	0.055120274
167	0xbdbb814e	-0.09155522
168	0x3d8ea0d7	0.069642715
169	0x3d4fccf0	0.050732553
170	0xbdb575dd	-0.08860371
171	0xbe49e15c	-0.19714874
172	0xbe0e99a3	-0.13925795
173	0xbca81e1f	-0.020522175
174	0xbe16613c	-0.1468553
175	0x3e13b0b1	0.14422871
176	0xbcb121a4	-0.021622486
177	0xbdef3ca6	-0.1168149
178	0xbb3356ef	-0.002736505
179	0x3e02d79d	0.12777562
180	0xbd6cc742	-0.057807215
181	0xbde360f3	-0.11102476
182	0x3db9d1f1	0.09073246
183	0x3d2ba677	0.0419068
184	0x3e051566	0.12996444
185	0x3e149ea1	0.14513637
186	0x3e08f317	0.13373981
187	0x3dfa80ae	0.12231575
188	0x3cac2c85	0.021017322
189	0xbdd7f04b	-0.10543879
190	0xbe179991	-0.14804675
191	0x3dbab447	0.091164164

classifier.bias f4 [6]
0	0x3e21e61a	0.15810433
1	0xbdbc9dbe	-0.092097744
2	0x3d63e567	0.055638697
3	0xbdbdbaf1	-0.09264172
4	0xbcb531a1	-0.022118391
5	0xbcce62f6	-0.025193673
