save/2-9_rnn_sp_120.pt (torch, 17170 bytes, 7 tensors)

emb_layer.weight f4 [120, 16]
000000 00 00 00 00 00 00 00 00 00 00 00 00 00 00 00 00
       0.0 0.0 0.0 0.0
000010 00 00 00 00 00 00 00 00 00 00 00 00 00 00 00 00
       0.0 0.0 0.0 0.0
000020 00 00 00 00 00 00 00 00 00 00 00 00 00 00 00 00
       0.0 0.0 0.0 0.0
000030 00 00 00 00 00 00 00 00 00 00 00 00 00 00 00 00
       0.0 0.0 0.0 0.0
000040 ac 12 37 3f 3a 3c 92 3f 10 4a 1f bc 78 65 b1 be
       0.71512866 1.142463 -0.009722248 -0.34647727
000050 00 44 12 3f 36 fc 07 bf fc d7 a5 3e 3f 40 da 3f
       0.5713501 -0.5311922 0.32391346 1.7050856
000060 ea 1d f5 be cb 49 06 3f 86 5e 25 3f b0 bd a0 3f
       -0.47874385 0.5245635 0.64597356 1.2557888
000070 ce f7 71 3f 05 b8 b4 3f 76 20 87 3c 06 59 9a be
       0.94518745 1.4118658 0.01649497 -0.30146044
000080 09 2b 52 3f 83 6a d1 3f 57 5f 85 3f 0a 9d eb be
       0.82096916 1.636063 1.041972 -0.4601825
000090 80 b1 de bf 71 58 b7 3e 19 a9 f0 bc 51 8a 5f bf
       -1.7397919 0.35809663 -0.029377507 -0.8732043
0000a0 47 74 2b 3e b9 60 a1 bf ef 77 ff bf d4 ad f6 3e
       0.16743575 -1.2607642 -1.9958476 0.48179495
0000b0 0b ad 5a 3f e2 3c 97 bf c0 e0 89 3f 7c 6b a5 be
       0.8542029 -1.1815455 1.0771713 -0.32308567
0000c0 55 48 74 bf 72 48 2d 3f 1b 82 3e 3f 19 00 c9 3f
       -0.9542287 0.6768867 0.74417275 1.5703155
0000d0 29 c9 f3 be 3f 39 fe 3e 56 71 d6 3e 85 ff 60 3e
       -0.4761441 0.4965305 0.41883343 0.21972473
0000e0 1d a3 a1 3e 74 7d 48 bd 93 ba 33 40 5b 6d c2 3f
       0.31569758 -0.048947766 2.8082626 1.5189623
0000f0 84 67 0f 40 b2 0e 6d 3f 97 0d 01 bf 8e 9a 11 be
       2.240693 0.9260055 -0.5041136 -0.14219114
000100 fb 2d 29 bf 0c a5 dd 3f 54 1a ee 3f 86 43 96 be
       -0.66085786 1.7315993 1.8601785 -0.2934839
000110 40 37 a7 3f 18 14 c3 3d ed f7 a2 3e 38 a7 e9 3e
       1.3063736 0.09525317 0.31829777 0.4563539
000120 23 a8 a9 3f 8e 40 dd bf 0a ab ad 3e 10 1a 26 bf
       1.3254436 -1.7285326 0.33919555 -0.6488352
000130 39 88 1f be 8b 22 e6 bf ea d8 1c be 6a 53 b9 3e
       -0.15579309 -1.7979292 -0.15317121 0.36196452
000140 32 bf 43 3e 38 94 79 bf f1 79 df 3f 5d b0 05 be
       0.19115904 -0.9749179 1.7459089 -0.13055559
000150 e1 b6 cb bf b9 58 5a 3f 20 a4 1e bf 70 0f 73 3e
       -1.5915185 0.8529163 -0.61969185 0.23736358
000160 2b 28 9f 3f 12 8e 29 3f d1 c3 86 3f 62 e4 c4 3f
       1.2434133 0.6623241 1.0528508 1.5382197
000170 3b ec 00 40 b0 7e a6 3e 54 1c 3e 3f 20 2a 5b 3f
       2.0144184 0.3251853 0.74261975 0.8561115
000180 f0 3e 6f 3f b5 2d e5 3e 41 4c a1 3f e0 54 0c bf
       0.9345541 0.44761434 1.2601396 -0.5481701
000190 b6 49 05 bf 11 0a 97 bf f6 b5 3d bf ea 1e 0e 3f
       -0.520656 -1.1799947 -0.74105775 0.5551592
0001a0 1e f7 00 3f 25 84 01 bf ef c4 de 3e cf 3f be bf
       0.5037707 -0.5059226 0.43509623 -1.4863223
0001b0 7b 54 f8 be 77 9f ff be 95 08 b4 bf 59 a3 8c bc
       -0.48501953 -0.4992635 -1.4065119 -0.017167734
0001c0 ad e5 4f bf 8f 91 a7 3f 7f c0 f0 3e c2 d6 91 bd
       -0.8120983 1.3091296 0.47021863 -0.0712104
0001d0 0b e1 3a bf b7 3c 85 3f 29 a7 4a be b3 f2 a0 3f
       -0.7299964 1.0409154 -0.19790329 1.2574066
0001e0 d6 cd fe 3d 57 1a b0 bf 5d 5f c4 3f 3e f3 98 bc
       0.12441604 -1.3758038 1.5341603 -0.018670674
0001f0 53 ed d6 3d 2b f5 b9 3f 6b 79 00 bf c5 93 7a bf
       0.10494485 1.4527944 -0.5018527 -0.9788173
000200 dd 68 d5 be 6f 1b fc 3e 94 a4 f0 3d 4b b4 25 3e
       -0.41681567 0.4923968 0.11750141 0.16182058
000210 52 59 7d bf c6 c4 99 3f 21 26 d9 3e 6e cf 69 3f
       -0.98964417 1.2013175 0.42411903 0.9133214
000220 9a b9 68 3f 0d 81 8a bf 99 d0 74 3f f5 98 99 3d
       0.90908206 -1.0820633 0.95630795 0.07499877
000230 3a cc 84 be 9c 71 c6 3f 5f 46 af 3f b8 68 0a 3f
       -0.25937063 1.5503421 1.369335 0.5406604
000240 4f af cd be c2 47 0a c0 b4 f0 3f 3e c4 73 a9 3e
       -0.40172812 -2.1606297 0.18744165 0.33096135
000250 dd 8e 69 be 87 cb 89 bf c5 90 38 bf d9 7e 83 bf
       -0.22808404 -1.0765237 -0.720959 -1.0273086
000260 22 79 40 3f 97 ad 54 be e2 e5 95 be 30 23 04 bf
       0.75184834 -0.20769344 -0.2927695 -0.5161619
000270 31 f6 3f 3f 7e 57 d1 3d c0 41 db 3e 4d 5d 91 3f
       0.74985033 0.10221766 0.428236 1.1356598
000280 12 21 5b bf 10 28 ac bf ba 5b 4a 3f 92 50 0d bf
       -0.85597336 -1.3449726 0.79046214 -0.55201066
000290 b8 fd 30 3f e6 c1 50 3d 43 10 91 be 97 61 44 bf
       0.69137144 0.050966166 -0.2833272 -0.7671141
0002a0 bf 23 06 3f 12 da 5a 3e 29 8c df bd 8e fe ff 3e
       0.52398294 0.2137225 -0.10915405 0.49998897
0002b0 9e 0c 1d bf 99 de 9f 3e 36 b7 bd 3e 85 fc 8c bf
       -0.6134738 0.31224516 0.3705384 -1.1014563
0002c0 8b e0 2b bf 8e 13 86 bf 53 47 04 3f c2 d2 38 c0
       -0.671395 -1.0474718 0.5167133 -2.8878636
0002d0 f5 44 ee bd e9 73 a8 3d 21 2a 8a be 38 62 31 bf
       -0.11634246 0.08225233 -0.26985267 -0.69290495
0002e0 20 ae aa bf b7 4e d6 be c3 d0 09 be 9a 4e 62 bf
       -1.3334389 -0.4185693 -0.13458543 -0.88401186
0002f0 cc fb 09 3f 2a 94 39 3f d7 9a 57 bf fc 9a 97 3f
       0.53899837 0.72491705 -0.8422064 1.1844172
000300 dd 06 12 3f cd 43 70 3f 5b a0 ca 3f 6e 8e 0b c0
       0.5704172 0.93853456 1.5830187 -2.1805682
000310 73 1b f3 be 9b 0b 58 bf 5e 6b ae bf 7d be ad bf
       -0.4748188 -0.8439271 -1.3626516 -1.3573757
000320 c2 0d 00 40 4a ba e4 bd c2 38 87 be ad 29 48 3f
       2.0008397 -0.11168344 -0.2641049 0.7818859
000330 8c 39 f2 3f f8 e9 34 3e 5a 9a 43 3f 5f 8b 05 bf
       1.8923812 0.17667377 0.76407397 -0.5216579
000340 ad 55 f1 bf d5 98 dd be 37 ea 18 bf 48 c7 cd 3f
       -1.8854271 -0.43280664 -0.59732383 1.6076441
000350 e5 13 99 bf 94 e4 03 bf 8f ef 7f 3e 87 4c dd 3f
       -1.1959196 -0.5152066 0.24993728 1.7288979
000360 7c 7b 1e 3f c0 72 2d bf ba 83 d7 3f bf b5 f1 bf
       0.6190717 -0.6775322 1.6837075 -1.888359
000370 b2 09 be 3f 2f 32 3b 3e 60 09 5c 3f 6d 97 f3 bf
       1.4846709 0.18280862 0.85951805 -1.9030586
000380 ba c6 11 bf a8 4f 55 3f e3 96 b2 3f 98 2c 11 be
       -0.5694386 0.8332467 1.3952297 -0.14177167
000390 81 6f d9 3d 1a 03 cd bf 6b e0 21 bf 72 57 88 3f
       0.10616971 -1.6016572 -0.6323306 1.0651686
0003a0 26 75 37 bf c1 e5 0f bd 7b e9 a0 3e 57 c6 8c bf
       -0.7166313 -0.03513122 0.3142813 -1.0998029
0003b0 d2 73 5f be a4 8b 2b 3f 59 34 9a be 20 26 64 3e
       -0.21821526 0.6700995 -0.30118063 0.22280169
0003c0 85 21 f9 3f 16 10 bb bf 3a f9 52 3e 92 a4 2a be
       1.9463354 -1.4614284 0.20602885 -0.16664341
0003d0 4b e4 af 3f 53 66 a5 be 03 b5 1d 3f 8f 9d b0 3f
       1.3741544 -0.3230463 0.61604327 1.3798083
0003e0 b9 37 f7 be ed d5 2a 3f 3d 86 82 3e 7c ea ab 3e
       -0.482847 0.66732675 0.2549304 0.33577335
0003f0 38 20 7e bf 6c 79 26 3e 13 25 95 be 8d 34 3a bf
       -0.9926791 0.16257256 -0.29129848 -0.72736436

rnn.weight_ih_l0 f4 [32, 16]
000000 3f 2d b1 3d 4b 8a cc bd da d5 15 be 0a b0 0c 3d
       0.08651208 -0.09987315 -0.14632359 0.03434757
000010 a1 c7 db 3c ae 8e 28 3d 73 a8 b4 3d a1 eb b6 bd
       0.026828589 0.041151695 0.08821192 -0.089316614
000020 86 ba 9f bd eb 53 ed 3d 2c 51 40 3d 0b 13 38 be
       -0.077992484 0.11588272 0.04695241 -0.17976014
000030 99 9a 9e ba d7 b6 df bd 2d 5f ae bc ce e8 bd bc
       -0.0012100517 -0.10923546 -0.021285618 -0.023182299
000040 02 f2 c4 bd bd 23 35 3e a3 ae c7 3d 54 43 90 3c
       -0.09616472 0.17689414 0.09750106 0.01761023
000050 26 32 45 bd 30 0f 7c 3d f4 95 28 be 72 7e 3e 3d
       -0.04814353 0.06153792 -0.16463453 0.046507306
000060 a8 ff 80 bc 1c 23 ac 3d e4 d1 16 3e 26 dc 0b be
       -0.015746906 0.08405134 0.14728504 -0.13658199
000070 44 6b 45 3e 7c a9 fd bc 1e d0 29 be f5 c2 a2 bd
       0.192792 -0.030964606 -0.16583297 -0.07947341
000080 65 de a1 3d 58 7a 07 3e fe 33 bd bd a5 20 f4 bd
       0.079037465 0.13230264 -0.09238432 -0.11920289
000090 2f 6f f9 3d 8d 85 01 3e cf e6 bd bd 5b e4 15 3e
       0.1217941 0.12648602 -0.09272539 0.14637892
0000a0 c2 d9 11 3d ff 23 0d 3e f9 df 2e be 5d 74 30 3d
       0.03560806 0.13783263 -0.17077626 0.043079723
0000b0 56 76 23 3d 01 23 19 3e ea 6c bd 3d 29 e7 56 3d
       0.039907776 0.14954759 0.09249289 0.052466545
0000c0 d0 28 f0 3d 56 12 a9 3d 8f 9e 23 3e 1f 75 18 bd
       0.11726534 0.082554504 0.15978454 -0.03722107
0000d0 a5 ad 21 3e 92 3b c4 3d b7 36 ad bd bf 88 2d bc
       0.15788896 0.09581675 -0.08457702 -0.010591685
0000e0 85 51 a7 3d b2 ca f4 3d d2 69 13 3d 4a 67 a7 3d
       0.081698455 0.119527236 0.03598959 0.08173998
0000f0 69 f0 d4 3c 43 31 07 3d 97 a6 0f 3e c7 2a f3 bc
       0.025993543 0.033005964 0.14028393 -0.029683484
000100 45 e4 09 bd b3 36 28 3e 5d b9 f5 3d d5 0a 02 be
       -0.03366496 0.16427116 0.11998246 -0.12699445
000110 04 01 e8 bd 4e b2 43 3c 7d a7 d2 bc 17 61 da bd
       -0.11328319 0.011944367 -0.02571463 -0.1066305
000120 bc 9d d0 3d ec 82 5f bb d1 5a 49 3e 02 a5 b3 3d
       0.101863354 -0.0034105135 0.1966355 0.08771707
000130 48 94 bf 3d 64 ae f4 bd c5 91 9b 3d cc 6b ee bd
       0.09354454 -0.11947325 0.07596163 -0.11641654
000140 c6 7d e7 3d c3 fc 10 3e 02 ab a0 3c c3 b9 98 3d
       0.11303286 0.14158921 0.019612793 0.07457306
000150 27 32 3a bd 7f b6 52 3c 77 34 b7 3c 9f a9 2b be
       -0.045457985 0.012860893 0.022363884 -0.16763924
000160 df 8f fd 3d 4d 5a 11 be cc 06 e6 3d 72 19 8f bc
       0.12380957 -0.14194603 0.11231765 -0.017468188
000170 94 a9 27 3c a6 44 5e bd 5e f1 46 bb e7 71 fa 3d
       0.010233302 -0.054264687 -0.0030356268 0.122287564
000180 e6 c2 2f 3c 9c 31 d3 bc 21 09 9d 3d f6 f7 b2 3d
       0.01072762 -0.025780492 0.07667757 0.08738701
000190 73 65 34 bd ae 72 03 3c b9 43 2f 3e d0 ad 56 3d
       -0.044042062 0.008022947 0.17115678 0.052411854
0001a0 ac 20 0b 3d 4c 36 1a bd ac 53 86 3d 38 77 4a bd
       0.033966705 -0.037649438 0.06558928 -0.049430102
0001b0 10 6c 52 be 48 6c 1b bd dd 27 97 bd 44 64 8f 3c
       -0.20549035 -0.037945062 -0.0738065 0.017503865
0001c0 31 97 09 3e e9 e7 6a 3d 95 e7 10 be ac d2 ad 3d
       0.13436581 0.057350073 -0.14150842 0.08487448
0001d0 d6 39 00 bd 18 e8 ec bd 27 e7 d3 3d 89 67 09 be
       -0.031305157 -0.11567706 0.10346823 -0.13418402
0001e0 56 5d 24 3e bb c2 08 bd e4 ac 8d 3d 6e ba 98 bd
       0.1605123 -0.033388834 0.06917742 -0.07457434
0001f0 93 b7 8c 3d 98 f1 16 3e 26 26 f5 3c 8f 20 fa 3d
       0.068709515 0.14740598 0.029925417 0.12213241
000200 5e 39 8c 3d a0 de 9d b9 fe 9a 39 bd 3f d9 ae bc
       0.068468794 -0.00030111242 -0.045313828 -0.021343825
000210 8c eb b5 3d 2e 67 a3 bd ac 3c 8b bd 17 87 8e bd
       0.088828176 -0.07978664 -0.067986816 -0.0695936
000220 09 94 42 3d 2a 7d 14 be 5a 1e ef 3d b9 a2 ee bd
       0.04750446 -0.14500871 0.11675711 -0.11652131
000230 58 79 a1 3c a2 65 ef bd 62 00 dd 3c cf 3a 5e 3d
       0.019711182 -0.11689307 0.026977722 0.054255303
000240 e4 06 2d be 2e c6 87 bd fc 62 4c bd 5d 4b fb bd
       -0.1689716 -0.06629597 -0.049899086 -0.12270234
000250 5d eb af 3d ec 46 fe bc b4 63 2c be 1a 77 08 3e
       0.08589814 -0.031039678 -0.16834909 0.13326684
000260 e7 8e cb 3d 96 d7 01 3d 79 f6 30 3e b0 92 39 bd
       0.09939366 0.03169974 0.17281522 -0.045305908
000270 89 e2 18 3c e7 b0 b8 bd 1c c5 2b 3e 16 45 2e 3e
       0.009331354 -0.090181164 0.1677441 0.17018542
000280 c5 af b8 3d 9f d4 3a 3d 09 ee ea bc 77 93 e5 3c
       0.090179004 0.045612928 -0.028677957 0.028024418
000290 4b f2 2b 3e 6c 16 c0 bc ed d9 50 bd 78 99 e2 bd
       0.16791646 -0.023448192 -0.05098908 -0.11064428
0002a0 2f 2d 27 be e7 00 c6 bc 1b f4 ab bd 98 56 25 3d
       -0.1632583 -0.024170352 -0.08396169 0.040365785
0002b0 45 aa c5 3d ae 4d 93 bb ef 2c 86 bd 24 c2 25 3d
       0.09651617 -0.004495344 -0.06551539 0.04046835
0002c0 c4 01 d9 3d 40 0b d5 bd fd df 6b bb 9b af 0a 3e
       0.1059604 -0.104025364 -0.0035991662 0.1354355
0002d0 d0 80 06 be 0c 37 5a bd 13 81 ea 3d 3a e0 81 3d
       -0.13135076 -0.053275153 0.114504 0.06341596
0002e0 94 9c 1e be f6 8e d2 3d bc 18 a7 3d e1 76 59 bd
       -0.15489417 0.10281174 0.081590146 -0.053091887
0002f0 ee 2d 1d bc f5 d3 22 3d f8 02 b6 3d 6c 05 ff 3d
       -0.00959347 0.03975292 0.08887285 0.12452206
000300 94 fd 17 3e e7 11 22 3d 95 e5 84 3d b4 bf ca 3d
       0.14842826 0.039567854 0.06489102 0.09899846
000310 58 fb 1e 3d 26 c3 ad bd c6 85 94 bc 7b a1 24 3d
       0.03881392 -0.08484487 -0.018130194 0.040193062
000320 12 b3 bc 3d 1b f5 19 bd 07 17 29 be e4 4f ac 3d
       0.092138425 -0.037587266 -0.1651269 0.084136754
000330 df 4c 5b 3d 91 f6 5c 3d f4 5b 68 bd b7 2f 13 3e
       0.053540107 0.05394608 -0.05672832 0.1437367
000340 de 2f 02 3e 00 f9 a0 3d 1a 59 fa 3d f2 f0 28 bd
       0.12713572 0.07859993 0.12224026 -0.04124541
000350 b2 df bb 3d b8 65 04 3d 7e 2c 2f 3e b2 ab 9e bd
       0.09173526 0.03232357 0.17106816 -0.07747592
000360 c0 6a 23 be 33 db f2 3c 65 1e 20 3c dc c0 e3 bc
       -0.1595869 0.029645538 0.009772872 -0.027801923
000370 92 c4 0d be 72 7f 02 3d e3 a4 13 3e 93 07 b9 3d
       -0.13844517 0.031859823 0.14418368 0.09034648
000380 0c 05 a4 bd ec ec da 3d f4 c2 eb 3d ba 43 86 bc
       -0.08008775 0.106897205 0.11511794 -0.016389716
000390 31 ef 98 3d cb fe 1a 3e b3 e0 c5 3d 97 fd 1b 3e
       0.07467497 0.15136258 0.096619986 0.15233456
0003a0 ce 83 a5 3d f0 b3 90 3c 63 9e 9f 3d 7d 1a f6 3b
       0.080817804 0.017663926 0.07793882 0.007510482
0003b0 39 9e 0c 3e c7 bf 26 bd e9 02 1a 3e 3f e0 f7 bd
       0.13732232 -0.040710237 0.15040173 -0.121033184
0003c0 c6 43 97 3d 04 90 f5 bd 4c ea f6 3d c6 81 c0 bb
       0.07385974 -0.119903594 0.12056407 -0.005874845
0003d0 11 7e e9 bd ee ed 28 3e a0 ea 09 be ed 87 1c 3c
       -0.114009984 0.16497013 -0.13468409 0.009553892
0003e0 41 ad 9d 3d 02 80 ff bd 9a 4f 50 be 1d 17 7a 3d
       0.07699061 -0.124755874 -0.20342866 0.0610572
0003f0 38 4f 5c 3c 31 2f 24 bd a9 85 e6 bd b8 ff 20 3e
       0.013446622 -0.040084068 -0.112559624 0.15722549

rnn.weight_hh_l0 f4 [32, 32]
000000 34 b6 bd 3d 9c 72 ba bc 9d bc 41 3d 14 e7 01 be
       0.09263268 -0.022759728 0.047299016 -0.12685806
000010 90 64 f0 bd 1d 6d fb 3d 8f e4 02 3e 40 66 80 bd
       -0.11737931 0.12276671 0.127825 -0.06269503
000020 4f a9 1d be 2a 92 1b 3d b2 96 31 bd c6 73 f1 bd
       -0.15396617 0.03798119 -0.043356605 -0.1178966
000030 52 57 fe 3d 44 90 23 3e 8a f4 21 bb 08 43 bd bd
       0.12418999 0.15973002 -0.0024712407 -0.09241301
000040 48 0c 27 be 15 8c f6 3d f6 8d 08 3d 43 44 82 3d
       -0.16313279 0.12038437 0.03333851 0.06360676
000050 c7 63 5d 3b b3 b5 fe 3d 60 57 fb bd f9 78 02 be
       0.0033781396 0.12437 -0.12272525 -0.1274146
000060 4d 40 d6 bd 33 e7 1a be de 40 35 bd 32 88 1f 3e
       -0.10461483 -0.15127258 -0.044251315 0.15579298
000070 90 d9 3a be 41 23 e6 bd 18 92 31 bd a9 35 cd 3d
       -0.18247056 -0.11237193 -0.043352216 0.100200005
000080 34 11 14 be cd 1d 9b bc 72 39 a1 bc 0c cc dd 3d
       -0.14459687 -0.018935109 -0.019680712 0.108299345
000090 4d f7 2a 3e 00 c9 a0 3c c0 01 b6 3c 4f 0f d0 3d
       0.166959 0.019627094 0.022217631 0.1015917
0000a0 4e 8d 64 3d 8b ec 7f 3c 95 33 e0 3d 73 aa 9a 3d
       0.05579882 0.015620361 0.109473385 0.07552042
0000b0 07 4a f0 3d 86 55 19 3e d9 71 7e bb 8c d9 cb 3d
       0.117328696 0.14974031 -0.0038825183 0.09953603
0000c0 be 6f 1b be 9b 17 0f 3e fe 60 46 bd a0 40 80 bb
       -0.15179345 0.13973849 -0.048432343 -0.003913954
0000d0 88 4a ef 3d e5 4f 14 3e 95 66 ca bd c0 2f 01 be
       0.116841376 0.14483602 -0.09882847 -0.12615871
0000e0 8c 74 a7 bd 80 a8 0c 3d 9a 82 b2 bd 58 38 17 3e
       -0.081765264 0.03434038 -0.087163165 0.14767587
0000f0 d3 5a 54 bd e0 1d 25 3e 74 1a 86 bd 7a df 08 3d
       -0.05184443 0.16124678 -0.06548014 0.03341625
000100 ab e3 c2 bd ec 06 8a 3c 77 76 fb 3d 28 8d bf 3c
       -0.095160805 0.016849004 0.12278455 0.023382738
000110 4d a9 e1 3d 28 a3 a9 3d 50 a7 e6 3c a6 03 ba 3d
       0.1101862 0.08283073 0.028155953 0.09082727
000120 9f a9 a3 3d 26 16 19 3e 84 e6 88 bd 74 4e 98 3c
       0.07991337 0.14949855 -0.06684592 0.018592097
000130 cc 51 44 3d af 4d b0 bd ef 01 1e be 76 de b9 3d
       0.04792957 -0.08608567 -0.15430425 0.09075634
000140 32 d5 08 be 9f a6 88 3d f0 1f 18 be 79 83 98 3d
       -0.13362578 0.066724055 -0.14855933 0.074469514
000150 62 6a 2b 3e 7d c3 25 bc be 0d 07 be 40 54 d7 bd
       0.167398 -0.010117409 -0.13188836 -0.10514116
000160 52 85 83 bc 8b 9e 99 3d 8a 4b 7e bd 0d 09 1b be
       -0.016054783 0.07500943 -0.06208376 -0.15140171
000170 82 12 df 3d 9c f8 0f be 84 83 48 bc 03 86 a8 bc
       0.10892202 -0.1405968 -0.012238387 -0.020571714
000180 ae f4 90 bb d8 7d ca 3d e6 14 f2 3d fc 92 d1 3c
       -0.0044236993 0.09887284 0.11820392 0.025582783
000190 33 23 2a be 94 9e 34 be fd 12 b6 bd bf 87 84 3c
       -0.1661499 -0.17638618 -0.088903405 0.01617801
0001a0 dc 05 e6 bd 0c 8b 64 3d 6c 6c c1 3c 4d 41 93 bd
       -0.11231586 0.055796668 0.02361127 -0.071901895
0001b0 4b 5d 31 3e ea 84 8f bd 99 a8 26 bd 0c 4f 94 bd
       0.17320745 -0.07007773 -0.04068813 -0.072416395
0001c0 59 38 bd bd 50 2a f1 3d 7b c8 5a bd 3c bd 56 bd
       -0.09239263 0.117756486 -0.05341385 -0.05242656
0001d0 07 0a 0a 3e 9c dd 2a 3e a5 cc a8 3d 7e 62 cb 3d
       0.13480388 0.166861 0.08242158 0.09930895
0001e0 be 4c 37 3d 37 8e 12 bd b3 fa a2 3d 20 a3 59 bd
       0.04475092 -0.035780158 0.07957973 -0.053134084
0001f0 3b 70 13 3e cf 31 15 be 9c 35 20 be 1d d1 52 bd
       0.14398281 -0.14569782 -0.1564545 -0.051468957
000200 ad 58 60 3d 51 6d 79 bd 27 c9 82 3d 05 64 b4 3d
       0.054772068 -0.060895268 0.06386023 0.0880814
000210 c8 bc 64 3d 01 66 39 3e b3 b8 b5 3d c7 c3 c7 3d
       0.0558441 0.18105318 0.08873119 0.097541384
000220 4c 98 a3 3d f7 cc a8 bd 1c 17 88 bc ae b6 ab 3d
       0.07988033 -0.08242219 -0.016612582 0.08384453
000230 20 a6 c7 bd 7d dd 10 3e 65 38 4e bd 6c 7c 9f 3c
       -0.09748483 0.14146991 -0.05034675 0.019468509
000240 c3 4b 57 3d eb ec 32 be 52 54 f0 bd e0 a0 94 bd
       0.052562486 -0.1747319 -0.11734833 -0.07257247
000250 47 7c 1b be d5 7e 81 bd 2d 90 c4 3d 55 5c de 3b
       -0.15184127 -0.063230194 0.09597812 0.006785909
000260 66 a2 23 be 1b 4b 4a bd bd 44 08 bd 4e c6 dc 3c
       -0.15979919 -0.049388032 -0.03326868 0.026950028
000270 6e a4 95 bd e0 fb 97 bd e9 76 de 3d e0 b6 f3 3d
       -0.07306753 -0.07421088 0.10862524 0.11900115
000280 9a 18 69 bd 0c df 88 bd 69 61 a1 bd ff 91 1f 3e
       -0.056908228 -0.06683168 -0.07879908 0.15583037
000290 ff 90 72 bd 7a 2d aa bd 08 7c 0f 3d 97 bf 9f bd
       -0.05922031 -0.08309455 0.035030395 -0.07800215
0002a0 5b b0 8a 3c 05 4e fa b8 8c 60 21 be 88 3c 9f 3d
       0.016929796 -0.00011935461 -0.15759486 0.07775217
0002b0 84 83 0e be ba df c2 bd ea 2c 34 3e 61 71 20 3e
       -0.13917357 -0.09515329 0.17595258 0.1566825
0002c0 e6 d3 76 3d 8c b7 0b 3d 23 59 1e 3d 6a 7e 2c be
       0.060260676 0.03411059 0.038659226 -0.16845098
0002d0 d3 56 2e be 0e 39 2f be 6b 93 8f 3c b9 45 17 3e
       -0.17025308 -0.17111608 0.017526349 0.14772691
0002e0 dd c0 2e be 12 7d 0f 3e d0 07 ff bd 32 14 2b bc
       -0.17065759 0.14012554 -0.12452662 -0.010441827
0002f0 4a 0e b7 bc de 11 11 be c5 0f 4d 3d 74 7d d8 3d
       -0.02234568 -0.14166972 0.050063867 0.10570803
000300 3c b6 51 3d 53 78 99 3d e4 cd 0d 3e 13 5a 28 be
       0.051199183 0.07493653 0.13848072 -0.1644061
000310 f7 3f eb bd 36 76 cc 3c c9 6f d5 bd 55 37 01 3e
       -0.1148681 0.024958711 -0.10421712 0.12618764
000320 19 7b db 3d c6 45 21 be 06 f2 83 3d 3f 25 15 3e
       0.107168384 -0.15749273 0.06442647 0.1456499
000330 9b 67 23 be 20 dc 69 3d 11 a0 16 be 6b a2 1b be
       -0.15957491 0.057094693 -0.14709498 -0.15198676
000340 58 ca 56 bd 9b 0d 68 3d 9b 09 41 3d 6a 32 8d bd
       -0.052439064 0.0566536 0.0471283 -0.06894381
000350 5b 65 1c 3e 42 13 53 3d 22 f5 d1 bd c1 ac 6a 3d
       0.15273039 0.051532038 -0.102518335 0.057293657
000360 cd 34 60 bd 2b 89 d0 3d 6b 58 da 3d ac 30 21 be
       -0.054737855 0.10182413 0.10661396 -0.15741223
000370 0a e2 a4 bd 54 56 b0 3c 63 81 60 bd 8a 93 98 3d
       -0.08050926 0.02152554 -0.054810893 0.07450016
000380 77 43 bb bb 22 fd fc bd 9c 19 c3 bc e1 6f d5 3d
       -0.0057148295 -0.12352969 -0.023815922 0.1042173
000390 4b 64 cb 3c c3 e5 a6 bd 66 76 e8 3d 82 b6 07 bd
       0.024828097 -0.08149292 0.11350708 -0.033133037
0003a0 da 5a dd 3d 0d 34 14 be 6a 17 93 bd 8f e2 dd 3b
       0.10808344 -0.14472981 -0.071822 0.0067713927
0003b0 3e 12 b0 3d 71 9a 7a 3d b4 84 32 bc f9 1a a5 3d
       0.085972294 0.061182443 -0.010895897 0.08061785
0003c0 3a ae 8f 3d ea 96 05 be 79 2c 5d 3c cf 6f c3 bd
       0.07015653 -0.1304585 0.013499373 -0.0954281
0003d0 13 6f ba bd 63 12 0e 3e 9a 51 22 3e 7d 92 1e be
       -0.09103217 0.13874201 0.15851441 -0.15485568
0003e0 7e e4 01 be 2d c4 bf 3d da 32 2d 3e f1 04 b6 bc
       -0.12684819 0.093635894 0.1691393 -0.022219153
0003f0 4e fc 4c 3d 24 2a aa bd bd d5 02 be 36 10 f1 bd
       0.050045304 -0.08308819 -0.12776847 -0.1177067

rnn.bias_ih_l0 f4 [32]
000000 c5 db b3 3b 15 c0 97 bd 4e 41 0f 3e 39 c8 19 3e
       0.005488845 -0.074096836 0.13989756 0.15017785
000010 11 fa 9d bd eb 0b f5 3d 6a 59 cf bd d0 c3 83 bd
       -0.07713712 0.11965164 -0.10124476 -0.06433833
000020 7f 67 e0 bd 7f 82 d6 bd fa dc 40 3d cc eb 08 3e
       -0.1095724 -0.10474109 0.04708574 0.133712
000030 27 7a be bd 87 cb 2a 3c b4 ac 10 3e 6c c4 31 be
       -0.093006425 0.010424501 0.14128381 -0.17360085
000040 1b 38 18 bd aa 7e 9e bd c7 02 18 3e 1e 15 c1 3c
       -0.03716288 -0.07739003 0.1484481 0.02356964
000050 65 74 23 3e 92 49 82 bd 29 6c 9e 3d f6 c8 17 be
       0.1596237 -0.06361689 0.07735474 -0.14822754
000060 65 d8 29 3d 03 be 54 3d 8c 86 d9 3d 1a 44 1e bd
       0.041466136 0.05193902 0.10621366 -0.038639165
000070 25 af 09 3e 0c 94 a2 3d b8 ea 39 be e8 63 02 3e
       0.13445719 0.07938394 -0.18155944 0.12733424

rnn.bias_hh_l0 f4 [32]
000000 c2 76 3e bc ea d1 f2 3d 29 89 bc 3d 27 7f 07 3e
       -0.011624994 0.11856444 0.09205849 0.13232099
000010 97 69 da 3d 0b 50 f9 3d a7 8b 91 3c 57 37 5d bd
       0.10664671 0.1217347 0.017766787 -0.054007854
000020 71 80 f3 bd e5 30 4c 3d aa cd 3b bd 32 44 30 3d
       -0.11889733 0.049851317 -0.045850433 0.043033786
000030 7f 31 84 3d 7e ba d5 bb 0e 0b e5 3d 31 53 1a be
       0.06454753 -0.0065224757 0.11183749 -0.15070798
000040 65 0e 11 3d 5e 02 de bd 0b 3d 15 bd 73 1c bb bd
       0.03541412 -0.10840295 -0.03643517 -0.09136286
000050 87 09 d3 3d fb 60 80 3d 33 4b b0 3d 1e 2c 31 3e
       0.103045516 0.062684976 0.08608093 0.17301986
000060 22 f3 93 3d e3 5e bc 3d 89 b9 06 3e d9 60 1d be
       0.07224108 0.09197786 0.13156714 -0.15368976
000070 ad 2c 13 3e 94 ed ca 3d f4 aa 03 be 27 6b da 3a
       0.14372511 0.09908596 -0.12858182 0.0016664014

classifier.weight f4 [4, 32]
000000 01 95 4e 3d 6d 97 c8 3d 06 39 98 bd b2 ac e6 bd
       0.05043507 0.09794507 -0.07432751 -0.11263408
000010 72 8c 3a 3e 8c 94 0b 3d 9e 31 73 bc 0b 97 d5 3d
       0.18217638 0.034077212 -0.014843373 0.104292
000020 8c e4 52 3d 60 3b ad bd 1f 07 f9 bd 65 a8 54 bd
       0.05148749 -0.084585905 -0.12159561 -0.051918406
000030 26 ba 42 be 09 f4 97 bd ec 4b ef 3d c8 de 04 bd
       -0.19016322 -0.07419593 0.11684403 -0.032439023
000040 c4 bb 40 3c c5 45 d7 3d e5 05 dd 3b 80 26 c6 3d
       0.011763517 0.10511354 0.0067450874 0.09675312
000050 cc 68 fd bd 7d 16 09 be df ed 0e 3e 03 7d c4 3c
       -0.12373504 -0.13387485 0.13957928 0.023985391
000060 c7 df 1c be 1c b7 4f 3e 1d 18 36 3e 19 aa 9b bd
       -0.1531974 0.20284694 0.17782636 -0.07600803
000070 0f 55 12 be d5 97 39 3e 59 bc ff 3d 72 9c 20 3e
       -0.1429026 0.18124326 0.12487096 0.15684679
000080 da d3 80 bd 6a fc 0b 3e 9f f5 90 3d ed 89 e1 bb
       -0.062904075 0.13670507 0.070780985 -0.006882897
000090 71 ef 44 3e cf 07 d3 3d 7f f8 32 be 31 0a 93 bd
       0.19231965 0.10304224 -0.17477606 -0.07179678
0000a0 ea 94 19 bd 04 b5 23 3e dd b9 88 bd c1 b5 9e bd
       -0.03749553 0.1598702 -0.066760756 -0.077495106
0000b0 e0 af c3 3d cf 53 cd bc 80 9c 5a 3d ae 8e e0 bd
       0.0955503 -0.025064377 0.053371906 -0.10964714
0000c0 b2 af 71 bc c2 78 e9 bd 84 35 e2 bd a5 a7 32 be
       -0.014751362 -0.11399986 -0.110453635 -0.17446764
0000d0 fc 77 0e b8 d5 4f 0a 3e 22 4b 91 bd ad f8 16 3e
       -3.3967182e-05 0.13507016 -0.070944086 0.147433
0000e0 3c b5 18 be c0 cd 4b 3e 67 f9 41 bd c2 98 17 bd
       -0.14912885 0.19902706 -0.04735699 -0.037010916
0000f0 9e 81 c3 3d 43 86 86 3d 5b 48 39 3d 78 cd 26 3e
       0.09546207 0.06568577 0.04523502 0.16289318
000100 fe bc 9a 3b 6f ce 0e be 6f ef 31 be 43 94 45 bc
       0.0047222367 -0.13945936 -0.17376493 -0.012059274
000110 11 70 b5 3d 3a 62 b3 bd 23 8f 29 be 44 af 95 3c
       0.088592656 -0.087589696 -0.16558509 0.01827205
000120 23 c8 47 be 63 33 df 3d 75 df bd bd 24 e5 87 3d
       -0.1950994 0.10898473 -0.09271137 0.06635502
000130 7a b0 d2 3d ed 09 58 be 52 b4 f1 bd 76 46 45 be
       0.102875665 -0.21097536 -0.118019715 -0.1926516
000140 fc 04 1a bd 87 18 b3 3b 22 a7 01 3e bc 48 54 bd
       -0.03760241 0.0054655704 0.12661412 -0.051827177
000150 fe db 39 be 09 3e b3 3d 2b c8 d5 bd c3 66 0c be
       -0.18150327 0.08752067 -0.1043857 -0.13711075
000160 70 c3 ac bd 5a c1 0e 3e 86 70 ff 3d 09 09 23 be
       -0.08435714 0.13940945 0.12472634 -0.15921415
000170 a6 1d 14 be 31 f5 ed bd 03 b9 b3 bd 7f 0b 1a be
       -0.14464435 -0.11619032 -0.087755226 -0.15043448
000180 ef 42 50 3e ed df 6c be fa d3 69 bd 3a a1 59 3d
       0.20338033 -0.23132296 -0.057086922 0.053132273
000190 0b 8d a3 bd bc 23 04 be b7 cc 3f 3d cb 91 30 3c
       -0.07985886 -0.12904257 0.04682609 0.010776947
0001a0 15 2c 9f 3c 8e 2f 59 3d 7b 37 98 bd 91 e3 88 bd
       0.0194302 0.053023867 -0.07432457 -0.0668403
0001b0 c0 a7 2c bd c7 b5 56 bc e8 16 3d 3d e2 93 0d 3e
       -0.042152166 -0.0131048625 0.046164423 0.13825944
0001c0 26 ed 72 bd d5 62 74 3e 85 24 6c bd 0f cb dc 3d
       -0.059308194 0.23865826 -0.057652015 0.10780918
0001d0 b3 bf 12 be e5 6c 15 be 7a 42 45 be 32 3c af bd
       -0.1433094 -0.14592321 -0.1926364 -0.08556403
0001e0 74 e9 fc bd c7 a5 d7 bd 34 a0 bc 3d eb 4d ff bb
       -0.12349215 -0.105296664 0.09210244 -0.007791271
0001f0 e4 1b a5 bd be 06 42 bc 85 16 20 3e f1 2f a3 bd
       -0.0806196 -0.011842428 0.1563359 -0.079681285

classifier.bias f4 [4]
000000 3a 58 da 3d 81 f4 b4 bd 0a 1a 61 3e 7a d0 88 3d
       0.10661359 -0.08835698 0.2198259 0.06680389
