save/3-1_rnn_sp_80.pt (torch, 14217 bytes, 6 tensors)

emb_layer.weight f4 [80, 16]
000000 00 00 00 00 00 00 00 00 00 00 00 00 00 00 00 00
       0.0 0.0 0.0 0.0
000010 00 00 00 00 00 00 00 00 00 00 00 00 00 00 00 00
       0.0 0.0 0.0 0.0
000020 00 00 00 00 00 00 00 00 00 00 00 00 00 00 00 00
       0.0 0.0 0.0 0.0
000030 00 00 00 00 00 00 00 00 00 00 00 00 00 00 00 00
       0.0 0.0 0.0 0.0
000040 bd fb 21 bf e1 ed 01 3f 19 a9 01 3f f7 b3 18 bf
       -0.6327475 0.507536 0.5064865 -0.59649605
000050 b2 71 d9 be c3 1e 9b bf 04 df 5e bb e9 39 6c bf
       -0.42469555 -1.2118763 -0.003400744 -0.92275864
000060 ea 21 bb bf a9 67 86 3f 64 5b 32 3f 09 ca b1 bc
       -1.4619725 1.0500385 0.696707 -0.021702783
000070 fa a8 6d 3f 77 b8 f7 bd ec e1 c8 3f 71 e4 0e bf
       0.9283596 -0.12095731 1.5693946 -0.55817324
000080 e8 2d 8b 3e a4 1c 35 3f bd 1e 67 3f 19 c4 64 3f
       0.2718346 0.7074683 0.9028128 0.8936172
000090 71 c5 5c 3e 0e 01 68 3f bb 2e 55 3f ae 74 8a bf
       0.21559693 0.9062661 0.8327443 -1.0816858
0000a0 88 22 3b bf a4 53 ac 3f ea aa c6 bf 03 55 75 3f
       -0.73099566 1.3463025 -1.5520909 0.9583284
0000b0 7f 65 f4 be a3 b0 bd 3e 30 da 81 3f 8a 9e 9f bd
       -0.47733685 0.37048826 1.014471 -0.07793911
0000c0 3f 34 4d bf 5c b9 01 40 93 cd 2f bf 75 5c da be
       -0.80157846 2.0269384 -0.68673056 -0.42648664
0000d0 1d e9 eb 3f 1e e8 3b 3f 22 5c c1 3c 98 9a 4e be
       1.8430516 0.7340106 0.023603503 -0.2017616
0000e0 9b 2a 06 3f 3b 50 3b be 00 4e 87 bf 04 e0 01 bf
       0.5240876 -0.18292324 -1.0570679 -0.50732446
0000f0 a2 5d 4e bf 06 9d 71 bf 93 b9 2b 3f b5 88 98 3e
       -0.8061162 -0.94380224 0.6708004 0.297918
000100 42 b6 8a bf 65 92 dc be 41 f6 82 3d 41 20 9b bf
       -1.0836871 -0.4308044 0.063946255 -1.2119218
000110 6f 0d bf be e0 54 80 bc cb b4 75 3f 8d 46 12 3e
       -0.37314937 -0.015665472 0.95978993 0.14284725
000120 d9 c0 0d be f4 68 d4 3e e5 78 9c 3f 8b 3b 87 3e
       -0.13843097 0.41486323 1.2224394 0.26412615
000130 56 b9 50 bf 6f 7c 74 bf 7d 15 d6 3f 6f 34 0a bf
       -0.815328 -0.9550237 1.6725308 -0.5398626
000140 5c 24 17 40 f2 79 38 be 1b f1 8c 3f 23 32 27 be
       2.3615942 -0.18015268 1.101108 -0.1632772
000150 07 22 56 bf 55 f6 28 3f 40 d4 8f bf ee d8 21 be
       -0.8364567 0.6600087 -1.1236649 -0.15805408
000160 0d 33 32 be 05 b5 03 c0 27 8b 0f be 6f 61 2f 3f
       -0.17402287 -2.0579236 -0.14017926 0.68508047
000170 cc d7 82 bf 73 10 3e 3f 0c 20 8e bf 04 d1 6f 3f
       -1.0222106 0.7424385 -1.110353 0.9367831
000180 99 6f d4 be 73 c5 62 bd 92 d3 8d bf 89 bd c8 bf
       -0.41491392 -0.055364083 -1.1080191 -1.5682842
000190 a5 57 e0 3f 9b 55 98 be c3 90 73 3f d7 0c b3 bf
       1.7526747 -0.29752812 0.95142764 -1.3988293
0001a0 5e 4f 68 bd a8 1f 6a be bd f4 79 3f ed 7b a8 3f
       -0.056716315 -0.22863638 0.97639066 1.3162819
0001b0 82 f3 af bf 5a f0 6c bf 1f 0b 14 bf 2a 2e 64 3f
       -1.3746188 -0.9255425 -0.5782947 0.8913294
0001c0 9f 54 cf be aa 8d fb bf 79 ef e4 bf f4 8d 95 3c
       -0.40494248 -1.9652607 -1.7885581 0.018256165
0001d0 ec 67 e7 3f ba a1 92 3e 25 75 9c 3e b4 51 e2 3e
       1.807859 0.28639013 0.30558124 0.4420296
0001e0 27 93 0d 40 92 15 1b 3e 36 db 43 bf ed d4 92 3f
       2.2121065 0.15144947 -0.76506364 1.147123
0001f0 4f 73 dd 3f 96 fe b1 3e a6 38 16 3e 19 3d 8b 3e
       1.7300814 0.34764546 0.14670047 0.2719505
000200 e2 f2 39 3f fc 18 0e 3f d3 f8 56 bf 9d 80 27 bf
       0.72636235 0.55506873 -0.83973426 -0.65430623
000210 f2 96 16 3f f9 51 8e 3f cd f9 c6 be 65 2d 00 40
       0.58824074 1.1118766 -0.38862458 2.0027707
000220 e5 46 23 3c 02 34 4e bf cd b5 73 bf 32 c6 0c c0
       0.009965633 -0.8054811 -0.9519928 -2.199597
000230 3d 81 2d 3f 06 f4 d4 3e a6 af c5 bf ad 24 39 be
       0.67775327 0.41592425 -1.5444229 -0.18080397
000240 66 a2 fd 3d 0f 3f c4 3e 64 0f e3 3d 36 93 f1 3f
       0.12384491 0.3832936 0.1108692 1.887305
000250 41 c8 bb 3f 6e 53 e7 3f e1 91 ce bf 78 89 92 bf
       1.4670488 1.8072336 -1.6138269 -1.1448202
000260 15 0f 05 c0 5e d4 93 3e 3c c1 5e bd ef 83 00 3f
       -2.0790455 0.2887296 -0.0543835 0.50201315
000270 db eb a8 3f fa c1 15 3f fa 0d 73 bf d4 14 0b bf
       1.3196977 0.5849911 -0.949432 -0.54328656
000280 db 45 f9 be f9 cf ec 3e c7 e6 ad bd 37 04 d6 bf
       -0.48686108 0.4625242 -0.08491283 -1.6720036
000290 71 09 88 bf 45 94 d9 be a8 73 bd bd 94 0b 48 bf
       -1.0627881 -0.42495933 -0.09250575 -0.78142667
0002a0 ed 6c 46 bf e4 bf 77 3e b8 8b ff 3f 93 10 2e bf
       -0.7750996 0.24194294 1.9964514 -0.6799404
0002b0 5b 99 bd bf b4 29 49 3f 75 85 12 40 9c 4b bb 3d
       -1.4812425 0.7857926 2.2893956 0.09145281
0002c0 3b 3e 70 3f 51 bf 68 bf 8d c9 54 3f 5e bf 4e 3f
       0.93844956 -0.90916926 0.8312004 0.80760753
0002d0 89 14 77 3f b3 38 94 be f0 93 37 3d 68 44 e4 bf
       0.9651571 -0.28949508 0.04481882 -1.7833376
0002e0 09 6e 81 3f 11 56 64 bf 73 64 0e bd 39 3d c2 be
       1.0111705 -0.89193827 -0.034763765 -0.37937334
0002f0 54 b3 f2 bf f8 66 57 be 77 87 fb 3e 75 60 33 c0
       -1.8960977 -0.21035373 0.4912679 -2.8027623
000300 60 92 21 3d 19 0e 78 3f 45 7e ab bb 6f 28 c6 3f
       0.039446235 0.9689651 -0.0052335584 1.5481089
000310 55 a2 c1 3e e5 60 10 3f 25 0a c8 bf b4 45 ac 3f
       0.37819162 0.5639785 -1.5628096 1.3458772
000320 a4 58 7a be f1 c6 60 3f 43 1e a5 3d 85 ec 1c 3e
       -0.24447876 0.8780356 0.080624126 0.153246
000330 ed 06 60 bf 8f 11 cf 3f 47 9a 81 be 3d eb c3 bf
       -0.8751057 1.6177233 -0.25313017 -1.5306164
000340 7c bb 93 3d e1 36 14 c0 6c 74 c4 be 80 9f 71 bf
       0.07213494 -2.3158495 -0.38370073 -0.94384
000350 83 09 a7 3f 26 6d 41 bf b5 d7 25 bf 5d 79 b3 bf
       1.3049778 -0.7555717 -0.6478227 -1.4021412
000360 1a 1e 93 bf fe 61 84 bf 87 b8 0a 3e 51 6c 63 3c
       -1.1493561 -1.0342405 0.13546954 0.013880805
000370 ce b3 7c 3f ab d2 29 be 6c 1c 15 bf 69 7f 23 be
       0.9871186 -0.1658427 -0.58246493 -0.15966572
000380 d4 fb 07 bf e5 ab 45 bf 3a 19 80 bd 01 31 7b 3f
       -0.53118634 -0.77215415 -0.062548116 0.9812165
000390 3e 0d 0f 3f 98 a8 aa bf 03 ad 4f bf 79 d4 95 be
       0.5587958 -1.3332701 -0.8112337 -0.29263666
0003a0 25 f2 15 bf b2 18 e2 bf d1 e5 16 bf a4 92 c8 bf
       -0.5857261 -1.7663786 -0.5894442 -1.5669751
0003b0 cd 6f 31 be d9 05 08 bf 39 4b f9 3f 45 4d 2b 3f
       -0.17327805 -0.5313392 1.9476081 0.6691478
0003c0 de 95 9e be b8 eb a5 bd 72 97 a8 bf 5a 40 f0 be
       -0.30973715 -0.081016004 -1.3171217 -0.46924096
0003d0 6f 24 13 bf 90 6d 44 bf 7d de 46 bf f7 1f ce be
       -0.5747747 -0.7672968 -0.7768324 -0.40258762
0003e0 0c 42 20 3f 77 9d 89 bf 84 3d fa 3e 2b 87 4a bf
       0.6260078 -1.075118 0.48875058 -0.791125
0003f0 f1 6c fd bf df 26 31 bf f1 cd 6c 3f f1 01 ac bf
       -1.9798871 -0.6919994 0.9250174 -1.3438092

rnn.weight_ih_l0 f4 [32, 16]
000000 ed d2 1c be 8d 8f 38 be 94 fc f4 3d b5 7e 40 bd
       -0.15314837 -0.1802351 0.11962238 -0.046995837
000010 b2 02 b3 bd 3b 87 79 3c 61 58 33 3e 6c c7 02 be
       -0.087407485 0.015229995 0.17514183 -0.12771386
000020 5b ca ec bd cd 58 fc 3d 41 dc d4 3a dd 30 2c 3e
       -0.11562034 0.12321625 0.0016239957 0.16815515
000030 92 55 1a be da 6a eb 3c 4f 0d 4c 3c a2 d0 00 be
       -0.15071705 0.028737474 0.012454345 -0.12579587
000040 9b 81 8e bd 7d 4e c7 bc 4f 22 c4 bd 3b 39 76 3d
       -0.06958314 -0.024329418 -0.09576856 0.060113173
000050 74 67 25 be 63 eb 02 be 5d ea 84 3d 4b 31 3c be
       -0.16152745 -0.12785105 0.06490014 -0.18378179
000060 8f 7c 2e be 82 71 40 bc 1c 5f 2b be c1 84 f6 ba
       -0.17039703 -0.011745812 -0.167355 -0.0018807874
000070 80 e3 70 bd c0 b2 0d 3e 59 6d 68 3d 7c 2e ca bc
       -0.05881071 0.13837719 0.056744907 -0.024680369
000080 59 9e f1 3d 2b ab c4 3d 76 99 01 be 60 28 2c 3d
       0.117977805 0.0960296 -0.12656197 0.042030692
000090 3c be 0d 3e a5 8a 1d be 23 bc 0f 3e e6 21 3c bb
       0.138421 -0.1538492 0.14036612 -0.0028706728
0000a0 64 8d d7 3c b9 01 b3 3c 63 6e 27 3e a1 23 ff 3d
       0.026312537 0.021851407 0.16350703 0.124579675
0000b0 69 d3 66 bd ce 8a 0b 3d a0 1f 49 bd 9f ec 1e 3e
       -0.05635396 0.03406792 -0.049102426 0.15519951
0000c0 01 21 1c bd 20 ff 0a 3e b8 bc 1f be 7d b1 93 bc
       -0.038117412 0.13573885 -0.15599334 -0.018028969
0000d0 9e 5d 1e bd 8f 82 5a 3d fd 5a 9d 3d e2 11 21 be
       -0.0386635 0.053347167 0.0768337 -0.15729478
0000e0 0c 8f e5 3c 81 b5 9e 3d 21 ba cb 3d f7 8a 1b 3e
       0.028022312 0.07749463 0.09947611 0.1518973
0000f0 3f b6 2f be 09 d8 b3 3d fe 8a 7c 3b 94 93 1d 3e
       -0.17159365 0.0878144 0.0038534994 0.15388328
000100 33 b9 ab 3d 1b 22 20 3e db f3 68 3a b6 e5 01 be
       0.08384933 0.1563801 0.0008886435 -0.12685284
000110 7a af c4 bd b5 20 a0 3d ed 32 11 be 1f 39 0a 3e
       -0.09603782 0.07818738 -0.14179583 0.13498352
000120 da 63 35 be 88 3d 27 3d c6 58 0a 3e 1c cb d0 3b
       -0.17713872 0.040830165 0.13510427 0.006371869
000130 6c 46 9c bb 48 ef d6 bd f4 21 7a 3d c2 7d d1 3d
       -0.004769137 -0.10494858 0.061067536 0.102290645
000140 2a bc 26 be e5 39 90 3d 50 fc 2c be 6f 07 c1 bd
       -0.16282716 0.070422925 -0.16893125 -0.09425246
000150 0a de c0 b9 90 ea e2 3d 95 76 c7 3d e1 4f 93 bb
       -0.00036786526 0.110798955 0.097394146 -0.0044956063
000160 d5 62 12 3e 0e f6 2c be 82 3f f7 3d 15 7c f9 bc
       0.14295514 -0.16890737 0.1207266 -0.030454675
000170 48 ec 32 3e 92 42 c2 3c 20 0f 2f 3d 75 c6 00 3c
       0.17472947 0.023713384 0.042739034 0.007859816
000180 d0 a6 bb 3c 2b 61 45 3d 48 25 34 be a7 e2 ef 3d
       0.02290669 0.04818837 -0.17592347 0.117131524
000190 be fb 8c 3d 14 62 d8 3d d7 4a a5 bd 89 bf f5 bb
       0.068839535 0.10565582 -0.08070915 -0.0074996394
0001a0 bd 3d 88 3c 15 86 1b 3e c1 76 4d be 17 48 02 bd
       0.016631002 0.15187867 -0.20064832 -0.03180703
0001b0 96 80 8d 3c 31 fa dd bd ae 21 74 3c 6b b2 1c bd
       0.017273229 -0.10838736 0.014900608 -0.03825609
0001c0 6c b9 1a be 61 a5 58 3c f6 bc 02 bc 77 d5 b6 bc
       -0.15109795 0.013223023 -0.007979622 -0.022318585
0001d0 22 c7 cd 3d 2d ef d8 bd a4 bb 78 3d ee e4 1a 3e
       0.10047747 -0.10592494 0.060725823 0.15126392
0001e0 4e e4 3d 3d 9a db 1e 3e 7b d0 d6 bd 56 b8 2b bd
       0.046360306 0.15513459 -0.10488983 -0.041923843
0001f0 c1 40 0b be 28 dc f3 3d c4 65 8e bd be 3c 34 3d
       -0.1359892 0.11907226 -0.06953004 0.04400324
000200 77 90 00 3e af cf 18 3e dc 16 d4 bd d7 95 1d be
       0.12555109 0.14922975 -0.103559226 -0.1538919
000210 69 ab 67 bd 72 6b e8 3d 39 05 0a bd d9 44 e3 bd
       -0.056559954 0.113486186 -0.033696387 -0.11097116
000220 66 cc d5 bd a8 67 b3 3d 92 de 0c 3d 89 f4 02 be
       -0.104393765 0.08760005 0.034391947 -0.12788595
000230 54 d6 00 be 42 a1 41 bd a0 bc ae bd 1a 81 d1 bd
       -0.1258176 -0.047272928 -0.08532071 -0.10229702
000240 d9 a3 0f 3e 4a e1 f4 bc cb 62 6b 3d e4 16 3b be
       0.14027347 -0.029892582 0.057467263 -0.18270451
000250 17 4e 07 3e 24 8a b4 bc 56 f9 f7 3d 75 71 c0 bd
       0.13213383 -0.022038527 0.12108104 -0.0939664
000260 d3 00 47 3d f2 2d be bd cd 39 84 bc 14 cb a5 3d
       0.04858477 -0.09286107 -0.016140843 0.08095375
000270 c0 38 b5 3d 54 08 7b bb 29 5c 26 3e 85 4a 57 bc
       0.08848715 -0.0038304524 0.16246094 -0.013140325
000280 65 01 64 bd 12 75 eb 3d 83 90 28 be f6 01 85 bd
       -0.055665392 0.11496939 -0.16461377 -0.06494515
000290 72 f4 28 3e 81 30 24 3e 22 c2 a5 3d 15 5e 9b 3d
       0.16499498 0.16034128 0.080936685 0.07586304
0002a0 1f 41 5e 3a 95 ea 2f bc af a2 a8 bd de 95 b2 bd
       0.0008478332 -0.010737081 -0.082341544 -0.08719991
0002b0 27 18 0a 3e bb d0 80 bd 8f 9b fb bd fb 00 28 be
       0.13485776 -0.06289812 -0.1228553 -0.16406624
0002c0 60 fb 18 3e 04 ac 7f bd 14 80 1e 3e c8 09 17 be
       0.14939642 -0.062419906 0.15478545 -0.14749825
0002d0 b8 2b 45 3e 45 9b 9e 3d 5e ce 03 bd f4 09 94 3c
       0.19254959 0.07744459 -0.03217923 0.018071152
0002e0 e5 85 03 be 11 44 9e bd 5c b1 9a 3d 90 48 50 3a
       -0.12844045 -0.077278264 0.0755336 0.0007945383
0002f0 f5 a9 ba 3d 6c fa 01 be 2d 97 ed bd 77 9a bf bd
       0.09114448 -0.12693185 -0.116011 -0.09355634
000300 21 37 a0 bd 29 a9 19 be bd ed 30 3e 99 0f 40 3a
       -0.07823015 -0.15005936 0.1727819 0.0007326543
000310 4c 13 f0 3d 2f ef a9 3d 14 29 0d be 2a d1 17 be
       0.117224306 0.08297574 -0.13785201 -0.14825884
000320 08 47 1a 3e d7 f4 9c 3d fa 20 fc 3d 3e df 04 be
       0.15066159 0.07663887 0.12310977 -0.12975785
000330 ca c0 0d 3c a1 80 4d bd 4d b4 58 3d 59 55 98 3d
       0.0086519215 -0.0501715 0.052906323 0.07438154
000340 41 40 a2 3d a8 6a 1e be 93 86 00 be 80 06 c2 3d
       0.07922412 -0.15470374 -0.12551336 0.09473896
000350 ec 31 5b bc 16 9e 1e be ac a2 bf bb 85 43 8b bd
       -0.0133786015 -0.15489992 -0.0058482494 -0.06799988
000360 5b 40 0c 3d 7f ac 16 3e ed f6 0e be a6 84 be bd
       0.03424106 0.1471424 -0.13961382 -0.093026444
000370 d1 77 d5 bb d6 68 b7 bc 28 31 1b be ea 0f 39 3e
       -0.0065145274 -0.022388857 -0.1515547 0.18072477
000380 17 af 74 3d 9f ab 23 3c 3b df 13 be 75 97 21 be
       0.05973729 0.009989648 -0.14440624 -0.15780433
000390 f7 a8 e5 3d cb 11 81 bd f6 37 26 3e c0 50 92 bd
       0.11213868 -0.06302222 0.16232285 -0.07144308
0003a0 17 e4 2b bd 22 15 0e bd 93 40 30 bd e0 05 76 3d
       -0.04196557 -0.034688123 -0.043030333 0.060064197
0003b0 7f a1 4b 3d 6a 66 6a bd 8a c3 0b 3c 40 61 4b 3e
       0.04971456 -0.057226576 0.008530507 0.19861317
0003c0 e6 69 3c bc 17 dd 5d be d2 99 64 3d b6 ff 2e be
       -0.0114998575 -0.2166637 0.055810757 -0.17089733
0003d0 c8 01 94 bd c6 a6 ae 3d 08 31 eb bd 64 8c 1f bd
       -0.07226902 0.08527903 -0.11483961 -0.038952246
0003e0 70 db 23 3d 38 ec d4 bd 3b 11 f4 bd 4d a7 a3 bd
       0.040004194 -0.10396618 -0.11917349 -0.079908945
0003f0 e3 8f e1 bd c3 69 58 bb 9b 52 1c 3d a8 cb d8 3d
       -0.11013772 -0.0033022023 0.038164716 0.10585719

rnn.weight_hh_l0 f4 [32, 32]
000000 83 4a 81 3d c1 ca 23 3e 39 c7 75 bd 3a 00 86 bd
       0.0631304 0.15995313 -0.060004447 -0.06543012
000010 fe 7e 12 be 3c 0f 7f bc c6 e2 16 3e e6 7e b9 3d
       -0.14306256 -0.015567597 0.14734945 0.09057407
000020 98 e5 02 3e 78 59 84 bd bb 3d ee 3d 7c 86 ac bc
       0.12782896 -0.06462377 0.11632868 -0.02106022
000030 3f 20 02 3e d9 13 44 3d 4d 45 28 3e 68 bf d2 3c
       0.12707613 0.04787049 0.16432686 0.025726035
000040 10 e8 75 bd 4b f7 fc bd 73 3c 6a 3d 52 79 e0 bd
       -0.060035765 -0.12351855 0.057186555 -0.1096064
000050 78 6c 28 3e 87 95 8f 3d 72 54 f6 3d 36 09 08 3e
       0.16447628 0.07010942 0.120278254 0.13284764
000060 69 bc f0 3d 95 e3 77 bd 7f 38 4f 3d a9 80 a5 3d
       0.117546864 -0.060519774 0.05059099 0.080811806
000070 41 32 de bc 29 ef 58 bd ef e4 1b 3e 50 a6 05 be
       -0.027123572 -0.052962456 0.1522405 -0.13051724
000080 9c c7 18 be 74 25 35 3e b1 c1 16 3d a5 75 2c be
       -0.14919895 0.17690068 0.036805812 -0.16841753
000090 0c b2 f2 bc fb aa 09 3e 2e 2e 10 bc ea 7a 11 3e
       -0.029625915 0.1344413 -0.008800073 0.14207044
0000a0 c3 fd 3b 3d 46 5c 34 3e b8 fc 26 bd 78 47 98 3d
       0.045896303 0.17613325 -0.040768355 0.074355066
0000b0 e4 93 1f 3e 19 f7 1e be 38 22 4b 3d 40 4d 46 bd
       0.1558376 -0.15523948 0.04959318 -0.048413515
0000c0 c4 ca ed bb 4a 50 ba bd 03 af 19 3e bb d5 1f 3e
       -0.0072568376 -0.09097345 0.15008168 0.15608875
0000d0 a2 4b b4 bc e0 21 2e be 5f e9 13 be da 63 2a 3e
       -0.02200872 -0.1700511 -0.14444493 0.16639653
0000e0 af 28 0d bd 01 fa 60 3d 07 e4 2d bc 9f 84 34 3d
       -0.034462627 0.054925922 -0.010613448 0.04407179
0000f0 cb f0 fc 3c 2d 57 c2 bd c3 ea 05 3e 72 7b 2a be
       0.030876538 -0.09489284 0.13077836 -0.16648653
000100 47 e8 0c be 75 05 6b 3d 6b 17 07 3e 67 89 74 bd
       -0.13760482 0.05737825 0.13192527 -0.05970135
000110 2b d8 cb bd 08 9b 3c 3e 60 a8 10 3e bf 39 b4 3d
       -0.0995334 0.18418515 0.1412673 0.08800077
000120 f7 17 e1 3d fa 37 9e 3c 18 02 0a 3e 7d 16 31 3e
       0.10990899 0.019313801 0.13477361 0.17293735
000130 bb 0a 84 3c 9e 8b 56 bd 8f f1 26 3e 7d 0a 32 3e
       0.016118398 -0.052379243 0.16303085 0.17386813
000140 de 3d 6e bc e8 c3 be bd 24 17 9a bd a8 b3 36 3c
       -0.0145411175 -0.0931471 -0.07523945 0.011151232
000150 fa 0d 19 bd ae 03 c9 bd a2 5c 17 3c 3c 9e 77 3d
       -0.037366845 -0.09815155 0.009238394 0.06045364
000160 40 c5 0f 3e cd 0f 01 be c1 de 0c 3e 4a 81 02 3e
       0.14040089 -0.12603684 0.13756849 0.12744632
000170 5a 71 44 bc ae 83 c1 bb 08 0e 29 3e 88 11 19 be
       -0.011989916 -0.00590559 0.16509259 -0.14948094
000180 42 c7 f1 bd 0e 24 35 bd 50 1c b0 3c 62 6d 06 3e
       -0.118055835 -0.044223838 0.021497875 0.13127664
000190 87 b1 00 3e 8d 74 f5 bd b5 d8 1d 3e fe c2 5b bd
       0.12567721 -0.11985121 0.15414698 -0.053652756
0001a0 36 69 18 bd 2f 73 49 3d d3 63 d6 3d 50 be 0a 3e
       -0.037209712 0.049182113 0.10468259 0.13549161
0001b0 ff e4 53 bd 27 da fd bc 1a cf 1e 3e 10 1c 92 bd
       -0.05173206 -0.030987812 0.1550869 -0.07134259
0001c0 9b a6 ef 3d c6 a2 53 bd 6b a5 93 3d 71 ed 57 3d
       0.11701699 -0.051668905 0.07209285 0.052716676
0001d0 96 a2 98 bd 6c b6 54 bc a1 81 10 3e 85 14 e6 3d
       -0.07452886 -0.012982946 0.1411195 0.112343825
0001e0 e6 d3 c0 bc c1 05 6b bd 72 77 75 3d e6 ed 10 be
       -0.023538541 -0.057378534 0.059928365 -0.14153251
0001f0 0a 45 a9 3d c1 17 93 3d 77 92 31 3d 03 d2 3c 3c
       0.08265121 0.07182265 0.04335257 0.01152468
000200 fa 53 0c 3d d0 e2 92 3d d8 2f 62 3d b9 ef a7 3d
       0.034259774 0.07172167 0.05522141 0.0820002
000210 61 78 7b 3d 39 9e 17 3d 5b 85 e2 3d 2f 98 8c 3d
       0.0613941 0.037016127 0.11060592 0.06864964
000220 bc eb d4 3c f3 b2 15 3e 96 ed ce 3d bd 96 c9 bd
       0.025991313 0.14619045 0.1010391 -0.09843204
000230 fa 85 18 be 6f 52 1c 3e e2 85 5f bd e4 69 32 3e
       -0.14894858 0.15265821 -0.05457104 0.17423207
000240 2e 6e 96 bb b2 c9 3b 3d cb af 19 3c b6 ee 33 be
       -0.004590771 0.04584665 0.009380291 -0.1757153
000250 95 f0 27 3e 66 ad c7 bd 52 dd ef 3d 22 e1 93 bd
       0.16400369 -0.0974987 0.117121354 -0.07220675
000260 fb 7b 36 3d a3 8e 1c 3d 54 c6 35 be f4 3e 93 bd
       0.04455183 0.038221966 -0.17751437 -0.07189742
000270 cb e3 a8 3c 78 14 f6 3a 67 79 0d be 66 d4 a2 3d
       0.020616433 0.0018774411 -0.13815843 0.07950668
000280 4e 5c 0c 3e 30 04 ce 3d ef 86 2d be 6b 6f 30 3e
       0.13707086 0.100593925 -0.16946004 0.17230003
000290 a7 9d 72 bc eb 61 21 be 61 62 8b 3d 94 13 cc 3d
       -0.014808095 -0.15760009 0.06805874 0.09964672
0002a0 7a ae 81 bd fa 19 9a 3d 44 41 84 bd 46 c7 fc bd
       -0.06332107 0.07524486 -0.06457761 -0.12342696
0002b0 d9 cb 1a be 24 ec 37 3d bc 1a 2f be 8e 9b 66 bd
       -0.15116824 0.044902936 -0.17100042 -0.056300692
0002c0 16 3c 7c bd 89 bb c9 bd 4a 1f 1e be f6 87 28 3e
       -0.06158074 -0.098502226 -0.15441623 0.16458115
0002d0 e2 b1 2b bb 29 f3 8f bd 30 79 bd 3d e1 1c ae 3b
       -0.0026198556 -0.07028801 0.0925163 0.005313501
0002e0 e4 fd 45 bd 0b 8c 92 bc cc c1 65 bd 88 b3 2a be
       -0.048337832 -0.017889043 -0.056093022 -0.16670048
0002f0 56 65 9c bd bc 0f a2 39 e2 4b e3 3d 9c b1 ca 3d
       -0.07636516 0.0003091077 0.11098458 0.098971575
000300 e3 d1 1e be 28 77 25 bd 9e 3f 3b be 3e 56 6d bd
       -0.15509753 -0.04039684 -0.18285987 -0.057943575
000310 bb 1e 15 3d ae 6e e9 3d 48 50 eb 3d 6a f1 94 3c
       0.03640626 0.113980636 0.11489922 0.018181521
000320 b3 9f 02 3e 26 1e 70 bd 79 5f 12 bc 51 2a a7 bc
       0.12756233 -0.0586225 -0.008933895 -0.02040592
000330 2f 9f e7 bd f9 a0 27 3e 42 fa d5 bd af 96 31 be
       -0.11309659 0.1637 -0.104481235 -0.17342637
000340 1e 54 6c bd 6a a1 bc 3d 9f 18 f7 bd 15 23 a8 bd
       -0.057697408 0.09210475 -0.12065243 -0.08209816
000350 ca 24 25 3c 38 46 ec bd a1 e3 32 3c 0b fa 63 3d
       0.010079572 -0.11536831 0.010918529 0.05565838
000360 3b b8 03 be 80 1f ab bd 0a b8 89 3d 9a 01 04 be
       -0.12863247 -0.083556175 0.06724556 -0.12891236
000370 dd 5e 1e 3e 69 dc 4a bd 8a c8 17 be ff e6 c2 3d
       0.15465875 -0.049526606 -0.14822593 0.09516715
000380 4d 5c 02 3e 8a ff 38 bd 37 2c cc bd 96 d5 d8 bd
       0.12730522 -0.045165576 -0.09969371 -0.10587613
000390 af 93 ea 3d 6d db 1f 3e 97 c3 8d 3d e3 21 13 be
       0.1145395 0.15611048 0.069220714 -0.14368396
0003a0 51 bc 1b 3e 9e 5f 67 3d 46 f0 01 3e 8b f9 94 3d
       0.15208556 0.056487672 0.12689313 0.07274159
0003b0 77 2f 32 be 3b b5 2b be a3 01 d1 bd a0 a1 fb 3d
       -0.17400919 -0.16768353 -0.1020539 0.12286687
0003c0 c4 bd 30 be d4 9f c1 3d f3 fc ac bd f7 c4 87 3d
       -0.1725989 0.09454313 -0.08446684 0.06629365
0003d0 47 3c 7f 3d 6c 56 83 3d b9 ec 41 bd 9b 03 a1 bd
       0.062313344 0.06412968 -0.047344897 -0.07862016
0003e0 5a dc 1b 3c 32 8e 37 3e 4e 4e 2b 3d 40 e2 00 3e
       0.009512985 0.17925337 0.041822724 0.12586308
0003f0 19 b3 7d 3d fb b5 d3 bb 02 18 c4 bd 6b 9e 17 bb
       0.06193838 -0.0064609027 -0.095748916 -0.0023135196

rnn.bias_ih_l0 f4 [32]
000000 cd 56 ab bd b0 ca 06 be 9e 90 0b 3d d1 4f 91 bd
       -0.08366165 -0.13163257 0.034073465 -0.07095302
000010 2c 37 25 3e 47 b1 05 3e ce 82 dd bd be 3a b2 3d
       0.16134328 0.13055907 -0.10815965 0.087026104
000020 1c e6 0d 3d 8b e0 12 bd 23 e9 0e 3d 88 7f f2 3c
       0.034643278 -0.035858672 0.034890305 0.029601827
000030 5d b1 4e 3d ea 8e 68 3d bf ab 87 3a aa b8 01 3e
       0.050462116 0.05677692 0.0010350867 0.126681
000040 61 18 a1 bd 30 30 1b 3d b1 00 f0 3d d5 92 2f be
       -0.07865978 0.037887752 0.11718882 -0.17145856
000050 5d d1 bd 3d 22 79 b9 3d ba f4 00 3e 7d 05 a2 3b
       0.092684485 0.090563074 0.12593356 0.004944502
000060 62 7c 27 be eb 9f 84 bd 4f 5a d7 3d 32 de 3c be
       -0.16356042 -0.064758144 0.10515272 -0.18444136
000070 6b 7f 1c bc 85 fb 19 be a0 8a 9f 3d 52 34 d6 bd
       -0.009551863 -0.15037353 0.077901125 -0.10459198

rnn.bias_hh_l0 f4 [32]
000000 7d a2 f1 3c e5 cb cc 3c 78 fe c0 bd a6 db a8 bd
       0.029496426 0.024999568 -0.09423536 -0.082450196
000010 5a de 3c bd e3 5f b9 bd f9 b2 a5 3d 10 f4 9e bd
       -0.04611049 -0.09051492 0.08090777 -0.07761395
000020 99 21 e9 bc 1f 96 cd bd f0 75 10 bd 87 80 96 3d
       -0.028458403 -0.10038399 -0.035268724 0.073487334
000030 66 54 aa bd c2 9d d5 3d 31 80 30 be c8 1e 4c be
       -0.08316879 0.104304805 -0.17236401 -0.19933617
000040 03 a1 76 3d 10 be c2 bd 7e 0d 1e 3d ea 31 11 bc
       0.060212146 -0.09508908 0.038587086 -0.008861998
000050 d6 cb 0a bc db 49 01 3e 72 40 04 be 21 e0 9e 3b
       -0.00847145 0.1262583 -0.12915209 0.0048484956
000060 57 95 8a 3c eb 48 01 3c 8f 86 17 be 04 d9 ec bc
       0.016916914 0.00789092 -0.14797424 -0.028912075
000070 7f f9 8c bb a9 09 08 bd 5f 2f 09 bd ab 91 93 bd
       -0.004302203 -0.033212338 -0.033492442 -0.07205518

classifier.weight f4 [1, 32]
000000 83 71 4f be c0 19 ff bd 00 0a f5 bd cd 30 13 3e
       -0.20258145 -0.12456083 -0.11964798 0.14374085
000010 5c 9f 65 bd 48 f5 fc 3c c0 05 87 3e fe aa a2 3d
       -0.05606018 0.030878678 0.26371574 0.079427704
000020 7a 93 14 3e eb 92 7b 3d 67 d7 80 3e 75 b1 55 3e
       0.14509383 0.06141941 0.2516434 0.20868476
000030 a9 f2 17 be c6 f7 8d 3c 77 c0 27 3e 3f d8 1f be
       -0.14838661 0.017330062 0.16382013 -0.15609835
000040 f5 dc ad bd b2 44 56 be f6 aa dd 3d 4b 39 34 bd
       -0.0848941 -0.20924643 0.10823624 -0.04399995
000050 34 83 0b 3d 99 70 41 3e 18 59 34 be 77 ee ed bd
       0.034060672 0.18890609 -0.17612112 -0.11617749
000060 24 f1 26 3e aa 07 f7 bd 9e 99 7f 3e d2 5f 37 bd
       0.16302925 -0.12062009 0.24960944 -0.044769116
000070 35 6d 26 3d b5 f0 07 bc e8 2f 2f 3e 66 65 85 be
       0.04063149 -0.008297135 0.17108119 -0.26053923
