save/3-2_rnn_sp_80.pt (torch, 14217 bytes, 6 tensors)

emb_layer.weight f4 [80, 16]
000000 00 00 00 00 00 00 00 00 00 00 00 00 00 00 00 00
       0.0 0.0 0.0 0.0
000010 00 00 00 00 00 00 00 00 00 00 00 00 00 00 00 00
       0.0 0.0 0.0 0.0
000020 00 00 00 00 00 00 00 00 00 00 00 00 00 00 00 00
       0.0 0.0 0.0 0.0
000030 00 00 00 00 00 00 00 00 00 00 00 00 00 00 00 00
       0.0 0.0 0.0 0.0
000040 fa ea 45 3f b9 f8 06 bc 38 c9 a0 3d a6 93 c4 3f
       0.7731167 -0.008238011 0.078508794 1.5357559
000050 8e 36 01 bf ae ef 1a 3f f7 9e 9e be 5e d1 94 be
       -0.5047387 0.6052197 -0.30980656 -0.29065984
000060 81 f3 6b bf d8 e4 14 c0 6f 24 0f 3f 40 05 c4 bc
       -0.9216843 -2.3264675 0.5591497 -0.023928285
000070 b2 49 89 bf b9 44 82 bf 68 1c 10 bf 5c 01 d5 be
       -1.0725615 -1.0177222 -0.56293344 -0.416026
000080 d6 4f 68 3f d6 db cc bf 07 81 db 3e ef 14 99 bd
       0.9074682 -1.6004589 0.42871878 -0.07474696
000090 f5 eb c0 be e8 87 76 3e 9e 20 92 3d 9a c8 31 be
       -0.3768002 0.24075282 0.071351275 -0.1736168
0000a0 29 50 8a 3e 93 91 18 3e 58 8b 93 be 59 86 47 bf
       0.27014282 0.14899282 -0.28817248 -0.77939373
0000b0 0d 27 11 40 0d 25 36 bf d5 f4 6c 3f 4a 7b 24 3f
       2.2680085 -0.71150285 0.92561084 0.64250624
0000c0 6c 8a 21 bf 93 e0 1a 3f 95 e8 d3 be e8 cb a1 3e
       -0.6310184 0.60498923 -0.41388384 0.3160088
0000d0 28 a5 fb bf aa c6 7a 3f fe 75 b9 bf ec 5c 53 40
       -1.9659777 0.9795939 -1.4489133 3.3025465
0000e0 60 f6 23 bf e5 6b aa 3e 66 cc 58 bb 00 2c 77 3e
       -0.64047813 0.33285442 -0.0033080815 0.24137878
0000f0 bc fd a5 3f 20 f1 6b 3f d3 24 c1 3f f8 8d 0e bf
       1.2968059 0.921648 1.5089363 -0.5568538
000100 d2 33 2d bf 45 92 d2 be 75 bd b4 3e 34 11 6d bf
       -0.67657197 -0.4112722 0.35300794 -0.92604375
000110 bf c0 16 bf ae e8 cb 3d c1 42 34 3f de b9 61 be
       -0.5888786 0.099564895 0.7041436 -0.22043559
000120 6b 50 1c bf 82 34 81 3e 7d 25 a3 bf 3a b2 6d bf
       -0.6106021 0.25235373 -1.2745816 -0.9285008
000130 f1 03 87 3f b3 f2 82 3f d5 b4 46 3f 37 10 88 3d
       1.0548078 1.0230316 0.7761968 0.06643718
000140 b6 73 df 3f d0 56 3e 3f a0 bd d9 bf 79 93 a3 3e
       1.7457187 0.74351215 -1.7010994 0.3194845
000150 00 1c 6b bd 96 9f 14 bf a6 1f de be fb 16 d7 bf
       -0.05739975 -0.5805601 -0.4338352 -1.6803888
000160 c5 bd 0f bf 33 49 8b bf 53 93 01 3f c2 f3 cd 3e
       -0.5614894 -1.0881714 0.50615424 0.40225035
000170 83 e7 b6 3e b4 04 95 be a7 c6 a1 bf f4 c7 c0 3d
       0.35723504 -0.2910515 -1.2638749 0.09413138
000180 02 4a 88 3f c1 c0 e4 bf 9f 3a 51 3e 46 dd d0 be
       1.0647585 -1.7871324 0.20432518 -0.40793818
000190 6d 25 a3 be 92 fb 8d 3e 20 3e 24 be 6b 0e 21 3f
       -0.3186449 0.27730995 -0.16039324 0.62912625
0001a0 38 cb ce bf 64 9f 06 bf f0 a6 c3 3e be 9b d2 3f
       -1.6155767 -0.5258696 0.382133 1.6453779
0001b0 02 eb 68 3e 3b 50 43 bd 7e 92 15 bf b7 5f ae 3f
       0.22745898 -0.047683936 -0.58426654 1.362296
0001c0 54 8d c5 3f eb 1e 3c 3f 2a f8 0e bf 40 97 19 bf
       1.5433755 0.7348468 -0.5584742 -0.59996414
0001d0 cc ca b5 3e 03 ff 2b be e5 d3 81 bf 5a b9 ab bf
       0.35506284 -0.16796498 -1.014279 -1.341594
0001e0 50 e6 8d bf ec d6 fb 3d d8 51 2b bf 08 70 2c bf
       -1.1085911 0.122968525 -0.6692176 -0.67358446
0001f0 12 62 a8 bf 97 83 80 be d9 f5 fc bf c1 38 89 bf
       -1.3154929 -0.25100395 -1.9762527 -1.0720445
000200 92 1c 50 3f f2 43 83 bf d5 53 a7 3e de aa 18 3e
       0.81293595 -1.025511 0.32681146 0.1490893
000210 8d 9f fb 3a bf a1 90 be cb a5 f1 3f 20 8b f1 3e
       0.001919733 -0.28248402 1.8878721 0.47176456
000220 c7 e2 47 3f 67 c9 c5 3f 70 c1 97 3f 4f ad ec 3e
       0.7808041 1.5452088 1.1855907 0.46225974
000230 7d 2d be 3e 01 18 72 bf 96 3e 2e 3f 81 8f cc bd
       0.3714408 -0.9456788 0.6806425 -0.09988309
000240 25 aa 86 bf 09 c9 3f be 69 a5 e2 3f d0 49 f5 bd
       -1.0520674 -0.18729033 1.7706729 -0.11976969
000250 ab 03 4c be e2 2f 17 3e 03 10 cf 3f f9 96 45 bf
       -0.19923274 0.1476436 1.6176761 -0.7718349
000260 dd 5e 2d 3f 71 ff 25 bd 7f 93 78 3f b2 3c 06 3e
       0.67722875 -0.04052681 0.9710006 0.13109091
000270 d5 c5 8a 3f a1 97 8c 3f e8 6d fd 3e 38 99 74 3f
       1.0841624 1.0983773 0.49497914 0.95546293
000280 f3 bf 81 3e fc 49 5f bf 04 d3 55 bf 8d 2b a4 bf
       0.25341758 -0.87222266 -0.8352511 -1.2825791
000290 fc 39 5c 3e 42 22 7d be 36 22 1b bf 96 8b b4 3f
       0.21506494 -0.247201 -0.60599077 1.4105098
0002a0 a5 05 ba bf a2 96 86 bf b8 ae cb bf 6c 05 4d c0
       -1.4532973 -1.051472 -1.5912695 -3.203456
0002b0 c6 c3 4c bf 4c 32 a3 bf 5d f9 c3 be 65 9e 85 3f
       -0.79986227 -1.2749724 -0.38276187 1.0438963
0002c0 19 b8 6e bf fe 15 83 bf fb 3e 20 c0 c8 00 de 3f
       -0.9324966 -1.0241086 -2.503844 1.7343988
0002d0 5b 1a cf bf 6b 2d 3c 3f d3 84 f8 bf 6b fc bd bf
       -1.6179918 0.735068 -1.9415535 -1.4842657
0002e0 48 f5 b5 be d2 51 14 c0 fa bc a4 bf 20 a8 58 3f
       -0.35538697 -2.317494 -1.2870171 0.8463154
0002f0 9f 06 97 3e ea cf ab be 80 f7 10 bf 03 a6 91 3d
       0.2949724 -0.33557063 -0.56627655 0.07111742
000300 03 e0 8b 3b bc d0 ea 3f 6c 63 a4 3f 5d d6 af bf
       0.0042686476 1.8344951 1.2842841 -1.3737293
000310 12 3c af be 14 35 8f be a9 d6 9b 3f 00 40 9f 3f
       -0.34225518 -0.27970183 1.2174884 1.2441406
000320 72 cd 00 bf 9b 0e e3 bf 2c 10 76 3f 9f ca a5 be
       -0.50313485 -1.7738832 0.96118426 -0.3238115
000330 ef 83 79 3f 3d 39 b8 3e dd 56 1b 3e 40 9b e0 be
       0.9746694 0.3598117 0.15169854 -0.43868446
000340 f1 66 bc 3e d3 7b 2f bf 3b 5a 45 bf b0 6e 87 3e
       0.36797288 -0.68548316 -0.77090806 0.26451635
000350 c0 ec d3 3e a2 5d 6b bf b5 3d a2 3e c3 dc 6d bf
       0.41391563 -0.9193975 0.31687704 -0.9291498
000360 4e 2c 87 3f 4e 77 86 3e 2e d1 86 3c 7d 9d cd bd
       1.0560396 0.26262897 0.016457167 -0.10039804
000370 ea 57 91 be 5e cc c8 3d 95 9b 91 bf 57 27 66 3f
       -0.28387386 0.09804605 -1.1375605 0.8990378
000380 31 72 07 3f 2a b1 87 3f 25 93 c9 3e 7a eb 80 3e
       0.5290862 1.0600941 0.39370075 0.25179654
000390 0a 83 d9 3e 9c a3 f4 3d e3 68 e3 3e 12 ae a3 be
       0.42482787 0.119452685 0.4441596 -0.31968743
0003a0 fe ea 24 3f 19 a6 32 be e0 83 87 3d bd 99 cb bf
       0.6442107 -0.17446174 0.0661695 -1.5906292
0003b0 1f c1 7e 3e 91 66 78 3f a9 16 f1 3e 42 bb 71 bf
       0.24878357 0.97031504 0.470876 -0.9442636
0003c0 a2 a6 05 40 bb 55 88 3f 21 21 ea 3e 0d ba de bc
       2.0882955 1.0651163 0.457284 -0.027188325
0003d0 8e 57 06 bf 49 14 c7 bf 0e a9 23 be f1 b8 36 3f
       -0.5247735 -1.5553066 -0.15982458 0.7137595
0003e0 32 b5 92 be ed c9 e6 be af cd c9 be 49 48 58 bf
       -0.28653866 -0.45075932 -0.39414737 -0.844853
0003f0 28 ba 53 bf 6d cb a1 3f 66 3c ab 3e c0 60 e9 be
       -0.82705927 1.2640206 0.33444518 -0.45581627

rnn.weight_ih_l0 f4 [32, 16]
000000 4c af 40 3d 34 0e f3 3d fb 4f 17 be c5 e1 d9 bd
       0.047042176 0.118679434 -0.14776604 -0.10638765
000010 4e 82 e3 bd 0d 70 a4 bd 2a 9f dc 3d f5 9a e3 bd
       -0.11108838 -0.080291845 0.10772546 -0.1111354
000020 47 e9 f2 3d d5 bd 51 bd 43 e4 28 3e b2 46 10 be
       0.118609 -0.05120643 0.16493325 -0.14089468
000030 7c c9 d0 bc db e3 0d be cd 51 c2 3d 7f 38 57 bd
       -0.0254867 -0.13856451 0.094882585 -0.052544113
000040 90 b4 a0 bd eb 7d 50 bd c7 f3 90 bd f6 c8 c5 3c
       -0.078469396 -0.050901335 -0.07077747 0.024143677
000050 50 ea 44 3e 4b c4 2b 3d b5 01 1e be 36 2b fe 3b
       0.19230008 0.041935246 -0.15430339 0.007756616
000060 27 a5 14 be 2e 77 61 3d 7c 4b ca bd b4 ee 27 be
       -0.14516126 0.0550453 -0.09877679 -0.16399652
000070 66 2b 92 3c de 63 07 3e 01 c3 22 3e 48 d9 fe bd
       0.01784296 0.1322169 0.158947 -0.12443787
000080 f8 1b b2 bd a8 4a 5b 3d 89 4f 17 3e 81 f0 30 be
       -0.08696741 0.053537995 0.14776434 -0.17279245
000090 b7 74 fa 3d 72 2a a5 3d cb 6b 12 3e 61 99 40 be
       0.12229293 0.080647364 0.14298932 -0.1880851
0000a0 e5 3d 01 3e 5c a4 1c 3d 31 90 b3 3d 5c d6 25 bd
       0.12621267 0.038242683 0.08767737 -0.040487632
0000b0 63 08 25 bb 77 18 99 3d 61 87 05 3e 5e ef c5 bd
       -0.0025182 0.074753694 0.13039924 -0.09664796
0000c0 ae 2a cd 3d df b8 ec bd fe 32 2e be 82 0e fc bd
       0.10017906 -0.11558699 -0.1701164 -0.12307455
0000d0 63 a1 05 3e 77 b8 22 3e f6 64 c9 bd b2 66 7f 3d
       0.13049845 0.1589068 -0.0983371 0.062353797
0000e0 f8 1c ed bd 62 5a c1 3d ee 20 0b 3d 78 2f dc 3b
       -0.11577791 0.09441067 0.03396695 0.006719526
0000f0 23 6c ea bc 95 a8 22 3c fd 23 2d 3e 15 16 10 be
       -0.028616017 0.009927888 0.1690826 -0.14070924
000100 aa bb da 3d 38 5b 21 bd 6c 11 92 3d 48 b4 29 be
       0.10680325 -0.039393634 0.07132229 -0.16572678
000110 fc 5d f4 bc 83 7a ec bd 0b ef ec bc 77 2f e8 3c
       -0.029829971 -0.11546805 -0.028922578 0.028342946
000120 1f 65 25 3e 6a 61 34 3d 25 ee a1 3d ed e8 aa 3d
       0.16151856 0.044038214 0.079067506 0.08345208
000130 6f 35 1c bc 43 24 1b 3e e7 de e6 bd 1a 14 b0 39
       -0.009534224 0.15150551 -0.11272984 0.00033584313
000140 2b 58 d0 3c c2 8c 36 bd 6a ba 9c bd 70 76 07 bd
       0.025432667 -0.04456783 -0.07652743 -0.033071935
000150 3f 15 fe 3d b8 37 95 bd 74 c7 b6 3d c3 92 e6 3d
       0.12406396 -0.07286018 0.089247614 0.11258461
000160 9e d6 aa 3c 0d 39 15 be 8b b2 32 be a8 3c 07 3e
       0.02085429 -0.14572544 -0.17450921 0.13206732
000170 40 71 c2 ba 95 18 16 bd 5f 27 8b 3c 71 16 e2 bc
       -0.0014834777 -0.036644537 0.016986547 -0.027598592
000180 49 26 8b 3c f6 9f c7 3d 27 cf d9 3d 1b ef 97 bd
       0.01698603 0.09747307 0.10635214 -0.074186526
000190 b7 15 42 be 68 b8 ea 3d 37 ca 1d be b9 3e 1a 3d
       -0.18953596 0.11460954 -0.1540917 0.037657473
0001a0 2e d9 04 3e f8 17 0e bd b9 b1 c2 bd 43 a1 a7 3d
       0.12973472 -0.034690827 -0.09506554 0.08185055
0001b0 af 2b 32 3e 43 d8 14 3e 23 86 8e bd 61 ba 90 bd
       0.17399476 0.14535622 -0.06959178 -0.07066799
0001c0 6d 21 0e be 12 40 6b bc 8b ff 19 be 8b 82 18 3d
       -0.13879938 -0.014358537 -0.15038888 0.03723387
0001d0 22 07 b9 3d 04 60 c7 bd 5d 36 e5 3d f4 52 ef bd
       0.090345636 -0.097351104 0.111920096 -0.11685744
0001e0 c8 de eb 3c 24 fd fe bc 9f ee ea 3d d6 bf f5 3c
       0.028792754 -0.031126566 0.114712946 0.029998701
0001f0 2f 1a 13 3e 70 34 8a 3c 3a f8 8c 3c 31 d5 3f bd
       0.14365457 0.016870707 0.017208207 -0.046834175
000200 20 fe be 3d 75 70 22 bd a4 ac 58 3d f4 e0 13 be
       0.09325814 -0.03965803 0.052899018 -0.14441282
000210 15 35 4c bd e8 60 d2 3d 62 84 f3 3d d8 f3 c5 bd
       -0.04985531 0.1027239 0.118904844 -0.0966565
000220 36 d8 f8 3d 6d bb c5 bd ec f0 27 3e 7b 35 08 bd
       0.12150614 -0.09654889 0.16400498 -0.033254128
000230 b2 98 a4 3c fa 7b 29 be 9b 83 fa bd a0 96 89 3d
       0.020092342 -0.165512 -0.12232133 0.067181826
000240 fd 7f 71 bd 7f 18 07 bd e5 0f c8 bc 7e ff c1 3d
       -0.05895995 -0.032982346 -0.024421642 0.094725594
000250 3c 21 8c bd 21 9d 1f 3e e5 36 a4 bc da aa 13 3d
       -0.068422765 0.15587284 -0.020045707 0.03605161
000260 5b 54 85 bc 01 2f 04 be ed 7c ca bd 06 30 0a 3e
       -0.016275575 -0.12908556 -0.09887109 0.13494882
000270 19 d9 bc bc 51 eb 92 bc 39 ee 45 bd 74 1c 21 be
       -0.023052739 -0.017934473 -0.04832289 -0.1573351
000280 42 2d 0e 3e 3b d4 9e 3d d7 5b d4 bd 3b f8 9f bd
       0.13884452 0.077553235 -0.103690796 -0.07811018
000290 b0 78 d1 bd ed 1c b6 3d d2 87 39 be 94 13 55 3e
       -0.102280974 0.08892236 -0.18118218 0.2080825
0002a0 13 d2 14 3e 2c eb 7a bd 58 16 24 3c 62 94 36 be
       0.14533262 -0.061259434 0.010015093 -0.17830041
0002b0 29 6d f8 bc 6f df cb 3c cf 75 a0 3d 5d 04 35 be
       -0.03032549 0.024886815 0.0783497 -0.17677446
0002c0 d1 ad 1b be 96 15 2d 3e 0c e4 07 be 64 ab fc bd
       -0.15203024 0.16902766 -0.13270587 -0.12337378
0002d0 8f 48 01 be cd 68 ef bd 82 f3 20 be 0e 0e 1a 3d
       -0.12625335 -0.11689911 -0.15717891 0.03761106
0002e0 a5 a9 7a bd 64 27 f4 3d ed 40 55 3d 52 4e 22 3d
       -0.061196942 0.11921576 0.05206387 0.039625473
0002f0 93 ed 02 be ed b3 2b bd 14 3b 80 bd 0d c8 ed 3c
       -0.1278594 -0.041919637 -0.06261268 0.029026056
000300 89 ae a1 3d 1a 91 8c 3d 9f 83 81 bd e2 29 8a bd
       0.07894618 0.068636134 -0.06323933 -0.0674627
000310 b0 12 a8 3d dc 23 44 3d f9 97 e3 3d 05 d1 d9 bd
       0.08206689 0.04788576 0.11112971 -0.106355704
000320 e4 7f 2b 3e 0f e9 26 be b8 bc c0 3c 9f 8c f5 bd
       0.16748005 -0.16299842 0.023527488 -0.11989712
000330 6f 83 d0 bd e0 6c aa 3d f7 e5 e8 bd ae fe 09 3e
       -0.10181319 0.083215475 -0.11371987 0.13476059
000340 e2 1f 0a be 04 e9 cc bd eb c7 21 3e cc 9c 8a 3d
       -0.13488725 -0.10005382 0.15798919 0.06768188
000350 ce a8 38 3d d2 87 0a 3c 87 9e aa 3d 4a 71 ed bd
       0.04508286 0.008455234 0.08331018 -0.11593874
000360 00 b3 82 3d a3 22 a1 bd 34 ad bb 3d 65 32 2d be
       0.06381798 -0.078679346 0.09163895 -0.16913755
000370 13 8a 83 bd 90 5e ed bd 5f e2 bf bd f1 d0 f2 bd
       -0.0642282 -0.11590302 -0.09369349 -0.11856259
000380 7c 6c 83 3d 72 70 a6 3d a7 25 b3 3d dd 03 10 3c
       0.06417176 0.08126916 0.08747416 0.008789984
000390 32 76 51 bd ca a4 c4 bb 72 c4 e7 3d 2d 1e 15 bc
       -0.05113811 -0.0060010897 0.11316766 -0.009101433
0003a0 9c f5 c3 bd e7 01 39 bb 46 19 23 3e 8e 21 74 bd
       -0.09568331 -0.0028229894 0.1592761 -0.059602313
0003b0 10 5d 18 3d f3 7c d0 3d 2c b5 97 bd 3f 38 ff bd
       0.037198126 0.10180082 -0.07407603 -0.124619
0003c0 f8 e6 33 3e 22 d8 4c 3d 37 7a c2 3c ea 02 25 be
       0.17568576 0.050010808 0.023739917 -0.16114393
0003d0 67 9a 94 3d 63 ce ec 3d ca 27 39 bd 59 2c 35 be
       0.072560124 0.11562803 -0.04520396 -0.17692699
0003e0 0f e2 0e be 4b db 2d 3e 2a b2 0d be 59 66 82 3d
       -0.13953422 0.16978185 -0.13837495 0.063671775
0003f0 b3 0b 91 3d 25 30 f9 bd e6 ea 01 be 06 17 07 be
       0.070823096 -0.12167386 -0.12687263 -0.13192376

rnn.weight_hh_l0 f4 [32, 32]
000000 d7 78 72 bd cc 89 59 bb f0 cb c6 bc 2a a8 0c be
       -0.059197273 -0.0033193706 -0.024267167 -0.13736024
000010 fe 7d 97 bd 80 09 93 bd f6 d8 fa bd 79 dd 14 bc
       -0.07397078 -0.07179546 -0.12248413 -0.009086006
000020 c9 fc 4e bc f8 0a cf 3c 17 ea 8f bd 85 7d 16 3d
       -0.012633511 0.025273785 -0.07027071 0.0367408
000030 15 e9 2b be 67 55 5d bd 34 c0 f4 bd d9 3a 87 bd
       -0.16788132 -0.054036524 -0.11950722 -0.06603021
000040 a4 e5 f8 bd 5a d9 00 be ee 17 e9 bd 1d 14 2c 3e
       -0.121531755 -0.12582913 -0.11381517 0.16804548
000050 0a f4 f9 3d df 60 57 3b 1f 6e 24 be 54 ea bf bd
       0.1220475 0.0032864136 -0.16057633 -0.093708664
000060 0b 2c 03 be ba a3 0e 3e d4 39 3c bc 1d 4a 25 be
       -0.1280977 0.13929644 -0.011488397 -0.16141553
000070 cf 13 8c 3c ef 06 00 bd ed 79 b4 3d 6c b2 fe bd
       0.01709929 -0.031256612 0.08812318 -0.12436375
000080 9d 06 13 be 19 d6 b6 bc b6 b4 c8 bd 90 86 91 bd
       -0.14357992 -0.022318887 -0.09800093 -0.07105744
000090 71 a2 54 3d 5a db c8 bc f0 e0 7f bd 98 87 0f be
       0.05191273 -0.024518657 -0.062470376 -0.14016569
0000a0 20 17 08 be ed e0 4b bc 92 40 13 be d2 5a 24 3d
       -0.13290071 -0.012443763 -0.143801 0.040125675
0000b0 56 6f 36 3e 04 a4 ae 3d 2c d6 1a bc 16 dc 9d 3d
       0.17815909 0.08527377 -0.009450477 0.07707994
0000c0 28 d2 e5 3d 48 92 2e 3d 34 71 c2 bd 7a 51 1c be
       0.11221725 0.042619973 -0.09494248 -0.15265456
0000d0 be f8 29 3e 33 4b eb 3d b0 c7 29 3c 74 3a e7 3b
       0.16598794 0.114889525 0.010362551 0.0070565287
0000e0 fb bb 95 bd 0b 86 2d 3e ac 7c b2 bd e1 21 fc bd
       -0.07311245 0.16945665 -0.087151855 -0.123111494
0000f0 44 7a 18 be d7 60 b7 3c af 68 b3 3d 68 44 1b be
       -0.1489039 0.022385044 0.08760201 -0.15162814
000100 2c 6e 37 bd 40 d6 4d 3c eb fb 75 bc 62 84 12 3e
       -0.044782802 0.012563288 -0.015013675 0.14308313
000110 10 86 15 3e 53 fc 09 be ac 90 19 3e 4d 99 29 3c
       0.14601922 -0.1347516 0.14996594 0.010351491
000120 44 84 1f be 75 af 15 bd 60 72 58 bd 3b 29 0d 3e
       -0.15577799 -0.036544282 -0.05284345 0.1378526
000130 da 0d 25 3e 1e c4 d3 bc cd e2 e7 bd c6 32 eb bd
       0.16118565 -0.025850352 -0.11322556 -0.11484294
000140 ab 39 b3 bd f7 ee 8b 3d 82 e5 f1 3d c7 c3 d8 3d
       -0.08751234 0.06832688 0.11811353 0.105842166
000150 ed 77 e4 3d e8 7a 8e 3c f0 e6 00 3e 35 01 30 be
       0.111556865 0.01739259 0.12588096 -0.1718796
000160 34 4c a5 bd b2 ff 09 be 85 2b 79 3d e8 ed 16 3e
       -0.08071175 -0.13476446 0.06083252 0.14739192
000170 45 61 c3 3d 21 36 26 3e 0e 8f 26 be fb c6 09 3e
       0.09540037 0.16231586 -0.16265509 0.13454811
000180 f0 34 29 be 29 15 c5 bc 46 07 06 3e ab f2 19 3e
       -0.165241 -0.024057942 0.13088712 0.15033977
000190 cc 3f 03 bd e6 d9 2d 3c ec 46 86 3d 60 77 12 be
       -0.032043263 0.010611033 0.06556496 -0.1430335
0001a0 93 9c 6c 3d fd c6 c9 3d 1d 3c 72 bd 1e 58 a4 3c
       0.05776651 0.09852407 -0.05913936 0.020061549
0001b0 29 23 0f 3d f0 e7 3b be ec 2a 02 bd 49 51 a3 bd
       0.03494564 -0.18350196 -0.031779215 -0.07974488
0001c0 7a a8 11 bd e4 51 2f be b2 6b b0 bd 0c 5c 78 bd
       -0.035561062 -0.17121083 -0.08614291 -0.060634658
0001d0 1b cb f1 3d d8 c0 46 bc 93 ec 1d bc b5 62 2c bd
       0.118063174 -0.0121309385 -0.009638923 -0.04208632
0001e0 b6 24 85 3d e4 26 89 bd fa 9f 20 3e dc 03 d7 bd
       0.06501143 -0.06696871 0.15686026 -0.10498783
0001f0 c8 e6 04 be d9 b6 29 be 30 0a 27 be 6b 85 28 bd
       -0.12978661 -0.16573657 -0.1631248 -0.041142862
000200 53 fc 11 3e 54 2f 25 bd b8 c6 48 bd df 05 18 3d
       0.1425641 -0.04032834 -0.049017638 0.037114974
000210 b7 d8 0e bd 0b c9 e9 3d 2d 77 b8 bd 0b 72 e7 bd
       -0.034874644 0.11415299 -0.09007106 -0.11301049
000220 b1 bf c9 3d 56 17 22 3e ca df f6 bd 1b 35 20 3e
       0.09851015 0.15829214 -0.12054403 0.15645258
000230 e0 fa 39 3e 15 73 8f bd cd 15 c1 3d 4f 40 15 3d
       0.18162107 -0.07004372 0.09427986 0.036438283
000240 c4 e4 11 3e 72 1c 91 3d ff 85 57 3c 3d 21 0b 3e
       0.14247423 0.07085504 0.013154506 0.13586898
000250 65 9a 6a bd cc f4 5b 3d c8 90 ae 3c 1c a7 16 be
       -0.05727615 0.053700253 0.021309271 -0.14712185
000260 44 f4 73 bc c2 05 14 3e 12 3c 88 bc f0 98 a8 bd
       -0.01488978 0.14455321 -0.016630206 -0.082322955
000270 db fa 2d bd 37 70 cb 3d 05 8d 31 be c3 d7 45 bd
       -0.042475563 0.09933513 -0.17338951 -0.04830147
000280 3d 41 67 3d 4e 27 2b 3e d5 94 8b 3d 68 2f 18 3d
       0.0564587 0.16714212 0.06815497 0.037154585
000290 67 a9 9e bd 4a 7a 1b 3b 30 b8 65 bd 54 19 12 3e
       -0.07747155 0.0023724013 -0.056083858 0.14267474
0002a0 c1 48 77 3d a1 8c 20 bd 47 20 0b be b0 ee 14 3e
       0.060372118 -0.039196614 -0.13586532 0.14544177
0002b0 c8 c8 19 be 4e 34 b4 3c 32 3c 03 3b a6 7d 27 3d
       -0.15017998 0.021997597 0.0020024893 0.040891312
0002c0 81 47 14 3e ba 8a 4f bd 03 58 01 3c e7 a1 9d 3d
       0.14480402 -0.05066941 0.007894519 0.07696896
0002d0 24 4c d9 bd b7 c1 f6 ba 26 96 9c 3d 36 2a 21 be
       -0.10610226 -0.0018826042 0.07645826 -0.15738758
0002e0 9e 68 2f be c1 17 d3 bd 9a 82 40 bd bb 78 01 3d
       -0.17129752 -0.10307265 -0.04699955 0.03160928
0002f0 49 7b 34 be 47 2e 21 3e c4 aa 25 be 56 47 65 b9
       -0.17625155 0.1574031 -0.16178423 -0.00021865717
000300 07 a6 8b bd 01 fe b1 3c 80 09 99 3d 26 f9 e3 bb
       -0.068187766 0.021727564 0.07472515 -0.006957191
000310 3e c5 56 3d c1 2e 2c bd 37 c2 85 bc 52 3e 54 3d
       0.0524342 -0.042036775 -0.01632796 0.051817246
000320 d2 77 9f 3c da 0e 05 3d 8d 70 50 3d c6 b5 01 3e
       0.019466314 0.032484867 0.050888587 0.12666997
000330 35 92 33 be 6d 61 c7 3d 38 02 d7 bd d3 10 0a 3e
       -0.17536242 0.09735379 -0.1049847 0.1348298
000340 d7 3b 2f 3d 24 fa 03 3e 96 6e fd 3d 9e a5 23 be
       0.042781677 0.1288839 0.12374608 -0.15981147
000350 65 8b cd 3d 67 45 01 be d6 b8 b5 bd 65 b4 69 3d
       0.10036353 -0.12624131 -0.08873145 0.057056803
000360 43 b3 f5 bd 3c 05 dd bc 18 07 c0 bd d6 fb b0 3d
       -0.11997082 -0.026980035 -0.09376353 0.08641784
000370 c1 6c af bd 65 68 07 be 17 b9 57 3d e9 3b 14 be
       -0.08565665 -0.13223417 0.05266675 -0.14475979
000380 f3 76 2b 3d e3 21 b1 bd c7 12 06 be a3 93 92 bd
       0.041861486 -0.086490415 -0.130931 -0.07157066
000390 d2 92 3c 3d 40 92 16 be e4 44 07 3e e1 a2 c1 bd
       0.046038456 -0.14704227 0.13209873 -0.09454895
0003a0 de 8f 12 3e 15 c1 6c 3d c7 61 c1 bd c0 44 2c 3e
       0.14312693 0.057801325 -0.09442478 0.16823101
0003b0 0a 46 91 3d 0f 4f 2d 3e d6 f8 d9 3d f1 12 00 3e
       0.07093437 0.1692469 0.10643165 0.12507226
0003c0 4d b6 d8 bd 04 29 10 3e 62 bb 0d be e7 a8 1f be
       -0.10581646 0.14078146 -0.13841012 -0.15591775
0003d0 a1 3a 31 3e 25 52 0b 3e a9 8d 47 bd 3e d5 2a 3e
       0.17307521 0.13605554 -0.048719082 0.16682908
0003e0 a5 cd b1 bd f4 7a d2 3d fb a3 7b 3d 1d 63 f6 bd
       -0.08681802 0.10277358 0.06143568 -0.12030623
0003f0 7c 55 8e 3d c6 c7 46 3c 65 02 f6 bd ea e1 1b be
       0.069498986 0.012132591 -0.120121755 -0.15222898

rnn.bias_ih_l0 f4 [32]
000000 8c 74 de 3d 75 31 23 3e ce 79 ef 3d 8f dc 41 bd
       0.10862073 0.15936835 0.11693154 -0.04732948
000010 7c 28 c6 3d 5b f2 83 bd d2 f3 19 be 79 6a 05 3e
       0.096756905 -0.0644271 -0.15034416 0.13028897
000020 80 81 aa 3d c7 fb 99 3d 44 5b 0d be 7f af fa 3d
       0.083254814 0.07518726 -0.13804346 0.122405045
000030 8d 65 be bc 6c 87 91 3c 90 71 09 be 90 32 b7 bd
       -0.023241783 0.01776477 -0.13422227 -0.08945191
000040 40 03 22 3e 98 72 35 3d 9d a9 1c be 79 32 77 bc
       0.15821552 0.04429874 -0.15299077 -0.015087717
000050 d3 a8 26 be 55 18 09 be 91 ca fa 3c d1 f8 33 3e
       -0.16275339 -0.13388188 0.03061417 0.17575385
000060 79 ca 62 bd a6 f9 9e bd 84 b5 ae 3d e3 48 84 bd
       -0.055368874 -0.077624604 0.08530715 -0.064592145
000070 5a d9 24 bd 98 a9 aa bd d3 1a b1 bd fd 31 12 3e
       -0.040246345 -0.08333129 -0.086476944 0.14276882

rnn.bias_hh_l0 f4 [32]
000000 50 d8 04 3e d0 aa b0 3d 7f 84 09 be 7c fe f1 3c
       0.12973142 0.0862633 -0.1342945 0.029540293
000010 18 14 ee 3d 34 85 2b be 84 e3 41 3d 5e d6 23 be
       0.11624926 -0.16750032 0.047336116 -0.15999743
000020 65 c8 00 be 04 f6 8b bd 15 35 05 3e e7 17 c0 3d
       -0.12576444 -0.06834033 0.1300853 0.09379559
000030 6e de 5e 3d cb 55 7f bd bf 21 2f bc e0 dd fb bc
       0.054411344 -0.062337678 -0.010689198 -0.030745447
000040 ba cc 4f 3d 4b ad e7 3c 03 58 26 3e cf 22 b9 bd
       0.05073235 0.028280875 0.16244511 -0.09039842
000050 25 9b 24 3e f2 98 e8 bc e3 6d 63 bc 3f bd 79 3d
       0.16074808 -0.028393243 -0.0138811795 0.060971495
000060 47 cf d1 bd fa 80 07 be 0d cf 85 bd 0b c5 cf 3c
       -0.10244613 -0.13232794 -0.065336324 0.025362512
000070 12 59 f1 3c d5 d3 9c 3c 13 eb 70 ba 26 86 f9 3d
       0.029461417 0.019143978 -0.0009190302 0.1218379

classifier.weight f4 [1, 32]
000000 ec b3 8b bd 74 02 87 bd c8 a5 1f be 8f 0b 1b 3e
       -0.06821427 -0.06592265 -0.15590584 0.15141128
000010 62 bc 33 bd cb 19 78 3c 1f cb 62 3e 70 ef 6e be
       -0.043880828 0.015142868 0.22147797 -0.23333526
000020 4b c5 5d be cf f1 cb 3d 21 6a 20 3e e6 45 9c 3d
       -0.21657293 0.09958231 0.15665485 0.076305196
000030 e1 f9 c1 3c e5 56 f1 3c 8c 08 03 3e f7 e9 5d be
       0.023678722 0.02946038 0.12796229 -0.21671282
000040 9e c8 e7 bb a9 db ba 3d 76 3e 85 3e 13 78 11 3e
       -0.007073476 0.09123928 0.26024216 0.14205961
000050 8b b6 60 be 19 05 30 be 7a 8c c3 3d 14 08 8d bb
       -0.21944635 -0.17189445 0.09548278 -0.0043039415
000060 b0 3e 98 be fd 65 93 bd 82 75 5c 3e c1 ce 95 bc
       -0.29735327 -0.07197187 0.215292 -0.018287065
000070 c1 e5 87 bb bd a1 25 be 8c b9 c3 3b 9a 81 35 3d
       -0.004147262 -0.1617498 0.0059730466 0.04431305
