save/3-3_kc_rnn_sp_65.pt (torch, 13924 bytes, 7 tensors)

emb_layer.weight f4 [65, 16]
0	0x00000000	0.0
1	0x00000000	0.0
2	0x00000000	0.0
3	0x00000000	0.0
4	0x00000000	0.0
5	0x00000000	0.0
6	0x00000000	0.0
7	0x00000000	0.0
8	0x00000000	0.0
9	0x00000000	0.0
10	0x00000000	0.0
11	0x00000000	0.0
12	0x00000000	0.0
13	0x00000000	0.0
14	0x00000000	0.0
15	0x00000000	0.0
16	0xbda9c41d	-0.08289359
17	0x3f1be033	0.60888976
18	0xbf7f8bb1	-0.9982253
19	0xbf0c3abd	-0.5477713
20	0x3f61ec34	0.8825104
21	0xbeb7c301	-0.35890964
22	0x3f2dad0b	0.6784217
23	0x3fe897d2	1.8171332
24	0x3ed9cd9f	0.4253969
25	0x3d653cf0	0.055966318
26	0xbef787bf	-0.48345754
27	0x3e7096e6	0.23495063
28	0xbfdd6bfa	-1.7298577
29	0x3f6f869d	0.9356478
30	0xbd14dfd1	-0.03634626
31	0xbdb894d4	-0.09012762
32	0x3f87b90f	1.060335
33	0x3f59ff5e	0.85155284
34	0x3f05e5ed	0.52303964
35	0xbf9a7aeb	-1.2068762
36	0xbee5a949	-0.44855717
37	0xbfe067de	-1.7531698
38	0xbedb8afc	-0.42879474
39	0xbf0462ed	-0.5171345
40	0xbfe47df3	-1.7850937
41	0xbf81e794	-1.0148797
42	0x3fe2b843	1.7712482
43	0x3f7dbc87	0.99115795
44	0xbfacb22a	-1.3491871
45	0x3fcf0520	1.6173439
46	0xbf103ba7	-0.5634102
47	0xbe7b2a3d	-0.24527831
48	0xbf18f900	-0.59754944
49	0xbee441cb	-0.44581446
50	0xbe96e302	-0.29470068
51	0xbe10c5b1	-0.14137913
52	0x3ee1b189	0.4408076
53	0x3fc702bb	1.5547708
54	0x3ee7d55c	0.45279968
55	0xbf282f96	-0.6569761
56	0xbfd97a66	-1.6990478
57	0x402754b3	2.6145446
58	0x400d1313	2.2042892
59	0xbf6e7527	-0.9314751
60	0xc01e0a2b	-2.4693706
61	0xbf62377e	-0.88365924
62	0x3ed82a24	0.4221965
63	0xbe559015	-0.20855744
64	0xbf6f0fb0	-0.9338331
65	0x3e3b8815	0.1831363
66	0x3fc8deb9	1.569297
67	0xbfd4b479	-1.6617576
68	0xbf41165c	-0.7542474
69	0xbf883194	-1.064013
70	0x400f466c	2.2386732
71	0xbf9016e5	-1.1256987
72	0xbf5fe6f0	-0.8746176
73	0x3e0ffd1c	0.14061397
74	0xbe531b50	-0.20615888
75	0xbf425f41	-0.75926596
76	0x3fb4c827	1.4123582
77	0xbfb047df	-1.3771933
78	0xbe8caa57	-0.2747371
79	0xbf314c8d	-0.6925743
80	0x3f5a4c54	0.8527272
81	0x3fe4462c	1.7833915
82	0x3e00882b	0.12551944
83	0xbdbb7960	-0.0915401
84	0xc0213264	-2.5187006
85	0x3dff0dcd	0.12453804
86	0x3fbf4f91	1.4946157
87	0xbf19165a	-0.5979973
88	0x3ef9e293	0.48805675
89	0xbf19bc8a	-0.6005331
90	0xbe8b6445	-0.27224937
91	0x3ecbb164	0.39783776
92	0x3f6de915	0.9293378
93	0xbf82e96b	-1.0227484
94	0x3d14c0be	0.036316626
95	0x3fa0287b	1.2512354
96	0x3d7b58ea	0.061364092
97	0x3f1e98c0	0.6195183
98	0x3f705dcc	0.9389312
99	0x3f9d4c6d	1.2288948
100	0xbf35b9b6	-0.709865
101	0x3f8393c7	1.0279473
102	0x3fcabbb8	1.5838537
103	0x3ec9e348	0.39431214
104	0x3e27a476	0.1637133
105	0x3d8a6c41	0.06758929
106	0x3f365a0c	0.7123115
107	0xbea17d4b	-0.31540903
108	0xbf39b3a2	-0.7253972
109	0xbc6407d5	-0.013917883
110	0x3eb0a513	0.34500942
111	0x3e766f41	0.24065877
112	0xbf990712	-1.1955283
113	0xbf5809af	-0.84389776
114	0xbfeb1b27	-1.8367661
115	0x3f59502b	0.8488795
116	0x3f1b9349	0.60771614
117	0x3e8c2bbd	0.2737712
118	0xbe809e8f	-0.2512097
119	0xbfb8ca01	-1.4436647
120	0x3ecef24b	0.4041923
121	0x3fde93ef	1.7388896
122	0x3cbdabac	0.023153149
123	0xbf8fc337	-1.123145
124	0x3e7fa31b	0.24964564
125	0xbebca1e4	-0.36842263
126	0x3ff92add	1.9466206
127	0x3fe05678	1.7526388
128	0x3f474e8a	0.77854216
129	0xbf37bfc0	-0.7177696
130	0xbedb2620	-0.42802525
131	0x3fc724d3	1.5558113
132	0xbeb9eee3	-0.3631507
133	0xbc14e9b1	-0.0090889195
134	0xbf8b334c	-1.087503
135	0x3f3b3ce4	0.73139787
136	0xbe85dbfb	-0.26144394
137	0xbc198af2	-0.009371506
138	0xbe8048d1	-0.25055555
139	0x3ea13013	0.3148199
140	0xbfd20e57	-1.6410626
141	0xbf38d6d3	-0.72202796
142	0xbf34f417	-0.7068495
143	0xbf5cbbd9	-0.8622413
144	0xbd2d40d6	-0.04229816
145	0x3f04994d	0.5179642
146	0x3ccaeafc	0.024770252
147	0xbfb8a16a	-1.442426
148	0xbe911858	-0.28338885
149	0xbf6641cc	-0.8994415
150	0xbf6a8d2a	-0.9162165
151	0xc015b741	-2.33931
152	0xbcf14d38	-0.029455766
153	0x3f9a5e37	1.2060002
154	0x3ca86590	0.020556241
155	0x3dccb630	0.09995687
156	0x3fec22a9	1.8448077
157	0x3f22d9c0	0.6361351
158	0xbfb6cfd1	-1.428217
159	0xbecf6449	-0.405062
160	0xbd8caa51	-0.06868423
161	0x3f399229	0.7248865
162	0xbdeab886	-0.11460976
163	0x3faf367f	1.3688506
164	0xbff8b5e6	-1.9430511
165	0xbf700396	-0.9375547
166	0x3f29d99c	0.6634767
167	0x3e7f15e6	0.24910697
168	0xbe345ad2	-0.1761277
169	0x3f00c895	0.50306064
170	0x3fb342b9	1.4004737
171	0x3f596692	0.84922135
172	0x3fdd3b64	1.728375
173	0xbd62c397	-0.05536231
174	0xbfb05973	-1.3777298
175	0x3fc76758	1.5578413
176	0xbdce25ee	-0.10065828
177	0xbf86f04a	-1.054208
178	0xbf81e1d5	-1.0147043
179	0xbf23577b	-0.6380536
180	0x3e82f508	0.2557757
181	0xbf8bae24	-1.0912519
182	0xbe8cd356	-0.27504987
183	0xbece0d1e	-0.40244383
184	0x3f895a97	1.0730771
185	0x3f1da0be	0.615734
186	0x3f068f57	0.5256247
187	0x3f19c037	0.6005892
188	0xbf5c1e5e	-0.85983837
189	0xbf7dd25f	-0.99149126
190	0x3eb946e0	0.36186886
191	0x3f050b06	0.51969945
192	0x3ec5f36c	0.3866228
193	0x3f7556d0	0.9583559
194	0x3f41636c	0.7554233
195	0x3fc6f25a	1.554271
196	0x3e83b611	0.25724843
197	0xbedfedcb	-0.4373611
198	0x3f7876b8	0.9705615
199	0x3ed61d26	0.41819113
200	0xc00e1a9c	-2.220374
201	0xbf35fb47	-0.71086544
202	0xbea817ee	-0.32830757
203	0x3f556bbc	0.83367515
204	0xbff371bc	-1.9019084
205	0xbe5f32f4	-0.21796781
206	0x3f32cec3	0.69846743
207	0xbc6e3de6	-0.014541125
208	0xbf9c1d5d	-1.2196461
209	0xbf9d42a3	-1.2285961
210	0x3dff1f37	0.12457126
211	0x3f11da5c	0.56973815
212	0x3e615cee	0.22008106
213	0x3f2d70bf	0.6775016
214	0xbd98b489	-0.07456309
215	0xbfd32936	-1.6496952
216	0xbf101a7e	-0.56290424
217	0xbfd4a9ac	-1.661428
218	0xbf2060d0	-0.62647724
219	0xbf22be3d	-0.6357153
220	0xbf0f65a8	-0.5601449
221	0x3faeae60	1.3646965
222	0xbe783669	-0.24239506
223	0x3def9164	0.11697653
224	0xbf237f96	-0.63866556
225	0xbe7dd2b7	-0.24787413
226	0x3e09a275	0.13440879
227	0x3faeeed1	1.3666631
228	0x3f1478ea	0.57997
229	0x3f682d0b	0.9069373
230	0x3f0a5d36	0.5404848
231	0x3e973842	0.2953511
232	0xbe252f77	-0.16131388
233	0x400ec592	2.2308087
234	0xbfdcc7d7	-1.7248486
235	0xbf977049	-1.1831142
236	0xbe6c7007	-0.2308961
237	0x402e491c	2.7232122
238	0xbecd6c29	-0.40121582
239	0x3e8c908a	0.27454025
240	0xbf2314d5	-0.6370366
241	0xbee1e090	-0.4411664
242	0x3f854ad4	1.0413461
243	0xbe8f3e7b	-0.27977356
244	0xbedb4ce9	-0.42832115
245	0xbfdd5da6	-1.7294204
246	0x3f7d5343	0.9895517
247	0xbd297331	-0.04136962
248	0x3f3fc29e	0.7490634
249	0xbedb8b4a	-0.42879707
250	0x3fa5b6ef	1.2946452
251	0xbe738ec7	-0.23784934
252	0x3fb45b12	1.4090292
253	0x401b3915	2.425359
254	0xc012d5f1	-2.294308
255	0x3faa6fd2	1.3315375

rnn.weight_ih_l0 f4 [32, 16]
0	0xbe05a8e1	-0.13052703
1	0xbe22a418	-0.1588291
2	0xbdb523fe	-0.088447556
3	0x3e22fdc3	0.15917115
4	0xbd1c85ce	-0.038213544
5	0xbe39bedc	-0.18139213
6	0x3e10d446	0.14143476
7	0xbd92e37e	-0.07172297
8	0xbe185aeb	-0.14878432
9	0xbdf9d225	-0.12198285
10	0xbe3acd6a	-0.18242422
11	0x3df3b0be	0.11898945
12	0x3e220f7b	0.15826218
13	0xbd60a600	-0.05484581
14	0x3e2a4d74	0.16631109
15	0x3e1c8ed6	0.15288863
16	0xbdd41e36	-0.10357325
17	0xbe28fc34	-0.16502458
18	0x3d7b6b32	0.061381526
19	0xb9b2bcf3	-0.00034091584
20	0xbd4590e6	-0.04823389
21	0xb97877d0	-0.00023695757
22	0x3e0aa77e	0.13540456
23	0xbd0c26fd	-0.03421687
24	0xbdb6fdd8	-0.089351356
25	0x3e292a09	0.16519941
26	0x3e12f22a	0.14350191
27	0x3e1fb5e3	0.15596728
28	0x3e28a74c	0.16470069
29	0x3d8602ac	0.06543478
30	0xbd3d9727	-0.04628673
31	0xbd87c147	-0.066286616
32	0x3b91ab26	0.0044454513
33	0xbe05565f	-0.13021229
34	0x3cb3ef5c	0.021964721
35	0xbe06531d	-0.13117643
36	0x3d31c905	0.043404598
37	0x3ca4a2e6	0.020097207
38	0x3dacc94f	0.08436834
39	0xbdd838e6	-0.105577275
40	0xbe2c7e1c	-0.16844982
41	0x3d95f096	0.07321279
42	0xbe1f2def	-0.15544866
43	0x3dc2dfa2	0.09515311
44	0x3dc1e03b	0.09466597
45	0xbe25d81d	-0.16195722
46	0xbdbfa389	-0.09357364
47	0x3dfdcde0	0.12392783
48	0xbe23daa0	-0.16001368
49	0xbe100c24	-0.14067131
50	0xbe1356cb	-0.14388578
51	0xbda4d27d	-0.0804796
52	0x3dbb97c1	0.09159804
53	0xbdf7824e	-0.120854005
54	0x3dc6587a	0.09684844
55	0x3cf0ef69	0.029411035
56	0x3e0c876a	0.13723531
57	0xbdea85ec	-0.11451325
58	0x3e035b79	0.12827863
59	0x3d7197e4	0.058982745
60	0x3dda7520	0.10666871
61	0xbdb6f44c	-0.08933315
62	0xbda5d6d0	-0.08097613
63	0xbc0f5d6e	-0.008750303
64	0x3d235d39	0.039883826
65	0xbe0defd5	-0.1386102
66	0xbe28de46	-0.1649104
67	0x3de4afdf	0.11166357
68	0x3db2a4dd	0.087228514
69	0xbc1bdf4a	-0.0095136855
70	0xbdeb6373	-0.11493578
71	0xbd68f31b	-0.05687247
72	0x3d89d7c5	0.06730608
73	0xbc47bc92	-0.012190955
74	0x3c76b06c	0.015056711
75	0x3d7ce1cd	0.061738778
76	0x3e021a4c	0.12705344
77	0xbcb6a009	-0.022293108
78	0xbe34de08	-0.17662823
79	0xbc9abea7	-0.018889738
80	0x3d84a273	0.06476297
81	0xbd916dde	-0.07101034
82	0x3d3534bb	0.04423974
83	0x3d8e9550	0.06962073
84	0x3d023516	0.031788908
85	0x3dc535e0	0.096294165
86	0xbc67fd5e	-0.014159529
87	0x3d66978c	0.05629687
88	0xbc38ef8c	-0.011287581
89	0x3df99fdc	0.12188694
90	0x3cf8c467	0.03036709
91	0x3e05093d	0.12991805
92	0x3d11bf92	0.035583086
93	0xbcb61835	-0.02222834
94	0xbdf8c5e3	-0.12147119
95	0x3d1cf4bf	0.038319346
96	0x3d552b45	0.05204322
97	0xbd45dd13	-0.048306536
98	0xbbaba262	-0.0052378634
99	0xbdb663d8	-0.089057624
100	0xbdd7c1e5	-0.10535029
101	0x3da92870	0.08259666
102	0x3dc62762	0.096754804
103	0x3e257cac	0.1616084
104	0xbd8beab7	-0.06831878
105	0x3e095d9b	0.13414614
106	0x3bcbe1e9	0.006221999
107	0x3e0f385a	0.1398634
108	0x3c712cd6	0.014720162
109	0xbc512ffd	-0.012767789
110	0x3de9c95b	0.11415359
111	0xbc174829	-0.009233513
112	0xbc3838f6	-0.011244049
113	0xbc68a911	-0.014200465
114	0x3db2570f	0.08708011
115	0xbd5b5c04	-0.05355455
116	0xbd2bac61	-0.04191244
117	0xbcc8bef9	-0.024505125
118	0x3d2791ca	0.04091052
119	0x3ceb6412	0.02873424
120	0x3d126efb	0.03575037
121	0xbe16900e	-0.1470339
122	0xbcc42e90	-0.023947984
123	0x3bab4f53	0.005227962
124	0x3cb89c96	0.022535603
125	0xbe21bda8	-0.15795004
126	0xbbfd5562	-0.0077311257
127	0xbc469cda	-0.012122357
128	0x3cfdef33	0.030997848
129	0x3e18edb5	0.14934428
130	0x3e04f470	0.1298387
131	0xbc3960a3	-0.011314544
132	0x3db2e5ab	0.08735212
133	0xbe378053	-0.17920046
134	0x3e003b31	0.1252258
135	0x3e07cfed	0.13262911
136	0x3ded86c7	0.11597972
137	0xbe242edf	-0.16033505
138	0xbddeeda6	-0.108851716
139	0xbdc4d375	-0.09610645
140	0x3e27bdf8	0.16381061
141	0xbd0740ae	-0.033020668
142	0xbe1792a4	-0.14802033
143	0x3ca44a93	0.020055091
144	0xbd9b1d9c	-0.07574007
145	0xbe1ae5c9	-0.15126719
146	0xbe20e7a2	-0.15713361
147	0xbd4233f0	-0.047412813
148	0xbdb23d96	-0.08703153
149	0x3c4fcfdf	0.012683838
150	0x3d0c2a59	0.034220073
151	0x3e35e651	0.1776364
152	0x3d34790b	0.044060748
153	0x3dd61d64	0.104548246
154	0x3ca01f4e	0.019546177
155	0xbe02d018	-0.12774694
156	0xbcc092ce	-0.023507502
157	0xbd442a83	-0.047892105
158	0x3e02ff5e	0.12792727
159	0xbda460bf	-0.08026265
160	0x3e279f80	0.16369438
161	0x3e1183ff	0.14210509
162	0xbd862592	-0.06550135
163	0x3bd0d870	0.0063734576
164	0xbdb6da33	-0.08928337
165	0xbdbbf518	-0.09177607
166	0x3db5280e	0.088455305
167	0xbe1ff7a5	-0.15621813
168	0x3d82d54b	0.06388339
169	0xbd77a295	-0.060457785
170	0xbd371909	-0.04470161
171	0xbe111714	-0.1416896
172	0xbabc1622	-0.0014349858
173	0xbd20c9a2	-0.039254792
174	0xbdc1208f	-0.09430038
175	0x3e2ee8a8	0.17080939
176	0xbe17e7f9	-0.14834584
177	0x3d3bf46d	0.0458874
178	0xbd1c9c2c	-0.038234875
179	0xbc47f25c	-0.012203779
180	0xbdabb073	-0.083832644
181	0x3d40a5af	0.04703301
182	0xbe06bde2	-0.13158372
183	0xbe1903ed	-0.14942904
184	0xbd955ae5	-0.072927274
185	0xbd7e2332	-0.062045284
186	0xbd9bc432	-0.07605781
187	0x3e115a1b	0.14194529
188	0xbdb06ed9	-0.086148925
189	0xbdca90a0	-0.09890866
190	0x3e0f112b	0.13971393
191	0x3c2174e1	0.009854526
192	0xbe22438e	-0.15846083
193	0xbc1dfbc4	-0.009642545
194	0x3df21496	0.11820333
195	0x3c965a39	0.018353568
196	0x3db8fc06	0.09032445
197	0xbe04f217	-0.12982975
198	0x3be9fd78	0.0071408115
199	0x3de6670e	0.11250125
200	0x3dc0a532	0.094065085
201	0x3d648460	0.055790305
202	0x3d83f7fd	0.064437844
203	0x3d5da989	0.05411676
204	0xbda43454	-0.08017793
205	0x3dbe5b54	0.09294763
206	0x3e012703	0.12612538
207	0x3c8c207c	0.017105334
208	0x3cb1f7bd	0.021724576
209	0x3d7a9d90	0.06118542
210	0x3d5fcdf0	0.054639757
211	0x3e149208	0.14508832
212	0x3c0f466e	0.008744819
213	0xbc434b58	-0.011919819
214	0xbd5cccc6	-0.053906225
215	0x3c2593f8	0.010106079
216	0xbde4db8f	-0.1117469
217	0xbc2efbc5	-0.010680144
218	0x3ded9cf0	0.11602199
219	0x3dad6775	0.084669985
220	0xbe2ea6b0	-0.17055774
221	0x3d82a577	0.06379216
222	0xbde034fc	-0.10947606
223	0x3ce33cea	0.027739007
224	0x3d8798bf	0.06620931
225	0x3de23db8	0.11046928
226	0xbdd5fad5	-0.10448233
227	0x3e0c4c7d	0.13701053
228	0x3d9d7d0f	0.07689869
229	0xbc4981bd	-0.012298998
230	0xbc7ed3a8	-0.0155533925
231	0xbdaca1f4	-0.084293276
232	0xbd980391	-0.07422555
233	0xbc606fbe	-0.013698516
234	0x3dc3fa39	0.095692106
235	0x3d3710b2	0.044693656
236	0x3e123ee4	0.14281803
237	0xbdda00e1	-0.10644699
238	0xbdc6c12c	-0.09704813
239	0x3da67457	0.08127659
240	0x3e238814	0.15969878
241	0x3d748533	0.05969734
242	0x3e366b4b	0.17814367
243	0xbd9d38ce	-0.0767685
244	0xbe19375b	-0.14962523
245	0x3e1693ef	0.1470487
246	0x3df5feff	0.12011527
247	0xbd9d8c3e	-0.07692765
248	0xbdca6791	-0.09883035
249	0xbdc09446	-0.09403281
250	0xbdb46f8c	-0.088103384
251	0x3c7a5797	0.015279672
252	0x3dacfc0a	0.0844651
253	0x3bebd1a8	0.007196624
254	0xbd9b5ffc	-0.07586667
255	0xbd74d344	-0.05977179

rnn.weight_hh_l0 f4 [32, 32]
0	0x3e267e3c	0.16259092
1	0x3d045654	0.03230889
2	0xbcef1490	-0.02918461
3	0x3d84e742	0.064894214
4	0xbd108217	-0.035280313
5	0xbd1d788a	-0.038445033
6	0x3df4c201	0.11951066
7	0x3dcf88ca	0.10133512
8	0xbe1af344	-0.15131861
9	0xbd48758a	-0.04894022
10	0x3c9e7324	0.019342013
11	0x3df7af0f	0.12093937
12	0xbd2bcb29	-0.041941795
13	0x3e183251	0.14862944
14	0x3df83646	0.12119727
15	0xbd81daf1	-0.06340588
16	0x3d6cf74c	0.05785303
17	0xbdf51881	-0.119675644
18	0x3d9c66d3	0.076368
19	0xbd4bf9ed	-0.049798895
20	0xbdccda51	-0.10002578
21	0x3d9a8f5e	0.07546876
22	0xbdc5b2e9	-0.09653265
23	0xbd0bd01b	-0.03413401
24	0x3d6af6fa	0.05736444
25	0x3e14c6a5	0.14528902
26	0xbd4caebb	-0.049971323
27	0xbdacbb26	-0.08434133
28	0x3e2524b0	0.16127276
29	0x3df8fb96	0.12157361
30	0xbd0a0f84	-0.033706203
31	0xbd977651	-0.07395614
32	0xbdc3b5df	-0.095561735
33	0xbe1e9ad8	-0.15488756
34	0xbdfbef3d	-0.123014905
35	0x3c19833b	0.009369667
36	0xbe09e8db	-0.13467734
37	0x3d850eff	0.06497001
38	0x3cb93bb2	0.022611473
39	0xbde8b5f4	-0.1136283
40	0xbd4ee3a9	-0.050510082
41	0x3de3ea69	0.111286946
42	0xbd983b5c	-0.07433197
43	0xbdce4108	-0.100709975
44	0x3c8311b9	0.015999662
45	0x3df77ba6	0.12084131
46	0xbe0f37b8	-0.13986099
47	0x3c9fe660	0.019519031
48	0x3b857f63	0.0040740236
49	0xbdc87f9d	-0.09789965
50	0x3e286156	0.1644338
51	0x3d49fa44	0.049310938
52	0x3e229a87	0.1587926
53	0xbd88bbd8	-0.06676453
54	0xbde82ff8	-0.11337274
55	0x3e28d72d	0.16488333
56	0xbc7a5b1a	-0.015280509
57	0x3de97ca3	0.11400726
58	0x3db3b086	0.087739035
59	0xbc9e30fa	-0.019310463
60	0x3e2ce458	0.16883981
61	0xbde943c4	-0.113898784
62	0x3d852ff2	0.065032855
63	0x3e33f05e	0.17572162
64	0x3cf709e0	0.030156076
65	0xbd727501	-0.059193615
66	0xbac7db18	-0.001524779
67	0xbdedf3eb	-0.11618789
68	0x3a87ad24	0.0010351283
69	0xbd833497	-0.06406515
70	0xbd06715d	-0.032822955
71	0xbe11b1ce	-0.14227983
72	0x3de5e24a	0.11224802
73	0xbe1a480e	-0.15066549
74	0x3e206b9e	0.15666053
75	0x3d27a682	0.04093028
76	0x3e2026ab	0.1563975
77	0xbd680e8c	-0.056654498
78	0x3dd30a95	0.10304753
79	0xbdd387f5	-0.10328666
80	0xbdd740d9	-0.105104156
81	0x3de28da2	0.110621706
82	0xbdad0863	-0.08448865
83	0x3d3dcc92	0.04633767
84	0x3e31ef7a	0.1737651
85	0xbe237415	-0.1596225
86	0x3d84ae42	0.064785495
87	0x3dfff4a0	0.124978304
88	0xbe0105e0	-0.12599897
89	0x3bb3d6c7	0.00548825
90	0xbd6fc5f0	-0.058538377
91	0x3e1bd75d	0.15218873
92	0x3d8ed6ae	0.06974541
93	0xbd50e59e	-0.05100023
94	0x3e28f704	0.16500479
95	0x3dbfa78c	0.09358129
96	0x3d9c40e3	0.07629564
97	0xbe04186f	-0.12899946
98	0xbcd6c207	-0.026215566
99	0xbe26b7bd	-0.16281028
100	0x3c1a3153	0.009411174
101	0xbe2eb43a	-0.17060938
102	0x3d9ab5d0	0.07554209
103	0x3e271d33	0.16319732
104	0xbe181e8f	-0.14855407
105	0xbde5def9	-0.11224169
106	0xba8f8f25	-0.0010952695
107	0x3d184adf	0.037180778
108	0x3dd1d071	0.10244835
109	0x3d9e8314	0.07739845
110	0xbe24d5d8	-0.160972
111	0x3e1a32cb	0.15058438
112	0x3af8a6f8	0.0018970659
113	0xbd8c6667	-0.06855469
114	0xbdb9cd3d	-0.09072349
115	0x3db86c23	0.090050004
116	0xbde73f0a	-0.112913206
117	0x3d679c45	0.056545515
118	0xbdb183bb	-0.08667704
119	0xbc842a4c	-0.01613345
120	0x3d67225b	0.05642925
121	0x3c9a9cb8	0.018873557
122	0x3b86f0bc	0.0041180532
123	0xbde5cddb	-0.112209044
124	0x3e2cb4bc	0.1686582
125	0x3bd7f3b8	0.006590333
126	0x3d6a795b	0.05724464
127	0xbda024cc	-0.078195184
128	0xbc6f1d2e	-0.014594359
129	0x3e0d8c3c	0.13823026
130	0xbe2b3c04	-0.16722113
131	0x3d1a87f3	0.037727308
132	0x3e0420e0	0.12903166
133	0xbe23ff1d	-0.16015287
134	0x3e0f7143	0.1400805
135	0xbe19fb51	-0.15037276
136	0xbde01f09	-0.109434195
137	0x3d646192	0.055757113
138	0x3debfc5b	0.11522742
139	0xbdd52789	-0.10407931
140	0x3e17f81c	0.1484074
141	0x3e24d1ce	0.16095659
142	0xbdbf5cbf	-0.09343862
143	0x3d1e54c5	0.03865506
144	0x3d67e2b7	0.056612696
145	0xbd83dfdf	-0.064391844
146	0x3d2c2c14	0.042034224
147	0xbdeb444b	-0.11487635
148	0xbde94ba2	-0.11391379
149	0xbe173318	-0.14765584
150	0xbdc0a744	-0.094069034
151	0xbe21c44f	-0.15797542
152	0xbe264017	-0.16235386
153	0x3d160a4d	0.036630917
154	0x3dbe4879	0.09291167
155	0xbd1f8548	-0.038945466
156	0xbde3c86e	-0.11122213
157	0xbc554fc4	-0.013019506
158	0x3e2dc173	0.16968326
159	0x3d61b6e5	0.055106062
160	0xbbd13d68	-0.006385494
161	0xbdc726ce	-0.09724198
162	0xbdb20f6f	-0.0869435
163	0xbd876a66	-0.06612091
164	0xbe239d88	-0.15978062
165	0xbcce8b93	-0.025213039
166	0x3e053373	0.13007908
167	0x3e2433dd	0.1603541
168	0x3c3a0e86	0.011356002
169	0xbc37dce4	-0.011222098
170	0x3dc23d0b	0.09484299
171	0xbcd93202	-0.026513103
172	0x3dce8c9b	0.10085412
173	0x3dc08dee	0.09402071
174	0x3e3964f6	0.1810492
175	0xbe0ecfcf	-0.1394646
176	0xbca88557	-0.020571394
177	0xbd63f249	-0.055650983
178	0xbcb28379	-0.021791207
179	0xbade23b4	-0.0016947896
180	0x3da8f6b1	0.08250178
181	0x3d7268e6	0.05918207
182	0x3de404da	0.11133738
183	0x3d43b636	0.04778119
184	0xbe1dd452	-0.15413025
185	0x3e3492a3	0.17634062
186	0xbdd84c02	-0.10561372
187	0xbd82b878	-0.06382841
188	0xbdf82c68	-0.12117845
189	0x3d053b6e	0.03252738
190	0xbe30be4d	-0.17260094
191	0x3a3d8a6e	0.00072304055
192	0x3d40fa46	0.04711368
193	0xbdc48f7e	-0.095976815
194	0xbd81df53	-0.06341424
195	0x3cf1a636	0.0294982
196	0xbe0ba423	-0.13636832
197	0xbdfb0bf0	-0.12258136
198	0xbd0c47c8	-0.034248143
199	0xbdce4727	-0.10072165
200	0xbd64b3c0	-0.055835485
201	0xbda40a3a	-0.08009763
202	0x3e2c4201	0.16822053
203	0x3cad56a2	0.021159474
204	0x3e1aa72f	0.15102838
205	0xbde33052	-0.11093201
206	0xbd92a35b	-0.07160064
207	0xbe36165b	-0.17781965
208	0xbd318a9f	-0.04334509
209	0x3c8a82a5	0.016908
210	0xbdff6ea4	-0.12472275
211	0xbdbb5ee8	-0.09148961
212	0xbd930fa4	-0.071807176
213	0x3e1462ec	0.1449086
214	0xbd35dcae	-0.04439991
215	0xbdc0ca96	-0.0941364
216	0xbc6e0ff9	-0.014530175
217	0xbdc7a11e	-0.097475275
218	0xbcd6353c	-0.026148431
219	0x3c04b790	0.008100405
220	0x3e0a1281	0.13483621
221	0x3cbf85c2	0.02337921
222	0x3d9ded38	0.077112615
223	0xbd9e120a	-0.077182844
224	0x3e0fe99d	0.1405396
225	0x3ddf9893	0.10917773
226	0xbe072fa2	-0.13201764
227	0x3cfc339d	0.03078633
228	0x3ceba329	0.028764324
229	0x3a11a08e	0.00055552355
230	0x3d4ff3bf	0.050769564
231	0xbcc3ea24	-0.023915358
232	0x3e1f23b5	0.15540965
233	0x3c5631de	0.013073413
234	0xbdf6f1c8	-0.12057835
235	0xbd98ca65	-0.07460479
236	0xbe1b666c	-0.1517579
237	0x3d2e4046	0.042541765
238	0xbba5943d	-0.005053072
239	0xbda9b104	-0.08285716
240	0xbd9c07d1	-0.07618678
241	0xbd775a2a	-0.06038872
242	0x3e1c5e83	0.15270428
243	0xbe00c72b	-0.12575977
244	0x3e3046ec	0.17214555
245	0xbcdda6bc	-0.027057044
246	0xbd81ffb2	-0.06347598
247	0x3e06a212	0.13147762
248	0x3dadc419	0.08484668
249	0xbe1cc481	-0.15309335
250	0xbcde8fb9	-0.027168142
251	0x3e033da6	0.12816486
252	0x3ddb395a	0.10704298
253	0x3e0f49b4	0.1399296
254	0x3d8a46ec	0.067518085
255	0x3deb82f9	0.114995904

rnn.bias_ih_l0 f4 [32]
0	0xbe0006fb	-0.12502663
1	0x3be5ee44	0.007016929
2	0xbe00e09e	-0.12585685
3	0xbe1a6983	-0.15079312
4	0xb9b7d6f3	-0.0003506463
5	0xbe1760b4	-0.14782983
6	0x3daf9180	0.08572674
7	0x3cc63521	0.024195256
8	0x3e12a680	0.14321327
9	0xbdf6b6a5	-0.120465554
10	0xbe029f66	-0.12756118
11	0xbe00fffe	-0.12597653
12	0x3bcbd0f4	0.0062199775
13	0x3e0234a3	0.12715392
14	0x3d96e283	0.073674224
15	0xbe2585cd	-0.16164322
16	0x3d880e3a	0.066433385
17	0x3d2b39b5	0.04180308
18	0xbe13c60c	-0.14431018
19	0x3d90f108	0.07077223
20	0x3d527583	0.0513816
21	0x3e274d9f	0.16338204
22	0x3d2c7380	0.042102337
23	0xbc8535a0	-0.016260922
24	0x3d25eefd	0.04051112
25	0xbd5f2b2e	-0.05448454
26	0xbd75c810	-0.060005248
27	0xbddf9cfa	-0.10918613
28	0xbda13934	-0.07872239
29	0x3c1b7e5e	0.0094905775
30	0xbbce3b36	-0.0062936796
31	0x3cf2d635	0.029643157

rnn.bias_hh_l0 f4 [32]
0	0xbd40c1f9	-0.047059987
1	0x3dd518f1	0.10405148
2	0x3e05f087	0.13080035
3	0x3e1a1d40	0.1505022
4	0x3cac7855	0.021053473
5	0xbba162d7	-0.0049251127
6	0xbc435b8c	-0.011923682
7	0x3e2b5600	0.16732025
8	0xbd9e21bd	-0.07721279
9	0x3db8ed5b	0.09029647
10	0xbd86512d	-0.06558452
11	0x3d379ddd	0.044828285
12	0x3db52578	0.08845037
13	0xbdb27dee	-0.087154254
14	0x3d782f86	0.060592197
15	0xbe291910	-0.16513467
16	0x3d77b68a	0.060476817
17	0xbe328b8f	-0.1743605
18	0x3e429628	0.19002593
19	0xbd9dc98c	-0.07704458
20	0xbcadb349	-0.021203654
21	0x3e18fbd5	0.14939816
22	0x3d8dc667	0.06922608
23	0x3defb876	0.11705105
24	0xbb8a8a22	-0.0042278925
25	0x3e102443	0.14076333
26	0xbd77a62b	-0.060461204
27	0x3cb79443	0.022409564
28	0x3ca72681	0.020404102
29	0x3e1e776f	0.15475248
30	0xbdf6aee5	-0.12045077
31	0xbc0480b1	-0.008087323

classifier.weight f4 [6, 32]
0	0xbe43629f	-0.1908059
1	0xbcb793e7	-0.022409393
2	0x3c5be8c2	0.013422193
3	0x3db7df62	0.08978154
4	0xbdeb7a0a	-0.114978865
5	0x3cd26b3d	0.0256859
6	0xbdae480f	-0.08509838
7	0xbdaf8c5e	-0.08571695
8	0xbdb80250	-0.08984816
9	0x3d555325	0.052081246
10	0x3d583a2e	0.05278986
11	0xbcccbdd3	-0.024992859
12	0x3dca7975	0.09886447
13	0x3e047b23	0.12937598
14	0xbd9da086	-0.07696633
15	0xbdb43028	-0.087982476
16	0xbd1419d1	-0.036157433
17	0x3d9eec7c	0.077599496
18	0xbe29fcae	-0.16600296
19	0x3e2c6f40	0.16839314
20	0xbdb51c50	-0.08843291
21	0xbe1be7e8	-0.15225184
22	0xbdbf3b4a	-0.0933748
23	0xbdb16b9d	-0.08663104
24	0x3d9a776a	0.07542308
25	0x3d75b87b	0.059990387
26	0x3d6b61a6	0.05746617
27	0x3df7158c	0.120646566
28	0xbd7001e4	-0.058595553
29	0x3e110856	0.14163336
30	0xbe1ce891	-0.15323092
31	0x3e3cd75e	0.18441531
32	0xbd958793	-0.07301249
33	0x3d489257	0.048967686
34	0x3e403492	0.18770054
35	0x3e029c0c	0.1275484
36	0xbdc1a278	-0.094548166
37	0xbe1c885f	-0.15286396
38	0xbe1505dd	-0.14553018
39	0x3c769e28	0.015052356
40	0xbd834b76	-0.064108774
41	0xbd17e4db	-0.037083488
42	0x3cdcaddf	0.026938377
43	0xbdc00e86	-0.0937777
44	0x3d1b6d76	0.037946187
45	0x3e33ef48	0.17571747
46	0x3e432403	0.19056706
47	0xbd87a452	-0.066231385
48	0x3d4dce69	0.050245676
49	0xbd384527	-0.044987824
50	0x3d145663	0.036215197
51	0xbdb6fbd5	-0.08934752
52	0x3e072aba	0.13199893
53	0xbc280231	-0.010254429
54	0xbae9a97c	-0.0017827
55	0x3e1eace7	0.15495645
56	0xbdce49b7	-0.10072654
57	0x3d004d33	0.031323623
58	0x3e1ab8e1	0.15109588
59	0x3e0ce4fa	0.13759223
60	0xbd9ad368	-0.07559854
61	0x3d885e88	0.066586554
62	0x3d01e186	0.031709217
63	0xbd8d5cf6	-0.069024965
64	0x3c819825	0.015819618
65	0x3db24342	0.08704235
66	0x3db895bc	0.090129346
67	0xbdc2f892	-0.09520067
68	0xbc95ee9e	-0.018302258
69	0xbcd4cfb4	-0.025977947
70	0xbe0513ff	-0.12995909
71	0x3d9f0576	0.077647135
72	0xbdb88a14	-0.09010711
73	0xbe1c3859	-0.1525587
74	0x3caa518b	0.020790836
75	0xbdec1bf7	-0.11528771
76	0xbdf8a871	-0.12141503
77	0xbd7c3ef9	-0.061583493
78	0x3d44ea11	0.048074786
79	0xbe2b9ea6	-0.16759738
80	0x3e302a8c	0.1720373
81	0xbde9c552	-0.11414589
82	0x3df2716a	0.11838038
83	0xbe1e9ea5	-0.15490206
84	0xbdfa9e67	-0.12237244
85	0x3e0c0562	0.13673928
86	0x3dafc939	0.08583302
87	0xbde7eaf7	-0.11324113
88	0xbe067484	-0.13130385
89	0xbdb451ef	-0.0880469
90	0x3da9dda7	0.0829423
91	0xbe0153c3	-0.12629609
92	0x3d1aa043	0.037750494
93	0x3d1666a1	0.03671897
94	0x3d9f8eaa	0.07790883
95	0x3c8e04ba	0.017336238
96	0x3e4b9198	0.19879758
97	0x3d708072	0.058716245
98	0x3d3ec899	0.046578024
99	0xbdb064f8	-0.08613008
100	0xbdbfa520	-0.09357667
101	0xbe094460	-0.13404989
102	0x3d85d72f	0.06535184
103	0xbda00a23	-0.078144334
104	0x3e5e9379	0.21735944
105	0xbcda2205	-0.02662755
106	0x3e281b4c	0.16416663
107	0xbd2ca5c4	-0.042150274
108	0xbd97d444	-0.07413533
109	0xbe0a88bd	-0.13528724
110	0x3d7da74c	0.061927125
111	0x3dd50af5	0.104024805
112	0xbd10a77f	-0.035315987
113	0x3dd87d7e	0.10570811
114	0xbe1af719	-0.15133323
115	0x3d098953	0.03357823
116	0x3e3d22cc	0.18470305
117	0x3d9e6442	0.077339664
118	0x3bc04216	0.005867253
119	0x3ce86d17	0.02837233
120	0x3e2d5d59	0.1693014
121	0x3c96cfc5	0.01840962
122	0xbdf27c91	-0.118401654
123	0xbe031747	-0.12801848
124	0xbd419aaf	-0.04726666
125	0x3d5c6032	0.053802676
126	0x3e0c3890	0.13693452
127	0xbca1528a	-0.019692678
128	0x3d2b7ba1	0.04186595
129	0xbd1ed872	-0.038780637
130	0x3de797e0	0.11308265
131	0x3cb8200c	0.022476219
132	0x3e268c23	0.16264395
133	0xbddc5cdf	-0.10759901
134	0x3c9b6f58	0.018973991
135	0xbdf6916c	-0.12039456
136	0x3d19ae19	0.037519548
137	0x3d5d2c62	0.053997405
138	0xbdc5e381	-0.096625336
139	0x3c399d3f	0.011328994
140	0xbe031dfb	-0.12804405
141	0xbdb93ee0	-0.090451956
142	0x3d5382f7	0.05163857
143	0x3c948369	0.018129067
144	0xbe549b7b	-0.20762436
145	0xbdd26f47	-0.10275131
146	0xbcbce8b2	-0.023060177
147	0xbe0ea06c	-0.13928384
148	0x3daf8335	0.08569948
149	0x3dafdeb3	0.085873984
150	0x3d170f09	0.036879573
151	0xbc814926	-0.01578195
152	0x3d8a585e	0.06755136
153	0x3e3f1898	0.18661726
154	0xbde54ab4	-0.11195889
155	0x3c732684	0.014840726
156	0x3d839c79	0.06426329
157	0x3e263bc6	0.1623374
158	0x3e5e38c5	0.21701343
159	0x3c542d1a	0.012950206
160	0x3d2592f8	0.040423363
161	0x3d1992b8	0.037493438
162	0x3d6620bd	0.056183565
163	0xbe05a092	-0.13049534
164	0x3dc90fa0	0.09817433
165	0x3d7e464f	0.06207877
166	0x3e305242	0.17218879
167	0xbe27dfa9	-0.16393913
168	0xbcb62fed	-0.02223965
169	0xbc6fb1af	-0.014629765
170	0xbcb5d727	-0.02219732
171	0xbcf908ec	-0.030399762
172	0x3b09d6a2	0.0021032472
173	0xbd63a218	-0.055574507
174	0x3e353e88	0.17699635
175	0xbe37470f	-0.178982
176	0xbdf082fb	-0.117437325
177	0x3db7d6c8	0.08976513
178	0x3dd48960	0.10377765
179	0x3d8c9d2c	0.06865916
180	0x3e0fc70d	0.14040776
181	0xbd70eb25	-0.058818
182	0x3dae6677	0.08515637
183	0x3d6582b5	0.056032855
184	0x3df612b2	0.120152846
185	0xbd88228e	-0.06647216
186	0x3e0ed308	0.1394769
187	0x3e12eefa	0.14348975
188	0x3e318817	0.1733707
189	0x3d35ddab	0.044400852
190	0x3d0fe9db	0.03513513
191	0xbc934554	-0.017977394

classifier.bias f4 [6]
0	0x3e366220	0.17810869
1	0x3e33b212	0.17548397
2	0x3dd59686	0.10429101
3	0xbde0ffdb	-0.109863006
4	0x3cff690e	0.031178024
5	0x3dae3dfc	0.08507916
