save/3-3_mc_rnn_sp_65.pt (torch, 13412 bytes, 7 tensors)

emb_layer.weight f4 [65, 16]
00000000: 0000 0000 0000 0000 0000 0000 0000 0000
00000010: 0000 0000 0000 0000 0000 0000 0000 0000
00000020: 0000 0000 0000 0000 0000 0000 0000 0000
00000030: 0000 0000 0000 0000 0000 0000 0000 0000
00000040: e20c 9c3f f474 96bd a073 763f f245 aebf
00000050: e1b7 a03f fa7d b43e cd49 303f 1d00 a2bb
00000060: d2b8 17bf 097b 5a3e b8a3 9bbf c4ef 363f
00000070: 40c7 d4bf 3835 503c 83bc ddbf cb8b bcbf
00000080: 38cf 043f 710a 3ebf c03d 323d 1993 53bd
00000090: c774 34bf d5fb 50bf 0b2f d73e 1216 3d3f
000000a0: 9f63 9a3e dac9 473f f526 b63f 28b3 0d3f
000000b0: f8b1 063e 2edf 723f e4d5 393e b3f5 2cbf
000000c0: 6f43 b3bf f1fb 63bf 50f9 773f 0bc7 0bbf
000000d0: 15d6 0d40 9303 ef3f 07c4 d0be a68b 893f
000000e0: eb4b d13d 6145 dd3f 766b 8dbe b69e be3f
000000f0: 4f9c ee3f 47d3 0d3f 454f c0bc 2d2a 1040
00000100: 6a8e 083f 9226 2f3f 4e92 803f 5cf9 9cbf
00000110: 66b7 aebe 64bb ffbf 71cf 393f ecbd 453e
00000120: 710b 5a3f 208e 3d3f 1181 453f 603d 4a3f
00000130: daf5 c7bf 1051 b93e 13ae 513f cbfe be3f
00000140: 0e56 9b3f 18b5 adbc 129e 9dbe cb2f ac3c
00000150: add8 4c3f 1ed6 ee3d f6c6 743f 2291 d13f
00000160: a8e4 033e 37b3 debf dba9 1dc0 a37a 1b40
00000170: 9896 60bd e964 253e 9de4 673f 5730 583e
00000180: 2c5a 6bbf 9db4 1840 8e93 b73e 39f8 983e
00000190: d14c f03e 7225 9f3d 775f 57bf 2ad1 adbf
000001a0: 16d6 583e f8ac b8be e884 5dbe 53ae 8b3e
000001b0: 4d83 9cbf 9fd6 69bf bcd1 50bf ffd3 6cbf
000001c0: 52f7 213f 7399 3c3f 92fe abbf a31f 9cbf
000001d0: ec8d bdbf ba86 aabf 240b 5f3e 6dfc 34c0
000001e0: 7b7d 9a3e 0a97 a7bf c39a 5e3e 3cef 653f
000001f0: c7b8 93bf 1b79 33bf d79a d83d 0a87 e3bf
00000200: e16d 2fbf 5741 633f cc98 f8be 4d12 c4be
00000210: 9aa9 2a3f 057c 8a3f 21b6 953d 3e3d da3f
00000220: ca77 b7be aaf5 d13e 5574 9abf ec62 923d
00000230: a1b7 72bf 8653 3fbf 26fc 81bf 8c1f 153e
00000240: 6f02 893f caae 8f3e 0095 13bf 7b2a 2cbf
00000250: 5ae5 713e 028e d9bf 6641 913f f2ed 83bf
00000260: fb1f 863f 36c8 e13f 70f1 2ebf 5b83 75bf
00000270: 5286 0dbc 3782 1e3f bc31 c9bf a168 f5bb
00000280: db4c e5be b3a8 0d3f 70c9 9bbf 286e c53e
00000290: 6993 95bf c453 1f3f 73e0 fd3e 5f04 0f40
000002a0: 7134 b13f 88e1 ae3e 3dec 3a3f 35e5 543f
000002b0: 5d98 0dbf 5f7b bbbe f663 64bf 3a1c d8bf
000002c0: ae73 e43d e65f b7bf bc93 aabf ca2f 77be
000002d0: 3109 c8be 93ee edbf cd87 0f3f 35dc 61bf
000002e0: e200 d8bf d4fe 933e edee 82bf b1be 773f
000002f0: 11e7 0c3f 6dfa 0140 c76c 033e 026d e53f
00000300: 3d2f a5bf b501 e2bf 8941 89bf f835 9dbf
00000310: b896 ca3e 7ec8 0abf 13c0 86be e69f 9d3f
00000320: 6a32 10bc ece5 97bf a5ab e1be c25a aa3f
00000330: f5a4 123f d80d 9a3e 35f2 ce3e 61e0 3b3f
00000340: 10d5 b8bf bfd1 babe 6963 7c3f e3f2 06bf
00000350: 69ef 51bf 4b08 903e c446 df3e 2db9 25bf
00000360: 50f8 663e a1a8 f3be bdbd 133f d2a4 9e3e
00000370: 6230 913f 7748 d13f 8be2 07bf 12a8 e0be
00000380: a124 bbbe 0994 04bf 6956 b3bf 22e8 943e
00000390: 8ad5 4b3f b117 f4bf d1e5 a9bd 2868 96be
000003a0: e52b a43f ec36 0bbe 3e66 24be e6da 91bf
000003b0: 4b43 583f 35f2 c8be d6df 26bf b616 94bf
000003c0: 0f00 923f b865 82be 5b5a 1ebf d9a0 b2be
000003d0: 9114 0c40 f6c6 26bf 6b9d 89bf 7473 6bbe
000003e0: 0508 4b3f 307e 943f b346 03c0 3339 de3e
000003f0: a2e3 e53e 14a7 69be e4ba adbf 3b32 6a3f
0.0 0.0 0.0 0.0 0.0 0.0 0.0 0.0
0.0 0.0 0.0 0.0 0.0 0.0 0.0 0.0
1.2191432 -0.07346526 0.9627018 -1.3615096 1.2556115 0.35252362 0.6886261 -0.004943861
-0.5926639 0.21335997 -1.2159338 0.71459603 -1.6623306 0.012708001 -1.7323154 -1.4730161
0.5187869 -0.7423468 0.04351592 -0.051653955 -0.7049069 -0.81634265 0.42028078 0.738618
0.3015413 0.78042376 1.4230639 0.55351496 0.13153827 0.94871795 0.18147999 -0.6756241
-1.4004954 -0.8905631 0.96864796 -0.5460059 2.2161915 1.8672966 -0.40774557 1.0745742
0.10219558 1.7286798 -0.2762105 1.4892185 1.8641452 0.5540051 -0.023475299 2.2525742
0.53342307 0.6841823 1.0044649 -1.2263598 -0.34124297 -1.9979062 0.72582155 0.1931073
0.8517371 0.7404499 0.77150065 0.789999 -1.5621903 0.36194658 0.8190624 1.4921507
1.2135637 -0.021204516 -0.3078466 0.021018883 0.8001812 0.11661933 0.9561609 1.6372416
0.12880194 -1.7398442 -2.4634922 2.4293602 -0.054831117 0.16151775 0.9058321 0.2111219
-0.91934466 2.3860238 0.35854763 0.2987688 0.46933606 0.07770814 -0.8413004 -1.3579457
0.21175417 -0.36069465 -0.21632731 0.27281436 -1.222757 -0.9134311 -0.8157003 -0.9251098
0.63268006 0.73671645 -1.3437064 -1.2197155 -1.4808936 -1.3322365 0.21781594 -2.8279068
0.3017386 -1.3092968 0.21738724 0.8981817 -1.1540765 -0.7010667 0.10576408 -1.7775586
-0.68527037 0.88771576 -0.48554075 -0.38295212 0.6666504 1.0819098 0.07310129 1.704994
-0.3583358 0.4100774 -1.2066752 0.07147774 -0.94811445 -0.7473682 -1.0155075 0.14562815
1.0703868 0.2806304 -0.5764923 -0.6725232 0.23622647 -1.6996462 1.1348083 -1.030699
1.047851 1.7639225 -0.68337154 -0.9590356 -0.0086379815 0.6191744 -1.5718303 -0.0074892794
-0.447852 0.5533554 -1.2170849 0.38560605 -1.1685611 0.6223719 0.49585304 2.2346418
1.3844129 0.34156442 0.7301672 0.8316224 -0.5531061 -0.36617562 -0.8921503 -1.6883614
0.11154877 -1.4326141 -1.3326335 -0.24139324 -0.39069512 -1.8588432 0.5606659 -0.88226634
-1.687527 0.28905356 -1.0229164 0.96775347 0.5504008 2.0309098 0.12834464 1.7923892
-1.2905041 -1.7656771 -1.0723125 -1.2282095 0.39568114 -0.54212177 -0.26318416 1.2314422
-0.008801082 -1.1867042 -0.44076267 1.3308947 0.57282954 0.30088687 0.40419164 0.7338925
-1.4440022 -0.3648815 0.9858919 -0.52714366 -0.82005936 0.28131327 0.43608677 -0.6473568
0.22555661 -0.4758959 0.5771139 0.30985123 1.134289 1.635024 -0.5308005 -0.43878227
-0.36551383 -0.51788384 -1.4010745 0.29083353 0.7962271 -1.906973 -0.08295787 -0.2937634
1.2825896 -0.1359517 -0.16054627 -1.1394928 0.8447768 -0.3924729 -0.65185297 -1.1569431
1.1406268 -0.2546823 -0.6185662 -0.34888342 2.1887553 -0.6514734 -1.0751165 -0.2299326
0.7930911 1.1601009 -2.0511901 0.43403015 0.44900233 -0.22817641 -1.357266 0.91482896

rnn.weight_ih_l0 f4 [32, 16]
00000000: 481c 1c3e c8c6 acbd b8b7 33be 8785 5fbd
00000010: a2f6 d6bd 6028 233c 4fbf 663d 15f2 18be
00000020: f267 c13d f4f9 dbb9 e90e a43d be5d 153e
00000030: 0229 11be 3d92 0ebe 55d6 1cbc 0cf8 083e
00000040: 9cbe 07be 9b08 dbbd a2b6 acbd 4581 463d
00000050: 6833 183c a212 78bd 0b95 27bd 2fbe d63d
00000060: d60f 953c 0b8e 483c bcfd 283e 02e3 363e
00000070: 671f e83c 407c 31bd 22e4 6d3d 32d0 0a3d
00000080: 825f c3bc df61 0e3d 57b4 1b3e 0967 cdbd
00000090: f2f0 efbd 8da4 963d 03b7 c4bd 1a68 e6bd
000000a0: 6cb4 f5bd 6eaa 573d 6de5 4f3d 383a ac3b
000000b0: e07b 13bd 0489 9d3d 4bfb 43bc 0e4a a33d
000000c0: 348e 753d d689 303d 5ef5 30bc b61b 423d
000000d0: bfdf 68bd 548e 313c bdf6 02bd 9f33 193e
000000e0: fb09 1d3d cf48 2d3d 435c c53b 879a b73d
000000f0: 8cc5 153e a617 283e d0a7 273e 7e54 1c3e
00000100: eee4 ba3d dee4 2f3e d6e5 36be 4268 243e
00000110: 1355 8c3d e269 16be 4565 f8bc aa83 e4bc
00000120: c63f 10bd ff80 10be ca4d af3d b048 893d
00000130: a35b 77bd aa80 193e 6d6c 52bc a2d8 7d3c
00000140: 9886 b7bd 6819 0f3e da48 c7bd 1124 23be
00000150: 14c3 a8bd 6870 363e 6c70 b2bd 33c2 d2bd
00000160: 8f12 423c 4cbb 0e3b 8230 b63c 82b2 0d3e
00000170: f032 33bd bd2b a7bd c194 4bbd d4eb c83d
00000180: 4744 ac3c 475f f33d 955a f23d d380 133e
00000190: 0314 be3d cfd9 c0bd 2b64 143e 7282 343e
000001a0: 9728 fc3d 4935 cb3d a9ab 00be 3c0e edbd
000001b0: e64e 023e 80d6 c93d f64b 0d3e 384f 093e
000001c0: d0cb 8b3c b0b4 c2bd 8946 ff3a 9408 2cbe
000001d0: 3134 2fbe a6a9 ef3c 7f3e 323e 7f53 b73b
000001e0: 6a2e f2bd ecc5 b8bd f01b f0bd 5c16 c23d
000001f0: f59a f8bc 6c67 21be 1d64 f6bd d680 023e
00000200: c11d 733c 5326 173b bf64 e93d af28 cdbd
00000210: e289 9fbc 5097 11be 9e95 87bd 9f9f cd3d
00000220: 2d23 0dbd 624c 4f3d c447 e03d d85b 763d
00000230: b520 1d3d bd5c 0fbb 89ec 003d 396c fe3d
00000240: 5e8b 423b 19cd 8e3d ba56 653d 14c1 5c3d
00000250: b38d 44be 41af e43d be31 80bd 17aa 153e
00000260: 1cd1 13be 05c4 59bd 34a6 25be df3a 94bd
00000270: 2994 233d 6a11 c6bd efeb 3e3d 924a 0f3e
00000280: 291b dabd be6c 93bd b09f 1f3e 7819 2abe
00000290: bcef 0fbe 16cc fdbd 8bf8 bcbc ccfd 263d
000002a0: 57a9 74bd ab51 44bd 2f4a 0c3e 33a0 1dbe
000002b0: 9954 b93d 796d 6e3d 9ad4 10be 6db2 873c
000002c0: edf8 d8bd d75a e8bc ccc5 afbd 5864 8e3d
000002d0: 493b bb3a b202 b8bc 0e4e 2e3e 0a92 9d3d
000002e0: 60fd 83bc 7557 0cbe 9138 0fbe 93c5 b4bd
000002f0: 1821 71bc cda4 023d 35e5 d638 47ac 2cbd
00000300: 55c0 03be 5d9b b23d dba2 083e 94ba b9bd
00000310: c275 7dbd efdb 05bc eaa2 133e dc45 7e3d
00000320: 2664 2dbe b4ad 3fbe 7ead 1d3e 9348 d23d
00000330: 0555 23be d35a 283d 8ea1 72bd 0159 3a3d
00000340: 42c2 8abd 348e fc3d 8125 c2bd 9f64 89bd
00000350: d8d6 f8bd 580b 193d 1a24 b73d 7f6a 88bc
00000360: c475 f5bd d711 d03d 898a c5bd 0b82 11be
00000370: d801 1a3c 32ef e83d f43e aabd 73b2 0d3d
00000380: d98b 1dbd c1bb 6e3d 5eb6 6abd ac1c c63d
00000390: 8978 8b3d f61f 253e 66e4 17be 75e5 fa3c
000003a0: 04bf 2d3d 015e b0bc 547e 56bd adde 563d
000003b0: 3795 8cbd 79c8 54bd d598 1cbd ef94 603d
000003c0: 32ad 423d 433a 133e f4a0 4ebd 9e60 6d3d
000003d0: 1b09 3abc 56b8 233c e7f9 15be dd0e 13be
000003e0: e11a 2cbb 4c31 f83d 9a27 073d 2243 5dbd
000003f0: 4914 dd3d 4bf1 27bd 5ffe 20be a832 403c
0.15245163 -0.08436352 -0.17550552 -0.0545707 -0.1049626 0.009958357 0.05633479 -0.14936097
0.09443654 -0.00041957165 0.080106564 0.14586541 -0.141758 -0.13922973 -0.009572585 0.13375872
-0.13256305 -0.10695001 -0.08433272 0.048463125 0.0092896 -0.060564645 -0.040913623 0.104854934
0.018196028 0.012240897 0.16503042 0.17860034 0.028335286 -0.043331385 0.058078893 0.033889957
-0.023849253 0.034761306 0.15205513 -0.10029418 -0.117158785 0.07355604 -0.09605219 -0.112503245
-0.11997303 0.05265277 0.050755907 0.0052559637 -0.03600681 0.07692149 -0.011961768 0.07973109
0.05995007 0.0431002 -0.010800688 0.04738971 -0.056854006 0.010837156 -0.03197359 0.14961098
0.038339596 0.042305764 0.0060229613 0.089650206 0.1462614 0.16415271 0.16372609 0.15266606
0.09125696 0.1717715 -0.17861113 0.16055396 0.06852164 -0.14688829 -0.030321727 -0.027894814
-0.03521707 -0.14111708 0.08559759 0.06703317 -0.060390126 0.14990488 -0.0128432335 0.015493544
-0.089612186 0.13974535 -0.09730692 -0.15931727 -0.08240333 0.17816317 -0.08712849 -0.10290947
0.011845245 0.0021779118 0.022239927 0.13837627 -0.04374975 -0.08162639 -0.04970241 0.09810606
0.02102865 0.11883407 0.118336834 0.14404611 0.09281161 -0.09416544 0.14491336 0.17627886
0.123124294 0.09922273 -0.12565483 -0.115749806 0.1272541 0.09855366 0.13798508 0.13409126
0.017064959 -0.0950712 0.0019475977 -0.16800147 -0.17109753 0.0292557 0.17406653 0.0055946703
-0.11825259 -0.090221256 -0.11724079 0.09476921 -0.030347327 -0.15762109 -0.12030814 0.1274446
0.014838637 0.0023063614 0.11396169 -0.100175254 -0.019474927 -0.14217877 -0.06620334 0.10040211
-0.034457374 0.050609954 0.10951188 0.060146183 0.03836127 -0.0021875345 0.031475578 0.124229856
0.002968512 0.06972713 0.055990912 0.05389507 -0.19194679 0.111662395 -0.062594876 0.14615665
-0.14435238 -0.053165454 -0.16176683 -0.07237791 0.03993622 -0.0967129 0.046611723 0.1399329
-0.10649712 -0.07198475 0.1558826 -0.16611278 -0.14056295 -0.12392442 -0.023067733 0.040769383
-0.059731808 -0.047929447 0.13700174 -0.15393142 0.09049339 0.05820987 -0.14143601 0.016564572
-0.10594354 -0.028363628 -0.08582649 0.06952733 0.0014284636 -0.022462223 0.17021963 0.0769387
-0.01611203 -0.13705237 -0.13986422 -0.08826747 -0.014717363 0.031895448 0.00010247008 -0.042156484
-0.12866338 0.087210394 0.13343374 -0.0906879 -0.06187988 -0.008170112 0.14417616 0.06207834
-0.16932735 -0.18718606 0.15398213 0.10267749 -0.15950401 0.04110224 -0.0592361 0.045495037
-0.06775333 0.123318106 -0.094798096 -0.06708645 -0.12150353 0.037364334 0.08942433 -0.016652344
-0.11985353 0.10159653 -0.09645564 -0.14209764 0.009399854 0.11373748 -0.083127886 0.03459401
-0.038463447 0.058284525 -0.057302825 0.096734375 0.068101 0.16125473 -0.14833221 0.030626992
0.042418495 -0.0215292 -0.05236657 0.052458454 -0.06864398 -0.051948998 -0.03823169 0.054829534
0.047528453 0.14377694 -0.050446466 0.05795347 -0.01135471 0.00999268 -0.14646111 -0.14361139
-0.0026261138 0.12118778 0.03299675 -0.0540191 0.10794885 -0.0410016 -0.15722035 0.011730827

rnn.weight_hh_l0 f4 [32, 32]
00000000: c494 d9bd 9861 153e 8c2d ffbd decd 873d
00000010: b56c e43d 6526 eabd 8b24 83bd 3d9d f7bd
00000020: bf9d 93bd 8da3 623d aa08 e9bd fa33 0a3e
00000030: d497 c33d 6a9b 423d 820f 343e faa1 5a3d
00000040: 6eee ebbd 1e11 06be 16c3 6ebb 8e76 49bd
00000050: 0850 ba3c 837a cd3d ec2f d0bd 328d 0d3e
00000060: 8610 3d3d d3b5 d2bd d605 e23d 312f aabd
00000070: 908c 2dbe cbb5 02be 5bba e83b 69d0 e7bd
00000080: 9246 333b 1551 e83d bc63 173e 7b16 fe3c
00000090: 70dd 253d 1eff d83d 08bb 97bc 62e6 b7bd
000000a0: 1931 cc3d 442f 24bd 52c8 11bd 0930 123e
000000b0: a516 8d3d d996 f5bd 4533 33be de46 6ebd
000000c0: 31cf adbc 5835 f2bd dd72 6d3d c536 1e3d
000000d0: f886 dfbc 188c 00bd e0f9 5b3d c6cc 2a3e
000000e0: 08c8 c13d 5950 c03d cb97 c33c edf7 5a3d
000000f0: 2f5d c93c 1846 523d a1a3 30be b0f4 abbd
00000100: 089c 07bd c6ab a7bd c6e9 01be 30c0 323e
00000110: ee2e 6bbc 813b 323d 9fb8 47bd 490a 33be
00000120: 9261 153e 0e1c d8bd db35 ebbd f62c 133e
00000130: e9a2 243e c80a 22be 2e59 313d 4982 ccbd
00000140: 7075 11be 6166 24bc 73e7 16bd c837 2abe
00000150: 2817 993b e477 8ebd ed2a 293e 729c 093e
00000160: 9934 063e 2628 003e 3058 b1bd 9aa1 9abd
00000170: 836e fd3c dba0 1bbd cb9a 0dbe 5a31 f9bd
00000180: 12cb fbbd ba3f 783c 48f7 2cbe 533c 783c
00000190: 38d8 ec3c 8fb2 1bbd 0485 123e efb0 3dbd
000001a0: ccf0 753d bc86 03be ff04 9abd c7cd 8dbd
000001b0: 74e5 db3a d7be 23be 198c 18be 224e 6c3c
000001c0: 1349 8dbd 238e 063e 26a8 303c d1a5 1c3e
000001d0: 240a 20be 0409 0cbd e083 0a3e 8873 cb3c
000001e0: 2eff 06be 82fb a03b 5778 4dbd f654 11be
000001f0: 180c 233e f37b cc3a 7d78 dd3d 01f0 00be
00000200: 18cb 3f3d e38a 65bc 15b2 04be f8b7 213e
00000210: c61e ae3d 4f3c d3bd 3ef8 d1bd 67da 0fbe
00000220: 8c0f 04be c40e 083e 032d 953d 7fb3 023c
00000230: 1ed4 233e c3f4 4e3d 3b76 fc3d 3a80 193e
00000240: d204 073e 9092 153e c6d3 223e c011 183e
00000250: 7190 3a3c 137d f2bd 736c 26bd 204a 263e
00000260: e684 273e 5821 2e3e c5db 6c3d a38f d73d
00000270: 01d5 293e fa16 b5bc 9be8 313e a1fb adbd
00000280: 2e01 143d 5db8 29be 8c0e 373d bf13 0a3c
00000290: 881f f93d 4483 073d 7e73 243e 5409 d93d
000002a0: 4a9a 903c 7315 93bd 06c9 33bd fafb edbd
000002b0: d5bb ef3d ed91 2c3e 6175 0cbe 99e7 c3bb
000002c0: 850c 2ebe d6c1 0e3d 48fa 0fbd e8d1 03be
000002d0: 1f84 1ebe c974 e6bc bb8b d73d 182a 2abe
000002e0: 22e3 3ebd d80a fa3d 7b59 1abe 5a5b 7ebd
000002f0: b623 f73c d5cb b83d 9346 2abe 50ac bbbd
00000300: 5a52 0a3e b2fc 213c cd05 ce3d e976 973d
00000310: 13e8 e53d dfdb 0c3e f670 21bd a9a1 3b3c
00000320: da4a 253e c068 243e 62fc 093c 87cc f53d
00000330: b962 0a3e 63fc a0bd e4a9 70ba f185 c43d
00000340: 9415 083e 87ae 2fbd 321c 383e 5acb 13be
00000350: dce8 263e 78d1 b03d 71a8 9dbc f0ed 0ebe
00000360: 72e0 9f3d b221 9dbc 7a04 cbbd 18f9 19be
00000370: aec3 203e 2671 943d 0d65 d93d c47e e53d
00000380: a313 19be 0bf1 68bd 6f55 063e 56e8 cbbd
00000390: 9155 cfbd 3f71 26be 87f1 6abc e67a b53d
000003a0: 43d7 24be 945b 043d 7d21 ee3d 5298 213e
000003b0: d98d 15be ee90 e03b 4bc6 d63d 2363 4ebc
000003c0: 56d0 053e 6a2d 30bd 08ed 04be a445 033c
000003d0: ea0f fc3d 18f6 c5bd 6ef2 e5bd a5ee 17be
000003e0: 0807 4bbd e1be 123e b231 a13d 59f5 aebd
000003f0: 506b bd3c 5bfe 1fbe 15cc e4bd f7fa 393c
-0.10624078 0.1458801 -0.12459859 0.06631063 0.11153547 -0.114331044 -0.064034544 -0.12090538
-0.07207822 0.055331755 -0.11378606 0.1349639 0.09550443 0.047511496 0.17584041 0.05337713
-0.11520086 -0.13092467 -0.0036432198 -0.04918533 0.02274324 0.10033133 -0.1016539 0.13823393
0.046158336 -0.102885865 0.11036269 -0.08309782 -0.16948152 -0.12764661 0.0071022934 -0.11319048
0.0027355296 0.1134359 0.1478414 0.031016579 0.040494382 0.10595535 -0.0185218 -0.08979489
0.09970302 -0.04008414 -0.03559143 0.14276136 0.06889085 -0.119916625 -0.17500027 -0.058173053
-0.02121696 -0.11826581 0.05797087 0.03862645 -0.027286038 -0.031383604 0.053705096 0.16679677
0.09461981 0.09390325 0.023876091 0.053459097 0.024580566 0.051336378 -0.1724992 -0.0839628
-0.033107787 -0.0818706 -0.12686834 0.17456126 -0.014354451 0.04351378 -0.048760053 -0.17484392
0.14588001 -0.10552226 -0.114848815 0.1437262 0.1607777 -0.15824425 0.04329794 -0.099857874
-0.14204955 -0.010034175 -0.03684182 -0.16622841 0.00467195 -0.06956461 0.16520281 0.13438585
0.13106002 0.12515315 -0.086593986 -0.07550354 0.030936485 -0.0379952 -0.1382858 -0.12167616
-0.12294592 0.015151912 -0.16891205 0.015151101 0.028911695 -0.038012084 0.14308554 -0.046311315
0.060044095 -0.12844366 -0.07520484 -0.069240145 0.0016776756 -0.15990768 -0.14897193 0.014422925
-0.068987034 0.13140158 0.010782277 0.15297629 -0.15628868 -0.034188285 0.13526869 0.024835363
-0.13183281 0.0049127946 -0.050163593 -0.14192566 0.15922582 0.0015600905 0.10813997 -0.12591554
0.046824545 -0.014010164 -0.12958558 0.15792835 0.08501963 -0.10314237 -0.102524266 -0.14048158
-0.12896556 0.13286883 0.07283976 0.0079773655 0.15998885 0.05052639 0.12327238 0.14990321
0.13185433 0.1460669 0.15901098 0.14850521 0.011386977 -0.11840262 -0.04063077 0.16239214
0.1635929 0.17004907 0.057826776 0.105254434 0.16585161 -0.022105683 0.17373888 -0.0849526
0.036133938 -0.16574235 0.044691607 0.008427559 0.12164217 0.03308417 0.16059682 0.10597482
0.017651696 -0.071818255 -0.043892883 -0.11620326 0.11705748 0.16852541 -0.13716651 -0.0059785363
-0.16996963 0.034852825 -0.035150796 -0.12873042 -0.15480088 -0.02813186 0.10524698 -0.1661762
-0.04660333 0.122090995 -0.15073197 -0.06209884 0.030168395 0.09023253 -0.16628484 -0.091637254
0.13507977 0.009886907 0.100597 0.07395727 0.11225905 0.13755749 -0.03941437 0.011452117
0.16141835 0.16055584 0.008421989 0.12001901 0.13514222 -0.07860639 -0.0009180589 0.0959586
0.13289481 -0.04289105 0.17979506 -0.14433041 0.16299766 0.08633703 -0.019245358 -0.13957953
0.078064814 -0.019181106 -0.09912963 -0.15036428 0.15699646 0.07248144 0.10614977 0.11205819
-0.14948897 -0.0568705 0.13118528 -0.09956424 -0.10123742 -0.16254137 -0.014339811 0.08861332
-0.16097741 0.0323139 0.11627481 0.15780762 -0.14604892 0.0068532145 0.1048704 -0.012596878
0.13067755 -0.04301206 -0.12981045 0.008012209 0.12307723 -0.09666079 -0.112278804 -0.1483713
-0.049567252 0.14330627 0.07870807 -0.0854289 0.02312246 -0.15624373 -0.11171738 0.011351339

rnn.bias_ih_l0 f4 [32]
00000000: 03d0 9cbd 8e50 233c 6c3e e2bd 15d6 233e
00000010: 5e23 b0bc ed71 28be 117f c23d 4e00 97bd
00000020: 70cd 3d3e f4e3 ce39 053a 52bd 5c7f bf3c
00000030: 6d87 e5bd be98 083d c843 acbd 2898 d83c
00000040: 058f 123e 1025 df3c 9332 093e 2187 2bbe
00000050: 5592 fb3d 81ca 4d3d 7035 27bd 242f 2dbe
00000060: 4d40 03be 82f6 8d3d ec0e 4bbc 5af1 1e3e
00000070: 08ed 6c3d 90c8 d4bb e44a aebd 5649 1c3e
-0.076568626 0.009967936 -0.11047062 0.15999635 -0.02150124 -0.16449709 0.09496892 -0.07373105
0.185354 0.0003946122 -0.051324863 0.02337616 -0.11207471 0.03334879 -0.08411366 0.026439741
0.1431237 0.027239352 0.13398199 -0.16750766 0.1228377 0.05024195 -0.040822446 -0.16912514
-0.12817498 0.06931783 -0.012393694 0.15521756 0.057843238 -0.0064936355 -0.08510378 0.1526235

rnn.bias_hh_l0 f4 [32]
00000000: 05b8 b0bd 9cb8 9b3c 2bec 89bd c3b3 ccb8
00000010: 33fa b73c e3c1 8ebd f1dc e13d 9978 75bd
00000020: 166b b0bd 0d0b 10bd 0354 f0bd ce74 623c
00000030: 08e3 ac3d 8994 ca3d 0759 02bd b357 1a3e
00000040: b71d 1fbe ca47 e93d 27fb 073e 702a 143e
00000050: 2561 c13d f482 4f3d 48cb bebd 362d 153e
00000060: a9d3 ac3c e54a 073e 88bb e3bd 9846 223e
00000070: 3a4c 1bbd 1842 0f3e 2b45 cfbd 4ae0 273e
-0.08628849 0.019008927 -0.067344986 -9.760961e-05 0.022458171 -0.06970575 0.11028469 -0.059929464
-0.08614175 -0.03516679 -0.11734774 0.013821794 0.0844174 0.09891612 -0.031823184 0.15072517
-0.15538679 0.11390646 0.13279401 0.14469314 0.09442357 0.050661996 -0.093161166 0.14568028
0.021097021 0.13212164 -0.11119753 0.15847242 -0.037914492 0.13990057 -0.101206146 0.16394153

classifier.weight f4 [2, 32]
00000000: ebbc cabd a6ee f83d 985f 333e 4256 febc
00000010: 1bff 9b3c 5ee8 5b3e 972e d83d 8ed7 a3bd
00000020: 7825 02be cfeb 2b3c bd31 84bd f41e b83d
00000030: 353c 503d 3e60 5ebd e857 b23c a819 86bc
00000040: 40f2 cfbd 402a 893d c37d 81bd c512 0bbe
00000050: dcda c03d 6e30 623d d3ac 50bb ba3f a2bd
00000060: 6c7d 803d 7f0a 093e e75c 153e bb4b f33d
00000070: d3fd 093e 28e0 ac3d e2f2 013e 1419 433e
00000080: 8e92 cdbd 1798 aa3d f449 633a 851f 52be
00000090: 8fae 4d3e 88e2 22be 7760 26be b1fd 033d
000000a0: b13a 57be d460 f33d 25f8 1d3e 6f68 aebd
000000b0: f7b3 363e 4586 953c 7d1a 85bd 0785 9d3d
000000c0: cf11 e0bd 80b4 793c 1461 2abe d5e9 2c3e
000000d0: 7db6 5ebe 44bb 6ebd 222f e8bd c14b 183e
000000e0: 6b8b 74be 980f 70be 8d9a 68bd 767d c83d
000000f0: 4ca5 22be 8ee0 083d 57d4 bdbd d477 05be
-0.098993145 0.121548936 0.17516935 -0.03104699 0.019042542 0.2147536 0.10555761 -0.08000098
-0.12709606 0.010493233 -0.06454799 0.08990279 0.050838668 -0.054291002 0.021770433 -0.016369656
-0.101536274 0.06697512 -0.06322815 -0.13581379 0.09416744 0.055221967 -0.0031841293 -0.07922311
0.06273922 0.1338291 0.1458622 0.11879679 0.13475733 0.08441192 0.12690309 0.19052535
-0.10037719 0.0832979 0.00086703827 -0.20519836 0.2008612 -0.15906727 -0.16247736 0.03222436
-0.21018483 0.11883703 0.15426691 -0.08516013 0.17842089 0.018252501 -0.06499193 0.076913886
-0.10940897 0.015240788 -0.16638595 0.16886075 -0.21749301 -0.05828406 -0.11337115 0.14872648
-0.23881309 -0.23443449 -0.056788016 0.09789555 -0.15883368 0.033417277 -0.09269016 -0.13033992

classifier.bias f4 [2]
00000000: c10a 0c3c 76ef 57be
0.008547486 -0.21087441
