save/3-3_rnn_sp_80.pt (torch, 14729 bytes, 7 tensors)

emb_layer.weight f4 [80, 16]
000000 00 00 00 00 00 00 00 00 00 00 00 00 00 00 00 00
       0.0 0.0 0.0 0.0
000010 00 00 00 00 00 00 00 00 00 00 00 00 00 00 00 00
       0.0 0.0 0.0 0.0
000020 00 00 00 00 00 00 00 00 00 00 00 00 00 00 00 00
       0.0 0.0 0.0 0.0
000030 00 00 00 00 00 00 00 00 00 00 00 00 00 00 00 00
       0.0 0.0 0.0 0.0
000040 51 bb e9 3f 37 16 53 3f af 45 43 be 1f 9a 9a 3f
       1.826029 0.8245577 -0.19069551 1.2078284
000050 3c 02 10 3f d2 98 da be 78 10 80 3f f6 e6 fb be
       0.5625341 -0.42694718 1.0005026 -0.49199647
000060 e5 13 92 bf bb a0 96 3f 77 06 c9 be c7 4f ec be
       -1.1412321 1.1767801 -0.39262745 -0.46154615
000070 ec ae 85 3e 8c 62 1e bf 03 aa eb bd f9 70 38 be
       0.26110017 -0.6186912 -0.115070365 -0.18011846
000080 a9 ca 49 be 3d f3 2f 3f 3d 32 14 40 9b 5d a5 be
       -0.19706215 0.6873053 2.3155663 -0.32297978
000090 4b 60 86 bf 7d eb 1d bf 2c 7a 49 be 1a 33 e1 bb
       -1.0498136 -0.6168745 -0.19675511 -0.006872547
0000a0 29 bd 0e 3d f1 d9 8f 3f ee 58 14 40 4c ef f3 3d
       0.034848366 1.1238385 2.3179278 0.11910877
0000b0 ca 5b bf bf 3d 62 a8 3f 61 fc 4d 3f 44 32 a2 bf
       -1.4949887 1.315498 0.80463225 -1.267159
0000c0 43 bb 99 3f ba fb 8f 3f 73 17 55 bf 6d b0 08 3e
       1.2010273 1.1248696 -0.83238906 0.13348551
0000d0 9c 9f 4c 3e f9 5b 70 bf f5 28 6e 3f a1 95 de 3e
       0.19982761 -0.9389034 0.93031245 0.43473533
0000e0 37 84 26 3f e8 5f bc bf 1d a7 30 bf c7 48 a3 3f
       0.65045494 -1.4716768 -0.69004995 1.2756585
0000f0 d0 d6 45 bf 4e 11 0f bf 9c dc dd 3e 6f a4 f0 bf
       -0.772809 -0.5588578 0.43332374 -1.8800181
000100 d8 58 c4 3d 2d 6b 81 3f 3b 40 0d 3e f6 4a 26 3f
       0.09587258 1.0110832 0.13794033 0.6495813
000110 2d dd 26 3e 4a 1d 91 3f 28 f9 da 3e 90 d3 8c bf
       0.1629531 1.1337063 0.42768216 -1.1002064
000120 7c ad 64 3d 7f 8a 25 3f 53 34 df 3f b3 61 18 3e
       0.05582951 0.64664453 1.7437843 0.1488102
000130 1a e4 80 3f a1 d8 da be 63 3d 3b c0 d1 66 81 be
       1.0069611 -0.427434 -2.9256217 -0.25273755
000140 c4 80 ae bf c0 fd 9c 3f 59 10 fe ba 24 ed f1 3e
       -1.3633046 1.2264938 -0.0019383534 0.47251236
000150 8a 6d 90 bc d1 b4 42 bf 30 4d 50 3f 62 d2 b7 bf
       -0.017630357 -0.76057154 0.8136778 -1.4361079
000160 22 76 20 bf 89 87 b7 3e 25 24 29 be 32 12 a4 bf
       -0.62680256 0.35845593 -0.16517694 -1.2818053
000170 dd 81 df 3f 4d dd 44 3e 60 54 4f 3e 63 58 f9 3f
       1.7461506 0.19225045 0.2024703 1.9480098
000180 85 4f 95 bf 7b 24 17 40 9a 4e 9f be b8 c3 f2 3f
       -1.1664892 2.3616016 -0.31114656 1.8965979
000190 02 a7 12 bf 9c c1 06 3f 5d 07 1a bf 5e cb d0 bf
       -0.57286084 0.52639174 -0.60167485 -1.6312063
0001a0 27 a7 e6 3e db 83 1a bf d0 c1 aa 3f 0f 86 f6 3c
       0.45049402 -0.60357445 1.3340397 0.030093221
0001b0 ce 46 c1 3f 83 da 57 bf 93 4b 47 bc c1 ef c4 3e
       1.5099733 -0.843178 -0.012164014 0.38464168
0001c0 3f 34 08 be 17 4b ad 3c 34 a8 cc 3d 0e c9 33 3d
       -0.1330118 0.02115397 0.0999302 0.043892913
0001d0 29 0c 9c 3f 33 d5 a3 be 72 f3 1f 3d 9b 9c 39 3f
       1.2191211 -0.31998596 0.039050527 0.72504586
0001e0 13 09 10 3f 03 94 55 3f bd 6e 22 3d 12 11 66 3f
       0.56263846 0.8342897 0.03965639 0.898698
0001f0 99 7b d0 be f3 1e 71 bf 91 75 84 bf 0b 73 96 3e
       -0.40719298 -0.9418785 -1.0348378 0.29384646
000200 c1 63 ae 3e 6d c2 b3 be bc 46 13 bf 17 32 06 3f
       0.3406048 -0.35109273 -0.5752981 0.5242018
000210 e2 e7 29 bc b3 9d 4e bf c0 f0 41 bd b9 7b 48 3f
       -0.010370227 -0.8070938 -0.047348738 0.78313786
000220 94 49 8b bf 06 b7 e3 bf 3a fe e2 be 60 6f 91 3f
       -1.0881829 -1.7790229 -0.44334584 1.1362114
000230 a4 77 01 40 e1 d8 3f 40 17 de 00 40 9f ef ee 3f
       2.0229273 2.9976122 2.0135553 1.8666877
000240 f6 ee 53 be 3e 25 dc 3e 58 87 c5 be 1a 39 21 3f
       -0.20696625 0.42997164 -0.38579822 0.62977755
000250 83 1d 7c 3f 55 32 ff 3f 01 d6 af be 38 00 0e 3e
       0.9848253 1.9937235 -0.3434296 0.13867271
000260 91 ac 08 be dd de 04 bf 3b 39 ca bf dd eb 6f be
       -0.13347079 -0.5190256 -1.5798715 -0.23429818
000270 a7 91 4c 3e d5 ce 1a be ab dc 0d be 72 e7 b1 be
       0.19977437 -0.15117963 -0.1385371 -0.3474689
000280 93 11 b3 3f 2b 64 a6 3f 64 5e eb bf ab ba 50 bf
       1.3989738 1.2999319 -1.8388181 -0.8153483
000290 8b 3c 0a 3f 68 80 9e bf ce 9c e3 3e c3 51 18 3f
       0.5399863 -1.2382936 0.4445557 0.5949976
0002a0 0e 17 2a 3f 66 23 da 3c 94 01 c6 bf 39 b6 3c 3e
       0.6644143 0.026628207 -1.5469232 0.18428887
0002b0 20 44 c3 be aa 6d 24 bf 4a dc 48 bf e0 2b a2 3f
       -0.38137913 -0.64229834 -0.78461134 1.266964
0002c0 09 30 e3 3f 97 a0 73 bf b0 ed 19 bf e7 28 a2 3e
       1.7749034 -0.95166916 -0.6012831 0.3167183
0002d0 fe 95 42 bf c3 8f 80 bc 36 66 a6 bf ce 6b 50 be
       -0.7601012 -0.01569355 -1.2999942 -0.20353624
0002e0 fe fb 82 3f 55 12 ca 3d d6 28 04 bf 0d 92 82 bf
       1.0233152 0.09866778 -0.5162481 -1.0200821
0002f0 2b 7c 56 3f e9 95 2a bf 7c f0 ab bf eb 7d 90 bf
       0.83783215 -0.66634995 -1.3432765 -1.1288427
000300 9a de ad 3f 92 73 60 bf e9 93 db be 3c 8f c6 bf
       1.3583558 -0.87676346 -0.42886284 -1.5512462
000310 d4 17 7f bf d2 a6 f9 3e 45 f4 8d 3f 34 81 b4 bf
       -0.99645734 0.48760086 1.109017 -1.410193
000320 b5 af b9 3f 1a ba b8 be fb 3d 54 be 0e 3e 69 bf
       1.4506747 -0.36079484 -0.20726769 -0.9111031
000330 bc 44 81 bf 6e f6 96 3e 00 bc f2 bf ca a1 22 3e
       -1.0099101 0.29484886 -1.8963623 0.1588203
000340 0f b3 cd 3f 77 34 8e bf 37 b3 ac bd 4a 08 f0 bd
       1.6070269 -1.1109761 -0.0843262 -0.11720331
000350 da d4 3f 3f 5e a6 c3 3f b6 6b a3 3e 23 76 4c be
       0.7493416 1.5285146 0.31918114 -0.1996694
000360 da 40 1c 3f 17 70 33 3f 27 b1 8a bf 00 95 d1 3f
       0.61036456 0.7009291 -1.0835313 1.6373596
000370 24 6e 01 3f 74 b8 a0 3f 4e e6 bb 3f f2 f7 16 c0
       0.50558686 1.2556291 1.4679658 -2.3588834
000380 ff 9b a5 bb e1 92 bf 3f b7 77 b4 bf ab e0 33 3f
       -0.0050539966 1.4966699 -1.4099034 0.7026469
000390 3f d0 37 3f 3f 2f 89 bf 3b 6e 92 be f2 c9 8e 3f
       0.71802133 -1.0717543 -0.28599724 1.1155379
0003a0 3c c1 3d bf ea 45 95 3e 71 64 d9 3d cd 03 61 3f
       -0.7412298 0.29154903 0.10614861 0.87896425
0003b0 12 c2 b5 3f a5 31 d6 be ac 2e 07 40 a1 6b 0f bf
       1.419985 -0.4183475 2.1122236 -0.56023604
0003c0 97 5d 3d 3f 9c 38 85 3f 6c c0 0a 3f 26 c8 b8 be
       0.7397093 1.0407901 0.5419986 -0.360902
0003d0 3f 92 2c bf 4a c0 11 be ac 72 b2 3f f5 91 26 bd
       -0.67410654 -0.14233509 1.3941245 -0.04066654
0003e0 20 49 1f bf 11 74 0b 3f 6b d5 51 3e 90 5c 2f 3f
       -0.62220955 0.5447398 0.20491569 0.68500614
0003f0 ab d2 d5 bf 42 d1 fe bf ac 2f 6e 3f 0f 8f d0 3e
       -1.6704916 -1.990761 0.9304149 0.40734145

rnn.weight_ih_l0 f4 [32, 16]
000000 0b c0 20 bd 13 3d 25 3d 94 6e af bd ea d5 3c 3d
       -0.039245646 0.040341448 -0.08566013 0.04610244
000010 11 65 11 be 2b dc 02 bd 43 bc 88 bd fd f7 3a be
       -0.1419871 -0.03194825 -0.06676533 -0.18258663
000020 67 3e 38 3d 1b a8 27 3d 3b 00 16 bd b7 a7 7f 3d
       0.044981387 0.040931802 -0.036621314 0.062415805
000030 fc aa 11 be 06 52 4b 3d 30 fb 8d ba 26 00 01 ba
       -0.14225382 0.04963877 -0.0010832306 -0.00049209816
000040 21 e0 93 3c da 38 40 bd 20 b6 9c 3d 35 24 13 3e
       0.018051209 -0.046929218 0.07651925 0.1436928
000050 12 96 f3 bd a0 50 26 3e 1e c1 cd bd 1c 33 13 3d
       -0.11893858 0.16241693 -0.100466 0.035937414
000060 60 ef bf bd 8d f7 91 bd 6b bf 79 3d 57 8b 03 be
       -0.09371829 -0.07127295 0.060973566 -0.12846123
000070 53 86 e9 bd dc bd 99 3d 2f 1f a5 bd 70 0c 34 be
       -0.114025734 0.07506916 -0.080625884 -0.1758287
000080 2d 87 35 3e 53 ae a2 bd df 9a f8 3d ca 85 cf bd
       0.17727347 -0.07943406 0.12138914 -0.1013294
000090 2a ba 39 bd 3d fa ca bd 36 a4 8d 3d 1a 18 d5 bd
       -0.045343556 -0.099110104 0.069160864 -0.10404988
0000a0 02 3f 00 3c 1a 1f 29 bd dc 9b dd bd 49 5d 38 bd
       0.007827522 -0.041289426 -0.108207434 -0.04501084
0000b0 dc 92 72 3d a8 8e 2b 3e b9 49 2a 3e 0f 94 aa bc
       0.059222087 0.16753638 0.16629685 -0.020822553
0000c0 d5 e6 04 3d 70 9b 19 3e 5d 4e 56 bd c6 a1 ac 3d
       0.0324467 0.15000701 -0.052320827 0.08429293
0000d0 88 85 14 3e ad 00 ce 3d 90 81 e6 3d 5b 80 0e bd
       0.14504063 0.10058723 0.11255181 -0.034790378
0000e0 01 c2 be bd 47 22 ff 3d b8 89 d0 bd 58 fa 2c 3e
       -0.09314347 0.1245771 -0.10182518 0.16892374
0000f0 4f 61 a3 bd c6 af 91 3d 9f b8 d8 bb 98 2f 95 bd
       -0.079775445 0.07113604 -0.0066138054 -0.072844684
000100 86 43 d6 bd d1 dd 24 3e bb ef 05 3e 55 d5 3f 3e
       -0.10462098 0.16100241 0.13079731 0.18733723
000110 ed 4b 17 be 47 6c 9c bd ed b9 23 be e8 d1 b8 bd
       -0.14775057 -0.0763784 -0.15988894 -0.090244114
000120 1e 3b 7d 3d ca 68 ac bd 26 ad d3 3c d9 78 9f 3d
       0.061823957 -0.084184244 0.0258394 0.07786722
000130 61 2d ff bc 45 11 a9 3d 98 a3 0e 3d ef 31 d7 bd
       -0.031149568 0.08255247 0.034823984 -0.10507571
000140 c6 d4 1f be 5a 4b 30 be 62 6a 26 3e 90 b2 60 bd
       -0.1560851 -0.17216244 0.1625152 -0.05485779
000150 a8 3d 5d bd 88 bd 12 be 5a 09 27 3e 9e 57 09 3e
       -0.054013878 -0.14330113 0.16312161 0.1341233
000160 cf 78 08 bd bb e7 1f be 4c f0 e1 bd 6a 95 21 be
       -0.033318337 -0.15615742 -0.11032161 -0.15779653
000170 02 f0 1f 3d bb 99 81 bc c9 c4 37 bb d9 79 6f bd
       0.03904725 -0.015820375 -0.0028040877 -0.058465812
000180 20 6d ea bd 5b 79 d5 3d 2a 84 7e 3d 50 76 28 be
       -0.11446595 0.10423537 0.06213776 -0.16451383
000190 39 ce 3d 3d 98 d3 d1 3d fb 62 15 be dd ed 3d 3d
       0.046339247 0.102454364 -0.1458854 0.046369422
0001a0 29 48 2b be c6 8b 03 3e 3a b3 1a 3e 1f 19 09 be
       -0.16726746 0.12846288 0.15107432 -0.13388489
0001b0 a5 f2 29 be 49 e4 99 3d 7b 6d a8 3d c0 a0 f5 3d
       -0.16596468 0.07514245 0.08224007 0.11993551
0001c0 0f a4 e1 3d 89 74 87 bd cc a5 4c bd ce f5 40 3c
       0.1101762 -0.06614024 -0.049962804 0.011777354
0001d0 eb 62 19 bd 01 b0 03 be 90 1f f5 3d 25 c8 17 3e
       -0.03744785 -0.12860109 0.11968911 0.14822443
0001e0 39 d3 90 3d 77 33 0a be 60 2d f2 bd 02 9f 08 3e
       0.070715375 -0.13496195 -0.11825061 0.13341907
0001f0 58 8d 6c bd c6 05 21 be 3a 64 1c 3e ff 16 7b 3d
       -0.057751983 -0.15724859 0.15272608 0.061301228
000200 57 91 21 3e 73 6a b2 38 61 68 6e bd 52 08 ea 3c
       0.15778099 8.507529e-05 -0.058205012 0.02856842
000210 ee 86 84 3d c4 46 f0 bd 54 fc b0 bc 0f 8e 3f bd
       0.06471048 -0.117322475 -0.021604694 -0.046766337
000220 28 96 29 3d 89 72 46 be 82 4c 0f 3e 6e 6e 02 3c
       0.041402966 -0.19379629 0.13994029 0.007960899
000230 7a fa 1f bc bd 8f f0 bc 91 67 dc bb 76 85 00 3c
       -0.009764308 -0.029365415 -0.0067262133 0.00784432
000240 d9 9f ed 3c 5a 8b a2 bd ea 6d 69 bc 91 2a 0f 3d
       0.029006885 -0.079367355 -0.014247397 0.034952704
000250 62 13 cc bc 4c 90 47 bc 61 36 09 3d 4f 28 bd bb
       -0.024911586 -0.012180399 0.033499125 -0.0057726274
000260 37 14 0b 3b a6 c9 aa bd c5 35 87 3d d9 c8 9f 3d
       0.0021221766 -0.08339243 0.066020526 0.078019805
000270 a5 1f f8 3d 59 06 d8 bd 70 d0 65 bd 01 22 1b 3d
       0.12115411 -0.10548086 -0.056106985 0.037874226
000280 4f 9c a4 3d 7e 4d e6 bd 6c 3c 1c be 2e 60 e2 bd
       0.08037626 -0.11245249 -0.15257424 -0.11053501
000290 48 de 16 be 47 2c 19 3e af 9c 74 bd f6 f9 2b be
       -0.14733231 0.14958297 -0.059719738 -0.16794571
0002a0 fa 0c 0c 3e 96 97 83 bc c0 a3 8c bd 72 c7 22 be
       0.13676825 -0.016063493 -0.0686717 -0.15896395
0002b0 36 d2 23 3e 54 05 cb bd 16 fb d6 3b b1 28 17 3d
       0.15998158 -0.09913126 0.0065606935 0.03690404
0002c0 fe 66 24 be bd 14 12 3d a7 2d 4b bd f2 c7 96 bd
       -0.16054913 0.03566431 -0.049604084 -0.07362355
0002d0 aa 3d 74 3d 91 a4 0d bc b7 d5 17 3e 72 14 01 3e
       0.05962912 -0.008645193 0.1482762 0.12605456
0002e0 86 85 12 be fd ed 5c 3d 3f 0a ee 3d 4f 62 43 3d
       -0.14308748 0.0539379 0.11623048 0.047701176
0002f0 cc 47 bb bc 1a 41 96 bc 72 f1 10 3e 30 ad 98 bd
       -0.022861384 -0.01834159 0.14154604 -0.07454908
000300 3e c2 af 3d cf 22 09 bd 2b 0d 0f be c4 48 3b 3d
       0.08581971 -0.03348046 -0.13969867 0.04572369
000310 59 9d a8 3d 7b a1 29 be 89 70 27 3e 14 05 37 bd
       0.08233137 -0.16565506 0.16351523 -0.044682577
000320 50 6d 89 bd 10 61 3e 3e e4 92 ba 3d 92 d4 90 3c
       -0.06710303 0.18591714 0.091100484 0.017679486
000330 61 21 a4 bd b2 1f ce 3d af 09 ef 3c c8 6c 12 be
       -0.08014179 0.10064639 0.029179422 -0.14299309
000340 1d f5 e8 bc a0 69 de 3d 85 c9 04 3e 41 44 c8 bd
       -0.028437192 0.1085999 0.12967499 -0.097786434
000350 d8 1b c8 3c 93 4a ff bc d4 69 87 3d db 01 c7 3c
       0.02442734 -0.03116349 0.06611982 0.024292877
000360 2a b9 4f bd 83 d5 03 be e1 57 1d be 7f 01 7f bd
       -0.050713696 -0.12874417 -0.15365554 -0.062257286
000370 0a f2 4c bd f1 1d 33 bd 03 e2 8a bb d9 2d 11 bd
       -0.050035514 -0.043729726 -0.0042383685 -0.035444114
000380 1a 27 8a 3d 00 92 1a 3d b2 4f 1c 3e c0 05 9e bb
       0.06745739 0.037736893 0.15264776 -0.004822463
000390 57 15 f0 3d b9 c6 84 bd 50 11 fb 3d 67 ca f8 3c
       0.1172282 -0.06483216 0.122591615 0.03036995
0003a0 93 92 2c be 16 d4 4a 3b 37 c9 a1 bd 61 49 33 be
       -0.16852789 0.0030949167 -0.07899707 -0.1750846
0003b0 00 26 84 bd 8b 10 2e bd ee 53 5a bd 8a 13 05 3e
       -0.064525604 -0.042496245 -0.053302698 0.12995735
0003c0 ec e3 22 3d 7e 66 66 bc 18 b3 f2 bd 4d b4 9f 3d
       0.039768144 -0.014062522 -0.11850566 0.077980615
0003d0 f5 10 06 be 54 fe 29 3e 49 a8 12 3e b1 36 29 3a
       -0.13092406 0.16600925 0.14322008 0.0006454988
0003e0 5f d0 eb 3c e2 b6 88 3d c9 d0 03 3e 42 6f 97 bd
       0.028785883 0.06675507 0.12872614 -0.073942676
0003f0 36 f2 d0 bd e8 21 88 3d be eb 5c bc 42 f9 bb bd
       -0.10202448 0.06647092 -0.01348394 -0.091784015

rnn.weight_hh_l0 f4 [32, 32]
000000 9f 5e 66 3d 3e 3f 1a 3e bd 34 12 be 50 09 cb 3d
       0.05624258 0.15063187 -0.1427793 0.099138856
000010 4d 29 b3 bc 6c 0c 93 bd b5 34 ae bd 85 ba c1 3c
       -0.02187028 -0.07180104 -0.08506147 0.02364851
000020 f1 fa 10 be bc 60 bb bd ff 8d a8 3d 81 07 29 bc
       -0.14158227 -0.0914931 0.082302086 -0.0103167305
000030 39 07 e4 3d 2e 4b 9d bd 9d 1b f8 3d 31 af 29 be
       0.1113419 -0.07680355 0.12114642 -0.16570736
000040 0c 49 7d 3d e0 9b 8b bd 55 84 5b bd df 69 29 3e
       0.06183724 -0.0681684 -0.053593 0.16544293
000050 20 0e a7 3d 08 bf f9 3d 46 d4 00 3e c5 83 c1 bc
       0.08156991 0.121946394 0.12580976 -0.023622403
000060 d1 dc a2 3c 1b 13 7f bd d1 cc eb 3d cb 22 cd 3d
       0.019880684 -0.06227408 0.11513675 0.10016402
000070 77 07 24 be 65 35 1d bd af 15 17 3e 03 f0 20 be
       -0.16018473 -0.038381 0.14754365 -0.15716557
000080 99 f6 00 be bb 83 14 3e 58 8a f6 bd b5 4a a1 bc
       -0.1259407 0.14503376 -0.12038106 -0.019688943
000090 61 83 0b be a1 29 00 be 89 0d 2d be 9f b7 19 3d
       -0.13624336 -0.1251588 -0.16899695 0.03752863
0000a0 62 71 e0 bc f0 40 92 ba 4f 72 24 be ca 8f 2f 3e
       -0.027397815 -0.0011158269 -0.1605923 0.17144695
0000b0 12 09 f8 bc 61 06 98 bd 78 4f 07 bd 19 0e 26 be
       -0.030277763 -0.07423092 -0.03303477 -0.16216315
0000c0 e1 0b 46 bd ad 5d 34 3e fe ae 1a be 24 8e 25 be
       -0.048351172 0.1761386 -0.15105817 -0.16167504
0000d0 70 ce b6 3d f2 09 71 bd 2d 90 0c 3e bb 65 3b 3d
       0.089260936 -0.058847375 0.13726874 0.045751315
0000e0 8e 01 b4 bd f9 d3 be 3d dd e3 66 3d 8c 52 0e 3e
       -0.08789359 0.09317774 0.05636965 0.13898677
0000f0 ca ee 35 be f1 fb 8e bc 20 ca 32 be 87 77 00 3e
       -0.17766872 -0.01745412 -0.17459917 0.12545596
000100 e4 9f fa bd a5 d6 85 bd 3e 8a 5c bd b3 39 a9 bd
       -0.12237528 -0.06535081 -0.053842776 -0.082629584
000110 f9 9e e6 3c 73 ea 80 bb 7c 4d 25 3e 16 89 b3 3d
       0.028151976 -0.0039341985 0.16142839 0.087663814
000120 df 4f 34 3e 14 22 ed bd 7f 9c 82 bd d8 aa 8a 3d
       0.17608593 -0.115787655 -0.063775055 0.06770867
000130 a0 dd 21 3e 34 00 3f 3d e3 da 23 be 6b ef 2f 3e
       0.158072 0.046631053 -0.16001467 0.17181174
000140 0d 08 0d be 6f eb c8 3d 7d dc 0b 3e 11 6f e1 3d
       -0.13772602 0.098105304 0.13658328 0.11007512
000150 7d 53 8a 3c c0 3d 05 3d 87 10 06 3d e0 d6 31 be
       0.016885513 0.032529593 0.032730605 -0.17367125
000160 8a b0 e3 bd 25 01 d4 3c dc ec 64 bc 08 6c a2 bd
       -0.111176565 0.025879452 -0.013972487 -0.079307616
000170 e6 c6 de 3d 45 9b e7 3c f7 cd 15 3e c1 fa 9d bc
       0.108777806 0.02827228 0.1462935 -0.019284608
000180 a5 b3 04 bd e3 9a 0d 3e 4b ba 09 be 2f 1d da 3d
       -0.032397885 0.13828616 -0.13449971 0.106500976
000190 d4 29 81 bc 09 74 e2 3d c4 10 60 bd 3e a1 2a 3a
       -0.015767016 0.11057288 -0.05470349 0.00065090123
0001a0 61 00 2f be 4c ec 6c 3d 23 9e 17 3e 85 2e 21 3e
       -0.17089988 0.057842538 0.14806418 0.15740402
0001b0 90 c7 a9 3d d8 37 37 be 33 7b 3b be 0b 16 25 be
       0.08290017 -0.17892396 -0.18308716 -0.1612169
0001c0 ad a8 a9 3d 11 bc fa bd d5 ef 48 3d 88 8d 1e 3d
       0.082841255 -0.12242902 0.049056847 0.038709193
0001d0 d7 e1 58 bd 09 40 2f 3e a7 4f c1 bd 39 8b b2 bd
       -0.052949753 0.17114271 -0.094390206 -0.08717961
0001e0 3c ac b5 3d 55 b7 0b 3e 6e 81 20 3e 39 8b b6 bd
       0.08870742 0.13644154 0.15674374 -0.08913273
0001f0 0d f0 0a 3d 4b b9 d3 3d 7c 7e 21 be 29 bf 5b 3c
       0.033920337 0.10338076 -0.15770906 0.013412275
000200 23 1b f3 3d d7 d9 c2 3c ef 82 09 be d5 eb ca 3a
       0.1187041 0.023785515 -0.13428853 0.001548166
000210 ad 90 c8 bd 6d 6e 94 bd c6 a7 1a 3e 10 2a aa 3d
       -0.0979322 -0.072476245 0.15103063 0.08308804
000220 61 b9 f3 3d 19 ae 3a 3d 52 3c 78 bd b3 d5 1b 3e
       0.119005926 0.04557619 -0.0606044 0.15218239
000230 0b b3 1b bd 66 90 e4 3d 08 45 e8 3d 6e a7 06 3e
       -0.038012546 0.11160354 0.11341292 0.13149807
000240 e3 ae 0b 3e 5f bb 76 3b 74 13 f1 bd 7e 68 22 3d
       0.13640933 0.0037648303 -0.117712885 0.039650433
000250 1c 9c 3c 3c 71 bd 0f 3d 8c e3 bf bd cb 35 2d 3e
       0.011511829 0.035092775 -0.09369573 0.16915052
000260 72 ae 14 3e 76 4c d2 bd ef 90 7d bd b5 77 db 3c
       0.1451967 -0.1026849 -0.061905798 0.02679048
000270 33 11 d4 bd 99 90 07 bc 02 f9 02 3e 5a b2 b9 bd
       -0.10354843 -0.008274221 0.12790301 -0.09067221
000280 6a 97 00 be cf 55 bb bd 15 8b 28 3e 34 e4 18 be
       -0.1255776 -0.09147226 0.16459306 -0.14930803
000290 5d 08 09 be bb 8e 2e 3e 24 6f 2e be 3b 12 29 3e
       -0.13382097 0.17046635 -0.17034584 0.1651086
0002a0 99 79 9c 3d 58 a0 8c 3d b1 c9 17 3e eb 6d fe bd
       0.076403804 0.06866521 0.14823033 -0.12423309
0002b0 db 96 c8 bd 49 fe 89 3d 62 78 80 3d 15 f5 02 3e
       -0.097943984 0.06737954 0.06272961 0.12788804
0002c0 e5 0c 1a be 5e 9a e8 3c 02 a9 28 be 9c ae 24 bd
       -0.15043981 0.02839392 -0.16470721 -0.040205583
0002d0 11 78 36 be 20 05 1c 3e d5 96 2a 3e d6 f0 32 be
       -0.17819239 0.1523633 0.166591 -0.17474684
0002e0 82 ea df 3c e6 83 31 be 53 f4 6d 3d 24 ae bc bd
       0.027333502 -0.17335472 0.058094334 -0.09212902
0002f0 e7 5e ed 3d c1 96 8a 3d 44 08 05 be 06 2d a5 3d
       0.11590367 0.06767035 -0.12991434 0.08065228
000300 1b 65 ce bd f1 d8 4b 3d 3d 78 f3 3d cc 22 d3 3c
       -0.10077878 0.04976744 0.11888168 0.025773428
000310 15 e4 a3 bc 29 0b 0a be a8 3a a7 bd 3f 0c 19 3e
       -0.020006219 -0.1348082 -0.08165485 0.14946078
000320 f0 f8 8e bd 36 3d 94 bd 29 4b 88 bd b2 24 01 3e
       -0.06981075 -0.072382376 -0.06654961 0.12611654
000330 24 40 07 be 07 ea 8f bd 9a 63 12 3e 50 95 0d be
       -0.13208061 -0.07027059 0.14295807 -0.1382649
000340 84 f7 9f bd 12 0e 8d bd 63 36 63 3d 4a d8 61 3c
       -0.07810882 -0.06887449 0.05547179 0.0137844775
000350 14 da fd 3d c3 50 83 bd c0 ea f3 3d f1 ea 4a bc
       0.12395111 -0.064118885 0.119100094 -0.012385116
000360 a8 7c fc bb 4f 43 09 be af 8f 6e 3d 0a 56 fe bd
       -0.00770529 -0.13404582 0.058242496 -0.124187544
000370 1a 53 81 3d 99 c6 f1 3c 58 c2 c9 bd 7b d0 74 3d
       0.063146785 0.029513644 -0.09851521 0.059769135
000380 f9 8e ea 3d 11 fa 2a 3d 31 19 e1 bd 91 b4 f3 3d
       0.11453051 0.04174239 -0.10991133 0.11899675
000390 4a ec 80 3d 1c aa 8e bd 83 35 12 be 46 d8 1d bc
       0.062950686 -0.069660395 -0.14278226 -0.009634083
0003a0 13 22 8d bd e5 30 77 bd d4 b9 eb 3c 5e dc 14 bd
       -0.06891265 -0.060349364 0.028775133 -0.03634297
0003b0 a2 21 0a be 90 ec 8f 3d c0 db 00 be 5b 1c 2b bd
       -0.13489392 0.070275426 -0.12583828 -0.04177509
0003c0 6d d3 b1 3d 44 93 05 be 05 5f a1 3d 8f e0 31 3e
       0.086829044 -0.13044459 0.07879452 0.17370819
0003d0 1a 7c 85 3c 21 5b 18 3d 1e 92 f9 3d 73 40 5a 3d
       0.016294528 0.037196282 0.12186073 0.05328412
0003e0 86 ca 22 3e 1e 73 43 3d ea d6 1f be b2 fe 02 be
       0.15897569 0.047717206 -0.15609327 -0.12792471
0003f0 c5 0c a8 3d 7e 97 15 be 22 65 17 3d f8 d8 08 3d
       0.082055606 -0.14608571 0.036961682 0.033410043

rnn.bias_ih_l0 f4 [32]
000000 b2 49 ba 3d 80 d4 fc bc c9 7b 08 be 31 10 12 3e
       0.090960875 -0.030863047 -0.1332847 0.14263989
000010 96 d6 9b 3d d0 2f d8 bd dd 4a 25 3e b8 80 87 3d
       0.076092884 -0.105559945 0.1614184 0.06616348
000020 84 92 87 3d a8 3c 04 3e c4 df e1 3c 32 6c 1a bb
       0.066197425 0.12913764 0.02757252 -0.0023563025
000030 11 9f 67 3c d1 04 22 be 14 6f f0 bd 28 50 2f 3d
       0.0141370455 -0.1582215 -0.117399365 0.042801052
000040 db 77 e1 bd a2 a5 89 3c cb c4 6e 3d a2 21 c7 3c
       -0.11009189 0.016802613 0.058293145 0.02430803
000050 34 97 1e 3e e9 5b b9 bd 6b ba 8e bd 3e 39 7b bd
       0.15487367 -0.090507336 -0.0696915 -0.061333887
000060 07 d2 37 3d 46 92 a1 3d 36 5e 0f bd f2 68 ae bd
       0.044878032 0.078892276 -0.035001956 -0.085161105
000070 c2 04 20 be 16 90 cd 3c a1 ac 0f 3e 33 99 6f 3d
       -0.15626815 0.02509312 0.14030696 0.05849571

rnn.bias_hh_l0 f4 [32]
000000 2b 18 d2 bd 97 91 97 3d 5f 21 bc 3b ec 07 19 be
       -0.10258516 0.07400816 0.005741283 -0.14944428
000010 1c 06 af bd 3e 4a 1c 3e 3c 69 08 bd 98 a6 62 bd
       -0.08546087 0.15262696 -0.033303484 -0.055334657
000020 e6 b0 82 3a 6d e2 6c 3d 37 63 d8 3d c5 25 e1 3d
       0.0009970933 0.057833124 0.10565799 0.10993532
000030 fe 6b 1b 3e a0 d6 bc 3d ca a3 ae 3c 71 38 14 3d
       0.15177915 0.09220624 0.021318335 0.03618664
000040 00 57 d1 b8 3d 36 89 3d 6d 71 23 be c6 a2 d6 3b
       -9.9821016e-05 0.06699798 -0.15961237 0.006550166
000050 d9 90 09 3e d6 52 98 bc 92 2b 22 3e d7 91 95 3d
       0.13434161 -0.018594187 0.15836933 0.07303207
000060 9e 51 da 3c 16 f3 e4 bc 4d e3 e4 bd a0 55 42 bd
       0.026650246 -0.027947944 -0.11176167 -0.04744494
000070 3c 13 f8 bd b4 c3 62 3d 9b 88 30 3e be 33 ad bd
       -0.12113044 0.05536242 0.17239611 -0.08457135

classifier.weight f4 [5, 32]
000000 e8 6b 06 be 62 9f 7d bd 21 dd 92 3d 39 68 9d 3b
       -0.131271 -0.061919577 0.07171083 0.004803684
000010 f3 44 1b 3e 6f b5 43 3d b8 35 b6 3d e5 63 ae 3b
       0.15163021 0.04778045 0.08896965 0.005321967
000020 09 48 0b 3e e6 2a 9c bd a0 d6 04 3e f4 12 b6 bd
       0.13601698 -0.0762537 0.12972498 -0.08890334
000030 ed 55 76 bd c0 45 db 3d b4 e1 06 3e 9a ca 27 3d
       -0.06014054 0.10706663 0.13172036 0.0409647
000040 d5 da 20 3e b1 5e 2b be ec 59 1a bc 9a fb d1 3c
       0.15708478 -0.1673534 -0.009420853 0.025632668
000050 42 06 0e 3b 90 4c 1e bb 16 dc 81 3c 51 8b 4c bb
       0.002167121 -0.0024154522 0.015852015 -0.0031210969
000060 a8 bb fd bc ef ca 4d 3d 94 08 2f be c5 de b5 3d
       -0.03097327 0.05024236 -0.17093116 0.088803805
000070 89 00 f9 3d eb f6 bc 3d f4 d2 a1 3c d4 4d 87 3d
       0.12158305 0.09226783 0.01975391 0.066066414
000080 cf 58 a9 bd 63 2a 8d 3c da be 0f bd 41 f4 21 3e
       -0.08268892 0.017232126 -0.03509412 0.15815832
000090 e0 b8 be 3d d2 5a 38 bd 20 60 62 3d a5 b9 49 3e
       0.09312606 -0.045008488 0.055267453 0.19699724
0000a0 4e 31 58 bd 59 f2 92 bd be c3 02 be 4b 1b 4d bd
       -0.052781396 -0.071751304 -0.12769982 -0.050074857
0000b0 e3 b8 27 be 54 63 15 be 6b 0c ba bd 7b 15 3a 3e
       -0.16379122 -0.14588672 -0.090844 0.18172257
0000c0 de 2e 09 3e 2a b9 37 be 7b 58 a1 3d 70 ff fe 3d
       0.13396785 -0.17941728 0.078782044 0.124510646
0000d0 01 1b 6d 3d eb 80 09 bd 9d 82 50 3d ec b8 62 3d
       0.05788708 -0.03357021 0.050905813 0.055352136
0000e0 5d 76 ca bd fe 89 45 3e 9a 6c 9c bd 69 58 12 3e
       -0.09885857 0.19290921 -0.076379016 0.14291538
0000f0 93 23 3a 3c 5f d6 f3 3c a8 b6 26 3e d6 74 79 bd
       0.011361021 0.029765306 0.16280615 -0.06090244
000100 75 01 a0 bc f3 4b 0b be 2a 51 02 be a4 c5 cc bb
       -0.019531945 -0.13603191 -0.12726274 -0.0062491465
000110 39 4b b1 bc 26 49 03 bd 94 6e 00 be 47 7c e4 3d
       -0.021642314 -0.03205218 -0.12542182 0.111565165
000120 b9 66 08 3e 7d 17 67 bd 64 55 c9 bd 4f 7b f7 bd
       0.13320436 -0.056418885 -0.0983074 -0.12084066
000130 db 56 7e 3d 2a 7a a5 3b 44 ff 69 3b d4 01 27 be
       0.06209455 0.0050499635 0.0035705129 -0.16309291
000140 3b 8d 27 3e 53 c9 16 be 4f 14 12 bd 6b 22 bc bd
       0.16362469 -0.14725237 -0.0356639 -0.09186252
000150 75 30 cc 3d 31 2b 00 3e 77 8f 58 3d 58 a3 b2 3d
       0.0997018 0.12516476 0.052871194 0.087225616
000160 b2 50 49 bc c2 6a 70 3d c6 79 e5 3d 08 35 2e be
       -0.012287306 0.058695562 0.11204867 -0.17012417
000170 14 a7 1b 3d 6c 21 14 3e 94 c9 dd bd e2 b2 9e bb
       0.038001135 0.14465874 -0.108294636 -0.004843102
000180 df ca 14 3e 74 09 e2 bd 15 03 0f be 2e 4a 3e be
       0.14530514 -0.11036959 -0.1396602 -0.18582985
000190 5c ae 50 3d 9a 3e 7d bc 81 bb 4d 3e b1 95 24 be
       0.050947532 -0.01545682 0.20091058 -0.16072728
0001a0 d8 6d 4f be 69 e2 09 be f8 79 d2 3d de 44 1e 3e
       -0.20256746 -0.13465275 0.1027717 0.15455958
0001b0 d6 bf b2 3d a9 43 d6 3d 88 8f a4 ba 3d a7 8e bd
       0.08727996 0.10462124 -0.0012554983 -0.06965492
0001c0 71 af c2 bd 53 81 40 bd b8 66 46 3d 5e 69 13 be
       -0.09506119 -0.046998333 0.048437804 -0.14395663
0001d0 94 d7 b8 bd 09 52 15 be 8e 3e 4b 3e 65 0f 88 bd
       -0.09025493 -0.14582075 0.19848081 -0.06643561
0001e0 6f 10 14 3e c2 36 04 3e 14 6f 9b bd 99 71 90 bd
       0.14459394 0.12911513 -0.07589546 -0.07052917
0001f0 e6 57 19 3e f7 59 8b 3d 66 8b 09 3c 3f e4 a1 bd
       0.14974937 0.06804269 0.008395052 -0.079048626
000200 0f 92 d4 bd e3 42 2f bd e4 c7 de bd b6 5e 11 bd
       -0.10379421 -0.042788398 -0.1087797 -0.035490714
000210 14 ba ac bd dd 46 48 3e 8f e7 a4 bd 8c cc 91 3d
       -0.08433929 0.19558282 -0.08051979 0.07119092
000220 f7 16 3c be c4 12 03 3e 42 43 87 bd ff 57 2e be
       -0.18368135 0.12800127 -0.06604625 -0.17025755
000230 ca 57 b8 bd e3 0c d9 bc 72 b8 01 3e 85 dd b5 bd
       -0.090011194 -0.026495403 0.12668017 -0.08880142
000240 a2 ec a6 3c 1c 38 bb bd 80 4b ad 3d 49 7c 77 bd
       0.020376507 -0.091415614 0.08461666 -0.060421262
000250 b8 82 1e be b6 b0 1f 3e 1b 77 84 3d f2 1f 1d be
       -0.15479553 0.15594754 0.0646803 -0.15344217
000260 d1 69 11 be 9a fd 03 3c 99 b8 16 be 78 74 14 bd
       -0.14200522 0.008056069 -0.14718856 -0.036243886
000270 f0 ea 69 3d 62 6a 82 bd e6 7c 18 be 8c ef 0c be
       0.05710882 -0.06367947 -0.14891395 -0.13763255

classifier.bias f4 [5]
000000 b5 34 0a 3e 8a 5e 99 bd 50 5b 45 bd 85 a2 4d be
       0.13496669 -0.07488735 -0.048182786 -0.20081528
000010 a6 59 1c bd
       -0.038171433
